vanilla_models/Cora/5_3f_85/split4/init0/GAT_dp0_5_5e_4_f0.pt (torch, 372919 bytes, 10 tensors)

layer_list.conv1.att_src f4 [1, 8, 8]
000000 47 7b 00 3e 9a 15 78 be 11 c5 ba bd ef 6c 1c bf
       0.12547027 -0.2422699 -0.09119619 -0.6110372
000010 0e 33 4f 3f 4d 40 97 be f8 e4 c7 3e 59 86 8b be
       0.8093728 -0.29541245 0.39041877 -0.27250937
000020 e5 0b b0 be 81 45 42 bf aa 5b 42 bf ff f7 23 3f
       -0.34384075 -0.75887305 -0.7592112 0.64050287
000030 a2 b5 b8 3e 0a d3 28 bf ea 41 dc be 7f d8 52 bf
       0.36076075 -0.6594702 -0.43019038 -0.82361597
000040 af 2c b6 be 93 3d 4b be 04 7d bb be 6e 34 af 3e
       -0.35580966 -0.19847707 -0.36618817 0.34219688
000050 9e 08 1c bf 6b 73 c3 be 6f d7 ab bd 91 65 76 be
       -0.6095065 -0.38173994 -0.083907 -0.24062182
000060 bc 43 33 bf eb 7a 1a bf 99 95 f3 be aa b4 4a bf
       -0.7002523 -0.6034381 -0.4757507 -0.7918192
000070 1e 8c 05 3c 07 fa 95 3e dc fd 81 3c c7 75 25 bf
       0.008151082 0.29292318 0.01586812 -0.6463284
000080 ce f1 cf 3e f2 32 53 3f 24 f3 80 3f ed 24 8f bd
       0.4061417 0.8249961 1.0074201 -0.06989465
000090 4d b9 3f 3f 85 8a 9b 3d b7 d3 d5 3c 8f ed 91 bf
       0.7489212 0.0759478 0.02610193 -1.1400622
0000a0 6f 9e 52 bf f7 e9 4d bf e5 9b 93 3f 0a ec 9a bf
       -0.82273 -0.8043513 1.153195 -1.2103283
0000b0 a6 8f a6 3d aa 36 92 3f bf 72 48 bf 31 6f 6a 3d
       0.081328675 1.1422932 -0.7830009 0.057234947
0000c0 1c 9a 54 3f 6d c3 aa 3e 2c 09 48 bf 8e fe 5f 3f
       0.8304765 0.33352223 -0.78138995 0.87497795
0000d0 19 b7 81 3f ad a5 e4 be e5 79 36 3f cc ab 97 3e
       1.0134002 -0.4465765 0.71279746 0.29623258
0000e0 94 b6 8c 3e da d0 14 bd 1a 3e 7e 3e 84 61 66 bd
       0.27483046 -0.03633199 0.24828377 -0.056245342
0000f0 01 4f 91 3e 9a 8b 2e be 64 f0 a0 be 59 c1 8b 3d
       0.28380588 -0.17045441 -0.31433403 0.068239875

layer_list.conv1.att_dst f4 [1, 8, 8]
000000 f8 41 e3 3d d1 11 12 bd 37 08 3c 3c 17 92 2a be
       0.11096567 -0.035661522 0.011476568 -0.16657291
000010 0e e0 32 3e 90 7c ae bd 3c 2d 96 3d 4f 7c 99 bd
       0.17468283 -0.08519852 0.073328465 -0.07494413
000020 c9 dd bf 3a c0 f6 47 be bd 8e 77 be 9a 20 42 3d
       0.0014638241 -0.19527721 -0.24175544 0.047394373
000030 16 71 2a bd b0 8e cb bc db 7b 17 be db 8b 26 be
       -0.041611753 -0.024848312 -0.14793341 -0.16264288
000040 0f 2a fd bd 95 31 10 bd f2 6a 14 be 4e 6c 1f 3e
       -0.12361538 -0.035203535 -0.14493921 0.15568659
000050 f8 37 29 be 65 ff 4b be 8b 91 32 bc 04 92 da bd
       -0.16525257 -0.19921644 -0.010898958 -0.106723815
000060 f4 5e 6c be 83 df cf bc db ab 05 be c4 10 49 be
       -0.23083097 -0.025375133 -0.13053839 -0.19635302
000070 db 13 2c 3d c6 20 c2 3d ca 2e 8e bd 9a 95 50 be
       0.042011123 0.09478907 -0.06942518 -0.20369568
000080 57 d0 11 bd 1f 6e 04 3e fe 87 41 3e 6c 9b c9 bd
       -0.03559908 0.12932633 0.18899533 -0.098440975
000090 b8 76 37 3d 62 2b 07 be 5f 05 6b 3d 96 9c 52 be
       0.044790953 -0.13200143 0.05737817 -0.20567545
0000a0 fe f5 17 be 8d f5 4a be 0e d6 79 3e d9 d2 59 be
       -0.14839932 -0.19820233 0.24398062 -0.21271838
0000b0 87 37 97 bd d8 46 70 3e 74 d0 5e be 8b cc 8f bd
       -0.07383638 0.23464525 -0.21759206 -0.07021435
0000c0 7d 45 ec 3d e0 f5 bf 3a cc 87 6a bd 93 dc 98 3d
       0.11536691 0.001464542 -0.057258412 0.07463946
0000d0 e8 ef 0c 3e da cc 6e bd 15 83 8a 3d 79 24 2c 3d
       0.13763392 -0.05830083 0.06763283 0.04202697
0000e0 08 2a 28 bd 8a e3 9f bc db e3 3f 3d ce f6 00 bd
       -0.04105571 -0.019517679 0.04684816 -0.03148537
0000f0 a7 b6 12 3d 41 ea c9 bd f6 87 cc bd 2a 20 9f bd
       0.035818722 -0.098591335 -0.0998687 -0.07769807

layer_list.conv1.bias f4 [64]
000000 fd 79 bc 39 ce 94 b3 3c 3f 07 14 3c 1c b2 2f 3b
       0.00035949043 0.021921542 0.009034931 0.0026809042
000010 31 62 d2 3c dc a4 44 3c 76 73 c8 bc fd 57 57 3c
       0.025681587 0.012002196 -0.024469119 0.013143537
000020 d5 da 03 bd 2c ab a7 3b 85 9b d7 3c 30 76 f2 3b
       -0.032191116 0.005116841 0.026319275 0.007399343
000030 4a a1 ca 3c 6d 4f 5a 3d 9e 9b 31 3d 30 0d 34 3c
       0.024735112 0.053298403 0.0433613 0.010989472
000040 2a 4f a3 bc de 6f c8 bb 1b 96 40 bc 31 4b 3d bb
       -0.01993521 -0.0061168512 -0.011754538 -0.002888393
000050 e9 52 80 bc e1 fb 51 bb 2d c2 0b 3a c3 45 32 bb
       -0.015664535 -0.0032041 0.00053313636 -0.0027202226
000060 88 d1 c0 3a 6a 77 83 3c c5 f4 83 3c f3 6a 2c 3a
       0.0014710883 0.016048152 0.016107926 0.0006577216
000070 b8 fc 3e bb 50 a3 9e 3b 0c 6e f2 3a 01 d6 ab 3c
       -0.0029142331 0.0048412457 0.0018495931 0.020976068
000080 21 f7 4c 3c cf ae c5 bc b7 39 cf 3c 47 94 e0 3b
       0.012510092 -0.024131207 0.025296075 0.0068536135
000090 15 a0 69 ba 96 1b 19 bb ba 84 0e bb ee 0e 12 bb
       -0.0008912099 -0.002336239 -0.0021746592 -0.002228673
0000a0 bc 2a 82 bc 9d ac 84 3c ab 31 8a bc b6 42 be 3c
       -0.015889518 0.01619559 -0.016869387 0.02322517
0000b0 9f 91 e5 3c fd c2 bf 3c d9 de 07 3c a1 ab 9e 3b
       0.02802354 0.023408407 0.008292877 0.004842237
0000c0 3c 58 55 3b 54 aa 15 bc 5d fb 57 3d ce cb 83 3c
       0.0032553812 -0.009134848 0.052729953 0.016088393
0000d0 06 c5 08 bd 79 a9 1e 3d 46 2c 0a bd 14 29 06 bb
       -0.03339102 0.03873584 -0.03373363 -0.0020471262
0000e0 9e 68 df 3c eb 53 cc 3a da 69 62 bc 9b f2 dd 3b
       0.027271565 0.0015588974 -0.013819182 0.0067733056
0000f0 fd b0 b4 3a 2d 93 10 3d bf e1 bd 3c 5f 3d d3 3c
       0.0013785657 0.035296608 0.023178933 0.0257861

layer_list.conv1.lin_src.weight f4 [64, 1433]
000000 03 4b 2e 3d ac df 57 3d 6f 44 a6 3d a6 c8 1a 3e
       0.042552005 0.052703544 0.081185214 0.15115604
000010 18 cb c7 be 19 3a 17 3d 6d 26 a0 bd ad 31 26 3c
       -0.39022136 0.03692064 -0.07819829 0.01014368
000020 dd 87 08 bd 07 7d 1b 3d fc 3c 73 3a e4 ed d0 bc
       -0.033332694 0.037961032 0.0009278802 -0.02550406
000030 35 90 e4 3c 18 22 f7 3c 07 bb be 3c 5c f3 4c bd
       0.027900795 0.030167624 0.023282541 -0.050036773
000040 b5 92 a4 bc bf c0 d0 bc c7 85 b2 3b 82 71 5b bd
       -0.020089487 -0.025482533 0.0054480764 -0.053575046
000050 e8 3b 6c 3a 0e 19 cd 3c e4 70 1b bc 8a 4e 46 3d
       0.0009011612 0.025036361 -0.009487364 0.048414744
000060 31 35 37 bb 5a a7 c9 3c 2e e7 04 be 15 05 e9 bc
       -0.0027955289 0.024615932 -0.12978813 -0.028444806
000070 b2 99 12 bd 21 87 7e 3d 2d 57 4f 3d 9a 9c f3 3c
       -0.035791107 0.062140588 0.050620247 0.02973776
000080 31 58 6b 39 c4 18 eb 3b 0e 15 83 bd 5d 59 b1 bd
       0.000224442 0.007174583 -0.064005 -0.08659623
000090 5f 82 ad 3b 30 aa 93 bc 15 90 8c bd 05 ad 17 3e
       0.0052950825 -0.018025488 -0.06863419 0.14812095
0000a0 de 8a 6c be 1d 6c 46 bd 69 b5 60 3d 3d 2f ff bc
       -0.23099849 -0.04844295 0.054860506 -0.031150455
0000b0 d0 c1 0c be d5 57 81 3c ee f6 20 bc 3b 5f ce 3d
       -0.13745809 0.015788952 -0.009824498 0.100767575
0000c0 1c 0b db bc 1f 9d fe 3c 5e c9 b1 3c 17 fe fd bc
       -0.026738696 0.03108078 0.021702465 -0.031004949
0000d0 89 8c 0b 3d b9 fa 0f bd ff f5 cc bb db 35 b3 bd
       0.03406957 -0.035151217 -0.006254911 -0.087505065
0000e0 48 16 c1 3d e2 46 89 ba c1 87 25 3b 59 58 a7 3b
       0.09428078 -0.0010473395 0.0025257918 0.0051069674
0000f0 74 69 2e bd 2e 00 6d bd bb 7a 87 bd 19 4d 25 bc
       -0.042581037 -0.0578615 -0.06615206 -0.010089182
000100 b2 c7 88 3d ad d7 99 3d 5a f5 95 3c 4b 4c 0b be
       0.06678714 0.0751184 0.01830547 -0.13603322
000110 1c 47 c9 bc ab ee 67 3c d7 24 87 3c 03 c0 7d 3c
       -0.02457004 0.014156024 0.016497059 0.015487674
000120 09 f5 65 b8 1b 09 14 3c a7 7b 81 b9 d7 34 19 3c
       -5.482606e-05 0.009035374 -0.00024696926 0.009350977
000130 d4 44 e1 3b 8b 23 d1 3c 3d c8 ae bd df 14 31 3d
       0.00687466 0.025529644 -0.08534286 0.043232795
000140 71 21 7f bc aa a3 e8 3d 72 9d 39 bd a2 f4 56 3d
       -0.015571938 0.113593414 -0.045316167 0.052479394
000150 ab 1d ca bc b8 1d 98 3d 48 be 19 3c d1 ae fe bc
       -0.02467235 0.074275434 0.0093837455 -0.031089218
000160 96 ad 1a bd 8b 04 05 bd 4b 22 c1 bb 89 4a 90 3b
       -0.0377632 -0.032475036 -0.0058939806 0.0044034165
000170 6d c5 a7 3c f7 2a cf 3c 71 83 9f 3d 24 35 e1 bb
       0.020479882 0.025289042 0.07788742 -0.00687279
000180 ca 3d 2e 3d b4 0a 1a 3d 4c 6f ad bc 40 40 08 be
       0.042539395 0.037607864 -0.021171235 -0.1330576
000190 2c 91 c3 bc 13 7d 20 bc 61 a2 77 3d 36 61 88 3d
       -0.023872934 -0.009795445 0.06045759 0.066591665
0001a0 be 35 06 3e 4a bc a1 3c ad 86 a6 ba 79 0c c6 ba
       0.13106439 0.019743104 -0.0012704931 -0.0015109918
0001b0 7d b8 90 3c df b7 3c 3b 89 5c 1b 3d 04 4a 9a bb
       0.017666096 0.002879612 0.037930045 -0.0047085304
0001c0 bf fd be 3b 78 11 8e bd 8e 72 91 3c 02 74 ca 3c
       0.0058285887 -0.06936926 0.01775482 0.02471352
0001d0 f7 fa 13 3c 7d b1 72 3d c7 ac 49 be ee d8 f7 bd
       0.009032003 0.059251297 -0.19694816 -0.12101923
0001e0 b1 7f 86 bd 7b 28 1f 3d e0 32 29 3d 5d 20 01 be
       -0.06567324 0.038856965 0.041308284 -0.12610002
0001f0 10 2a cc 3b 3b f4 05 3e 3e 58 1a 3d bc 86 9f ba
       0.0062306 0.13081448 0.03768181 -0.0012170891
000200 ea b9 db 3d 84 56 77 bb 43 54 50 bd 0b 8d a2 bd
       0.1072882 -0.0037740776 -0.05086161 -0.07937058
000210 b8 ef 3a 3d 97 75 47 3d 54 99 36 bd aa 51 ca 3d
       0.04563877 0.048696127 -0.04457982 0.098788574
000220 ee 61 ae 3c 36 c3 d2 3c f7 76 0e bd 94 b7 8a 3c
       0.02128693 0.02572785 -0.034781422 0.01693324
000230 f5 32 9a be 84 bb cd bc e5 2d c1 3d 9c 71 24 3c
       -0.30117002 -0.025113828 0.09432582 0.010036852
000240 ef c6 a4 bb 70 84 b9 bb ee 87 0c bc 18 70 d1 bc
       -0.0050285975 -0.0056615397 -0.00857733 -0.025566146
000250 8b 6a a3 bc e4 61 db bd ca 35 6a 3d 02 be cc 3d
       -0.019948265 -0.107120305 0.057180203 0.099971786
000260 01 51 32 3c 17 be 25 3b e3 1c 52 bd 79 59 ea 3c
       0.010883571 0.0025290304 -0.05129708 0.028607117
000270 18 49 8e 3d 8e 2e f1 3c 40 6c eb bd e5 39 9c bd
       0.06947535 0.029441144 -0.114952564 -0.0762823
000280 18 a9 fd 3b 39 7b 81 ba 69 5b d8 bc 97 ad 7e bb
       0.007741105 -0.0009878642 -0.026410775 -0.0038860792
000290 c6 ef 25 bc 96 1f aa 3c 9b c7 ef 3c 93 34 bd bd
       -0.010127967 0.020767014 0.029269984 -0.09238543
0002a0 3a 25 1a 3e 42 fd 13 bd 9e 7f 16 bc 1e 22 a2 ba
       0.15053263 -0.036130197 -0.0091857 -0.0012369787
0002b0 15 a6 4a 3d 63 97 38 bc 84 42 a3 bc 43 27 55 bc
       0.049474794 -0.011266562 -0.019929178 -0.013009849
0002c0 6c d0 a1 3c e8 a0 82 3d 13 a5 ae bc 90 04 80 bc
       0.019752704 0.06378347 -0.021318948 -0.015627176
0002d0 af c1 c2 3c 06 61 57 ba ed 8f 07 3d 17 ee 8d bc
       0.023773996 -0.0008216057 0.033096243 -0.017325444
0002e0 89 9c 12 3c 44 de 87 bc d5 32 e2 bd 92 14 21 be
       0.008948454 -0.016585477 -0.11044852 -0.15730503
0002f0 34 93 c6 3d df 13 98 3c 58 ad 84 3c 23 ab f3 bd
       0.096960455 0.018564163 0.016195938 -0.11897876
000300 df 07 f1 bd c9 1e c8 3b 90 51 64 bd 02 49 aa bc
       -0.117690794 0.0061071855 -0.055741847 -0.020786766
000310 36 6f 58 bd 2c 4e 0f 3d 62 ab 1c 3d 0c a7 46 3d
       -0.052840434 0.03498666 0.03824938 0.048499152
000320 ab c4 35 3c ee fd 2d 3c 46 e4 14 3d 89 9d 7a bd
       0.011094253 0.010619624 0.03635051 -0.061185393
000330 b4 c5 73 3c 7b 2c 6a 3e bb 64 29 bc bc bf 44 3d
       0.014878679 0.2286853 -0.010338957 0.048034415
000340 27 50 f4 bc f4 29 0c bc 5c a2 27 bd 52 0b 54 3e
       -0.029823376 -0.008554924 -0.040926322 0.20707443
000350 b9 ea 05 3e 4f 63 ce 3b 52 22 9e ba 1f b6 9b bc
       0.13077821 0.0062984596 -0.0012064672 -0.01900774
000360 26 0e 51 3c ec be 15 3d 39 cc 79 3d b1 98 9b bc
       0.012759721 0.03655903 0.060985778 -0.018993707
000370 bd fc 1b bd cb 64 b5 3b ae ba 29 bd 33 a8 02 bb
       -0.038082827 0.005535697 -0.041437797 -0.001993668
000380 7b ca 9a bd c7 76 f5 bd b6 a5 16 3d 7d 38 46 bc
       -0.07558151 -0.119855456 0.036779128 -0.012098429
000390 64 2c b1 3c 7e f8 0d 3d 3b 05 07 bd 92 ca a6 bc
       0.021627612 0.03466081 -0.032963973 -0.020360265
0003a0 e8 66 b7 bb 4b 21 14 bd e2 a1 37 be c1 14 32 bd
       -0.005596984 -0.036164563 -0.17932847 -0.043476824
0003b0 7d 53 dc bd 9f c7 f7 3d ff fd 10 3e 86 80 6a 3b
       -0.107581116 0.120986216 0.14159392 0.0035782172
0003c0 2f 53 85 bd dc f8 cf 3d a3 ca c7 bb f7 41 cf 3c
       -0.06510007 0.10154888 -0.006097154 0.02530001
0003d0 83 f8 86 3d b6 cb 3f 3d 5a c4 3f 3c 74 bf 19 bd
       0.065903686 0.046825133 0.011704529 -0.0375361
0003e0 75 a7 a4 bd 5f 17 69 3d 4d dd 6c bd 6e 5d 9d bb
       -0.080397524 0.056907054 -0.057828236 -0.0048023975
0003f0 b5 7b 6e bd 66 c8 0e bb bb a3 c5 3c 6e e7 e4 bc
       -0.058223445 -0.0021786927 0.024125924 -0.027942386

layer_list.conv1.lin_dst.weight f4 [64, 1433]
000000 03 4b 2e 3d ac df 57 3d 6f 44 a6 3d a6 c8 1a 3e
       0.042552005 0.052703544 0.081185214 0.15115604
000010 18 cb c7 be 19 3a 17 3d 6d 26 a0 bd ad 31 26 3c
       -0.39022136 0.03692064 -0.07819829 0.01014368
000020 dd 87 08 bd 07 7d 1b 3d fc 3c 73 3a e4 ed d0 bc
       -0.033332694 0.037961032 0.0009278802 -0.02550406
000030 35 90 e4 3c 18 22 f7 3c 07 bb be 3c 5c f3 4c bd
       0.027900795 0.030167624 0.023282541 -0.050036773
000040 b5 92 a4 bc bf c0 d0 bc c7 85 b2 3b 82 71 5b bd
       -0.020089487 -0.025482533 0.0054480764 -0.053575046
000050 e8 3b 6c 3a 0e 19 cd 3c e4 70 1b bc 8a 4e 46 3d
       0.0009011612 0.025036361 -0.009487364 0.048414744
000060 31 35 37 bb 5a a7 c9 3c 2e e7 04 be 15 05 e9 bc
       -0.0027955289 0.024615932 -0.12978813 -0.028444806
000070 b2 99 12 bd 21 87 7e 3d 2d 57 4f 3d 9a 9c f3 3c
       -0.035791107 0.062140588 0.050620247 0.02973776
000080 31 58 6b 39 c4 18 eb 3b 0e 15 83 bd 5d 59 b1 bd
       0.000224442 0.007174583 -0.064005 -0.08659623
000090 5f 82 ad 3b 30 aa 93 bc 15 90 8c bd 05 ad 17 3e
       0.0052950825 -0.018025488 -0.06863419 0.14812095
0000a0 de 8a 6c be 1d 6c 46 bd 69 b5 60 3d 3d 2f ff bc
       -0.23099849 -0.04844295 0.054860506 -0.031150455
0000b0 d0 c1 0c be d5 57 81 3c ee f6 20 bc 3b 5f ce 3d
       -0.13745809 0.015788952 -0.009824498 0.100767575
0000c0 1c 0b db bc 1f 9d fe 3c 5e c9 b1 3c 17 fe fd bc
       -0.026738696 0.03108078 0.021702465 -0.031004949
0000d0 89 8c 0b 3d b9 fa 0f bd ff f5 cc bb db 35 b3 bd
       0.03406957 -0.035151217 -0.006254911 -0.087505065
0000e0 48 16 c1 3d e2 46 89 ba c1 87 25 3b 59 58 a7 3b
       0.09428078 -0.0010473395 0.0025257918 0.0051069674
0000f0 74 69 2e bd 2e 00 6d bd bb 7a 87 bd 19 4d 25 bc
       -0.042581037 -0.0578615 -0.06615206 -0.010089182
000100 b2 c7 88 3d ad d7 99 3d 5a f5 95 3c 4b 4c 0b be
       0.06678714 0.0751184 0.01830547 -0.13603322
000110 1c 47 c9 bc ab ee 67 3c d7 24 87 3c 03 c0 7d 3c
       -0.02457004 0.014156024 0.016497059 0.015487674
000120 09 f5 65 b8 1b 09 14 3c a7 7b 81 b9 d7 34 19 3c
       -5.482606e-05 0.009035374 -0.00024696926 0.009350977
000130 d4 44 e1 3b 8b 23 d1 3c 3d c8 ae bd df 14 31 3d
       0.00687466 0.025529644 -0.08534286 0.043232795
000140 71 21 7f bc aa a3 e8 3d 72 9d 39 bd a2 f4 56 3d
       -0.015571938 0.113593414 -0.045316167 0.052479394
000150 ab 1d ca bc b8 1d 98 3d 48 be 19 3c d1 ae fe bc
       -0.02467235 0.074275434 0.0093837455 -0.031089218
000160 96 ad 1a bd 8b 04 05 bd 4b 22 c1 bb 89 4a 90 3b
       -0.0377632 -0.032475036 -0.0058939806 0.0044034165
000170 6d c5 a7 3c f7 2a cf 3c 71 83 9f 3d 24 35 e1 bb
       0.020479882 0.025289042 0.07788742 -0.00687279
000180 ca 3d 2e 3d b4 0a 1a 3d 4c 6f ad bc 40 40 08 be
       0.042539395 0.037607864 -0.021171235 -0.1330576
000190 2c 91 c3 bc 13 7d 20 bc 61 a2 77 3d 36 61 88 3d
       -0.023872934 -0.009795445 0.06045759 0.066591665
0001a0 be 35 06 3e 4a bc a1 3c ad 86 a6 ba 79 0c c6 ba
       0.13106439 0.019743104 -0.0012704931 -0.0015109918
0001b0 7d b8 90 3c df b7 3c 3b 89 5c 1b 3d 04 4a 9a bb
       0.017666096 0.002879612 0.037930045 -0.0047085304
0001c0 bf fd be 3b 78 11 8e bd 8e 72 91 3c 02 74 ca 3c
       0.0058285887 -0.06936926 0.01775482 0.02471352
0001d0 f7 fa 13 3c 7d b1 72 3d c7 ac 49 be ee d8 f7 bd
       0.009032003 0.059251297 -0.19694816 -0.12101923
0001e0 b1 7f 86 bd 7b 28 1f 3d e0 32 29 3d 5d 20 01 be
       -0.06567324 0.038856965 0.041308284 -0.12610002
0001f0 10 2a cc 3b 3b f4 05 3e 3e 58 1a 3d bc 86 9f ba
       0.0062306 0.13081448 0.03768181 -0.0012170891
000200 ea b9 db 3d 84 56 77 bb 43 54 50 bd 0b 8d a2 bd
       0.1072882 -0.0037740776 -0.05086161 -0.07937058
000210 b8 ef 3a 3d 97 75 47 3d 54 99 36 bd aa 51 ca 3d
       0.04563877 0.048696127 -0.04457982 0.098788574
000220 ee 61 ae 3c 36 c3 d2 3c f7 76 0e bd 94 b7 8a 3c
       0.02128693 0.02572785 -0.034781422 0.01693324
000230 f5 32 9a be 84 bb cd bc e5 2d c1 3d 9c 71 24 3c
       -0.30117002 -0.025113828 0.09432582 0.010036852
000240 ef c6 a4 bb 70 84 b9 bb ee 87 0c bc 18 70 d1 bc
       -0.0050285975 -0.0056615397 -0.00857733 -0.025566146
000250 8b 6a a3 bc e4 61 db bd ca 35 6a 3d 02 be cc 3d
       -0.019948265 -0.107120305 0.057180203 0.099971786
000260 01 51 32 3c 17 be 25 3b e3 1c 52 bd 79 59 ea 3c
       0.010883571 0.0025290304 -0.05129708 0.028607117
000270 18 49 8e 3d 8e 2e f1 3c 40 6c eb bd e5 39 9c bd
       0.06947535 0.029441144 -0.114952564 -0.0762823
000280 18 a9 fd 3b 39 7b 81 ba 69 5b d8 bc 97 ad 7e bb
       0.007741105 -0.0009878642 -0.026410775 -0.0038860792
000290 c6 ef 25 bc 96 1f aa 3c 9b c7 ef 3c 93 34 bd bd
       -0.010127967 0.020767014 0.029269984 -0.09238543
0002a0 3a 25 1a 3e 42 fd 13 bd 9e 7f 16 bc 1e 22 a2 ba
       0.15053263 -0.036130197 -0.0091857 -0.0012369787
0002b0 15 a6 4a 3d 63 97 38 bc 84 42 a3 bc 43 27 55 bc
       0.049474794 -0.011266562 -0.019929178 -0.013009849
0002c0 6c d0 a1 3c e8 a0 82 3d 13 a5 ae bc 90 04 80 bc
       0.019752704 0.06378347 -0.021318948 -0.015627176
0002d0 af c1 c2 3c 06 61 57 ba ed 8f 07 3d 17 ee 8d bc
       0.023773996 -0.0008216057 0.033096243 -0.017325444
0002e0 89 9c 12 3c 44 de 87 bc d5 32 e2 bd 92 14 21 be
       0.008948454 -0.016585477 -0.11044852 -0.15730503
0002f0 34 93 c6 3d df 13 98 3c 58 ad 84 3c 23 ab f3 bd
       0.096960455 0.018564163 0.016195938 -0.11897876
000300 df 07 f1 bd c9 1e c8 3b 90 51 64 bd 02 49 aa bc
       -0.117690794 0.0061071855 -0.055741847 -0.020786766
000310 36 6f 58 bd 2c 4e 0f 3d 62 ab 1c 3d 0c a7 46 3d
       -0.052840434 0.03498666 0.03824938 0.048499152
000320 ab c4 35 3c ee fd 2d 3c 46 e4 14 3d 89 9d 7a bd
       0.011094253 0.010619624 0.03635051 -0.061185393
000330 b4 c5 73 3c 7b 2c 6a 3e bb 64 29 bc bc bf 44 3d
       0.014878679 0.2286853 -0.010338957 0.048034415
000340 27 50 f4 bc f4 29 0c bc 5c a2 27 bd 52 0b 54 3e
       -0.029823376 -0.008554924 -0.040926322 0.20707443
000350 b9 ea 05 3e 4f 63 ce 3b 52 22 9e ba 1f b6 9b bc
       0.13077821 0.0062984596 -0.0012064672 -0.01900774
000360 26 0e 51 3c ec be 15 3d 39 cc 79 3d b1 98 9b bc
       0.012759721 0.03655903 0.060985778 -0.018993707
000370 bd fc 1b bd cb 64 b5 3b ae ba 29 bd 33 a8 02 bb
       -0.038082827 0.005535697 -0.041437797 -0.001993668
000380 7b ca 9a bd c7 76 f5 bd b6 a5 16 3d 7d 38 46 bc
       -0.07558151 -0.119855456 0.036779128 -0.012098429
000390 64 2c b1 3c 7e f8 0d 3d 3b 05 07 bd 92 ca a6 bc
       0.021627612 0.03466081 -0.032963973 -0.020360265
0003a0 e8 66 b7 bb 4b 21 14 bd e2 a1 37 be c1 14 32 bd
       -0.005596984 -0.036164563 -0.17932847 -0.043476824
0003b0 7d 53 dc bd 9f c7 f7 3d ff fd 10 3e 86 80 6a 3b
       -0.107581116 0.120986216 0.14159392 0.0035782172
0003c0 2f 53 85 bd dc f8 cf 3d a3 ca c7 bb f7 41 cf 3c
       -0.06510007 0.10154888 -0.006097154 0.02530001
0003d0 83 f8 86 3d b6 cb 3f 3d 5a c4 3f 3c 74 bf 19 bd
       0.065903686 0.046825133 0.011704529 -0.0375361
0003e0 75 a7 a4 bd 5f 17 69 3d 4d dd 6c bd 6e 5d 9d bb
       -0.080397524 0.056907054 -0.057828236 -0.0048023975
0003f0 b5 7b 6e bd 66 c8 0e bb bb a3 c5 3c 6e e7 e4 bc
       -0.058223445 -0.0021786927 0.024125924 -0.027942386

layer_list.conv2.att_src f4 [1, 1, 7]
000000 a5 b2 5a be 64 d2 e0 bd 7a 46 94 be fe c1 94 be
       -0.2135721 -0.10977629 -0.2896002 -0.29054254
000010 85 fd 5a be b8 c4 50 be b7 07 12 be
       -0.21385773 -0.20387542 -0.14260755

layer_list.conv2.att_dst f4 [1, 1, 7]
000000 98 8d 06 3e 01 d6 17 3f fc 64 01 be 50 b7 4c 3e
       0.13139951 0.5931092 -0.12636179 0.19991803
000010 6d c5 74 3e d8 cd de 3e 78 17 01 3f
       0.23903437 0.4351642 0.50426435

layer_list.conv2.bias f4 [7]
000000 ef 21 51 be 77 99 27 bf 80 96 4f be 9f 59 34 3f
       -0.20423101 -0.65468544 -0.20272255 0.7044925
000010 d1 a9 8c 3d 4b 02 5e be 8a e3 30 bf
       0.068683274 -0.21680562 -0.690972

layer_list.conv2.lin_src.weight f4 [7, 64]
000000 78 89 98 3f 52 f1 80 be 89 d6 d0 be e1 8e bb bf
       1.1916952 -0.25184113 -0.40788677 -1.4652978
000010 82 0c 4d 3e 44 7d 08 3c b5 9e c4 3f 6f fe a1 3f
       0.20024303 0.008330647 1.5360934 1.2655772
000020 7e f9 c5 bf 9b ba 45 3e 31 7c f7 3e 82 ba a8 bf
       -1.5466764 0.19309466 0.48336938 -1.3181918
000030 34 6a 02 3f f1 77 59 3f 76 26 a4 be 8d 62 ad 3f
       0.50943303 0.8494864 -0.32060593 1.35457
000040 ac 4a 73 bf d2 48 8e bf ab aa ab bf bc bd af 3f
       -0.95035815 -1.1115973 -1.3411459 1.3729777
000050 76 ed bf bf eb e0 9e bf a4 4a a7 bf e7 5c b1 bf
       -1.4994342 -1.241239 -1.3069654 -1.3856477
000060 41 a6 84 bf 45 7b 60 3f da bd 6f 3f 15 12 f9 3e
       -1.0363237 0.87688094 0.93649065 0.48646608
000070 d4 db 95 3f ad 37 77 3d 87 7d c5 bf e2 66 a0 bf
       1.1707711 0.06035583 -1.5428933 -1.2531397
000080 e6 3b 75 bf 6f e4 20 be 76 de 08 3f 47 98 8a bf
       -0.9579452 -0.1571214 0.5346445 -1.0827721
000090 37 e2 b4 bf bc 1f 94 bf bf 30 ca 3f d4 c3 b6 bf
       -1.4131535 -1.1572185 1.5796126 -1.4278512
0000a0 38 b9 8b bf 9d 87 d4 be 2e 39 dc 3f 26 51 40 be
       -1.0915899 -0.41509715 1.720495 -0.18780956
0000b0 9f 74 b4 bf 21 92 ad 3c 2c 87 2f bf 38 67 c8 bf
       -1.409809 0.021187844 -0.6856563 -1.56565
0000c0 6e a9 3f 3f 62 20 ae bf 07 e0 ac 3f 08 13 6b bf
       0.74867904 -1.3603632 1.3505868 -0.91825914
0000d0 0b ae 91 bf cc 13 13 bf 66 25 53 3f 22 46 36 bf
       -1.1381239 -0.5745208 0.8247894 -0.71200764
0000e0 6d 33 00 be a1 af 88 3f 10 d3 54 3f ee 4e cb 3f
       -0.12519617 1.0678598 0.83134556 1.5883462
0000f0 d7 18 0c 3f 19 d9 97 bf 2a 0e 8f bf 76 c0 b9 bf
       0.547254 -1.1863128 -1.1176198 -1.451186
000100 ea cf 25 3f 93 04 11 be 5a 6b 98 bf d4 a3 90 bf
       0.64770377 -0.14161901 -1.1907761 -1.1299996
000110 60 1c 5b 3f 91 3f f1 bd e9 64 8d 3f 2f 5a c4 bf
       0.8559017 -0.117797025 1.104642 -1.5340022
000120 58 81 96 3f 89 3a 9b 3f 35 be 94 3f ad ce bb be
       1.1758223 1.2127239 1.1620547 -0.3668112
000130 14 31 e4 3e fb 60 8e 3f 3d 92 8a bf 19 ea cd 3e
       0.44568694 1.1123346 -1.0825878 0.40217665
000140 b8 1d 7f 3f e8 99 25 3f 22 7a 40 3f df 50 5d bf
       0.9965472 0.6468797 0.7518636 -0.86451524
000150 26 51 a4 3f f3 4a 9b 3f ff 64 24 bf 6f f6 4c 3f
       1.2837265 1.2132248 -0.6421661 0.8006353
000160 50 e2 95 bf e0 e3 52 3f 72 64 9a bf 89 8b b1 bf
       -1.170969 0.8237896 -1.2061903 -1.3870708
000170 e2 7f 5d 3f 0d 18 9e 3f c0 0e 6b 3f f9 99 27 bf
       0.8652326 1.235109 0.9181938 -0.6546932
000180 be 20 84 3f 3d ca 83 bf 1c 6d 98 3e 77 c7 75 bf
       1.0322492 -1.0296093 0.29770744 -0.96007484
000190 af e1 db 3e 08 28 ad 3f a6 29 a1 bf d4 45 b8 3f
       0.4294562 1.3527842 -1.2590835 1.439631
0001a0 b4 1c 0c be 6a 6b 99 bf 3f 9e bc bf b8 70 a1 bf
       -0.13682824 -1.1985905 -1.4735793 -1.2612524
0001b0 b2 af 87 bf 08 2b b3 3f e5 3e a4 bf 2a c6 8a 3f
       -1.0600493 1.3997507 -1.2831694 1.0841725
0001c0 42 07 a4 3f 4e 98 97 bf b4 75 6d bf 63 1c 3e 3f
       1.2814715 -1.1843355 -0.92757726 0.74262065
0001d0 93 1f b8 3f 70 ae 0d 3e 1e 7f 91 3f 6f 3b 94 bf
       1.4384636 0.13836074 1.1366918 -1.1580638
0001e0 43 36 78 bf f1 df 88 bf 50 83 96 3f 45 96 ad bf
       -0.96957797 -1.0693341 1.1758823 -1.3561484
0001f0 20 92 a4 3f 52 e7 17 bf 3e 52 92 bf 6c d2 92 3f
       1.2857094 -0.5933734 -1.1431348 1.1470466
000200 73 4b a6 bf 45 f8 53 bf 51 7f 65 bf b5 4d 95 3f
       -1.2991775 -0.82800704 -0.89647394 1.1664339
000210 62 d3 89 3f e7 1c 91 3f b5 1a 82 3f 64 41 67 3f
       1.0767634 1.1336945 1.01644 0.90334153
000220 90 f8 90 bf a6 43 ac bf 50 26 a3 bf 94 d7 89 3f
       -1.1325855 -1.3458145 -1.2746067 1.0768914
000230 4a 3e 6f 3f 57 07 ac bf 2a 61 55 bf 2e cd a8 bf
       0.9345442 -1.343974 -0.83351386 -1.3187616
000240 75 b5 78 3f 47 03 93 3f b9 1a 22 3f 5a 1a 78 bf
       0.9715188 1.1485375 0.63322026 -0.9691521
000250 ac 46 84 3f 06 d6 91 3f 92 ad 65 bf 47 d0 48 be
       1.0334067 1.139344 -0.8971797 -0.19610702
000260 0f 03 8f 3f f8 3f 82 bf 85 5e 92 3f 41 e4 85 3f
       1.1172808 -1.0175772 1.1435095 1.0460283
000270 da 5a 04 3f 96 ce 8e bf 07 b4 8a 3f 01 ff 89 3f
       0.5170113 -1.1156795 1.083619 1.0780946
000280 a3 05 5d 3f fa 2d 92 3f d6 82 93 3f 59 a3 95 3f
       0.86336726 1.1420281 1.1524303 1.1690475
000290 07 bf 76 3f 2b 66 8f 3f 0c b7 69 bf ea df 89 bf
       0.96385235 1.1203054 -0.9129493 -1.0771458
0002a0 ad 74 8c bf 01 aa 85 bf ce 61 a4 3f 53 0d 8c bf
       -1.0973107 -1.0442506 1.2842348 -1.0941566
0002b0 53 f0 af 3f 0a 95 90 3f 4c 1f 75 bf ad 49 9f 3f
       1.3745216 1.1295483 -0.9575088 1.2444359
0002c0 56 c7 8b 3f 02 9f a0 3f 80 79 8e bf e1 89 6e 3f
       1.0920208 1.2548525 -1.1130829 0.93179137
0002d0 55 56 9d 3f cb 18 9d bf 7e c4 8f 3f 90 33 a5 3f
       1.2291971 -1.2273191 1.123184 1.2906361
0002e0 e4 d8 0b 3f 70 16 7b 3f 19 b5 8e bf e6 b7 2c 3f
       0.54627824 0.9808111 -1.1149017 0.67468107
0002f0 fd 21 7a 3f 7e 73 81 bf fd 98 41 3f 2c 34 75 3f
       0.9770811 -1.011337 0.75624067 0.9578273
000300 68 69 ed 3e 83 e6 a2 3f ae 4e 81 3f 71 8f a3 3f
       0.4636948 1.2726597 1.0102136 1.277815
000310 2c 15 b2 bf 31 cb 98 3f af 2f 50 bf 39 81 94 be
       -1.3912711 1.1937009 -0.8132276 -0.2900484
000320 ae 06 97 3f d0 24 8b bf 7b 39 ab bf fb e2 17 bf
       1.1798913 -1.0870609 -1.3376917 -0.5933072
000330 95 d6 9b bf bc 3c 23 3f af 7d 9a bf fa a2 6d bf
       -1.217486 0.6376455 -1.2069606 -0.9282681
000340 f7 fb 7a bf 7c eb 9a 3f d9 28 97 bf ec 75 7e 3f
       -0.9804072 1.2103114 -1.1809341 0.99398685
000350 df 9f 94 be 66 9e ac bf fe ea 9f 3f d4 13 82 bf
       -0.29028222 -1.3485839 1.2493589 -1.0162301
000360 7a 53 b0 3f 15 e7 b5 3f 87 61 5b 3f f8 c6 91 3f
       1.3775475 1.4211146 0.8569569 1.1388845
000370 5e b3 e9 be c1 36 17 bf eb bd 5e 3f e0 07 a5 3f
       -0.4564466 -0.5906792 0.8700854 1.2893028
000380 28 6e 92 bf fe f3 71 be 84 72 95 bf 15 66 86 3f
       -1.1439867 -0.23628232 -1.1675572 1.0499903
000390 dc f0 78 bf a5 a5 8e bf b4 c1 ad bf ac dd 87 3f
       -0.9724252 -1.1144301 -1.3574739 1.0614524
0003a0 c6 e1 96 3f d8 ef 8f 3f c0 1c be bf 4d 8a ab 3f
       1.178765 1.124507 -1.4852524 1.3401581
0003b0 b2 39 61 bf 2a 09 d6 be 44 aa 2a 3f b9 2e 8d 3f
       -0.8797866 -0.41803867 0.66666055 1.1029884
0003c0 af 70 3c 3f fc ce 7c 3f 1e 41 25 3f ec cd 6c bf
       0.7360944 0.98753333 0.64552486 -0.9250171
0003d0 d8 24 73 bf 0c fe 2b bf 16 c0 91 bf 55 e5 62 3f
       -0.94978094 -0.6718452 -1.1386745 0.8863118
0003e0 7a 29 ba bf 5e 8b af bf 83 e3 82 3f 02 50 bf bf
       -1.4543908 -1.3714406 1.0225681 -1.4946291
0003f0 78 3e 19 be 31 bd 90 3f ea e2 81 3f 70 57 6f 3f
       -0.14965236 1.1307737 1.0147374 0.93492794

layer_list.conv2.lin_dst.weight f4 [7, 64]
000000 78 89 98 3f 52 f1 80 be 89 d6 d0 be e1 8e bb bf
       1.1916952 -0.25184113 -0.40788677 -1.4652978
000010 82 0c 4d 3e 44 7d 08 3c b5 9e c4 3f 6f fe a1 3f
       0.20024303 0.008330647 1.5360934 1.2655772
000020 7e f9 c5 bf 9b ba 45 3e 31 7c f7 3e 82 ba a8 bf
       -1.5466764 0.19309466 0.48336938 -1.3181918
000030 34 6a 02 3f f1 77 59 3f 76 26 a4 be 8d 62 ad 3f
       0.50943303 0.8494864 -0.32060593 1.35457
000040 ac 4a 73 bf d2 48 8e bf ab aa ab bf bc bd af 3f
       -0.95035815 -1.1115973 -1.3411459 1.3729777
000050 76 ed bf bf eb e0 9e bf a4 4a a7 bf e7 5c b1 bf
       -1.4994342 -1.241239 -1.3069654 -1.3856477
000060 41 a6 84 bf 45 7b 60 3f da bd 6f 3f 15 12 f9 3e
       -1.0363237 0.87688094 0.93649065 0.48646608
000070 d4 db 95 3f ad 37 77 3d 87 7d c5 bf e2 66 a0 bf
       1.1707711 0.06035583 -1.5428933 -1.2531397
000080 e6 3b 75 bf 6f e4 20 be 76 de 08 3f 47 98 8a bf
       -0.9579452 -0.1571214 0.5346445 -1.0827721
000090 37 e2 b4 bf bc 1f 94 bf bf 30 ca 3f d4 c3 b6 bf
       -1.4131535 -1.1572185 1.5796126 -1.4278512
0000a0 38 b9 8b bf 9d 87 d4 be 2e 39 dc 3f 26 51 40 be
       -1.0915899 -0.41509715 1.720495 -0.18780956
0000b0 9f 74 b4 bf 21 92 ad 3c 2c 87 2f bf 38 67 c8 bf
       -1.409809 0.021187844 -0.6856563 -1.56565
0000c0 6e a9 3f 3f 62 20 ae bf 07 e0 ac 3f 08 13 6b bf
       0.74867904 -1.3603632 1.3505868 -0.91825914
0000d0 0b ae 91 bf cc 13 13 bf 66 25 53 3f 22 46 36 bf
       -1.1381239 -0.5745208 0.8247894 -0.71200764
0000e0 6d 33 00 be a1 af 88 3f 10 d3 54 3f ee 4e cb 3f
       -0.12519617 1.0678598 0.83134556 1.5883462
0000f0 d7 18 0c 3f 19 d9 97 bf 2a 0e 8f bf 76 c0 b9 bf
       0.547254 -1.1863128 -1.1176198 -1.451186
000100 ea cf 25 3f 93 04 11 be 5a 6b 98 bf d4 a3 90 bf
       0.64770377 -0.14161901 -1.1907761 -1.1299996
000110 60 1c 5b 3f 91 3f f1 bd e9 64 8d 3f 2f 5a c4 bf
       0.8559017 -0.117797025 1.104642 -1.5340022
000120 58 81 96 3f 89 3a 9b 3f 35 be 94 3f ad ce bb be
       1.1758223 1.2127239 1.1620547 -0.3668112
000130 14 31 e4 3e fb 60 8e 3f 3d 92 8a bf 19 ea cd 3e
       0.44568694 1.1123346 -1.0825878 0.40217665
000140 b8 1d 7f 3f e8 99 25 3f 22 7a 40 3f df 50 5d bf
       0.9965472 0.6468797 0.7518636 -0.86451524
000150 26 51 a4 3f f3 4a 9b 3f ff 64 24 bf 6f f6 4c 3f
       1.2837265 1.2132248 -0.6421661 0.8006353
000160 50 e2 95 bf e0 e3 52 3f 72 64 9a bf 89 8b b1 bf
       -1.170969 0.8237896 -1.2061903 -1.3870708
000170 e2 7f 5d 3f 0d 18 9e 3f c0 0e 6b 3f f9 99 27 bf
       0.8652326 1.235109 0.9181938 -0.6546932
000180 be 20 84 3f 3d ca 83 bf 1c 6d 98 3e 77 c7 75 bf
       1.0322492 -1.0296093 0.29770744 -0.96007484
000190 af e1 db 3e 08 28 ad 3f a6 29 a1 bf d4 45 b8 3f
       0.4294562 1.3527842 -1.2590835 1.439631
0001a0 b4 1c 0c be 6a 6b 99 bf 3f 9e bc bf b8 70 a1 bf
       -0.13682824 -1.1985905 -1.4735793 -1.2612524
0001b0 b2 af 87 bf 08 2b b3 3f e5 3e a4 bf 2a c6 8a 3f
       -1.0600493 1.3997507 -1.2831694 1.0841725
0001c0 42 07 a4 3f 4e 98 97 bf b4 75 6d bf 63 1c 3e 3f
       1.2814715 -1.1843355 -0.92757726 0.74262065
0001d0 93 1f b8 3f 70 ae 0d 3e 1e 7f 91 3f 6f 3b 94 bf
       1.4384636 0.13836074 1.1366918 -1.1580638
0001e0 43 36 78 bf f1 df 88 bf 50 83 96 3f 45 96 ad bf
       -0.96957797 -1.0693341 1.1758823 -1.3561484
0001f0 20 92 a4 3f 52 e7 17 bf 3e 52 92 bf 6c d2 92 3f
       1.2857094 -0.5933734 -1.1431348 1.1470466
000200 73 4b a6 bf 45 f8 53 bf 51 7f 65 bf b5 4d 95 3f
       -1.2991775 -0.82800704 -0.89647394 1.1664339
000210 62 d3 89 3f e7 1c 91 3f b5 1a 82 3f 64 41 67 3f
       1.0767634 1.1336945 1.01644 0.90334153
000220 90 f8 90 bf a6 43 ac bf 50 26 a3 bf 94 d7 89 3f
       -1.1325855 -1.3458145 -1.2746067 1.0768914
000230 4a 3e 6f 3f 57 07 ac bf 2a 61 55 bf 2e cd a8 bf
       0.9345442 -1.343974 -0.83351386 -1.3187616
000240 75 b5 78 3f 47 03 93 3f b9 1a 22 3f 5a 1a 78 bf
       0.9715188 1.1485375 0.63322026 -0.9691521
000250 ac 46 84 3f 06 d6 91 3f 92 ad 65 bf 47 d0 48 be
       1.0334067 1.139344 -0.8971797 -0.19610702
000260 0f 03 8f 3f f8 3f 82 bf 85 5e 92 3f 41 e4 85 3f
       1.1172808 -1.0175772 1.1435095 1.0460283
000270 da 5a 04 3f 96 ce 8e bf 07 b4 8a 3f 01 ff 89 3f
       0.5170113 -1.1156795 1.083619 1.0780946
000280 a3 05 5d 3f fa 2d 92 3f d6 82 93 3f 59 a3 95 3f
       0.86336726 1.1420281 1.1524303 1.1690475
000290 07 bf 76 3f 2b 66 8f 3f 0c b7 69 bf ea df 89 bf
       0.96385235 1.1203054 -0.9129493 -1.0771458
0002a0 ad 74 8c bf 01 aa 85 bf ce 61 a4 3f 53 0d 8c bf
       -1.0973107 -1.0442506 1.2842348 -1.0941566
0002b0 53 f0 af 3f 0a 95 90 3f 4c 1f 75 bf ad 49 9f 3f
       1.3745216 1.1295483 -0.9575088 1.2444359
0002c0 56 c7 8b 3f 02 9f a0 3f 80 79 8e bf e1 89 6e 3f
       1.0920208 1.2548525 -1.1130829 0.93179137
0002d0 55 56 9d 3f cb 18 9d bf 7e c4 8f 3f 90 33 a5 3f
       1.2291971 -1.2273191 1.123184 1.2906361
0002e0 e4 d8 0b 3f 70 16 7b 3f 19 b5 8e bf e6 b7 2c 3f
       0.54627824 0.9808111 -1.1149017 0.67468107
0002f0 fd 21 7a 3f 7e 73 81 bf fd 98 41 3f 2c 34 75 3f
       0.9770811 -1.011337 0.75624067 0.9578273
000300 68 69 ed 3e 83 e6 a2 3f ae 4e 81 3f 71 8f a3 3f
       0.4636948 1.2726597 1.0102136 1.277815
000310 2c 15 b2 bf 31 cb 98 3f af 2f 50 bf 39 81 94 be
       -1.3912711 1.1937009 -0.8132276 -0.2900484
000320 ae 06 97 3f d0 24 8b bf 7b 39 ab bf fb e2 17 bf
       1.1798913 -1.0870609 -1.3376917 -0.5933072
000330 95 d6 9b bf bc 3c 23 3f af 7d 9a bf fa a2 6d bf
       -1.217486 0.6376455 -1.2069606 -0.9282681
000340 f7 fb 7a bf 7c eb 9a 3f d9 28 97 bf ec 75 7e 3f
       -0.9804072 1.2103114 -1.1809341 0.99398685
000350 df 9f 94 be 66 9e ac bf fe ea 9f 3f d4 13 82 bf
       -0.29028222 -1.3485839 1.2493589 -1.0162301
000360 7a 53 b0 3f 15 e7 b5 3f 87 61 5b 3f f8 c6 91 3f
       1.3775475 1.4211146 0.8569569 1.1388845
000370 5e b3 e9 be c1 36 17 bf eb bd 5e 3f e0 07 a5 3f
       -0.4564466 -0.5906792 0.8700854 1.2893028
000380 28 6e 92 bf fe f3 71 be 84 72 95 bf 15 66 86 3f
       -1.1439867 -0.23628232 -1.1675572 1.0499903
000390 dc f0 78 bf a5 a5 8e bf b4 c1 ad bf ac dd 87 3f
       -0.9724252 -1.1144301 -1.3574739 1.0614524
0003a0 c6 e1 96 3f d8 ef 8f 3f c0 1c be bf 4d 8a ab 3f
       1.178765 1.124507 -1.4852524 1.3401581
0003b0 b2 39 61 bf 2a 09 d6 be 44 aa 2a 3f b9 2e 8d 3f
       -0.8797866 -0.41803867 0.66666055 1.1029884
0003c0 af 70 3c 3f fc ce 7c 3f 1e 41 25 3f ec cd 6c bf
       0.7360944 0.98753333 0.64552486 -0.9250171
0003d0 d8 24 73 bf 0c fe 2b bf 16 c0 91 bf 55 e5 62 3f
       -0.94978094 -0.6718452 -1.1386745 0.8863118
0003e0 7a 29 ba bf 5e 8b af bf 83 e3 82 3f 02 50 bf bf
       -1.4543908 -1.3714406 1.0225681 -1.4946291
0003f0 78 3e 19 be 31 bd 90 3f ea e2 81 3f 70 57 6f 3f
       -0.14965236 1.1307737 1.0147374 0.93492794
