vanilla_models/Cora/5_3f_85/split3/init4/GAT_dp0_5_5e_4_f2.pt (torch, 372919 bytes, 10 tensors)

layer_list.conv1.att_src f4 [1, 8, 8]
-0.2691493 0.39734438 0.5929115 -0.841197 0.2241205 -0.52564 0.060475536 -0.7841708
-0.08760668 0.7839363 0.4634096 0.32529843 -0.0137132 0.027832616 -0.65660137 0.502261
0.035288066 -0.24797846 0.25134438 -0.93317586 -0.9178824 0.010010685 -0.5992845 0.43247595
0.26025656 0.644473 0.32964367 -0.3764266 0.2486528 -0.062118564 -0.6242712 0.44561094
-0.22788113 0.14299205 0.26000297 0.29826233 0.4244542 0.017052075 0.21271922 0.16658881
0.11846913 -0.41722536 -0.30176008 -0.3457124 0.12839058 -0.04385009 0.50495183 0.44724005
-0.27593347 0.24945658 0.24979912 0.061619252 0.101860546 -0.433369 0.1297708 0.19007751
-0.19062257 -0.19278422 -0.15368715 -0.115868665 -0.07088797 -0.15332499 0.22973605 0.17466669
00000000: f0cd 89be b970 cb3e 0cc9 173f b058 57bf
00000010: d87f 653e 5890 06bf 32b5 773d 6bbf 48bf
00000020: 226b b3bd 0db0 483f 0644 ed3e 848d a63e
00000030: 54ad 60bc 3a01 e43c 0717 28bf 2d94 003f
00000040: 388a 103d 11ee 7dbe 36b0 803e 9de4 6ebf
00000050: 57fa 6abf db03 243c b66a 19bf 7d6d dd3e
00000060: 5940 853e 2ffc 243f 0ec7 a83e fdba c0be
00000070: d79e 7e3e 0970 7ebd 3dd0 1fbf 1e27 e43e
00000080: ac59 69be 826c 123e 1c1f 853e d7b5 983e
00000090: 1052 d93e cbb0 8b3c 11d3 593e 4296 2a3e
000000a0: f19f f23d 909e d5be 4c80 9abe 3701 b1be
000000b0: d278 033e 279c 33bd 8644 013f a6fc e43e
000000c0: 2747 8dbe 8c71 7f3e 57cb 7f3e 7864 7c3d
000000d0: 439c d03d 8be2 ddbe a3e2 043e aea3 423e
000000e0: 9032 43be 3a69 45be 2a60 1dbe 8d4c edbd
000000f0: b62d 91bd 3a01 1dbe ed3f 6b3e d3db 323e

layer_list.conv1.att_dst f4 [1, 8, 8]
0.12214025 0.13990563 0.10524598 -0.28281978 0.07195172 -0.14958261 0.0017030167 -0.12092762
-0.05316324 0.31873217 0.1330894 0.05684338 0.02508547 -0.01432973 -0.25011468 0.21993798
-0.06686298 -0.067994356 0.072536014 -0.15491204 -0.17532414 -0.035788234 0.046750534 0.13941343
0.044811193 0.19778797 0.123825595 -0.0020554706 0.017279202 0.14259584 -0.18048346 0.11253428
-0.030870127 0.051136624 0.08166921 0.007894111 0.07239239 -0.024166578 0.015351458 0.01718667
0.023594027 -0.1465405 -0.1992851 -0.14742865 -0.000425719 0.045025848 0.15509638 0.123352885
-0.15655036 0.115594044 0.1274878 -0.0074612447 0.04515625 0.0011311109 -0.021379355 0.06062674
-0.114675924 -0.07459276 -0.0241266 -0.09970738 -0.03028641 -0.11152133 0.09493541 0.053782195
00000000: ab24 fa3d 6c43 0f3e 348b d73d c1cd 90be
00000010: 6c5b 933d 2f2c 19be c237 df3a e6a8 f7bd
00000020: b3c1 59bd dd30 a33e 9648 083e 9bd4 683d
00000030: 0b80 cd3c 3ec7 6abc 080f 80be 6c37 613e
00000040: 75ef 88bd a040 8bbd c38d 943d 43a1 1ebe
00000050: 2c88 33be af96 12bd 7d7d 3f3d 65c2 0e3e
00000060: f18b 373d ee88 4a3e 4698 fd3d 13b5 06bb
00000070: 1d8d 8d3c a504 123e a8d0 38be 5f78 e63d
00000080: 59e3 fcbc a374 513d 3042 a73d 4d56 013c
00000090: 7642 943d fdf8 c5bc af84 7b3c 0fcb 8c3c
000000a0: 4348 c13c b60e 16be 6511 4cbe 89f7 16be
000000b0: 0933 dfb9 066d 383d 96d1 1e3e 70a0 fc3d
000000c0: bd4e 20be 92bc ec3d 298c 023e 757d f4bb
000000d0: c3f5 383d c941 943a c223 afbc bf53 783d
000000e0: 36db eabd 17c4 98bd 26a5 c5bc 6233 ccbd
000000f0: 351b f8bc 4c65 e4bd 7f6d c23d b84a 5c3d

layer_list.conv1.bias f4 [64]
0.048287068 0.0023112108 -0.030164422 0.022663591 0.029624606 0.04677995 0.0075635365 0.009027451
0.0035129583 0.000619616 0.013884793 0.003620778 -0.009802803 -0.0075257584 -0.028227596 0.009214155
0.017032167 -0.002875708 -0.0007718456 0.051980358 0.014325636 0.0013654158 0.0067735147 0.015811084
-0.00041363284 0.0011963827 0.021751268 0.011526557 -0.011086573 0.007429758 0.016327735 -0.0050582387
0.018495133 -0.025101349 -0.038865324 0.010370702 -0.0036179356 0.015740313 0.0062952903 -0.0116163315
0.004436549 -0.010931747 0.011429586 7.727206e-05 0.002537667 -0.01635903 0.01869444 0.042308487
-0.0055584116 0.014137033 -0.0068663475 0.0011516227 0.0066943048 0.0049429783 -0.003097349 0.0058654863
0.0024596774 0.0046004243 -0.010464783 -0.0012600557 0.014393989 0.01024441 0.025171788 -0.024483507
00000000: a9c8 453d af77 173b 611b f7bc ffa8 b93c
00000010: 4daf f23c 559c 3f3d 8bd7 f73b e0e7 133c
00000020: a939 663b ba6d 223a 0b7d 633c 934a 6d3b
00000030: f09b 20bc a39a f6bb 8f3d e7bc f8f6 163c
00000040: 0b87 8b3c 6076 3cbb ae55 4aba 5be9 543d
00000050: 13b6 6a3c c0f7 b23a 5cf4 dd3b 3f86 813c
00000060: dcdc d8b9 f1cf 9c3a b72f b23c e2d9 3c3c
00000070: 75a4 35bc 5475 f33b bec1 853c 95bf a5bb
00000080: 1b83 973c 58a1 cdbc 3f31 1fbd e0e9 293c
00000090: e31a 6dbb d4f1 803c b948 ce3b 6d52 3ebc
000000a0: 7860 913b 121b 33bc 2943 3b3c 1f0d a238
000000b0: fd4e 263b 5f03 86bc 1525 993c aa4b 2d3d
000000c0: 5623 b6bb 049f 673c 19ff e0bb 0cf2 963a
000000d0: e65b db3b b5f8 a13b e5fc 4abb 4433 c03b
000000e0: 8a32 213b 28bf 963b 7b74 2bbc 7428 a5ba
000000f0: c4d4 6b3c 2bd8 273c 1135 ce3c a391 c8bc

layer_list.conv1.lin_src.weight f4 [64, 1433]
-0.041467723 0.087990694 0.25581613 -0.19347405 0.4543629 -0.060864165 -0.14462328 0.043773398
-0.023258487 -0.025107287 0.041362435 0.040776234 0.10700046 0.07879978 0.016751043 -0.011606907
0.03312039 -0.057686146 0.09691376 0.56701005 0.019332323 0.0030929947 -0.037027556 0.032246765
0.024093872 0.05539338 0.041641865 0.024872335 -0.022415375 -0.08225299 5.4247543e-08 -0.015586873
0.018312415 0.008122753 0.025419554 -0.018829787 -0.0284478 -0.016699525 -0.04493647 0.03566826
0.094745286 -0.15371475 -0.027785867 0.16257471 0.038766995 0.034014497 -0.018669037 -0.049657326
0.16032149 -0.020097962 -0.21230473 0.21460703 -0.13522986 0.00025295958 -0.064791046 0.10258544
-0.050186895 0.028537804 0.17763089 0.067494914 0.01484577 0.033118572 0.00525651 -0.02729412
0.08826132 -0.07809852 0.059325706 -0.061466414 0.046488013 0.0091611985 -0.10057655 -0.07843568
0.024021212 0.05412127 -0.063549444 0.07165796 0.0020486184 0.058723085 0.108442284 0.025055517
0.038680583 0.008840157 0.08123421 -0.0741672 0.039557792 0.07307353 0.07404156 -0.009528621
0.03950514 -0.10319043 -0.06043551 -0.04624297 0.04474824 -0.07186873 -0.11477357 0.031653825
0.04563172 -0.04165387 0.016382387 -0.05810705 0.05344177 -0.027190581 0.063697994 0.0038120297
0.11138202 0.042383913 0.096106574 -0.06462001 -1.528626e-08 0.031102901 0.0053254166 0.0052404576
-0.10334497 -0.004146919 0.0058643236 -0.034879252 -0.0014961755 -0.038733374 0.10219889 0.023384674
0.04650481 -0.06438558 -0.07420931 0.008399613 0.082765624 0.11108858 0.06092911 0.059540972
-0.09681738 0.06384339 0.055901203 0.057015996 0.18941945 0.082998015 0.059518963 0.30845758
0.2373819 -0.004292439 -0.04880665 -0.049170632 -0.32445797 -0.17333034 0.026918383 -0.074764706
0.049999997 0.040194422 0.15749979 -0.029611409 -0.010148389 0.011132573 -0.032485515 0.22579911
-0.022496808 0.037005525 0.010009857 -0.021244345 0.02803153 0.09913372 0.067897655 0.031124743
0.05059073 -0.047534168 -0.008595415 -0.049737975 -0.01570964 -0.012914851 0.0024177548 -0.21819921
0.0484659 -0.0812012 0.030153673 0.02917724 0.036521785 -0.072263636 0.026045984 0.08055061
0.02258138 0.050673284 -0.00703214 0.0874393 -0.014204197 -0.0059887148 0.10635018 0.016042357
-0.0030808824 0.046570156 0.045209274 0.11608829 -0.00085641193 0.0029447079 0.016236475 0.02616323
0.117229186 -0.12980074 -0.02900468 -0.078792945 -0.031436145 0.0089924615 -0.021511083 -0.015612348
-0.003672639 0.009048373 0.03694868 -0.100703105 0.032100543 -0.15010494 0.014780464 0.022964615
0.02621675 0.003015965 -0.02874337 -0.13814963 0.063537925 -0.09246059 0.0041766334 -0.10395904
0.0005043534 0.004469284 -0.019033788 -0.035798825 -0.031248167 -0.04753247 0.06600864 -0.040762275
0.24197678 0.112728775 -0.04028026 0.01588469 -0.11827794 0.00079921295 0.09056779 0.031562004
0.006899834 -0.030784927 0.16470519 -0.05517367 0.03865534 -0.14969078 0.120123684 0.068002746
0.05476655 0.008240287 -0.08421778 -0.06535428 0.10474816 -0.06578217 0.008543677 -0.11131627
-0.025796048 0.114220984 0.09206238 -0.041347027 -0.044845175 0.0022191284 0.0034176817 -0.16133794
00000000: 0fda 29bd 7734 b43d 55fa 823e 101e 46be
00000010: 41a2 e83e b44c 79bd 2018 14be bc4b 333d
00000020: 9588 bebc ccad cdbc a86b 293d fb04 273d
00000030: 0f23 db3d c761 a13d 7c39 893c e52a 3ebc
00000040: 3fa9 073d 4f48 6cbd b97a c63d 9227 113f
00000050: d25e 9e3c d7b3 4a3b 35aa 17bd 2f15 043d
00000060: 8360 c53c 2be4 623d a990 2a3d 11c1 cb3c
00000070: 73a0 b7bc 4174 a8bd cefd 6833 1560 7fbc
00000080: eb03 963c 4c15 053c ab3c d03c ed40 9abc
00000090: 5c0b e9bc 71cd 88bc 4e0f 38bd e218 123d
000000a0: d109 c23d 6667 1dbe 309f e3bc fc79 263e
000000b0: 24ca 1e3d c952 0b3d cfef 98bc 7b65 4bbd
000000c0: 512b 243e 7ba4 a4bc 6966 59be f2c1 5b3e
000000d0: b279 0abe a99f 8439 2bb1 84bd 5118 d23d
000000e0: c690 4dbd 1dc8 e93c dfe4 353e c63a 8a3d
000000f0: ac3b 733c 57a7 073d cd3e ac3b eb97 dfbc
00000100: 5ac2 b43d 1ef2 9fbd 83ff 723d 35c4 7bbd
00000110: 376a 3e3d da18 163c 14fb cdbd e3a2 a0bd
00000120: 22c8 c43c 44ae 5d3d 3626 82bd 69c1 923d
00000130: 1d42 063b 9e87 703d fd16 de3d 3a41 cd3c
00000140: 886f 1e3d 4ed6 103c 1f5e a63d f9e4 97bd
00000150: 5a07 223d 93a7 953d 1aa3 973d ef1d 1cbc
00000160: 24d0 213d 8155 d3bd 3a8b 77bd 4569 3dbd
00000170: ee49 373d ea2f 93bd 680e ebbd 71a7 013d
00000180: 54e8 3a3d 409d 2abd 5b34 863c a801 6ebd
00000190: c2e5 5a3d c8be debc 1874 823d 3fd3 793b
000001a0: 421c e43d c19a 2d3d 86d3 c43d 7f57 84bd
000001b0: d74e 83b2 83cb fe3c d580 ae3b 25b8 ab3b
000001c0: 87a6 d3bd e1e2 87bb 8329 c03b 8cdd 0ebd
000001d0: 521b c4ba e3a6 1ebd a74d d13d 3791 bf3c
000001e0: d47b 3e3d 96dc 83bd 0dfb 97bd 889e 093c
000001f0: 0681 a93d 6982 e33d cd90 793d 3ce1 733d
00000200: 3148 c6bd 53c0 823d a9f8 643d 9b89 693d
00000210: 2cf7 413e ddfa a93d 28ca 733d 27ee 9d3e
00000220: 3e14 733e 97a7 8cbb 7be9 47bd 2567 49bd
00000230: 5b1f a6be 827d 31be f183 dc3c 3d1e 99bd
00000240: cccc 4c3d e8a2 243d a047 213e a093 f2bc
00000250: 6e45 26bc 6565 363c 880f 05bd e237 673e
00000260: 3a4b b8bc 1b93 173d 6200 243c 9f08 aebc
00000270: 61a2 e53c 9f06 cb3d ed0d 8b3d 51f9 fe3c
00000280: 3a38 4f3d 30b3 42bd c9d3 0cbc 0cba 4bbd
00000290: 81b1 80bc d098 53bc 3273 1e3b 9d6f 5fbe
000002a0: 2e84 463d d14c a6bd d604 f73c 1b05 ef3c
000002b0: de97 153d f5fe 93bd 635e d53c b8f7 a43d
000002c0: 96fc b83c ca8e 4f3d de6d e6bb 6013 b33d
000002d0: b8b8 68bc fb3c c4bb 20ce d93d 436b 833c
000002e0: a1e8 49bb 59c0 3e3d 5c2d 393d b3bf ed3d
000002f0: d580 60ba 00fc 403b 5b02 853c 4554 d63c
00000300: db15 f03d 7cea 04be 399b edbc 325e a1bd
00000310: 30c3 00bd 1e55 133c 0338 b0bc efca 7fbc
00000320: a8b0 70bb a13f 143c 8057 173d 6e3d cebd
00000330: dc7b 033d 1cb5 19be c229 723c 4a20 bc3c
00000340: 82c4 d63c 7fa7 453b 3777 ebbc 1977 0dbe
00000350: 2c20 823d fa5b bdbd 24dc 883b 7ae8 d4bd
00000360: 9536 043a 1273 923b bfec 9bbc caa1 12bd
00000370: 28fc ffbc 68b1 42bd 8a2f 873d 58f6 26bd
00000380: c3c8 773e 58de e63d eafc 24bd 9c20 823c
00000390: b43b f2bd 4682 513a 9b7b b93d 2947 013d
000003a0: 0118 e23b ac30 fcbc 7aa8 283e c9fd 61bd
000003b0: 1055 1e3d 8a48 19be 6803 f63d 0645 8b3d
000003c0: e452 603d 4502 073c 5f7a acbd 77d8 85bd
000003d0: 3486 d63d cdb8 86bd c7fa 0b3c c9f9 e3bd
000003e0: 3c52 d3bc b1ec e93d 338b bc3d 805b 29bd
000003f0: 93af 37bd cc6e 113b 2ffb 5f3b c635 25be

layer_list.conv1.lin_dst.weight f4 [64, 1433]
-0.041467723 0.087990694 0.25581613 -0.19347405 0.4543629 -0.060864165 -0.14462328 0.043773398
-0.023258487 -0.025107287 0.041362435 0.040776234 0.10700046 0.07879978 0.016751043 -0.011606907
0.03312039 -0.057686146 0.09691376 0.56701005 0.019332323 0.0030929947 -0.037027556 0.032246765
0.024093872 0.05539338 0.041641865 0.024872335 -0.022415375 -0.08225299 5.4247543e-08 -0.015586873
0.018312415 0.008122753 0.025419554 -0.018829787 -0.0284478 -0.016699525 -0.04493647 0.03566826
0.094745286 -0.15371475 -0.027785867 0.16257471 0.038766995 0.034014497 -0.018669037 -0.049657326
0.16032149 -0.020097962 -0.21230473 0.21460703 -0.13522986 0.00025295958 -0.064791046 0.10258544
-0.050186895 0.028537804 0.17763089 0.067494914 0.01484577 0.033118572 0.00525651 -0.02729412
0.08826132 -0.07809852 0.059325706 -0.061466414 0.046488013 0.0091611985 -0.10057655 -0.07843568
0.024021212 0.05412127 -0.063549444 0.07165796 0.0020486184 0.058723085 0.108442284 0.025055517
0.038680583 0.008840157 0.08123421 -0.0741672 0.039557792 0.07307353 0.07404156 -0.009528621
0.03950514 -0.10319043 -0.06043551 -0.04624297 0.04474824 -0.07186873 -0.11477357 0.031653825
0.04563172 -0.04165387 0.016382387 -0.05810705 0.05344177 -0.027190581 0.063697994 0.0038120297
0.11138202 0.042383913 0.096106574 -0.06462001 -1.528626e-08 0.031102901 0.0053254166 0.0052404576
-0.10334497 -0.004146919 0.0058643236 -0.034879252 -0.0014961755 -0.038733374 0.10219889 0.023384674
0.04650481 -0.06438558 -0.07420931 0.008399613 0.082765624 0.11108858 0.06092911 0.059540972
-0.09681738 0.06384339 0.055901203 0.057015996 0.18941945 0.082998015 0.059518963 0.30845758
0.2373819 -0.004292439 -0.04880665 -0.049170632 -0.32445797 -0.17333034 0.026918383 -0.074764706
0.049999997 0.040194422 0.15749979 -0.029611409 -0.010148389 0.011132573 -0.032485515 0.22579911
-0.022496808 0.037005525 0.010009857 -0.021244345 0.02803153 0.09913372 0.067897655 0.031124743
0.05059073 -0.047534168 -0.008595415 -0.049737975 -0.01570964 -0.012914851 0.0024177548 -0.21819921
0.0484659 -0.0812012 0.030153673 0.02917724 0.036521785 -0.072263636 0.026045984 0.08055061
0.02258138 0.050673284 -0.00703214 0.0874393 -0.014204197 -0.0059887148 0.10635018 0.016042357
-0.0030808824 0.046570156 0.045209274 0.11608829 -0.00085641193 0.0029447079 0.016236475 0.02616323
0.117229186 -0.12980074 -0.02900468 -0.078792945 -0.031436145 0.0089924615 -0.021511083 -0.015612348
-0.003672639 0.009048373 0.03694868 -0.100703105 0.032100543 -0.15010494 0.014780464 0.022964615
0.02621675 0.003015965 -0.02874337 -0.13814963 0.063537925 -0.09246059 0.0041766334 -0.10395904
0.0005043534 0.004469284 -0.019033788 -0.035798825 -0.031248167 -0.04753247 0.06600864 -0.040762275
0.24197678 0.112728775 -0.04028026 0.01588469 -0.11827794 0.00079921295 0.09056779 0.031562004
0.006899834 -0.030784927 0.16470519 -0.05517367 0.03865534 -0.14969078 0.120123684 0.068002746
0.05476655 0.008240287 -0.08421778 -0.06535428 0.10474816 -0.06578217 0.008543677 -0.11131627
-0.025796048 0.114220984 0.09206238 -0.041347027 -0.044845175 0.0022191284 0.0034176817 -0.16133794
00000000: 0fda 29bd 7734 b43d 55fa 823e 101e 46be
00000010: 41a2 e83e b44c 79bd 2018 14be bc4b 333d
00000020: 9588 bebc ccad cdbc a86b 293d fb04 273d
00000030: 0f23 db3d c761 a13d 7c39 893c e52a 3ebc
00000040: 3fa9 073d 4f48 6cbd b97a c63d 9227 113f
00000050: d25e 9e3c d7b3 4a3b 35aa 17bd 2f15 043d
00000060: 8360 c53c 2be4 623d a990 2a3d 11c1 cb3c
00000070: 73a0 b7bc 4174 a8bd cefd 6833 1560 7fbc
00000080: eb03 963c 4c15 053c ab3c d03c ed40 9abc
00000090: 5c0b e9bc 71cd 88bc 4e0f 38bd e218 123d
000000a0: d109 c23d 6667 1dbe 309f e3bc fc79 263e
000000b0: 24ca 1e3d c952 0b3d cfef 98bc 7b65 4bbd
000000c0: 512b 243e 7ba4 a4bc 6966 59be f2c1 5b3e
000000d0: b279 0abe a99f 8439 2bb1 84bd 5118 d23d
000000e0: c690 4dbd 1dc8 e93c dfe4 353e c63a 8a3d
000000f0: ac3b 733c 57a7 073d cd3e ac3b eb97 dfbc
00000100: 5ac2 b43d 1ef2 9fbd 83ff 723d 35c4 7bbd
00000110: 376a 3e3d da18 163c 14fb cdbd e3a2 a0bd
00000120: 22c8 c43c 44ae 5d3d 3626 82bd 69c1 923d
00000130: 1d42 063b 9e87 703d fd16 de3d 3a41 cd3c
00000140: 886f 1e3d 4ed6 103c 1f5e a63d f9e4 97bd
00000150: 5a07 223d 93a7 953d 1aa3 973d ef1d 1cbc
00000160: 24d0 213d 8155 d3bd 3a8b 77bd 4569 3dbd
00000170: ee49 373d ea2f 93bd 680e ebbd 71a7 013d
00000180: 54e8 3a3d 409d 2abd 5b34 863c a801 6ebd
00000190: c2e5 5a3d c8be debc 1874 823d 3fd3 793b
000001a0: 421c e43d c19a 2d3d 86d3 c43d 7f57 84bd
000001b0: d74e 83b2 83cb fe3c d580 ae3b 25b8 ab3b
000001c0: 87a6 d3bd e1e2 87bb 8329 c03b 8cdd 0ebd
000001d0: 521b c4ba e3a6 1ebd a74d d13d 3791 bf3c
000001e0: d47b 3e3d 96dc 83bd 0dfb 97bd 889e 093c
000001f0: 0681 a93d 6982 e33d cd90 793d 3ce1 733d
00000200: 3148 c6bd 53c0 823d a9f8 643d 9b89 693d
00000210: 2cf7 413e ddfa a93d 28ca 733d 27ee 9d3e
00000220: 3e14 733e 97a7 8cbb 7be9 47bd 2567 49bd
00000230: 5b1f a6be 827d 31be f183 dc3c 3d1e 99bd
00000240: cccc 4c3d e8a2 243d a047 213e a093 f2bc
00000250: 6e45 26bc 6565 363c 880f 05bd e237 673e
00000260: 3a4b b8bc 1b93 173d 6200 243c 9f08 aebc
00000270: 61a2 e53c 9f06 cb3d ed0d 8b3d 51f9 fe3c
00000280: 3a38 4f3d 30b3 42bd c9d3 0cbc 0cba 4bbd
00000290: 81b1 80bc d098 53bc 3273 1e3b 9d6f 5fbe
000002a0: 2e84 463d d14c a6bd d604 f73c 1b05 ef3c
000002b0: de97 153d f5fe 93bd 635e d53c b8f7 a43d
000002c0: 96fc b83c ca8e 4f3d de6d e6bb 6013 b33d
000002d0: b8b8 68bc fb3c c4bb 20ce d93d 436b 833c
000002e0: a1e8 49bb 59c0 3e3d 5c2d 393d b3bf ed3d
000002f0: d580 60ba 00fc 403b 5b02 853c 4554 d63c
00000300: db15 f03d 7cea 04be 399b edbc 325e a1bd
00000310: 30c3 00bd 1e55 133c 0338 b0bc efca 7fbc
00000320: a8b0 70bb a13f 143c 8057 173d 6e3d cebd
00000330: dc7b 033d 1cb5 19be c229 723c 4a20 bc3c
00000340: 82c4 d63c 7fa7 453b 3777 ebbc 1977 0dbe
00000350: 2c20 823d fa5b bdbd 24dc 883b 7ae8 d4bd
00000360: 9536 043a 1273 923b bfec 9bbc caa1 12bd
00000370: 28fc ffbc 68b1 42bd 8a2f 873d 58f6 26bd
00000380: c3c8 773e 58de e63d eafc 24bd 9c20 823c
00000390: b43b f2bd 4682 513a 9b7b b93d 2947 013d
000003a0: 0118 e23b ac30 fcbc 7aa8 283e c9fd 61bd
000003b0: 1055 1e3d 8a48 19be 6803 f63d 0645 8b3d
000003c0: e452 603d 4502 073c 5f7a acbd 77d8 85bd
000003d0: 3486 d63d cdb8 86bd c7fa 0b3c c9f9 e3bd
000003e0: 3c52 d3bc b1ec e93d 338b bc3d 805b 29bd
000003f0: 93af 37bd cc6e 113b 2ffb 5f3b c635 25be

layer_list.conv2.att_src f4 [1, 1, 7]
-0.03851765 -0.04055412 -0.07098252 -0.18013759 -0.06623832 -0.030088563 -0.190888
00000000: afc4 1dbd 141c 26bd 495f 91bd fd75 38be
00000010: f5a7 87bd 4a7c f6bc 2578 43be

layer_list.conv2.att_dst f4 [1, 1, 7]
0.22667217 0.50020695 0.7201022 -0.26451066 -0.17814554 0.14197467 0.29999542
00000000: c01c 683e 900d 003f 9e58 383f f16d 87be
00000010: c96b 36be cf61 113e 0099 993e

layer_list.conv2.bias f4 [7]
-0.12408093 -0.58559257 0.0032914772 0.63634396 0.07071617 -0.25758076 -0.63323385
00000000: 251e febd 65e9 15bf d3b5 573b 70e7 223f
00000010: a4d3 903d a0e1 83be 9d1b 22bf

layer_list.conv2.lin_src.weight f4 [7, 64]
-0.99529934 -1.3308239 -1.2614596 1.5339644 -1.4862425 0.9751648 0.106261 -0.62913597
0.256679 1.3001773 0.045441974 -0.70707625 -0.39572072 -0.856478 -0.6459046 1.372871
-1.225053 -0.64907634 -1.0410122 0.05946531 -0.51416034 -1.2215594 0.45292646 1.0738757
-1.3110536 0.6092503 -0.22664386 1.0417472 -0.8899499 -0.8125267 1.2159554 0.11393568
-0.87220657 -0.8060822 -1.2541902 0.56728935 -0.062609345 -1.2304598 1.1633908 -0.48460582
-1.2699379 0.58031315 1.1278847 -1.1008202 -1.1287695 1.1279902 -1.0891354 -1.3901696
-0.8122801 1.2209522 -0.53525394 1.6788838 0.84643674 -1.579906 -1.3823988 0.8131863
1.407913 -1.2815133 -0.8387592 1.4740436 0.8518668 1.0447611 -0.9170849 -0.049076922
0.15893139 1.0199075 1.4633577 -1.4204893 -1.262883 0.07654439 0.0550311 -1.4727824
1.2785798 -1.2057115 -0.2984679 0.6392716 -1.3298197 -1.0181004 0.66386503 -1.0961926
-0.9578113 0.12144551 -0.81919175 -1.059763 -0.913924 -0.3117095 1.51107 1.2523189
-0.49474505 -1.2963794 -1.6644604 -1.385928 -0.33346346 -0.81966543 1.3596247 -0.55430996
-1.043392 1.5093173 0.16072649 -1.3783338 -0.6569202 -1.2411689 -0.56993496 0.70525205
1.2783223 -0.8665825 1.3686669 1.1206104 1.1273692 0.032240458 0.07547772 -0.4846859
-0.60803926 -0.77780443 1.118493 -0.83371496 1.5291212 -0.6852228 1.3481259 1.3207542
1.5771632 1.2767116 0.8310204 -0.7584759 -1.1514813 0.0033231054 -0.9416729 1.4248196
-1.2043333 0.9647526 0.9490054 -0.83602816 1.2852077 -1.2991515 -1.0829004 -1.0677851
0.76962155 -0.7795865 1.2154899 -1.1460575 1.2240375 -1.1725025 -0.998778 -1.0597168
1.3170923 -1.0348328 1.1905015 -1.1461896 -1.0175439 1.208892 -1.4275794 -0.52942634
1.1957034 1.0506737 0.2954122 -1.2490443 1.2772057 -0.9769822 -1.3102823 1.0727164
-1.2011577 1.1147869 1.1024295 1.196995 1.0946357 -0.8826559 -0.13201094 1.079566
1.1148754 -1.0035918 -1.373865 -0.9231963 1.3067956 -1.1114823 1.1560756 1.0772098
1.2667657 -1.2315488 -1.1538992 -0.9342549 -1.1885964 -1.0432123 1.1464988 -0.46163452
0.68237066 1.1421275 0.8588704 -1.1645908 1.0523236 0.99831605 1.3736573 1.0756619
0.7822802 1.2703894 -0.8273668 -0.8290156 0.004956853 1.0288243 -1.1311316 1.329117
-1.0930697 -1.2377563 -1.3633312 -1.1788294 -0.9019253 0.84532076 1.4444678 -0.33051202
0.804732 -0.925195 1.2654891 0.97921246 1.2720413 0.8292886 1.2297769 -0.9687071
-1.175828 1.1491404 1.0051303 -0.8599439 -1.0364805 1.3730571 -1.0766711 1.2086228
1.4405272 -0.63649565 1.2139171 0.5244699 1.2611414 1.2318635 0.88835436 -1.3376124
-1.0567372 -1.1866248 -1.0967903 -0.85092604 -1.0051761 1.2747198 1.3467398 0.890217
-0.61844414 1.1853769 0.098628424 -1.277762 0.049592547 1.3295659 -0.8980013 1.1762679
-0.66978836 0.9838508 -1.0471588 0.58767986 -1.2058096 0.8955254 -1.2485455 -1.3848727
00000000: f0cb 7ebf 7058 aabf 8277 a1bf f258 c43f
00000010: 323d bebf 66a4 793f 5e9f d93d 0e0f 21bf
00000020: 6e6b 833e 366c a63f 5d21 3a3d f302 35bf
00000030: e89b cabe 2442 5bbf 015a 25bf 3dba af3f
00000040: 89ce 9cbf de29 26bf e33f 85bf e691 733d
00000050: 03a0 03bf 0f5c 9cbf fae5 e73e c274 893f
00000060: 9bd0 a7bf d4f7 1b3f 5415 68be f957 853f
00000070: c2d3 63bf c001 50bf 6da4 9b3f 1c57 e93d
00000080: ee48 5fbf 675b 4ebf 4e89 a0bf e039 113f
00000090: 5439 80bd b57f 9dbf fde9 943f 411e f8be
000000a0: 538d a2bf 678f 143f 875e 903f ade7 8cbf
000000b0: 857b 90bf fc61 903f ca68 8bbf 14f1 b1bf
000000c0: 97f1 4fbf 2948 9c3f 6706 09bf aae5 d63f
000000d0: 14b0 583f 5c3a cabf 72f2 b0bf fa2c 503f
000000e0: 7e36 b43f a108 a4bf ecb8 56bf 76ad bc3f
000000f0: f113 5a3f bbba 853f 13c6 6abf e204 49bd
00000100: e9be 223e 548c 823f 4e4f bb3f 98d2 b5bf
00000110: 26a6 a1bf 4ec3 9c3d 4a68 613d 2284 bcbf
00000120: 81a8 a33f c154 9abf c9d0 98be 4ea7 233f
00000130: 8837 aabf 1d51 82bf 0ff3 293f 0a50 8cbf
00000140: 1f33 75bf 6cb8 f83d 8db6 51bf 50a6 87bf
00000150: ecf6 69bf 6398 9fbe be6a c13f fc4b a03f
00000160: 394f fdbe c3ef a5bf 0a0d d5bf 1766 b1bf
00000170: b9bb aabe 98d5 51bf 2f08 ae3f 42e7 0dbf
00000180: de8d 85bf 4f31 c13f 7c95 243e 3e6d b0bf
00000190: ec2b 28bf 9fde 9ebf 42e7 11bf 668b 343f
000001a0: 11a0 a33f 5ad8 5dbf 7a30 af3f 2970 8f3f
000001b0: a24d 903f 920e 043d 1094 9a3d c028 f8be
000001c0: 76a8 1bbf 311e 47bf c72a 8f3f 586e 55bf
000001d0: 3eba c33f c36a 2fbf 648f ac3f 790e a93f
000001e0: 7ce0 c93f 496b a33f c1bd 543f 7a2b 42bf
000001f0: bd63 93bf 75c8 593b 7a11 71bf 7d60 b63f
00000200: 9827 9abf 07fa 763f 05f2 723f f105 56bf
00000210: b081 a43f 994a a6bf 7b9c 8abf 2fad 88bf
00000220: eb05 453f fb92 47bf 2c95 9b3f 03b2 92bf
00000230: 43ad 9c3f 9014 96bf eaaf 7fbf cda4 87bf
00000240: 7b96 a83f 6775 84bf 5a62 983f 57b6 92bf
00000250: e13e 82bf f9bc 9a3f ecba b6bf 7c88 07bf
00000260: cf0c 993f 7a7c 863f 4540 973e afe0 9fbf
00000270: 7a7b a33f 811b 7abf 55b7 a7bf c54e 893f
00000280: 89bf 99bf 56b1 8e3f 691c 8d3f 2237 993f
00000290: 061d 8c3f bdf5 61bf e02d 07be 382f 8a3f
000002a0: 3db4 8e3f b275 80bf cfda afbf 9856 6cbf
000002b0: 1445 a73f 0d45 8ebf 49fa 933f 03e2 893f
000002c0: 6125 a23f 64a3 9dbf f8b2 93bf 542b 6fbf
000002d0: ed23 98bf fb87 85bf 79c0 923f 5c5b ecbe
000002e0: d8af 2e3f 3c31 923f eede 5b3f 5011 95bf
000002f0: 8ab2 863f a491 7f3f 01d4 af3f 4aaf 893f
00000300: 8443 483f 1f9c a23f 50ce 53bf 5e3a 54bf
00000310: 196d a23b 84b0 833f ecc8 90bf 8120 aa3f
00000320: b5e9 8bbf cc6e 9ebf a381 aebf e2e3 96bf
00000330: 94e4 66bf f166 583f 52e4 b83f df38 a9be
00000340: eb02 4e3f 94d9 6cbf 8cfb a13f abad 7a3f
00000350: 40d2 a23f 424c 543f 5469 9d3f 30fd 77bf
00000360: 8881 96bf 0817 933f 1ca8 803f 4925 5cbf
00000370: 65ab 84bf 56c0 af3f 5cd0 89bf 27b4 9a3f
00000380: 3263 b83f 61f1 22bf a361 9b3f a943 063f
00000390: 156d a13f b4ad 9d3f 316b 633f e236 abbf
000003a0: 2a43 87bf 52e3 97bf a063 8cbf 4ad6 59bf
000003b0: 9ca9 80bf 052a a33f f861 ac3f 43e5 633f
000003c0: 5b52 1ebf 6eba 973f b3fd c93d b58d a3bf
000003d0: 8e21 4b3d 372f aa3f 6ae3 65bf f28f 963f
000003e0: 4077 2bbf a5dd 7b3f 4d09 86bf 3072 163f
000003f0: f857 9abf 2741 653f 57d0 9fbf 8243 b1bf

layer_list.conv2.lin_dst.weight f4 [7, 64]
-0.99529934 -1.3308239 -1.2614596 1.5339644 -1.4862425 0.9751648 0.106261 -0.62913597
0.256679 1.3001773 0.045441974 -0.70707625 -0.39572072 -0.856478 -0.6459046 1.372871
-1.225053 -0.64907634 -1.0410122 0.05946531 -0.51416034 -1.2215594 0.45292646 1.0738757
-1.3110536 0.6092503 -0.22664386 1.0417472 -0.8899499 -0.8125267 1.2159554 0.11393568
-0.87220657 -0.8060822 -1.2541902 0.56728935 -0.062609345 -1.2304598 1.1633908 -0.48460582
-1.2699379 0.58031315 1.1278847 -1.1008202 -1.1287695 1.1279902 -1.0891354 -1.3901696
-0.8122801 1.2209522 -0.53525394 1.6788838 0.84643674 -1.579906 -1.3823988 0.8131863
1.407913 -1.2815133 -0.8387592 1.4740436 0.8518668 1.0447611 -0.9170849 -0.049076922
0.15893139 1.0199075 1.4633577 -1.4204893 -1.262883 0.07654439 0.0550311 -1.4727824
1.2785798 -1.2057115 -0.2984679 0.6392716 -1.3298197 -1.0181004 0.66386503 -1.0961926
-0.9578113 0.12144551 -0.81919175 -1.059763 -0.913924 -0.3117095 1.51107 1.2523189
-0.49474505 -1.2963794 -1.6644604 -1.385928 -0.33346346 -0.81966543 1.3596247 -0.55430996
-1.043392 1.5093173 0.16072649 -1.3783338 -0.6569202 -1.2411689 -0.56993496 0.70525205
1.2783223 -0.8665825 1.3686669 1.1206104 1.1273692 0.032240458 0.07547772 -0.4846859
-0.60803926 -0.77780443 1.118493 -0.83371496 1.5291212 -0.6852228 1.3481259 1.3207542
1.5771632 1.2767116 0.8310204 -0.7584759 -1.1514813 0.0033231054 -0.9416729 1.4248196
-1.2043333 0.9647526 0.9490054 -0.83602816 1.2852077 -1.2991515 -1.0829004 -1.0677851
0.76962155 -0.7795865 1.2154899 -1.1460575 1.2240375 -1.1725025 -0.998778 -1.0597168
1.3170923 -1.0348328 1.1905015 -1.1461896 -1.0175439 1.208892 -1.4275794 -0.52942634
1.1957034 1.0506737 0.2954122 -1.2490443 1.2772057 -0.9769822 -1.3102823 1.0727164
-1.2011577 1.1147869 1.1024295 1.196995 1.0946357 -0.8826559 -0.13201094 1.079566
1.1148754 -1.0035918 -1.373865 -0.9231963 1.3067956 -1.1114823 1.1560756 1.0772098
1.2667657 -1.2315488 -1.1538992 -0.9342549 -1.1885964 -1.0432123 1.1464988 -0.46163452
0.68237066 1.1421275 0.8588704 -1.1645908 1.0523236 0.99831605 1.3736573 1.0756619
0.7822802 1.2703894 -0.8273668 -0.8290156 0.004956853 1.0288243 -1.1311316 1.329117
-1.0930697 -1.2377563 -1.3633312 -1.1788294 -0.9019253 0.84532076 1.4444678 -0.33051202
0.804732 -0.925195 1.2654891 0.97921246 1.2720413 0.8292886 1.2297769 -0.9687071
-1.175828 1.1491404 1.0051303 -0.8599439 -1.0364805 1.3730571 -1.0766711 1.2086228
1.4405272 -0.63649565 1.2139171 0.5244699 1.2611414 1.2318635 0.88835436 -1.3376124
-1.0567372 -1.1866248 -1.0967903 -0.85092604 -1.0051761 1.2747198 1.3467398 0.890217
-0.61844414 1.1853769 0.098628424 -1.277762 0.049592547 1.3295659 -0.8980013 1.1762679
-0.66978836 0.9838508 -1.0471588 0.58767986 -1.2058096 0.8955254 -1.2485455 -1.3848727
00000000: f0cb 7ebf 7058 aabf 8277 a1bf f258 c43f
00000010: 323d bebf 66a4 793f 5e9f d93d 0e0f 21bf
00000020: 6e6b 833e 366c a63f 5d21 3a3d f302 35bf
00000030: e89b cabe 2442 5bbf 015a 25bf 3dba af3f
00000040: 89ce 9cbf de29 26bf e33f 85bf e691 733d
00000050: 03a0 03bf 0f5c 9cbf fae5 e73e c274 893f
00000060: 9bd0 a7bf d4f7 1b3f 5415 68be f957 853f
00000070: c2d3 63bf c001 50bf 6da4 9b3f 1c57 e93d
00000080: ee48 5fbf 675b 4ebf 4e89 a0bf e039 113f
00000090: 5439 80bd b57f 9dbf fde9 943f 411e f8be
000000a0: 538d a2bf 678f 143f 875e 903f ade7 8cbf
000000b0: 857b 90bf fc61 903f ca68 8bbf 14f1 b1bf
000000c0: 97f1 4fbf 2948 9c3f 6706 09bf aae5 d63f
000000d0: 14b0 583f 5c3a cabf 72f2 b0bf fa2c 503f
000000e0: 7e36 b43f a108 a4bf ecb8 56bf 76ad bc3f
000000f0: f113 5a3f bbba 853f 13c6 6abf e204 49bd
00000100: e9be 223e 548c 823f 4e4f bb3f 98d2 b5bf
00000110: 26a6 a1bf 4ec3 9c3d 4a68 613d 2284 bcbf
00000120: 81a8 a33f c154 9abf c9d0 98be 4ea7 233f
00000130: 8837 aabf 1d51 82bf 0ff3 293f 0a50 8cbf
00000140: 1f33 75bf 6cb8 f83d 8db6 51bf 50a6 87bf
00000150: ecf6 69bf 6398 9fbe be6a c13f fc4b a03f
00000160: 394f fdbe c3ef a5bf 0a0d d5bf 1766 b1bf
00000170: b9bb aabe 98d5 51bf 2f08 ae3f 42e7 0dbf
00000180: de8d 85bf 4f31 c13f 7c95 243e 3e6d b0bf
00000190: ec2b 28bf 9fde 9ebf 42e7 11bf 668b 343f
000001a0: 11a0 a33f 5ad8 5dbf 7a30 af3f 2970 8f3f
000001b0: a24d 903f 920e 043d 1094 9a3d c028 f8be
000001c0: 76a8 1bbf 311e 47bf c72a 8f3f 586e 55bf
000001d0: 3eba c33f c36a 2fbf 648f ac3f 790e a93f
000001e0: 7ce0 c93f 496b a33f c1bd 543f 7a2b 42bf
000001f0: bd63 93bf 75c8 593b 7a11 71bf 7d60 b63f
00000200: 9827 9abf 07fa 763f 05f2 723f f105 56bf
00000210: b081 a43f 994a a6bf 7b9c 8abf 2fad 88bf
00000220: eb05 453f fb92 47bf 2c95 9b3f 03b2 92bf
00000230: 43ad 9c3f 9014 96bf eaaf 7fbf cda4 87bf
00000240: 7b96 a83f 6775 84bf 5a62 983f 57b6 92bf
00000250: e13e 82bf f9bc 9a3f ecba b6bf 7c88 07bf
00000260: cf0c 993f 7a7c 863f 4540 973e afe0 9fbf
00000270: 7a7b a33f 811b 7abf 55b7 a7bf c54e 893f
00000280: 89bf 99bf 56b1 8e3f 691c 8d3f 2237 993f
00000290: 061d 8c3f bdf5 61bf e02d 07be 382f 8a3f
000002a0: 3db4 8e3f b275 80bf cfda afbf 9856 6cbf
000002b0: 1445 a73f 0d45 8ebf 49fa 933f 03e2 893f
000002c0: 6125 a23f 64a3 9dbf f8b2 93bf 542b 6fbf
000002d0: ed23 98bf fb87 85bf 79c0 923f 5c5b ecbe
000002e0: d8af 2e3f 3c31 923f eede 5b3f 5011 95bf
000002f0: 8ab2 863f a491 7f3f 01d4 af3f 4aaf 893f
00000300: 8443 483f 1f9c a23f 50ce 53bf 5e3a 54bf
00000310: 196d a23b 84b0 833f ecc8 90bf 8120 aa3f
00000320: b5e9 8bbf cc6e 9ebf a381 aebf e2e3 96bf
00000330: 94e4 66bf f166 583f 52e4 b83f df38 a9be
00000340: eb02 4e3f 94d9 6cbf 8cfb a13f abad 7a3f
00000350: 40d2 a23f 424c 543f 5469 9d3f 30fd 77bf
00000360: 8881 96bf 0817 933f 1ca8 803f 4925 5cbf
00000370: 65ab 84bf 56c0 af3f 5cd0 89bf 27b4 9a3f
00000380: 3263 b83f 61f1 22bf a361 9b3f a943 063f
00000390: 156d a13f b4ad 9d3f 316b 633f e236 abbf
000003a0: 2a43 87bf 52e3 97bf a063 8cbf 4ad6 59bf
000003b0: 9ca9 80bf 052a a33f f861 ac3f 43e5 633f
000003c0: 5b52 1ebf 6eba 973f b3fd c93d b58d a3bf
000003d0: 8e21 4b3d 372f aa3f 6ae3 65bf f28f 963f
000003e0: 4077 2bbf a5dd 7b3f 4d09 86bf 3072 163f
000003f0: f857 9abf 2741 653f 57d0 9fbf 8243 b1bf
