vanilla_models/Cora/5_3f_85/split2/init1/GAT_dp0_5_5e_4_f0.pt (torch, 372919 bytes, 10 tensors)

layer_list.conv1.att_src f4 [1, 8, 8]
-0.07190054 0.15600674 0.12641677 -0.14775 0.12642533 -0.21518919 0.096074775 0.0068522296
-0.018957537 0.2831159 0.103788756 -0.4845309 0.5401881 0.17185773 -0.44095036 0.23565313
-0.2805257 0.45523497 -0.40952778 -0.09446252 0.29941568 0.10706112 -0.15027945 0.01993965
-0.37617117 0.28419667 -0.30484927 0.57691044 -0.14259441 -0.4993732 -0.19170617 0.121641435
0.012128011 -0.3706539 -0.42833605 0.23058735 -0.27736118 -0.1106162 -0.20621964 -0.30958652
0.3847703 -0.7086982 -0.32220793 -0.6064153 0.07134054 0.07649169 -0.6520896 -0.3655098
-0.21525505 -0.08032772 0.5001156 -0.5270011 -0.48978123 -0.1075084 0.30191818 0.355889
0.371027 -0.20677231 -0.18044476 0.49204847 -0.24997641 -0.11124615 -0.58535576 0.022408001
00000000: 9740 93bd 3bc0 1f3e 6673 013e c74b 17be
00000010: a475 013e 8e5a 5cbe dac2 c43d ab88 e03b
00000020: d64c 9bbc 91f4 903e 338f d43d 6f14 f8be
00000030: c449 0a3f 79fb 2f3e 3fc4 e1be 0e4f 713e
00000040: 11a1 8fbe 8f14 e93e a0ad d1be 9175 c1bd
00000050: 034d 993e dc42 db3d dbe2 19be 7a58 a33c
00000060: 8299 c0be 3a82 913e 3415 9cbe 67b0 133f
00000070: 4504 12be d8ad ffbe 9f4e 44be 251f f93d
00000080: 91b4 463c 59c6 bdbe dd4e dbbe 171f 6c3e
00000090: 4902 8ebe bf8a e2bd 3e2b 53be 2082 9ebe
000000a0: 9d00 c53e 3f6d 35bf 70f8 a4be 083e 1bbf
000000b0: fd1a 923d ada7 9c3d 58ef 26bf 1a24 bbbe
000000c0: d26b 5cbe dc82 a4bd 9307 003f 8be9 06bf
000000d0: 9bc4 fabe 5d2d dcbd 0595 9a3e 1537 b63e
000000e0: 40f7 bd3e 1fbc 53be 83c6 38be c7ed fb3e
000000f0: d1f9 7fbe 06d5 e3bd e0d9 15bf fc90 b73c

layer_list.conv1.att_dst f4 [1, 8, 8]
-0.18682721 0.0800147 0.11072066 0.009034913 0.08854235 -0.16893287 0.121192575 -0.14669327
0.035401594 0.12888825 -0.009293421 -0.10600103 0.034175295 -0.02270593 -0.20165183 0.16664128
-0.1603798 0.13997754 -0.1737631 -0.09726529 0.14405347 -0.01790123 -0.03151206 -0.02719432
-0.12733553 -0.026988266 -0.0721534 -0.01669756 0.026604174 -0.06092334 0.071804605 0.11946529
-0.085923925 -0.13946265 -0.22026016 0.13608578 -0.1909148 -0.10973017 0.017428275 -0.11533265
0.016974464 -0.19574079 -0.067844465 -0.14967111 -0.0047239168 0.046510022 -0.13871743 0.017942473
-0.014475189 0.014727697 0.119207926 -0.123285584 -0.17015141 -0.06873357 0.11908389 0.09903461
0.123099975 -0.02573626 0.01626729 0.11167782 -0.076879576 0.02054511 -0.14681329 0.06508403
00000000: a24f 3fbe bfde a33d 83c1 e23d 2c07 143c
00000010: b155 b53d bdfc 2cbe d033 f83d c336 16be
00000020: 4301 113d 48fb 033e 6f43 18bc 1117 d9bd
00000030: 65fb 0b3d c901 babc d17d 4ebe 03a4 2a3e
00000040: 9a3a 24be 4656 0f3e f4ee 31be 0633 c7bd
00000050: c182 133e 9aa5 92bc ca12 01bd 9fc6 debc
00000060: 3f64 02be 7f16 ddbc 29c5 93bd 52c9 88bc
00000070: fff0 d93c c18a 79bd 4b0e 933d 38aa f43d
00000080: e2f8 afbd 4ccf 0ebe e18b 61be 125a 0b3e
00000090: 2b7f 43be 36ba e0bd bec5 8e3c 8633 ecbd
000000a0: 080e 8b3c 4670 48be 0af2 8abd 6243 19be
000000b0: 16cb 9abb 4b81 3e3d f10b 0ebe 18fc 923c
000000c0: 5829 6dbc 704c 713c 4923 f43d 277d fcbd
000000d0: 2c3c 2ebe 30c4 8cbd 41e2 f33d a8d2 ca3d
000000e0: d71b fc3d d9d4 d2bc fb42 853c 57b7 e43d
000000f0: 0a73 9dbd 384e a83c 3956 16be c74a 853d

layer_list.conv1.bias f4 [64]
-0.006921715 0.010182099 0.08112055 0.013254889 0.04142893 -0.014333657 0.06952052 -0.012693833
-0.030915074 -0.013391872 0.011764531 -0.016244065 0.004414106 0.011591737 0.02005776 -0.0033138974
0.030644428 -0.011788772 0.033536315 -0.0042889463 0.016591465 -0.0122340545 0.054100215 0.05053989
-0.014320482 -0.003630528 0.05041852 0.0007613389 0.03609806 0.023580665 0.050548147 -0.00030090482
-0.029431092 -0.020916022 0.00038695865 -0.0040091113 -0.017451435 0.006095614 0.018259516 -0.012152794
-0.01661493 0.03189852 0.06885681 0.021009982 0.012784449 0.006733089 0.04888109 0.03332902
-0.015267119 0.0017812187 -0.0136847105 0.042956613 0.099933766 0.050228037 0.026158681 0.008423446
0.037209943 0.024889467 0.0080359075 0.00017608238 0.039219607 0.053333346 0.08105752 0.0070256605
00000000: 8ecf e2bb d2d2 263c 8822 a63d 092b 593c
00000010: 62b1 293d b7d7 6abc c660 8e3d cbf9 4fbc
00000020: 9c41 fdbc 9569 5bbc 05c0 403c 4612 85bc
00000030: 34a4 903b 45eb 3d3c 2c50 a43c f92d 59bb
00000040: 060a fb3c b225 41bc 605d 093d 4a8a 8cbb
00000050: d3ea 873c 5871 48bc 3098 5d3d ea02 4f3d
00000060: 74a0 6abc 27ee 6dbb a683 4e3d 9794 473a
00000070: 8fdb 133d 3d2c c13c 930b 4f3d c3c2 9db9
00000080: 7919 f1bc 1458 abbc b6e0 ca39 dd5e 83bb
00000090: 50f6 8ebc b7bd c73b fb94 953c 831c 47bc
000000a0: 091c 88bc 06a8 023d cd04 8d3d 201d ac3c
000000b0: de75 513c 3fa1 dc3b 8a37 483d 0384 083d
000000c0: f022 7abc c877 e93a d635 60bc 46f3 2f3d
000000d0: 13aa cc3d eabb 4d3d bb4a d63c 7e02 0a3c
000000e0: 7469 183d ffe4 cb3c 0aa9 033c c1a2 3839
000000f0: bda4 203d 1174 5a3d 7c01 a63d 8337 e63b

layer_list.conv1.lin_src.weight f4 [64, 1433]
0.054444607 0.0643621 0.05250722 0.10071212 -0.5302601 -0.0475045 0.107349835 0.15198162
-0.09109191 -0.013188776 0.09153428 0.0067709847 -0.14763092 0.004152603 -0.08643619 -0.0027181052
-0.035344463 -0.032890778 -0.023566052 -0.3102698 0.02799663 0.016946193 -0.021243928 0.015845466
0.009621722 -0.033985734 -0.068714246 -0.037168227 0.011477812 0.017760767 -0.07239787 0.017066736
-0.09756786 0.03322683 0.018457178 0.06484662 -0.019328436 0.010960707 0.2175081 0.17948657
-0.3614588 0.12550433 -0.047299948 -0.0018636214 0.050948225 0.04843668 0.011215024 0.040345058
-0.12920403 0.17877226 -0.06227833 0.3193987 -0.16322902 -0.060670387 -0.13054201 0.057826277
0.12991135 0.01785865 0.09008124 0.030947436 -0.016914638 0.13397194 -0.036823876 0.14093861
-0.06341678 -0.21951784 -0.014802406 -0.00046049 -0.019152978 0.010774256 -0.055941414 -0.02484955
-0.042256545 -0.107709356 -0.043903343 -0.080662 -0.1398161 0.09733834 -0.09057879 -0.008882746
0.12889677 -0.15485431 0.051060766 -0.034436654 0.059093613 -0.24901342 -0.08814768 -0.14838305
-0.28072572 0.0903321 -0.033887252 0.026815707 0.058026865 -0.13309738 0.03329593 -0.010569304
0.021322267 0.00961881 0.077946916 0.41074973 0.0475695 0.021691747 0.09901041 -0.14792731
0.05369164 -0.143101 -0.07257256 -0.070474975 -0.038883638 -0.019386055 -0.04469746 0.0124505935
0.03987017 0.029836576 0.031286124 0.036924705 0.005915446 -0.044061627 0.26008424 0.010607822
-0.02103972 -0.20531611 0.1252974 -0.10778958 -0.015441325 -0.05870145 0.034232616 0.06291736
-0.05197776 0.16231586 -0.031289835 0.08237599 0.18964465 0.029330462 -0.0016887074 -0.14684466
-0.22352311 0.093316115 -0.016326018 -0.043921374 0.4211455 -0.038527075 -0.094196014 -0.1811497
0.08019814 0.004205737 -0.099070296 -0.057435203 -0.016900038 -0.18502584 -0.15849943 -0.021369427
-0.011879512 -0.11126323 0.04902412 0.010076846 -0.026997078 -0.11389396 0.011332952 0.0011297528
-0.010227023 0.057842538 0.091836825 0.051667757 0.014385549 0.005146028 -0.018426325 -0.19939825
-0.05811896 -0.0372264 0.05060362 0.018300027 0.04326563 -0.02565742 -0.063712336 -0.12874138
0.09838287 -0.0978167 -0.030035077 -0.055237282 -0.03370584 0.027859015 -0.019927839 0.046069805
0.017857505 0.028666316 0.098590024 -0.05855977 -0.12827252 0.047531463 -0.0013333594 0.09705719
-0.03863792 -0.16289362 0.14719966 -0.044184525 0.058723096 -0.049408674 -0.0065820385 0.012659629
-0.20097685 -0.114938565 -0.12327957 0.020388955 -0.02152191 0.09593349 0.04541325 -0.10934346
0.07401235 0.023429042 0.025489982 0.23655151 0.09995777 0.079237394 0.055240374 0.030184424
0.009596401 -0.15092884 -0.15417638 0.01402359 -0.03885453 -0.028403034 0.027973553 0.011065748
-0.12944669 0.087113865 -0.13167734 -0.07720725 0.043711778 0.055483207 -0.004324333 -0.052086726
0.032554254 -0.062701955 -0.26331398 -0.014453403 -0.09143189 0.16230872 -0.07511681 -0.006684753
-0.039006103 0.011487652 -0.006365893 0.004869936 -0.11015549 0.05725787 0.15103754 0.15496665
-0.00689051 0.028092088 0.21856932 -0.043535445 -0.13617852 0.027015299 -0.05888591 -0.012457
00000000: 4f01 5f3d 47d0 833d d011 573d 2842 ce3d
00000010: 20bf 07bf 1494 42bd 3bda db3d 12a1 1b3e
00000020: 658e babd bc15 58bc 5376 bb3d 23df dd3b
00000030: 8f2c 17be 8f12 883b 7505 b1bd 3d22 32bb
00000040: 5bc5 10bd 7bb8 06bd 980d c1bc afdb 9ebe
00000050: 3059 e53c bed2 8a3c bf07 aebc 5ace 813c
00000060: 6da4 1d3c a034 0bbd 0eba 8cbd b63d 18bd
00000070: 6f0d 3c3c 077f 913c 5645 94bd 8acf 8b3c
00000080: a8d1 c7bd db18 083d 8233 973c 4ece 843d
00000090: ab56 9ebc 8a94 333c 72ba 5e3e 54cb 373e
000000a0: 2111 b9be 3584 003e 97bd 41bd c244 f4ba
000000b0: 16af 503d 8a65 463d 38bf 373c dc40 253d
000000c0: 104e 04be 1310 373e 9017 7fbd 3a88 a33e
000000d0: 8225 27be 8381 78bd ceac 05be 3fdb 6c3d
000000e0: 7b07 053e 4e4c 923c 837c b83d 7a85 fd3c
000000f0: 9190 8abc f12f 093e a2d4 16bd 3652 103e
00000100: a8e0 81bd 49c9 60be ca85 72bc ec6d f1b9
00000110: b5e6 9cbc 8186 303c d322 65bd 4991 cbbc
00000120: 3315 2dbd b996 dcbd fed3 33bd 1e32 a5bd
00000130: f42b 0fbe 5359 c73d 5f81 b9bd f088 11bc
00000140: 84fd 033e 2192 1ebe 1825 513d 730d 0dbd
00000150: 250c 723d 60fd 7ebe c586 b4bd baf1 17be
00000160: 48bb 8fbe 0900 b93d 5ccd 0abd 9dac db3c
00000170: 94ad 6d3d ae4a 08be 5061 083d e02a 2dbc
00000180: 09ac ae3c 3798 1d3c a2a2 9f3d ca4d d23e
00000190: 3cd8 423d e4b2 b13c f8c5 ca3d 427a 17be
000001a0: c4eb 5b3d 1289 12be eca0 94bd 2f55 90bd
000001b0: 7344 1fbd 81cf 9ebc af14 37bd 93fd 4b3c
000001c0: e74e 233d d66b f43c e125 003d 5c3e 173d
000001d0: 5cd6 c13b f779 34bd c329 853e 6ecc 2d3c
000001e0: 7e5b acbc 633e 52be f64d 003e c9c0 dcbd
000001f0: 9cfd 7cbc ee70 70bd 8037 0c3d d1da 803d
00000200: a2e6 54bd 2136 263e c529 00bd beb4 a83d
00000210: 3532 423e 7046 f03c 9e57 ddba 725e 16be
00000220: 3ee3 64be 851c bf3d 24be 85bc e6e6 33bd
00000230: 62a0 d73e 91ce 1dbd d7e9 c0bd 4f7f 39be
00000240: ec3e a43d 47d0 893b 5ee5 cabd 2d41 6bbd
00000250: f371 8abc 6a77 3dbe ad4d 22be f00e afbc
00000260: 49a2 42bc fadd e3bd 84cd 483d 5b19 253c
00000270: fa28 ddbc 3d41 e9bd d9ad 393c 3714 943a
00000280: 3e8f 27bc 4cec 6c3d f214 bc3d 92a1 533d
00000290: 5eb1 6b3c 03a0 a83b cef2 96bc 0e2f 4cbe
000002a0: 260e 6ebd b67a 18bd be45 4f3d f0e9 953c
000002b0: 4d37 313d 822f d2bc 9d7b 82bd c8d4 03be
000002c0: f57c c93d 1f54 c8bd 1f0c f6bc 7d40 62bd
000002d0: 230f 0abd 9738 e43c b53f a3bc b1b3 3c3d
000002e0: e749 923c 9fd5 ea3c 91e9 c93d 5fdc 6fbd
000002f0: df59 03be 5ab0 423d 1ec4 aeba ecc5 c63d
00000300: cc42 1ebd 96cd 26be 82bb 163e d5fa 34bd
00000310: a187 703d c060 4abd 24ae d7bb 556a 4f3c
00000320: e0cc 4dbe e964 ebbd 007a fcbd bd06 a73c
00000330: b74e b0bc c778 c43d 3e03 3a3d 77ef dfbd
00000340: c993 973d 43ee bf3c 5ed0 d03c 8f3a 723e
00000350: a9b6 cc3d 3747 a23d bb43 623d 5345 f73c
00000360: 393a 1d3c 178d 1abe 6ae0 1dbe 33c3 653c
00000370: ed25 1fbd 7bad e8bc cb28 e53c 1c4d 353c
00000380: ac8d 04be c168 b23d 6dd6 06be d61e 9ebd
00000390: 1f0b 333d 5c42 633d 22b3 8dbb e458 55bd
000003a0: 9c57 053d e269 80bd 17d1 86be f7cd 6cbc
000003b0: a540 bbbd 4234 263e d8d6 99bd c60b dbbb
000003c0: ddc4 1fbd b436 3c3c fb98 d0bb fc93 9f3b
000003d0: 3499 e1bd 3a87 6a3d 96a9 1a3e 94af 1e3e
000003e0: cac9 e1bb 6121 e63c a3d0 5f3e 3952 32bd
000003f0: 6272 0bbe 304f dd3c 5a32 71bd 7218 4cbc

layer_list.conv1.lin_dst.weight f4 [64, 1433]
0.054444607 0.0643621 0.05250722 0.10071212 -0.5302601 -0.0475045 0.107349835 0.15198162
-0.09109191 -0.013188776 0.09153428 0.0067709847 -0.14763092 0.004152603 -0.08643619 -0.0027181052
-0.035344463 -0.032890778 -0.023566052 -0.3102698 0.02799663 0.016946193 -0.021243928 0.015845466
0.009621722 -0.033985734 -0.068714246 -0.037168227 0.011477812 0.017760767 -0.07239787 0.017066736
-0.09756786 0.03322683 0.018457178 0.06484662 -0.019328436 0.010960707 0.2175081 0.17948657
-0.3614588 0.12550433 -0.047299948 -0.0018636214 0.050948225 0.04843668 0.011215024 0.040345058
-0.12920403 0.17877226 -0.06227833 0.3193987 -0.16322902 -0.060670387 -0.13054201 0.057826277
0.12991135 0.01785865 0.09008124 0.030947436 -0.016914638 0.13397194 -0.036823876 0.14093861
-0.06341678 -0.21951784 -0.014802406 -0.00046049 -0.019152978 0.010774256 -0.055941414 -0.02484955
-0.042256545 -0.107709356 -0.043903343 -0.080662 -0.1398161 0.09733834 -0.09057879 -0.008882746
0.12889677 -0.15485431 0.051060766 -0.034436654 0.059093613 -0.24901342 -0.08814768 -0.14838305
-0.28072572 0.0903321 -0.033887252 0.026815707 0.058026865 -0.13309738 0.03329593 -0.010569304
0.021322267 0.00961881 0.077946916 0.41074973 0.0475695 0.021691747 0.09901041 -0.14792731
0.05369164 -0.143101 -0.07257256 -0.070474975 -0.038883638 -0.019386055 -0.04469746 0.0124505935
0.03987017 0.029836576 0.031286124 0.036924705 0.005915446 -0.044061627 0.26008424 0.010607822
-0.02103972 -0.20531611 0.1252974 -0.10778958 -0.015441325 -0.05870145 0.034232616 0.06291736
-0.05197776 0.16231586 -0.031289835 0.08237599 0.18964465 0.029330462 -0.0016887074 -0.14684466
-0.22352311 0.093316115 -0.016326018 -0.043921374 0.4211455 -0.038527075 -0.094196014 -0.1811497
0.08019814 0.004205737 -0.099070296 -0.057435203 -0.016900038 -0.18502584 -0.15849943 -0.021369427
-0.011879512 -0.11126323 0.04902412 0.010076846 -0.026997078 -0.11389396 0.011332952 0.0011297528
-0.010227023 0.057842538 0.091836825 0.051667757 0.014385549 0.005146028 -0.018426325 -0.19939825
-0.05811896 -0.0372264 0.05060362 0.018300027 0.04326563 -0.02565742 -0.063712336 -0.12874138
0.09838287 -0.0978167 -0.030035077 -0.055237282 -0.03370584 0.027859015 -0.019927839 0.046069805
0.017857505 0.028666316 0.098590024 -0.05855977 -0.12827252 0.047531463 -0.0013333594 0.09705719
-0.03863792 -0.16289362 0.14719966 -0.044184525 0.058723096 -0.049408674 -0.0065820385 0.012659629
-0.20097685 -0.114938565 -0.12327957 0.020388955 -0.02152191 0.09593349 0.04541325 -0.10934346
0.07401235 0.023429042 0.025489982 0.23655151 0.09995777 0.079237394 0.055240374 0.030184424
0.009596401 -0.15092884 -0.15417638 0.01402359 -0.03885453 -0.028403034 0.027973553 0.011065748
-0.12944669 0.087113865 -0.13167734 -0.07720725 0.043711778 0.055483207 -0.004324333 -0.052086726
0.032554254 -0.062701955 -0.26331398 -0.014453403 -0.09143189 0.16230872 -0.07511681 -0.006684753
-0.039006103 0.011487652 -0.006365893 0.004869936 -0.11015549 0.05725787 0.15103754 0.15496665
-0.00689051 0.028092088 0.21856932 -0.043535445 -0.13617852 0.027015299 -0.05888591 -0.012457
00000000: 4f01 5f3d 47d0 833d d011 573d 2842 ce3d
00000010: 20bf 07bf 1494 42bd 3bda db3d 12a1 1b3e
00000020: 658e babd bc15 58bc 5376 bb3d 23df dd3b
00000030: 8f2c 17be 8f12 883b 7505 b1bd 3d22 32bb
00000040: 5bc5 10bd 7bb8 06bd 980d c1bc afdb 9ebe
00000050: 3059 e53c bed2 8a3c bf07 aebc 5ace 813c
00000060: 6da4 1d3c a034 0bbd 0eba 8cbd b63d 18bd
00000070: 6f0d 3c3c 077f 913c 5645 94bd 8acf 8b3c
00000080: a8d1 c7bd db18 083d 8233 973c 4ece 843d
00000090: ab56 9ebc 8a94 333c 72ba 5e3e 54cb 373e
000000a0: 2111 b9be 3584 003e 97bd 41bd c244 f4ba
000000b0: 16af 503d 8a65 463d 38bf 373c dc40 253d
000000c0: 104e 04be 1310 373e 9017 7fbd 3a88 a33e
000000d0: 8225 27be 8381 78bd ceac 05be 3fdb 6c3d
000000e0: 7b07 053e 4e4c 923c 837c b83d 7a85 fd3c
000000f0: 9190 8abc f12f 093e a2d4 16bd 3652 103e
00000100: a8e0 81bd 49c9 60be ca85 72bc ec6d f1b9
00000110: b5e6 9cbc 8186 303c d322 65bd 4991 cbbc
00000120: 3315 2dbd b996 dcbd fed3 33bd 1e32 a5bd
00000130: f42b 0fbe 5359 c73d 5f81 b9bd f088 11bc
00000140: 84fd 033e 2192 1ebe 1825 513d 730d 0dbd
00000150: 250c 723d 60fd 7ebe c586 b4bd baf1 17be
00000160: 48bb 8fbe 0900 b93d 5ccd 0abd 9dac db3c
00000170: 94ad 6d3d ae4a 08be 5061 083d e02a 2dbc
00000180: 09ac ae3c 3798 1d3c a2a2 9f3d ca4d d23e
00000190: 3cd8 423d e4b2 b13c f8c5 ca3d 427a 17be
000001a0: c4eb 5b3d 1289 12be eca0 94bd 2f55 90bd
000001b0: 7344 1fbd 81cf 9ebc af14 37bd 93fd 4b3c
000001c0: e74e 233d d66b f43c e125 003d 5c3e 173d
000001d0: 5cd6 c13b f779 34bd c329 853e 6ecc 2d3c
000001e0: 7e5b acbc 633e 52be f64d 003e c9c0 dcbd
000001f0: 9cfd 7cbc ee70 70bd 8037 0c3d d1da 803d
00000200: a2e6 54bd 2136 263e c529 00bd beb4 a83d
00000210: 3532 423e 7046 f03c 9e57 ddba 725e 16be
00000220: 3ee3 64be 851c bf3d 24be 85bc e6e6 33bd
00000230: 62a0 d73e 91ce 1dbd d7e9 c0bd 4f7f 39be
00000240: ec3e a43d 47d0 893b 5ee5 cabd 2d41 6bbd
00000250: f371 8abc 6a77 3dbe ad4d 22be f00e afbc
00000260: 49a2 42bc fadd e3bd 84cd 483d 5b19 253c
00000270: fa28 ddbc 3d41 e9bd d9ad 393c 3714 943a
00000280: 3e8f 27bc 4cec 6c3d f214 bc3d 92a1 533d
00000290: 5eb1 6b3c 03a0 a83b cef2 96bc 0e2f 4cbe
000002a0: 260e 6ebd b67a 18bd be45 4f3d f0e9 953c
000002b0: 4d37 313d 822f d2bc 9d7b 82bd c8d4 03be
000002c0: f57c c93d 1f54 c8bd 1f0c f6bc 7d40 62bd
000002d0: 230f 0abd 9738 e43c b53f a3bc b1b3 3c3d
000002e0: e749 923c 9fd5 ea3c 91e9 c93d 5fdc 6fbd
000002f0: df59 03be 5ab0 423d 1ec4 aeba ecc5 c63d
00000300: cc42 1ebd 96cd 26be 82bb 163e d5fa 34bd
00000310: a187 703d c060 4abd 24ae d7bb 556a 4f3c
00000320: e0cc 4dbe e964 ebbd 007a fcbd bd06 a73c
00000330: b74e b0bc c778 c43d 3e03 3a3d 77ef dfbd
00000340: c993 973d 43ee bf3c 5ed0 d03c 8f3a 723e
00000350: a9b6 cc3d 3747 a23d bb43 623d 5345 f73c
00000360: 393a 1d3c 178d 1abe 6ae0 1dbe 33c3 653c
00000370: ed25 1fbd 7bad e8bc cb28 e53c 1c4d 353c
00000380: ac8d 04be c168 b23d 6dd6 06be d61e 9ebd
00000390: 1f0b 333d 5c42 633d 22b3 8dbb e458 55bd
000003a0: 9c57 053d e269 80bd 17d1 86be f7cd 6cbc
000003b0: a540 bbbd 4234 263e d8d6 99bd c60b dbbb
000003c0: ddc4 1fbd b436 3c3c fb98 d0bb fc93 9f3b
000003d0: 3499 e1bd 3a87 6a3d 96a9 1a3e 94af 1e3e
000003e0: cac9 e1bb 6121 e63c a3d0 5f3e 3952 32bd
000003f0: 6272 0bbe 304f dd3c 5a32 71bd 7218 4cbc

layer_list.conv2.att_src f4 [1, 1, 7]
-0.19898744 0.309875 0.051329844 -0.14346974 0.25905252 0.20812371 -0.46467414
00000000: 5dc3 4bbe f0a7 9e3e 3e3f 523d bbe9 12be
00000010: 88a2 843e 621e 553e c5e9 edbe

layer_list.conv2.att_dst f4 [1, 1, 7]
-0.32104218 0.17857161 -0.081178635 0.16838107 -0.22074586 -0.40066054 -0.1552002
00000000: a45f a4be 7adb 363e fc40 a6bd 166c 2c3e
00000010: 340b 62be 6123 cdbe cdec 1ebe

layer_list.conv2.bias f4 [7]
-0.13069431 -0.38835162 -0.004385023 0.39855328 -0.0046555134 -0.32892257 -0.3778713
00000000: bbd4 05be 06d6 c6be 3db0 8fbb 2d0f cc3e
00000010: 478d 98bb 8a68 a8be 5978 c1be

layer_list.conv2.lin_src.weight f4 [7, 64]
0.69314915 -0.6771598 0.80700153 -0.85950285 -0.32016847 0.34221125 -0.47211817 -0.5560628
-0.26654992 0.67651856 -0.3513625 0.6718297 -0.47056174 -0.62118125 -0.54878235 0.637047
-0.739978 0.5252612 -0.7584073 0.74880624 -0.2837152 0.090061076 -0.31367415 0.733585
-0.5830035 -0.7307878 -0.53482914 0.29261214 0.84782267 -0.5525792 0.046001785 0.7994221
-0.3507557 0.57628685 0.26595432 0.45305973 0.48907027 0.9062252 0.49687213 0.5938992
0.9189824 0.3686825 0.54859346 0.8198179 0.71474683 0.65595424 -0.61397517 0.6711449
0.6112382 0.574688 0.42532068 0.44949952 0.09785978 0.26477808 -0.75005704 -0.8135758
-0.65542114 0.7661099 0.42298102 -0.64710635 0.29426068 0.11006813 0.25353447 0.6850258
0.8985887 -0.18246111 -0.5013318 0.8969966 0.54763395 0.61226255 -0.7798624 0.7468421
-0.21572565 0.6242483 -0.7016214 -0.41999403 0.7664916 0.37030977 -0.63778853 0.61217546
-0.7021991 0.72608864 -0.59360236 -0.88645005 0.21474954 -0.78293324 0.027337657 -0.70412505
0.42639408 0.15429512 -0.63498074 0.45094463 -0.561404 -0.015120679 -0.58864534 0.21194397
0.8973743 -0.879277 0.8466356 -0.6886079 -0.31964588 0.9426737 -0.4304148 0.389878
-0.48502386 0.869915 -0.47555092 0.3232554 0.7073867 -0.5301555 0.3789291 0.39194813
-0.30003402 0.0053024474 0.80251914 -0.6807293 -0.6579912 0.56822395 0.6400863 0.71161705
0.46307203 -0.8137417 0.83692914 0.3740206 -0.5549316 -0.6293785 -0.5162773 0.71612924
0.7864938 0.59396124 -0.6815239 0.6584603 -0.81757224 0.78996956 0.7708335 0.7476627
0.5542666 0.5945931 0.8136402 0.7233108 -0.15535893 -0.6860132 -0.3469058 0.5899855
0.51972365 0.68962777 -0.64916307 -0.63456225 0.8678686 0.72697824 0.8270074 -0.11308782
0.76927066 0.6478965 0.7382688 -0.51799774 0.28722966 -0.6894624 -0.5874764 -0.049594253
0.74314034 0.6575038 0.77825135 -0.6075178 0.8016194 -0.6913912 0.6816389 -0.83372146
0.7345667 -0.80690235 -0.61409885 -0.84726876 0.7914762 0.6948772 -0.8557502 -0.86214405
-0.61933845 -0.5730428 0.54089177 -0.54503876 -0.48002827 0.3038095 -0.33861536 0.6390789
0.82054466 -0.6321711 -0.86854 0.6310161 0.7712894 -0.63240343 -0.580744 -0.6454544
-0.632929 0.6083551 0.3823076 0.69120264 0.7453128 -0.32565832 0.6002045 0.7565435
-0.818847 -0.47286847 -0.19071244 -0.14500152 -0.5778696 -0.75105554 0.7250151 -0.6166799
0.67115813 -0.7351952 0.6980913 -0.4707623 -0.45631564 -0.8256924 0.71829426 0.4820569
-0.4791113 -0.5168311 0.27105424 -0.7911401 -0.59865123 0.8110057 0.56588477 -0.5856197
-0.28368026 -0.8998893 -0.55931026 0.6631973 -0.8203212 -0.28410012 -0.61591285 -0.6898869
-0.4637257 -0.61337185 0.3816761 -0.8294835 -0.11886071 -0.712461 -0.58060396 0.6703219
-0.7633903 -0.7855212 -0.59579176 -0.16312696 0.7297679 0.41220632 -0.6497086 -0.32376388
-0.24961686 0.25449896 -0.47317427 -0.38462043 0.73981744 0.72621506 0.5202831 0.5771654
00000000: 3972 313f 585a 2dbf a797 4e3f 6108 5cbf
00000010: 1fed a3be 5036 af3e 79b9 f1be 225a 0ebf
00000020: 3b79 88be 5230 2d3f c9e5 b3be 08fd 2b3f
00000030: 78ed f0be bc05 1fbf 007d 0cbf 8315 233f
00000040: 336f 3dbf 8577 063f fb26 42bf c4b1 3f3f
00000050: 1e43 91be f171 b83d e699 a0be 3acc 3b3f
00000060: b83f 15bf e914 3bbf 90ea 08bf 42d1 953e
00000070: e80a 593f d575 0dbf 5e6c 3c3d eda6 4c3f
00000080: 4096 b3be 8987 133f 2a2b 883e 72f7 e73e
00000090: 6b67 fa3e 60fe 673f 0666 fe3e c709 183f
000000a0: 6e42 6b3f f4c3 bc3e 9f70 0c3f 96df 513f
000000b0: a6f9 363f 9eec 273f 7a2d 1dbf 27d0 2b3f
000000c0: 1b7a 1c3f c11e 133f a2c3 d93e cd24 e63e
000000d0: b56a c83d fe90 873e bd03 40bf 8146 50bf
000000e0: aec9 27bf c71f 443f f890 d83e c3a8 25bf
000000f0: 56a9 963e 666b e13d 45cf 813e da5d 2f3f
00000100: e909 663f 16d7 3abe 4857 00bf 92a1 653f
00000110: bd31 0c3f 3dbd 1c3f 10a5 47bf 0b31 3f3f
00000120: 2fe7 5cbe bdce 1f3f 769d 33bf 7509 d7be
00000130: cb38 443f 3e99 bd3e 1c46 23bf 88b7 1c3f
00000140: 52c3 33bf f2e0 393f 53f6 17bf 64ee 62bf
00000150: 4ee7 5b3e 506e 48bf 39f3 df3c 8a41 34bf
00000160: 5350 da3e 8aff 1d3e 198e 22bf 37e2 e63e
00000170: 2cb8 0fbf b9bc 77bc 76b1 16bf d707 593e
00000180: 52ba 653f 4c18 61bf 1cbd 583f 9b48 30bf
00000190: a0a8 a3be 1053 713f 545f dcbe 179e c73e
000001a0: 0c55 f8be c0b2 5e3f 697b f3be bb81 a53e
000001b0: 4b17 353f 45b8 07bf ff02 c23e 6dad c83e
000001c0: 0f9e 99be 27c0 ad3b e571 4d3f 4744 2ebf
000001d0: 1c72 28bf 2077 113f b2dc 233f 892c 363f
000001e0: c717 ed3e 6051 50bf fd40 563f a17f bf3e
000001f0: ff0f 0ebf f31e 21bf c02a 04bf 3f54 373f
00000200: a857 493f d80d 183f 5a78 2ebf db90 283f
00000210: 6a4c 51bf 723b 4a3f 5855 453f d366 3f3f
00000220: 6ae4 0d3f 4137 183f b94a 503f e62a 393f
00000230: 6916 1fbe 909e 2fbf a39d b1be 4a09 173f
00000240: 9c0c 053f 728b 303f 8d2f 26bf ac72 22bf
00000250: a32c 5e3f 3f1b 3a3f c2b6 533f 969a e7bd
00000260: ecee 443f 8cdc 253f 2fff 3c3f 809b 04bf
00000270: c40f 933e 9c80 30bf da64 16bf 5823 4bbd
00000280: 723e 3e3f 2b52 283f 7b3b 473f 4986 1bbf
00000290: ee36 4d3f 04ff 30bf e37f 2e3f c56e 55bf
000002a0: 900c 3c3f 2791 4ebf 9535 1dbf 9be6 58bf
000002b0: 2f9e 4a3f 79e3 313f 7212 5bbf 79b5 5cbf
000002c0: f78c 1ebf efb2 12bf e277 0a3f a987 0bbf
000002d0: 44c6 f5be eb8c 9b3e fe5e adbe ad9a 233f
000002e0: 370f 523f f7d5 21bf a358 5ebf 458a 213f
000002f0: 3973 453f 31e5 21bf a4ab 14bf 803c 25bf
00000300: a307 22bf 29bd 1b3f d2bd c33e a8f2 303f
00000310: d2cc 3e3f b0bc a6be 01a7 193f d6ac 413f
00000320: f59f 51bf d11b f2be 1f4a 43be 477b 14be
00000330: 43ef 13bf 2d45 40bf 979a 393f bcde 1dbf
00000340: 05d1 2b3f c135 3cbf 1db6 323f c207 f1be
00000350: 34a2 e9be 9460 53bf 22e2 373f 29d0 f63e
00000360: 144e f5be 0b4f 04bf 9fc7 8a3e 2888 4abf
00000370: 3541 19bf 129e 4f3f d3dd 103f 2ceb 15bf
00000380: 8a3e 91be 255f 66bf f52e 0fbf 4cc7 293f
00000390: 9200 52bf 9275 91be 77ac 1dbf 6e9c 30bf
000003a0: 746d edbe f005 1dbf 0d6b c33e 0859 54bf
000003b0: 3e6d f3bd d863 36bf 76a2 14bf 379a 2b3f
000003c0: 8c6d 43bf eb17 49bf cf85 18bf c10a 27be
000003d0: 12d2 3a3f b50c d33e 4e53 26bf 61c4 a5be
000003e0: 909b 7fbe b04d 823e e643 f2be f8ec c4be
000003f0: ad64 3d3f 3be9 393f 4631 053f 1dc1 133f

layer_list.conv2.lin_dst.weight f4 [7, 64]
0.69314915 -0.6771598 0.80700153 -0.85950285 -0.32016847 0.34221125 -0.47211817 -0.5560628
-0.26654992 0.67651856 -0.3513625 0.6718297 -0.47056174 -0.62118125 -0.54878235 0.637047
-0.739978 0.5252612 -0.7584073 0.74880624 -0.2837152 0.090061076 -0.31367415 0.733585
-0.5830035 -0.7307878 -0.53482914 0.29261214 0.84782267 -0.5525792 0.046001785 0.7994221
-0.3507557 0.57628685 0.26595432 0.45305973 0.48907027 0.9062252 0.49687213 0.5938992
0.9189824 0.3686825 0.54859346 0.8198179 0.71474683 0.65595424 -0.61397517 0.6711449
0.6112382 0.574688 0.42532068 0.44949952 0.09785978 0.26477808 -0.75005704 -0.8135758
-0.65542114 0.7661099 0.42298102 -0.64710635 0.29426068 0.11006813 0.25353447 0.6850258
0.8985887 -0.18246111 -0.5013318 0.8969966 0.54763395 0.61226255 -0.7798624 0.7468421
-0.21572565 0.6242483 -0.7016214 -0.41999403 0.7664916 0.37030977 -0.63778853 0.61217546
-0.7021991 0.72608864 -0.59360236 -0.88645005 0.21474954 -0.78293324 0.027337657 -0.70412505
0.42639408 0.15429512 -0.63498074 0.45094463 -0.561404 -0.015120679 -0.58864534 0.21194397
0.8973743 -0.879277 0.8466356 -0.6886079 -0.31964588 0.9426737 -0.4304148 0.389878
-0.48502386 0.869915 -0.47555092 0.3232554 0.7073867 -0.5301555 0.3789291 0.39194813
-0.30003402 0.0053024474 0.80251914 -0.6807293 -0.6579912 0.56822395 0.6400863 0.71161705
0.46307203 -0.8137417 0.83692914 0.3740206 -0.5549316 -0.6293785 -0.5162773 0.71612924
0.7864938 0.59396124 -0.6815239 0.6584603 -0.81757224 0.78996956 0.7708335 0.7476627
0.5542666 0.5945931 0.8136402 0.7233108 -0.15535893 -0.6860132 -0.3469058 0.5899855
0.51972365 0.68962777 -0.64916307 -0.63456225 0.8678686 0.72697824 0.8270074 -0.11308782
0.76927066 0.6478965 0.7382688 -0.51799774 0.28722966 -0.6894624 -0.5874764 -0.049594253
0.74314034 0.6575038 0.77825135 -0.6075178 0.8016194 -0.6913912 0.6816389 -0.83372146
0.7345667 -0.80690235 -0.61409885 -0.84726876 0.7914762 0.6948772 -0.8557502 -0.86214405
-0.61933845 -0.5730428 0.54089177 -0.54503876 -0.48002827 0.3038095 -0.33861536 0.6390789
0.82054466 -0.6321711 -0.86854 0.6310161 0.7712894 -0.63240343 -0.580744 -0.6454544
-0.632929 0.6083551 0.3823076 0.69120264 0.7453128 -0.32565832 0.6002045 0.7565435
-0.818847 -0.47286847 -0.19071244 -0.14500152 -0.5778696 -0.75105554 0.7250151 -0.6166799
0.67115813 -0.7351952 0.6980913 -0.4707623 -0.45631564 -0.8256924 0.71829426 0.4820569
-0.4791113 -0.5168311 0.27105424 -0.7911401 -0.59865123 0.8110057 0.56588477 -0.5856197
-0.28368026 -0.8998893 -0.55931026 0.6631973 -0.8203212 -0.28410012 -0.61591285 -0.6898869
-0.4637257 -0.61337185 0.3816761 -0.8294835 -0.11886071 -0.712461 -0.58060396 0.6703219
-0.7633903 -0.7855212 -0.59579176 -0.16312696 0.7297679 0.41220632 -0.6497086 -0.32376388
-0.24961686 0.25449896 -0.47317427 -0.38462043 0.73981744 0.72621506 0.5202831 0.5771654
00000000: 3972 313f 585a 2dbf a797 4e3f 6108 5cbf
00000010: 1fed a3be 5036 af3e 79b9 f1be 225a 0ebf
00000020: 3b79 88be 5230 2d3f c9e5 b3be 08fd 2b3f
00000030: 78ed f0be bc05 1fbf 007d 0cbf 8315 233f
00000040: 336f 3dbf 8577 063f fb26 42bf c4b1 3f3f
00000050: 1e43 91be f171 b83d e699 a0be 3acc 3b3f
00000060: b83f 15bf e914 3bbf 90ea 08bf 42d1 953e
00000070: e80a 593f d575 0dbf 5e6c 3c3d eda6 4c3f
00000080: 4096 b3be 8987 133f 2a2b 883e 72f7 e73e
00000090: 6b67 fa3e 60fe 673f 0666 fe3e c709 183f
000000a0: 6e42 6b3f f4c3 bc3e 9f70 0c3f 96df 513f
000000b0: a6f9 363f 9eec 273f 7a2d 1dbf 27d0 2b3f
000000c0: 1b7a 1c3f c11e 133f a2c3 d93e cd24 e63e
000000d0: b56a c83d fe90 873e bd03 40bf 8146 50bf
000000e0: aec9 27bf c71f 443f f890 d83e c3a8 25bf
000000f0: 56a9 963e 666b e13d 45cf 813e da5d 2f3f
00000100: e909 663f 16d7 3abe 4857 00bf 92a1 653f
00000110: bd31 0c3f 3dbd 1c3f 10a5 47bf 0b31 3f3f
00000120: 2fe7 5cbe bdce 1f3f 769d 33bf 7509 d7be
00000130: cb38 443f 3e99 bd3e 1c46 23bf 88b7 1c3f
00000140: 52c3 33bf f2e0 393f 53f6 17bf 64ee 62bf
00000150: 4ee7 5b3e 506e 48bf 39f3 df3c 8a41 34bf
00000160: 5350 da3e 8aff 1d3e 198e 22bf 37e2 e63e
00000170: 2cb8 0fbf b9bc 77bc 76b1 16bf d707 593e
00000180: 52ba 653f 4c18 61bf 1cbd 583f 9b48 30bf
00000190: a0a8 a3be 1053 713f 545f dcbe 179e c73e
000001a0: 0c55 f8be c0b2 5e3f 697b f3be bb81 a53e
000001b0: 4b17 353f 45b8 07bf ff02 c23e 6dad c83e
000001c0: 0f9e 99be 27c0 ad3b e571 4d3f 4744 2ebf
000001d0: 1c72 28bf 2077 113f b2dc 233f 892c 363f
000001e0: c717 ed3e 6051 50bf fd40 563f a17f bf3e
000001f0: ff0f 0ebf f31e 21bf c02a 04bf 3f54 373f
00000200: a857 493f d80d 183f 5a78 2ebf db90 283f
00000210: 6a4c 51bf 723b 4a3f 5855 453f d366 3f3f
00000220: 6ae4 0d3f 4137 183f b94a 503f e62a 393f
00000230: 6916 1fbe 909e 2fbf a39d b1be 4a09 173f
00000240: 9c0c 053f 728b 303f 8d2f 26bf ac72 22bf
00000250: a32c 5e3f 3f1b 3a3f c2b6 533f 969a e7bd
00000260: ecee 443f 8cdc 253f 2fff 3c3f 809b 04bf
00000270: c40f 933e 9c80 30bf da64 16bf 5823 4bbd
00000280: 723e 3e3f 2b52 283f 7b3b 473f 4986 1bbf
00000290: ee36 4d3f 04ff 30bf e37f 2e3f c56e 55bf
000002a0: 900c 3c3f 2791 4ebf 9535 1dbf 9be6 58bf
000002b0: 2f9e 4a3f 79e3 313f 7212 5bbf 79b5 5cbf
000002c0: f78c 1ebf efb2 12bf e277 0a3f a987 0bbf
000002d0: 44c6 f5be eb8c 9b3e fe5e adbe ad9a 233f
000002e0: 370f 523f f7d5 21bf a358 5ebf 458a 213f
000002f0: 3973 453f 31e5 21bf a4ab 14bf 803c 25bf
00000300: a307 22bf 29bd 1b3f d2bd c33e a8f2 303f
00000310: d2cc 3e3f b0bc a6be 01a7 193f d6ac 413f
00000320: f59f 51bf d11b f2be 1f4a 43be 477b 14be
00000330: 43ef 13bf 2d45 40bf 979a 393f bcde 1dbf
00000340: 05d1 2b3f c135 3cbf 1db6 323f c207 f1be
00000350: 34a2 e9be 9460 53bf 22e2 373f 29d0 f63e
00000360: 144e f5be 0b4f 04bf 9fc7 8a3e 2888 4abf
00000370: 3541 19bf 129e 4f3f d3dd 103f 2ceb 15bf
00000380: 8a3e 91be 255f 66bf f52e 0fbf 4cc7 293f
00000390: 9200 52bf 9275 91be 77ac 1dbf 6e9c 30bf
000003a0: 746d edbe f005 1dbf 0d6b c33e 0859 54bf
000003b0: 3e6d f3bd d863 36bf 76a2 14bf 379a 2b3f
000003c0: 8c6d 43bf eb17 49bf cf85 18bf c10a 27be
000003d0: 12d2 3a3f b50c d33e 4e53 26bf 61c4 a5be
000003e0: 909b 7fbe b04d 823e e643 f2be f8ec c4be
000003f0: ad64 3d3f 3be9 393f 4631 053f 1dc1 133f
