vanilla_models/Cora/5_3f_85/split0/init3/GAT_dp0_5_5e_4_f1.pt (torch, 372919 bytes, 10 tensors)

layer_list.conv1.att_src f4 [1, 8, 8]
000000 27 d0 b3 3e 4b b6 c3 3d d9 79 bd bd 43 dc 8b be
       0.35119745 0.09556254 -0.09251756 -0.27316484
000010 38 c0 63 3e 3d 64 ae 3e 2d 56 34 3e 9f b2 9d 3e
       0.22241294 0.3406085 0.17610998 0.3080034
000020 e6 a7 0c 3f 09 81 49 3f db a9 5b be de bc 61 be
       0.5494369 0.7871252 -0.21451513 -0.22044703
000030 22 54 18 3f 3e d1 ce 3c ce 9f 08 bf 0d 26 8d 3d
       0.59503376 0.025246259 -0.5336884 0.06892023
000040 1b b9 8f 3d 0e ab 20 3d 50 41 be 3e 4a cf 3f bd
       0.07017728 0.03922563 0.37159204 -0.046828546
000050 a7 07 da 3c 7a a5 2d 3e b3 ed a7 be b2 c3 a2 be
       0.026614977 0.16957656 -0.32798538 -0.3178993
000060 f8 c0 bd be 9d b0 2d 3e b7 9e 19 3e 17 01 79 bf
       -0.37061286 0.16961904 0.15001951 -0.9726729
000070 3b a8 a5 3c 89 c1 85 bf 85 82 02 bf b4 c4 8f be
       0.02022182 -1.0449687 -0.50980407 -0.2807976
000080 3a e7 8d be 17 89 15 be 6f d2 7a be 6c 81 fa 3e
       -0.27715474 -0.14603077 -0.24494337 0.48926866
000090 87 b1 85 be 09 f4 04 be d2 de b6 3e 68 5c 51 be
       -0.26112005 -0.12983717 0.35716873 -0.20445406
0000a0 82 56 e2 3e ec cb b4 be 0b e5 25 bf ae ee a2 3f
       0.44206625 -0.3531183 -0.64802617 1.2729089
0000b0 cd ed 32 bf e0 ee 2d be 44 ca 78 bf 77 59 9c 3e
       -0.69894105 -0.16985655 -0.9718363 0.30537006
0000c0 01 ab ee bd 25 e3 43 bf 9c 25 47 bc b9 65 25 bf
       -0.1165371 -0.7651847 -0.012154963 -0.6460834
0000d0 ba 73 d9 be 5e f4 48 bf eb d8 34 be bf dc 40 3e
       -0.42471105 -0.78497875 -0.17660873 0.18834208
0000e0 1b 4a b3 3f 6e fb b0 be 4d 42 b0 3d 8f b7 4d bf
       1.400699 -0.34566826 0.08606396 -0.80358213
0000f0 c9 d7 a8 3e 81 06 93 3f 14 7c b2 3f 74 f6 8c 3e
       0.3297713 1.148636 1.3944116 0.2753178

layer_list.conv1.att_dst f4 [1, 8, 8]
000000 b1 7c ee 3d d1 7a c7 bb eb c0 19 3c c3 c9 80 bd
       0.11644877 -0.006087639 0.009384374 -0.06288483
000010 d3 e0 aa 3d 28 c5 ee 3d 5e 29 b1 3d 60 e8 95 3d
       0.08343663 0.11658698 0.08650468 0.07319713
000020 b3 01 e8 3d 38 48 44 3e 24 d2 ef bc 08 60 c8 bd
       0.11328449 0.19168174 -0.029275008 -0.097839415
000030 7f 99 27 3e 36 f0 80 3d d6 3e 2f be 29 4e cc 3c
       0.16367148 0.062958166 -0.17113814 0.024939613
000040 99 da f9 3c 17 41 81 3c d4 0d fc 3d f4 7e 86 3d
       0.030499743 0.015778108 0.12307325 0.06567183
000050 b3 88 ba ba 20 44 cf 3d fb b1 eb bd 74 c1 07 be
       -0.0014231413 0.10120416 -0.115085565 -0.1325739
000060 f7 9b d0 bd d8 b0 4f 3d be 7f 20 3a 78 37 13 be
       -0.10185998 0.05070576 0.00061225507 -0.14376628
000070 62 4f e0 3d 19 35 63 be e4 0d d9 bd d8 76 13 3d
       0.10952641 -0.22188224 -0.105983526 0.03600201
000080 6e b3 58 bd 3c 7f c4 3b be fa 0e bd 49 e2 24 3e
       -0.052905492 0.005996613 -0.034907095 0.16101946
000090 c4 48 ad bd e6 82 24 bd bd ee 0e 3e f5 19 b8 bd
       -0.084611446 -0.040163897 0.13958259 -0.08989326
0000a0 9c 2a 70 bc b7 f7 2c 3d bb 49 53 be 4d 6d 4e 3e
       -0.014658596 0.042228427 -0.20633595 0.20158882
0000b0 0f 43 70 be 29 6d c7 3d c1 9a c6 bd 6c 65 98 bc
       -0.23463081 0.097376175 -0.09697486 -0.01860305
0000c0 4b d7 9d 3d 6e 9d 09 be 00 b5 99 3c c9 a3 19 be
       0.077070795 -0.13438961 0.018763065 -0.15003885
0000d0 8d ad 36 bd 95 3d 0c be 9e cb 0c 3d fc f5 ce 3c
       -0.044599105 -0.13695367 0.034373872 0.025263779
0000e0 e1 b6 62 3e c0 f0 ae bc 21 ec 1d 3d 20 18 3b be
       0.22140075 -0.021355033 0.03855527 -0.18270922
0000f0 79 8d 31 3d 0b 52 2f 3e 5d 04 88 3e 1c b7 8d bc
       0.04334781 0.1712114 0.2656583 -0.017299227

layer_list.conv1.bias f4 [64]
000000 cd eb 7d 3c cb 97 08 bc b1 49 d7 3a 32 b2 42 3d
       0.015498114 -0.0083369715 0.001642516 0.04753322
000010 79 8f 7a 3c 85 52 88 3c ca d9 75 3b 09 fb e9 3a
       0.015292996 0.01664091 0.0037513846 0.0017851304
000020 ca 06 92 bc 9f 48 58 bc 01 94 dc 3c 87 a6 a2 3c
       -0.017825503 -0.013200908 0.026926043 0.019854797
000030 cf 45 15 bb 93 46 0c bc 2c 62 c9 3b 8b 0a db 38
       -0.0022777205 -0.008561748 0.006145736 0.000104446975
000040 79 b2 d7 bb 3f 83 60 3c c4 96 c2 3b 7d 09 ce 3c
       -0.006582555 0.0137031665 0.005938383 0.025151009
000050 08 58 85 bb 78 64 13 3d 3c d3 13 bc 53 29 4e bb
       -0.004069332 0.035984486 -0.00902253 -0.0031457737
000060 70 52 03 3c dd a8 5a bb 2e 9a 97 3c 90 e2 8f 3c
       0.00801526 -0.003336481 0.018506136 0.017564088
000070 82 ba db 3c 03 3e 7f 3b a0 b2 c7 3b 2a aa 2e 3c
       0.026822332 0.0038946874 0.006094292 0.010660687
000080 87 45 75 3c 6c 13 83 ba 43 9a 9c 3c e2 ba 06 3b
       0.01497019 -0.0010000295 0.019116526 0.0020558168
000090 07 63 0d bc 9d 5e d4 3c 59 12 38 3b bb 68 de 3c
       -0.008629567 0.025924021 0.0028087108 0.027149549
0000a0 fa e5 5e 3a a2 aa 0c 3b 5e 28 22 bc 84 67 7e ba
       0.0008502897 0.002146401 -0.00989732 -0.0009704756
0000b0 99 2e 95 bc d7 92 20 3c db d3 9e 3c ce 09 73 bc
       -0.018210696 0.009800634 0.01938813 -0.014833881
0000c0 72 fe 4d 3c 40 19 27 3d e7 0a 8d 3c aa e9 39 3c
       0.0125728715 0.040795565 0.017217113 0.011347214
0000d0 34 17 12 3d 05 81 db bb a1 7b cf 3b 6c 09 35 3c
       0.03566666 -0.00669873 0.0063318764 0.01104961
0000e0 75 9d dd bc 1e 76 c5 bc ce d8 23 3c 0c a0 fc bb
       -0.02705262 -0.024104174 0.010000421 -0.0077095088
0000f0 bf c4 60 3c 37 4f 2e 3c c8 5a e5 bc 14 04 0b 3c
       0.013718783 0.0106390035 -0.02799739 0.008484859

layer_list.conv1.lin_src.weight f4 [64, 1433]
000000 84 c0 57 3d 87 93 86 bd 94 c9 2b 3d bd cd 13 3e
       0.05267383 -0.06571107 0.041940287 0.14433952
000010 a4 4b 12 3f de cf 32 3c 20 31 92 bd 69 99 08 bb
       0.5714667 0.010913817 -0.07138276 -0.0020843393
000020 f5 4b 04 3e 40 88 9c bc e5 c4 8d bd 7b 22 5e 3a
       0.129196 -0.019107938 -0.0692232 0.0008473766
000030 12 1b e7 bd 41 3e b0 bc c5 4a 1f 3c a5 b8 d1 3d
       -0.1128446 -0.02151406 0.009722416 0.10240296
000040 dc 0a d2 3d 99 6d 7b bc 3e 2a 23 3c 45 29 2d be
       0.102559775 -0.015345954 0.009958802 -0.16910274
000050 c3 56 99 3c 98 e6 3d bc 91 d3 64 3b d3 77 16 bc
       0.018718129 -0.011590622 0.0034916142 -0.009183842
000060 56 c1 80 ba e7 a6 55 3d ff ce 10 3e 88 80 81 3d
       -0.0009823244 0.052161124 0.14141463 0.063233435
000070 e1 f9 d9 bc 97 aa be 3c b0 e6 95 bd c8 a6 f7 3b
       -0.02660841 0.023274703 -0.07319391 0.0075577237
000080 01 89 c6 bb 89 7e 33 3c 69 38 f4 bc d5 3a 34 bb
       -0.0060588126 0.010955461 -0.029812055 -0.0027500887
000090 4d 1f 5d 3b 3b af 27 bd 01 d9 94 bd ee fe 05 3e
       0.003374058 -0.040938597 -0.07267953 0.13085529
0000a0 eb 99 8e 3e 7c c8 2b 3e f1 df 2e bd 17 95 41 bc
       0.27851805 0.16775697 -0.042694036 -0.011815331
0000b0 cd 2d ae 3c 97 61 8f b9 98 f0 d8 bc 33 dc b3 bd
       0.021262074 -0.00027347796 -0.026481912 -0.08782234
0000c0 bf 63 aa bd 77 0e 57 3d fe 7a 07 be 6b 36 a0 3e
       -0.08319806 0.05250403 -0.13230512 0.31291518
0000d0 31 df 45 3e 82 36 c8 bc 8c 54 d1 3c bc c5 63 bc
       0.19323422 -0.024440054 0.02555301 -0.013902124
0000e0 f8 49 ba 3c 7e 94 e6 bd 3c 68 0a 3e 3c 46 d6 3c
       0.02274035 -0.112587914 0.13516325 0.026156537
0000f0 3b 98 93 3d d3 aa 1d 3e 0b 70 9c 3c 2d d0 e5 bd
       0.0720677 0.15397196 0.019096395 -0.11221347
000100 f1 d5 65 3e 80 7a 00 be 21 45 e2 bb 6f 18 14 be
       0.22444893 -0.1254673 -0.0069052135 -0.14462446
000110 a5 81 c6 bc 8a 1e a2 3d 0a f8 d5 bd 30 0d ec 3c
       -0.024231741 0.07915981 -0.104477 0.028814882
000120 16 5c 35 bd 34 7a af bc 8e 74 26 bd 37 3b 9f bc
       -0.044277273 -0.021420576 -0.0406385 -0.019437416
000130 10 74 88 bc 95 8d 8d bc ec ad 10 bc b0 1c 4c 3b
       -0.016656905 -0.017279426 -0.008830529 0.0031145029
000140 1c f3 5a bd b9 dd 79 3d 1c be df 3d 03 00 9e 3d
       -0.053454503 0.061002467 0.10924932 0.07714846
000150 35 48 e4 bc 5a 61 0b be d2 1e a7 3d 57 e9 df 3c
       -0.027866462 -0.13611355 0.081601754 0.027332945
000160 76 cd 11 bd 7d 8d ba 3c 51 36 0a bd 43 c6 a6 3d
       -0.035596333 0.022772545 -0.033743206 0.08143284
000170 c4 81 94 bd 3e 54 f9 3d 73 9a 8c bd 0a 2e 6e 3d
       -0.07251313 0.12174271 -0.06865396 0.058149375
000180 23 85 77 3c b0 11 e5 3c 33 fa 1b be 97 b4 8a bd
       0.015107426 0.027962536 -0.15232162 -0.06772726
000190 9e b6 43 3d 32 11 93 bb 1b b0 9d 3d cf 4d 2c 3d
       0.04778158 -0.004488134 0.07699605 0.04206639
0001a0 77 77 a0 3d 5a dd a0 bd 42 e9 26 3d 5c ab 38 bd
       0.07835286 -0.078547195 0.040749796 -0.045085296
0001b0 1e ad 25 be e2 f0 9d bc 60 82 49 3c 42 90 73 3c
       -0.1617932 -0.019279901 0.01229915 0.014865937
0001c0 64 f0 70 3d d6 42 a6 bd d6 8b b2 bd 1e 63 7b 3c
       0.058823004 -0.08118217 -0.08718078 0.015343456
0001d0 a8 21 b1 b9 be b7 0c bc 10 27 c6 bd 69 75 c5 bc
       -0.00033785147 -0.008588729 -0.09675419 -0.024103837
0001e0 0e 75 a7 3c 15 74 5e bd 19 83 1f bd 9b b8 5f bd
       0.020441558 -0.054309923 -0.038943384 -0.054619413
0001f0 4d 5a 95 bd ff df 35 bd 3e 0d 2a be 3a e2 17 3c
       -0.07292614 -0.044403072 -0.16606614 0.009270245
000200 fe 12 e0 3d 1a 42 27 3e b6 37 aa 3c 8a 5c b8 ba
       0.109411225 0.1633381 0.020778518 -0.0014065665
000210 a2 46 32 be 87 40 05 3e d7 fc 18 3e 3f e4 9d bd
       -0.17409757 0.13012896 0.14940201 -0.0770955
000220 7f 97 4e 3c aa 44 12 bd c3 20 c6 bd fd 07 7c bd
       0.012609362 -0.035710014 -0.096742176 -0.061531056
000230 38 f3 1f be 81 6f 80 bd a4 8c 95 bd d6 b0 1d 3e
       -0.15620124 -0.06271268 -0.07302216 0.15399489
000240 a5 f3 0e bb f9 23 7f 3d 51 6a 25 bd 32 24 26 bd
       -0.0021812704 0.062290166 -0.040384594 -0.040561862
000250 8e 8d ce bc 9d 8a 2d bd 2a 9a a0 bc a0 a2 00 3e
       -0.025213983 -0.04236852 -0.019604761 0.12562037
000260 d7 09 66 bd 7c 0d a8 3a c5 1c fa 3c 0c 3c 41 bd
       -0.056161728 0.0012821401 0.030531297 -0.047176406
000270 a4 f2 69 bd 6e 93 2f bd 09 91 d1 bc 0d b6 18 bd
       -0.057116166 -0.04286521 -0.025581853 -0.037282992
000280 76 d5 9b 3a 8a 6c 1d bd 4d 2f ae 3d b7 23 2f bd
       0.0011889178 -0.03843359 0.08505116 -0.04275867
000290 c2 a8 9b bc 56 6c de 3c cc 6e 60 bd 6e 1c 19 bd
       -0.019001368 0.027151268 -0.054793164 -0.03738063
0002a0 a4 37 97 be 9a 81 f0 bb ff 78 8e 3d 94 5e 84 3a
       -0.29534638 -0.0073396685 0.06956672 0.0010098987
0002b0 30 00 0d bc 87 67 36 bd 5f 81 4f bb 19 4a 59 b9
       -0.008606002 -0.044532325 -0.0031662805 -0.00020722336
0002c0 61 e2 39 bd 6e 92 88 bd 81 e6 e2 ba ae eb b1 3d
       -0.045381907 -0.06668554 -0.0017311127 0.086875305
0002d0 d8 8d e8 ba a8 aa b3 3b fa ff 9d 3c ae 1f 0c 3d
       -0.0017742468 0.0054829903 0.019287098 0.0342099
0002e0 0f a7 11 bc b5 60 01 3d 79 58 85 3d 8b df ba 3d
       -0.0088899275 0.031586368 0.065110154 0.09124669
0002f0 0a 1a ae 3b a2 c2 31 3d 53 7f 70 bd 91 fb 56 3c
       0.0053131627 0.043398507 -0.058715176 0.013121502
000300 fd 56 06 be a0 ad e5 bc 98 99 c1 bd 90 73 39 3d
       -0.13119121 -0.028036892 -0.09453124 0.045276225
000310 25 48 39 3d 5b 61 19 3d 68 d2 c9 bb a1 c5 54 bd
       0.045234818 0.03744636 -0.0061591156 -0.051946286
000320 04 e8 30 bd 40 10 3f bc 0a 38 11 3d 84 a1 9c be
       -0.043190017 -0.011661589 0.035453834 -0.30591977
000330 6d 0a 56 3d 3d a3 2a 3e e7 d4 12 3b 52 df e7 bc
       0.052256037 0.16663833 0.0022404732 -0.02830473
000340 8d 97 cb 3c 40 7b 9b bc 5b 3e ff bc be c0 40 3e
       0.024852538 -0.018979669 -0.031157663 0.18823525
000350 79 aa 3e 3d 31 04 52 bd c6 a6 8d bd 3c c4 a7 bd
       0.046549294 -0.05127353 -0.06916575 -0.081917256
000360 5d f1 a2 bb c2 5e 60 bd 18 b3 04 3d 35 85 a0 bc
       -0.0049726204 -0.054777868 0.03239736 -0.019594768
000370 f0 01 77 3c 18 71 b7 bd 29 51 ac 3c d3 bc aa bc
       0.0150761455 -0.08957118 0.021034794 -0.020841992
000380 7f c0 92 3c 51 3c 80 bc e5 d9 e8 3d 2e 81 14 3c
       0.017914055 -0.015653761 0.11369685 0.009064002
000390 97 ef a0 3c 16 a5 ca bc 7c b8 bd 3c 8f 12 91 3d
       0.019645495 -0.024736922 0.023159258 0.07083618
0003a0 a4 7e 8c 3d 18 5a 00 be dc 21 59 3e cd d9 0c be
       0.06860092 -0.12534368 0.21204323 -0.1375496
0003b0 9c fd a0 3d c6 37 5b 3d e6 95 ae bd 3d 6e 8a 3c
       0.07860872 0.053519987 -0.085246846 0.016898269
0003c0 e7 37 84 bd d4 34 29 bd db f5 00 bd d5 25 70 bd
       -0.06455975 -0.041310146 -0.031484466 -0.05862983
0003d0 57 78 8a 3d 69 f4 e2 bb 9f ac 9d 3d 55 d7 29 bd
       0.06761234 -0.0069261086 0.076989405 -0.041465122
0003e0 e7 f4 af bd cc 54 b7 bd a5 33 eb 3c 14 c9 c9 3b
       -0.08591633 -0.089517206 0.02871115 0.0061580036
0003f0 94 d4 94 bd ce ee 35 bd 80 86 3b bd b8 af e9 bc
       -0.072671086 -0.044417195 -0.045782566 -0.028526172

layer_list.conv1.lin_dst.weight f4 [64, 1433]
000000 84 c0 57 3d 87 93 86 bd 94 c9 2b 3d bd cd 13 3e
       0.05267383 -0.06571107 0.041940287 0.14433952
000010 a4 4b 12 3f de cf 32 3c 20 31 92 bd 69 99 08 bb
       0.5714667 0.010913817 -0.07138276 -0.0020843393
000020 f5 4b 04 3e 40 88 9c bc e5 c4 8d bd 7b 22 5e 3a
       0.129196 -0.019107938 -0.0692232 0.0008473766
000030 12 1b e7 bd 41 3e b0 bc c5 4a 1f 3c a5 b8 d1 3d
       -0.1128446 -0.02151406 0.009722416 0.10240296
000040 dc 0a d2 3d 99 6d 7b bc 3e 2a 23 3c 45 29 2d be
       0.102559775 -0.015345954 0.009958802 -0.16910274
000050 c3 56 99 3c 98 e6 3d bc 91 d3 64 3b d3 77 16 bc
       0.018718129 -0.011590622 0.0034916142 -0.009183842
000060 56 c1 80 ba e7 a6 55 3d ff ce 10 3e 88 80 81 3d
       -0.0009823244 0.052161124 0.14141463 0.063233435
000070 e1 f9 d9 bc 97 aa be 3c b0 e6 95 bd c8 a6 f7 3b
       -0.02660841 0.023274703 -0.07319391 0.0075577237
000080 01 89 c6 bb 89 7e 33 3c 69 38 f4 bc d5 3a 34 bb
       -0.0060588126 0.010955461 -0.029812055 -0.0027500887
000090 4d 1f 5d 3b 3b af 27 bd 01 d9 94 bd ee fe 05 3e
       0.003374058 -0.040938597 -0.07267953 0.13085529
0000a0 eb 99 8e 3e 7c c8 2b 3e f1 df 2e bd 17 95 41 bc
       0.27851805 0.16775697 -0.042694036 -0.011815331
0000b0 cd 2d ae 3c 97 61 8f b9 98 f0 d8 bc 33 dc b3 bd
       0.021262074 -0.00027347796 -0.026481912 -0.08782234
0000c0 bf 63 aa bd 77 0e 57 3d fe 7a 07 be 6b 36 a0 3e
       -0.08319806 0.05250403 -0.13230512 0.31291518
0000d0 31 df 45 3e 82 36 c8 bc 8c 54 d1 3c bc c5 63 bc
       0.19323422 -0.024440054 0.02555301 -0.013902124
0000e0 f8 49 ba 3c 7e 94 e6 bd 3c 68 0a 3e 3c 46 d6 3c
       0.02274035 -0.112587914 0.13516325 0.026156537
0000f0 3b 98 93 3d d3 aa 1d 3e 0b 70 9c 3c 2d d0 e5 bd
       0.0720677 0.15397196 0.019096395 -0.11221347
000100 f1 d5 65 3e 80 7a 00 be 21 45 e2 bb 6f 18 14 be
       0.22444893 -0.1254673 -0.0069052135 -0.14462446
000110 a5 81 c6 bc 8a 1e a2 3d 0a f8 d5 bd 30 0d ec 3c
       -0.024231741 0.07915981 -0.104477 0.028814882
000120 16 5c 35 bd 34 7a af bc 8e 74 26 bd 37 3b 9f bc
       -0.044277273 -0.021420576 -0.0406385 -0.019437416
000130 10 74 88 bc 95 8d 8d bc ec ad 10 bc b0 1c 4c 3b
       -0.016656905 -0.017279426 -0.008830529 0.0031145029
000140 1c f3 5a bd b9 dd 79 3d 1c be df 3d 03 00 9e 3d
       -0.053454503 0.061002467 0.10924932 0.07714846
000150 35 48 e4 bc 5a 61 0b be d2 1e a7 3d 57 e9 df 3c
       -0.027866462 -0.13611355 0.081601754 0.027332945
000160 76 cd 11 bd 7d 8d ba 3c 51 36 0a bd 43 c6 a6 3d
       -0.035596333 0.022772545 -0.033743206 0.08143284
000170 c4 81 94 bd 3e 54 f9 3d 73 9a 8c bd 0a 2e 6e 3d
       -0.07251313 0.12174271 -0.06865396 0.058149375
000180 23 85 77 3c b0 11 e5 3c 33 fa 1b be 97 b4 8a bd
       0.015107426 0.027962536 -0.15232162 -0.06772726
000190 9e b6 43 3d 32 11 93 bb 1b b0 9d 3d cf 4d 2c 3d
       0.04778158 -0.004488134 0.07699605 0.04206639
0001a0 77 77 a0 3d 5a dd a0 bd 42 e9 26 3d 5c ab 38 bd
       0.07835286 -0.078547195 0.040749796 -0.045085296
0001b0 1e ad 25 be e2 f0 9d bc 60 82 49 3c 42 90 73 3c
       -0.1617932 -0.019279901 0.01229915 0.014865937
0001c0 64 f0 70 3d d6 42 a6 bd d6 8b b2 bd 1e 63 7b 3c
       0.058823004 -0.08118217 -0.08718078 0.015343456
0001d0 a8 21 b1 b9 be b7 0c bc 10 27 c6 bd 69 75 c5 bc
       -0.00033785147 -0.008588729 -0.09675419 -0.024103837
0001e0 0e 75 a7 3c 15 74 5e bd 19 83 1f bd 9b b8 5f bd
       0.020441558 -0.054309923 -0.038943384 -0.054619413
0001f0 4d 5a 95 bd ff df 35 bd 3e 0d 2a be 3a e2 17 3c
       -0.07292614 -0.044403072 -0.16606614 0.009270245
000200 fe 12 e0 3d 1a 42 27 3e b6 37 aa 3c 8a 5c b8 ba
       0.109411225 0.1633381 0.020778518 -0.0014065665
000210 a2 46 32 be 87 40 05 3e d7 fc 18 3e 3f e4 9d bd
       -0.17409757 0.13012896 0.14940201 -0.0770955
000220 7f 97 4e 3c aa 44 12 bd c3 20 c6 bd fd 07 7c bd
       0.012609362 -0.035710014 -0.096742176 -0.061531056
000230 38 f3 1f be 81 6f 80 bd a4 8c 95 bd d6 b0 1d 3e
       -0.15620124 -0.06271268 -0.07302216 0.15399489
000240 a5 f3 0e bb f9 23 7f 3d 51 6a 25 bd 32 24 26 bd
       -0.0021812704 0.062290166 -0.040384594 -0.040561862
000250 8e 8d ce bc 9d 8a 2d bd 2a 9a a0 bc a0 a2 00 3e
       -0.025213983 -0.04236852 -0.019604761 0.12562037
000260 d7 09 66 bd 7c 0d a8 3a c5 1c fa 3c 0c 3c 41 bd
       -0.056161728 0.0012821401 0.030531297 -0.047176406
000270 a4 f2 69 bd 6e 93 2f bd 09 91 d1 bc 0d b6 18 bd
       -0.057116166 -0.04286521 -0.025581853 -0.037282992
000280 76 d5 9b 3a 8a 6c 1d bd 4d 2f ae 3d b7 23 2f bd
       0.0011889178 -0.03843359 0.08505116 -0.04275867
000290 c2 a8 9b bc 56 6c de 3c cc 6e 60 bd 6e 1c 19 bd
       -0.019001368 0.027151268 -0.054793164 -0.03738063
0002a0 a4 37 97 be 9a 81 f0 bb ff 78 8e 3d 94 5e 84 3a
       -0.29534638 -0.0073396685 0.06956672 0.0010098987
0002b0 30 00 0d bc 87 67 36 bd 5f 81 4f bb 19 4a 59 b9
       -0.008606002 -0.044532325 -0.0031662805 -0.00020722336
0002c0 61 e2 39 bd 6e 92 88 bd 81 e6 e2 ba ae eb b1 3d
       -0.045381907 -0.06668554 -0.0017311127 0.086875305
0002d0 d8 8d e8 ba a8 aa b3 3b fa ff 9d 3c ae 1f 0c 3d
       -0.0017742468 0.0054829903 0.019287098 0.0342099
0002e0 0f a7 11 bc b5 60 01 3d 79 58 85 3d 8b df ba 3d
       -0.0088899275 0.031586368 0.065110154 0.09124669
0002f0 0a 1a ae 3b a2 c2 31 3d 53 7f 70 bd 91 fb 56 3c
       0.0053131627 0.043398507 -0.058715176 0.013121502
000300 fd 56 06 be a0 ad e5 bc 98 99 c1 bd 90 73 39 3d
       -0.13119121 -0.028036892 -0.09453124 0.045276225
000310 25 48 39 3d 5b 61 19 3d 68 d2 c9 bb a1 c5 54 bd
       0.045234818 0.03744636 -0.0061591156 -0.051946286
000320 04 e8 30 bd 40 10 3f bc 0a 38 11 3d 84 a1 9c be
       -0.043190017 -0.011661589 0.035453834 -0.30591977
000330 6d 0a 56 3d 3d a3 2a 3e e7 d4 12 3b 52 df e7 bc
       0.052256037 0.16663833 0.0022404732 -0.02830473
000340 8d 97 cb 3c 40 7b 9b bc 5b 3e ff bc be c0 40 3e
       0.024852538 -0.018979669 -0.031157663 0.18823525
000350 79 aa 3e 3d 31 04 52 bd c6 a6 8d bd 3c c4 a7 bd
       0.046549294 -0.05127353 -0.06916575 -0.081917256
000360 5d f1 a2 bb c2 5e 60 bd 18 b3 04 3d 35 85 a0 bc
       -0.0049726204 -0.054777868 0.03239736 -0.019594768
000370 f0 01 77 3c 18 71 b7 bd 29 51 ac 3c d3 bc aa bc
       0.0150761455 -0.08957118 0.021034794 -0.020841992
000380 7f c0 92 3c 51 3c 80 bc e5 d9 e8 3d 2e 81 14 3c
       0.017914055 -0.015653761 0.11369685 0.009064002
000390 97 ef a0 3c 16 a5 ca bc 7c b8 bd 3c 8f 12 91 3d
       0.019645495 -0.024736922 0.023159258 0.07083618
0003a0 a4 7e 8c 3d 18 5a 00 be dc 21 59 3e cd d9 0c be
       0.06860092 -0.12534368 0.21204323 -0.1375496
0003b0 9c fd a0 3d c6 37 5b 3d e6 95 ae bd 3d 6e 8a 3c
       0.07860872 0.053519987 -0.085246846 0.016898269
0003c0 e7 37 84 bd d4 34 29 bd db f5 00 bd d5 25 70 bd
       -0.06455975 -0.041310146 -0.031484466 -0.05862983
0003d0 57 78 8a 3d 69 f4 e2 bb 9f ac 9d 3d 55 d7 29 bd
       0.06761234 -0.0069261086 0.076989405 -0.041465122
0003e0 e7 f4 af bd cc 54 b7 bd a5 33 eb 3c 14 c9 c9 3b
       -0.08591633 -0.089517206 0.02871115 0.0061580036
0003f0 94 d4 94 bd ce ee 35 bd 80 86 3b bd b8 af e9 bc
       -0.072671086 -0.044417195 -0.045782566 -0.028526172

layer_list.conv2.att_src f4 [1, 1, 7]
000000 2a 12 7a be 6a 1e 43 be 4e a9 3f be d7 3d a7 be
       -0.24420992 -0.19054571 -0.18716928 -0.32664368
000010 54 ec 0e be 3f a8 39 be d9 4b 51 be
       -0.1395734 -0.18130587 -0.2043909

layer_list.conv2.att_dst f4 [1, 1, 7]
000000 f1 21 33 be c1 3f b1 bb 99 61 5a 3e 67 12 ed be
       -0.17493416 -0.0054092114 0.21326293 -0.46303102
000010 f1 3f 97 3e 5f d4 03 bf 64 7b 83 bd
       0.2954097 -0.5149593 -0.06420019

layer_list.conv2.bias f4 [7]
000000 fe a3 2c be da f6 30 bf af 29 00 be 01 0f 37 3f
       -0.16859433 -0.69126666 -0.12515901 0.7150727
000010 cf 91 1d 3e cf b1 8d be 75 4b 1a bf
       0.15387653 -0.2767472 -0.6027139

layer_list.conv2.lin_src.weight f4 [7, 64]
000000 76 67 ab 3f ff ab 2a bf d5 07 d6 3f ca 31 7d bf
       1.3390949 -0.66668695 1.672114 -0.989041
000010 7e ab b3 3f 73 8e b8 3f 82 73 c3 3f d5 81 11 3f
       1.403671 1.4418472 1.5269625 0.5683873
000020 78 44 7c 3f fe 2b 62 3f 24 f9 94 3f 2c 4e 7e 3f
       0.98541975 0.88348377 1.1638532 0.9933803
000030 48 e1 8d 3f bf 4c ee 3f 98 ca 63 bf 3d 45 98 bf
       1.1084375 1.8617171 -0.8898101 -1.189613
000040 50 d7 6e 3f fe 0f d6 3f 85 d0 89 3f 85 a5 a1 3f
       0.9329729 1.672363 1.076676 1.2628638
000050 92 ca 3f bf 09 1a 9b 3f 94 0e fd be cb 67 94 bf
       -0.7491847 1.211732 -0.49425185 -1.1594175
000060 ba a2 0e 3f d1 4b 11 3f 26 0d c2 bf 9d a5 9f 3f
       0.5571705 0.5675631 -1.5160263 1.2472416
000070 18 18 08 bf 1d 67 ae 3f 11 f9 91 3f 00 d5 ab 3f
       -0.53161764 1.3625218 1.1404134 1.3424377
000080 f4 a9 03 bf b5 b5 1a 3f 12 79 88 3f 56 e4 c0 bf
       -0.514312 0.6043351 1.0661948 -1.5069683
000090 ff 05 d7 be cc e9 aa bf 2b 37 9d 3f 25 ac 84 bf
       -0.41996762 -1.3352599 1.2282461 -1.0365034
0000a0 bf 3c 88 bf 11 c5 ad 3f f9 b7 f8 bf 30 ee af be
       -1.0643538 1.3575765 -1.9431144 -0.3436141
0000b0 de 0e d4 3e bb e8 5b bf 1d 04 af bf 92 76 c3 bf
       0.41417593 -0.85901994 -1.367313 -1.527056
0000c0 5a 34 b0 3f 14 a0 8c 3f 94 2e 6d bf 9f 95 83 be
       1.3765976 1.0986352 -0.926492 -0.2570009
0000d0 e4 0e e8 bf 4e 8d 3e 3e 23 f4 9a bf d0 80 9b 3f
       -1.8129544 0.18608591 -1.2105755 1.2148685
0000e0 e7 67 bc be 35 af a1 3f aa 20 c6 3e 0d ed d3 3f
       -0.3679802 1.2631594 0.38696796 1.6556717
0000f0 1f f8 c2 be 14 36 08 bf ee 00 a1 bf 3d bf 94 3f
       -0.38079926 -0.53207517 -1.2578409 1.1620861
000100 c2 31 75 bf db a1 81 3f 99 30 f4 bd 62 74 74 3f
       -0.9577905 1.0127519 -0.11923332 0.95490086
000110 46 40 67 3f ad f8 87 bf 33 b4 8a 3f 09 f4 7f bf
       0.9033245 -1.0622765 1.0836242 -0.99981743
000120 7e 4c 92 3f 4b 97 70 3f bd 82 65 bf fe c0 f0 bf
       1.1429594 0.93980855 -0.89652616 -1.8808897
000130 a5 d7 66 3f f6 20 ae bf 1b 44 e1 be 5c d5 4a 3f
       0.901728 -1.3603809 -0.43997273 0.7923181
000140 cc 41 8c 3f 35 46 bc bf b5 34 74 bf 69 6a 92 3f
       1.095758 -1.4708925 -0.95392925 1.1438724
000150 b4 52 89 bf c5 ae 9a bf 6e 64 cd 3e e1 a9 c8 3f
       -1.0728364 -1.2084585 0.40115684 1.5676843
000160 1c ba 58 bf 96 95 6f 3f 26 ad b6 bf 03 49 04 bf
       -0.8465898 0.93587625 -1.4271591 -0.5167391
000170 d5 d8 43 3e 94 bb b2 bf b4 2e 98 bf 99 a1 83 bf
       0.19125684 -1.3963494 -1.1889253 -1.0283691
000180 c5 e4 17 bf aa 35 23 3f 54 c7 98 3f 25 e2 70 bf
       -0.5933345 0.6375376 1.193583 -0.9409507
000190 2e 85 2d bf cb 14 7a bf 31 c1 fa bf f8 68 6b 3e
       -0.6778134 -0.9768798 -1.9590207 0.22989261
0001a0 4c 43 88 bf ba d8 95 3f ce 62 65 3f aa 31 a4 3f
       -1.0645537 1.1706765 0.8960389 1.2827656
0001b0 91 7a be bf 26 c7 72 bf f5 9d a0 bf b3 96 90 3f
       -1.4881154 -0.94835126 -1.2548205 1.129599
0001c0 35 d2 da be 22 5f c3 bf 46 be 52 bf ba 9e 4c bf
       -0.427385 -1.5263407 -0.82321584 -0.799297
0001d0 cb 0d b6 bf 34 eb bf bf 41 f3 8b bf bc 01 8f 3f
       -1.4222959 -1.4993653 -1.093361 1.1172404
0001e0 e9 1e b8 3f 61 4a c9 3f c7 93 9e 3f d2 8b fb be
       1.4384433 1.5725824 1.2388848 -0.49130112
0001f0 79 18 c1 3f c5 c5 b5 3f a1 b7 db 3f 3b 3b 58 3f
       1.5085593 1.420098 1.7165414 0.8446538
000200 62 e2 99 bf 9c 10 9e 3f 1b 91 81 3f 5b d4 8b bf
       -1.2022212 1.2348819 1.0122408 -1.0924181
000210 05 fc 5f bf 82 a8 6f bf 3f b0 8e bf 1e 24 9d bf
       -0.87493926 -0.936165 -1.1147536 -1.2276647
000220 c4 78 9d 3f 8a 1a 86 bf 0c 25 46 bf 2e 06 a4 3f
       1.230248 -1.0476849 -0.7740028 1.2814386
000230 1f f8 a6 bf a0 50 6f bf e3 66 95 3f 16 55 9e 3d
       -1.304447 -0.934824 1.1672024 0.077310726
000240 06 07 9c 3f d0 5c c8 3e 09 29 8d bf 78 ce 6f bf
       1.2189643 0.3913331 -1.1028148 -0.9367442
000250 74 ac 89 bf 78 c3 e2 be 99 f8 9b 3f f4 85 83 3f
       -1.0755754 -0.44289756 1.2185241 1.0275254
000260 b0 17 9d bf 74 64 a9 bf 97 05 4d 3f 8a 23 b2 bf
       -1.2272854 -1.3233781 0.80086654 -1.3917096
000270 fc 4b b2 bf da 05 9d bf c3 bd a9 bf 7c 9f 98 bf
       -1.3929439 -1.2267411 -1.3261036 -1.1923671
000280 16 5f f6 be 14 68 a9 3f 97 fb 8d 3f b8 e4 bd 3f
       -0.4811942 1.3234887 1.1092404 1.4835424
000290 71 10 94 bf 73 db 77 bf 53 a0 58 3f e5 c1 83 bf
       -1.1567518 -0.9681923 0.84619635 -1.0293547
0002a0 18 a9 bb 3f 2b 08 a7 bf b6 14 c6 bf 14 b8 ad 3f
       1.4660978 -1.3049368 -1.547507 1.3571801
0002b0 15 fc 52 bf c4 b5 7c 3f 01 08 ae bf 4d 3c a4 3f
       -0.82415897 0.9871485 -1.3596193 1.2830902
0002c0 53 a2 88 3f d3 24 c4 bf 4b b8 ba 3f 75 fd 24 bf
       1.0674537 -1.5323738 1.4587492 -0.64449245
0002d0 59 c4 40 3f 62 fb 51 bf 62 cb 58 3f df 85 a9 bf
       0.752996 -0.82024205 0.8468534 -1.3243979
0002e0 bd 12 c6 3f 0a c6 82 bf fd 7e c3 bf 2c 6c b5 bf
       1.5474468 -1.0216687 -1.5273129 -1.4173636
0002f0 a2 e2 c4 bf 30 15 e0 3f 92 58 8f 3f 60 51 98 bf
       -1.5381663 1.7506466 1.1198905 -1.1899834
000300 30 0b da be 59 46 d1 bf 84 ef 80 3f 49 d5 c2 3f
       -0.4258666 -1.6349593 1.0073094 1.522134
000310 07 cf ab bf df 8d 19 bf 62 4f 0e bf c8 3e a0 bd
       -1.3422555 -0.59982103 -0.5558988 -0.078244746
000320 27 c7 c6 bf f3 8f ce bf e6 14 47 bf 62 13 c3 bf
       -1.5529526 -1.613768 -0.77766263 -1.524029
000330 84 9a 98 bf fd b9 00 3e f5 35 30 3f 16 56 4e 3f
       -1.1922154 0.12570949 0.6883233 0.80600107
000340 bf 82 ca bf 03 9a 93 bf 8d ce 8f 3f ce c7 91 3e
       -1.582115 -1.1531376 1.1234909 0.2847275
000350 9e 4e bd bf e0 95 c0 3f 66 64 c9 bf ef 42 a4 bf
       -1.4789617 1.5045738 -1.5733764 -1.2832927
000360 50 54 c3 bf 0d 0b a5 bf ea 4c f3 3e 36 67 88 3f
       -1.5260105 -1.2893997 0.47519618 1.0656497
000370 ec 8a 50 3f da a3 6e bf c8 16 bc bf 6b 80 a2 3f
       0.8146198 -0.9321877 -1.4694452 1.269544
000380 d1 c7 c8 3f 97 16 8b 3f 2c ab a9 3f 11 5b 9b bf
       1.5685979 1.0866269 1.3255363 -1.2137166
000390 ba 92 d9 3f 1f 94 c0 3f 10 84 b6 bf 5d 6b a0 3f
       1.6997902 1.5045203 -1.4259052 1.2532765
0003a0 64 b8 b4 bf d2 c9 c5 3f ee 96 b9 3f 55 d5 b3 bf
       -1.4118772 1.5452216 1.4499185 -1.4049479
0003b0 66 33 18 bf b3 c5 b2 3f 04 29 bb 3f 0d 9c 91 3f
       -0.5945343 1.3966583 1.4621892 1.1375748
0003c0 75 62 8f 3f 4c 5b 8b 3f b6 1b b4 bf 37 e2 e9 3f
       1.1201922 1.0887237 -1.4070957 1.827216
0003d0 35 52 9a 3f 3d fc cc 3f 32 26 50 3f a4 95 b9 bf
       1.2056338 1.6014477 0.8130828 -1.4498792
0003e0 d8 ca d8 bf a0 ee b2 3f 86 cb 43 3f 6a 84 82 bf
       -1.6936903 1.3979073 0.7648243 -1.019666
0003f0 4d 32 4f bf 3c b6 ad bf b5 db ad bf 1e 57 b6 bf
       -0.8093613 -1.3571239 -1.3582674 -1.4245336

layer_list.conv2.lin_dst.weight f4 [7, 64]
000000 76 67 ab 3f ff ab 2a bf d5 07 d6 3f ca 31 7d bf
       1.3390949 -0.66668695 1.672114 -0.989041
000010 7e ab b3 3f 73 8e b8 3f 82 73 c3 3f d5 81 11 3f
       1.403671 1.4418472 1.5269625 0.5683873
000020 78 44 7c 3f fe 2b 62 3f 24 f9 94 3f 2c 4e 7e 3f
       0.98541975 0.88348377 1.1638532 0.9933803
000030 48 e1 8d 3f bf 4c ee 3f 98 ca 63 bf 3d 45 98 bf
       1.1084375 1.8617171 -0.8898101 -1.189613
000040 50 d7 6e 3f fe 0f d6 3f 85 d0 89 3f 85 a5 a1 3f
       0.9329729 1.672363 1.076676 1.2628638
000050 92 ca 3f bf 09 1a 9b 3f 94 0e fd be cb 67 94 bf
       -0.7491847 1.211732 -0.49425185 -1.1594175
000060 ba a2 0e 3f d1 4b 11 3f 26 0d c2 bf 9d a5 9f 3f
       0.5571705 0.5675631 -1.5160263 1.2472416
000070 18 18 08 bf 1d 67 ae 3f 11 f9 91 3f 00 d5 ab 3f
       -0.53161764 1.3625218 1.1404134 1.3424377
000080 f4 a9 03 bf b5 b5 1a 3f 12 79 88 3f 56 e4 c0 bf
       -0.514312 0.6043351 1.0661948 -1.5069683
000090 ff 05 d7 be cc e9 aa bf 2b 37 9d 3f 25 ac 84 bf
       -0.41996762 -1.3352599 1.2282461 -1.0365034
0000a0 bf 3c 88 bf 11 c5 ad 3f f9 b7 f8 bf 30 ee af be
       -1.0643538 1.3575765 -1.9431144 -0.3436141
0000b0 de 0e d4 3e bb e8 5b bf 1d 04 af bf 92 76 c3 bf
       0.41417593 -0.85901994 -1.367313 -1.527056
0000c0 5a 34 b0 3f 14 a0 8c 3f 94 2e 6d bf 9f 95 83 be
       1.3765976 1.0986352 -0.926492 -0.2570009
0000d0 e4 0e e8 bf 4e 8d 3e 3e 23 f4 9a bf d0 80 9b 3f
       -1.8129544 0.18608591 -1.2105755 1.2148685
0000e0 e7 67 bc be 35 af a1 3f aa 20 c6 3e 0d ed d3 3f
       -0.3679802 1.2631594 0.38696796 1.6556717
0000f0 1f f8 c2 be 14 36 08 bf ee 00 a1 bf 3d bf 94 3f
       -0.38079926 -0.53207517 -1.2578409 1.1620861
000100 c2 31 75 bf db a1 81 3f 99 30 f4 bd 62 74 74 3f
       -0.9577905 1.0127519 -0.11923332 0.95490086
000110 46 40 67 3f ad f8 87 bf 33 b4 8a 3f 09 f4 7f bf
       0.9033245 -1.0622765 1.0836242 -0.99981743
000120 7e 4c 92 3f 4b 97 70 3f bd 82 65 bf fe c0 f0 bf
       1.1429594 0.93980855 -0.89652616 -1.8808897
000130 a5 d7 66 3f f6 20 ae bf 1b 44 e1 be 5c d5 4a 3f
       0.901728 -1.3603809 -0.43997273 0.7923181
000140 cc 41 8c 3f 35 46 bc bf b5 34 74 bf 69 6a 92 3f
       1.095758 -1.4708925 -0.95392925 1.1438724
000150 b4 52 89 bf c5 ae 9a bf 6e 64 cd 3e e1 a9 c8 3f
       -1.0728364 -1.2084585 0.40115684 1.5676843
000160 1c ba 58 bf 96 95 6f 3f 26 ad b6 bf 03 49 04 bf
       -0.8465898 0.93587625 -1.4271591 -0.5167391
000170 d5 d8 43 3e 94 bb b2 bf b4 2e 98 bf 99 a1 83 bf
       0.19125684 -1.3963494 -1.1889253 -1.0283691
000180 c5 e4 17 bf aa 35 23 3f 54 c7 98 3f 25 e2 70 bf
       -0.5933345 0.6375376 1.193583 -0.9409507
000190 2e 85 2d bf cb 14 7a bf 31 c1 fa bf f8 68 6b 3e
       -0.6778134 -0.9768798 -1.9590207 0.22989261
0001a0 4c 43 88 bf ba d8 95 3f ce 62 65 3f aa 31 a4 3f
       -1.0645537 1.1706765 0.8960389 1.2827656
0001b0 91 7a be bf 26 c7 72 bf f5 9d a0 bf b3 96 90 3f
       -1.4881154 -0.94835126 -1.2548205 1.129599
0001c0 35 d2 da be 22 5f c3 bf 46 be 52 bf ba 9e 4c bf
       -0.427385 -1.5263407 -0.82321584 -0.799297
0001d0 cb 0d b6 bf 34 eb bf bf 41 f3 8b bf bc 01 8f 3f
       -1.4222959 -1.4993653 -1.093361 1.1172404
0001e0 e9 1e b8 3f 61 4a c9 3f c7 93 9e 3f d2 8b fb be
       1.4384433 1.5725824 1.2388848 -0.49130112
0001f0 79 18 c1 3f c5 c5 b5 3f a1 b7 db 3f 3b 3b 58 3f
       1.5085593 1.420098 1.7165414 0.8446538
000200 62 e2 99 bf 9c 10 9e 3f 1b 91 81 3f 5b d4 8b bf
       -1.2022212 1.2348819 1.0122408 -1.0924181
000210 05 fc 5f bf 82 a8 6f bf 3f b0 8e bf 1e 24 9d bf
       -0.87493926 -0.936165 -1.1147536 -1.2276647
000220 c4 78 9d 3f 8a 1a 86 bf 0c 25 46 bf 2e 06 a4 3f
       1.230248 -1.0476849 -0.7740028 1.2814386
000230 1f f8 a6 bf a0 50 6f bf e3 66 95 3f 16 55 9e 3d
       -1.304447 -0.934824 1.1672024 0.077310726
000240 06 07 9c 3f d0 5c c8 3e 09 29 8d bf 78 ce 6f bf
       1.2189643 0.3913331 -1.1028148 -0.9367442
000250 74 ac 89 bf 78 c3 e2 be 99 f8 9b 3f f4 85 83 3f
       -1.0755754 -0.44289756 1.2185241 1.0275254
000260 b0 17 9d bf 74 64 a9 bf 97 05 4d 3f 8a 23 b2 bf
       -1.2272854 -1.3233781 0.80086654 -1.3917096
000270 fc 4b b2 bf da 05 9d bf c3 bd a9 bf 7c 9f 98 bf
       -1.3929439 -1.2267411 -1.3261036 -1.1923671
000280 16 5f f6 be 14 68 a9 3f 97 fb 8d 3f b8 e4 bd 3f
       -0.4811942 1.3234887 1.1092404 1.4835424
000290 71 10 94 bf 73 db 77 bf 53 a0 58 3f e5 c1 83 bf
       -1.1567518 -0.9681923 0.84619635 -1.0293547
0002a0 18 a9 bb 3f 2b 08 a7 bf b6 14 c6 bf 14 b8 ad 3f
       1.4660978 -1.3049368 -1.547507 1.3571801
0002b0 15 fc 52 bf c4 b5 7c 3f 01 08 ae bf 4d 3c a4 3f
       -0.82415897 0.9871485 -1.3596193 1.2830902
0002c0 53 a2 88 3f d3 24 c4 bf 4b b8 ba 3f 75 fd 24 bf
       1.0674537 -1.5323738 1.4587492 -0.64449245
0002d0 59 c4 40 3f 62 fb 51 bf 62 cb 58 3f df 85 a9 bf
       0.752996 -0.82024205 0.8468534 -1.3243979
0002e0 bd 12 c6 3f 0a c6 82 bf fd 7e c3 bf 2c 6c b5 bf
       1.5474468 -1.0216687 -1.5273129 -1.4173636
0002f0 a2 e2 c4 bf 30 15 e0 3f 92 58 8f 3f 60 51 98 bf
       -1.5381663 1.7506466 1.1198905 -1.1899834
000300 30 0b da be 59 46 d1 bf 84 ef 80 3f 49 d5 c2 3f
       -0.4258666 -1.6349593 1.0073094 1.522134
000310 07 cf ab bf df 8d 19 bf 62 4f 0e bf c8 3e a0 bd
       -1.3422555 -0.59982103 -0.5558988 -0.078244746
000320 27 c7 c6 bf f3 8f ce bf e6 14 47 bf 62 13 c3 bf
       -1.5529526 -1.613768 -0.77766263 -1.524029
000330 84 9a 98 bf fd b9 00 3e f5 35 30 3f 16 56 4e 3f
       -1.1922154 0.12570949 0.6883233 0.80600107
000340 bf 82 ca bf 03 9a 93 bf 8d ce 8f 3f ce c7 91 3e
       -1.582115 -1.1531376 1.1234909 0.2847275
000350 9e 4e bd bf e0 95 c0 3f 66 64 c9 bf ef 42 a4 bf
       -1.4789617 1.5045738 -1.5733764 -1.2832927
000360 50 54 c3 bf 0d 0b a5 bf ea 4c f3 3e 36 67 88 3f
       -1.5260105 -1.2893997 0.47519618 1.0656497
000370 ec 8a 50 3f da a3 6e bf c8 16 bc bf 6b 80 a2 3f
       0.8146198 -0.9321877 -1.4694452 1.269544
000380 d1 c7 c8 3f 97 16 8b 3f 2c ab a9 3f 11 5b 9b bf
       1.5685979 1.0866269 1.3255363 -1.2137166
000390 ba 92 d9 3f 1f 94 c0 3f 10 84 b6 bf 5d 6b a0 3f
       1.6997902 1.5045203 -1.4259052 1.2532765
0003a0 64 b8 b4 bf d2 c9 c5 3f ee 96 b9 3f 55 d5 b3 bf
       -1.4118772 1.5452216 1.4499185 -1.4049479
0003b0 66 33 18 bf b3 c5 b2 3f 04 29 bb 3f 0d 9c 91 3f
       -0.5945343 1.3966583 1.4621892 1.1375748
0003c0 75 62 8f 3f 4c 5b 8b 3f b6 1b b4 bf 37 e2 e9 3f
       1.1201922 1.0887237 -1.4070957 1.827216
0003d0 35 52 9a 3f 3d fc cc 3f 32 26 50 3f a4 95 b9 bf
       1.2056338 1.6014477 0.8130828 -1.4498792
0003e0 d8 ca d8 bf a0 ee b2 3f 86 cb 43 3f 6a 84 82 bf
       -1.6936903 1.3979073 0.7648243 -1.019666
0003f0 4d 32 4f bf 3c b6 ad bf b5 db ad bf 1e 57 b6 bf
       -0.8093613 -1.3571239 -1.3582674 -1.4245336
