vanilla_models/Cora/5_3f_85/split3/init2/GAT_dp0_5_5e_4_f2.pt (torch, 372919 bytes, 10 tensors)

layer_list.conv1.att_src f4 [1, 8, 8]
000000 b7 ed 04 bf 2c a5 f5 be d6 d5 a9 be 5b 5b 23 bb
       -0.51925224 -0.4797758 -0.33170956 -0.0024926278
000010 86 16 bb be c9 a8 c5 be f3 5d 42 be fe ac c7 be
       -0.36540622 -0.38605335 -0.18981151 -0.3899917
000020 a0 da 61 bf ea 05 48 3f c9 8d 16 3f 10 98 12 3f
       -0.8822422 0.78134024 0.58810097 0.5726328
000030 a4 ca 52 bf f5 31 0d 3f d1 50 57 3f 7d b5 49 3f
       -0.82340455 0.55154353 0.8410769 0.78792554
000040 df a9 16 3d 4f 57 70 3f 05 0f 10 bf 12 bb 36 3f
       0.036783095 0.9388322 -0.5627292 0.71379197
000050 97 0d 56 3f e8 99 38 3d 90 a8 0d 3f c0 af 21 3d
       0.83614486 0.04506865 0.5533533 0.03947425
000060 01 14 79 be 9b 50 0b bf 12 ef c2 be eb 23 22 3f
       -0.24324037 -0.5441987 -0.3807302 0.63336056
000070 25 ad f9 3c ff 42 a6 3e 93 63 b7 3d 63 19 ad 3e
       0.03047807 0.3247299 0.08954539 0.3380843
000080 e0 19 83 be ec 70 23 3f 6e b7 2b bf e5 b7 0f 3f
       -0.2560568 0.6384418 -0.67076766 0.56139976
000090 9d 7e 1e bd 49 d3 a2 be 0e c7 d0 bd 3c 23 69 3e
       -0.038694967 -0.31801823 -0.10194217 0.22767347
0000a0 4d 09 2c 3e 67 b1 d9 be 1f 67 dc bd 7d 38 03 bf
       0.16800423 -0.4251816 -0.10761856 -0.5125807
0000b0 da 50 1c bb 39 0f de 3e 70 c0 93 bd 84 b4 05 3e
       -0.0023851902 0.4337099 -0.07214439 0.13057142
0000c0 98 17 27 3e 06 d0 d6 3e 62 0a ac 3e 6d 8f 40 bd
       0.16317594 0.41955584 0.3360167 -0.04701178
0000d0 0a 29 ca be 7d bb 36 3e 79 01 dc be 30 2a 89 3c
       -0.39484435 0.17844959 -0.42969874 0.01674375
0000e0 47 84 42 3f e2 42 11 bd f8 0f ee 3e 97 f8 32 3f
       0.7598309 -0.035464175 0.46496558 0.6991057
0000f0 8a ee f5 3e 70 27 16 bf a6 36 38 bf 18 d8 92 3e
       0.48033553 -0.58653927 -0.71958387 0.2868049

layer_list.conv1.att_dst f4 [1, 8, 8]
000000 23 01 16 be 76 20 3b be 2c f9 e7 bd cb 61 32 bd
       -0.14648871 -0.18274102 -0.11326823 -0.043550294
000010 4d 8d b7 bd 95 01 d8 bd 9b d4 03 bd 69 e8 50 bd
       -0.08962498 -0.10547177 -0.03218518 -0.051002894
000020 03 d8 7e be f0 86 88 3d 9f 7d 2c 3e 3c d4 21 3e
       -0.2488709 0.06666362 0.16844796 0.15803617
000030 e8 c8 80 be f4 a5 dc 3c 46 60 11 3e 30 0f 84 3e
       -0.2515328 0.026934601 0.14196882 0.25792837
000040 ba 9f dc bd 8c db 9c 3e 51 54 4b be 59 25 89 bc
       -0.10772653 0.3063625 -0.19856383 -0.016741442
000050 6c 92 78 3e 33 46 3e bd 28 37 f8 3d 45 82 ab bc
       0.24274606 -0.046453666 0.12119895 -0.02093614
000060 dc 77 1f be 9e 4d 14 be 4a b5 65 bd d9 ca e9 3d
       -0.15573066 -0.14482734 -0.056081094 0.11415643
000070 6b b7 b5 3d c9 62 12 bd 9a ff 3e bd d8 97 e9 3d
       0.08872875 -0.03573874 -0.04663048 0.11405915
000080 62 8f a6 bc 03 71 7f 3e d0 44 4f be 74 a4 03 3e
       -0.020332042 0.24945454 -0.20241094 0.12855703
000090 c7 64 85 bc 85 8b fa bd 68 5f 80 3d ba 9d b6 bc
       -0.016283406 -0.122336425 0.06268197 -0.022292007
0000a0 88 9e 8b 3d 37 f2 20 be 66 50 f2 3c 19 89 2b be
       0.06817347 -0.15717398 0.029579353 -0.16751517
0000b0 f1 a4 48 3d 9a a6 e9 3d 1b ec aa bc 04 c8 07 be
       0.048985425 0.1140873 -0.020864537 -0.13259894
0000c0 1a 3d 0b bd 0b db 3b 3e aa 55 0b 3e 9f f8 83 3d
       -0.033993818 0.18345277 0.13606897 0.06443905
0000d0 d5 dc fb bd 08 c3 b9 3d 39 a2 0f be e0 3d 11 3c
       -0.1229798 0.090704024 -0.14026727 0.00886485
0000e0 19 2c 88 3e 99 3d b4 bd ea 23 9a 3d 13 a6 1f 3e
       0.26596144 -0.08800811 0.07526381 0.15590696
0000f0 1b ab 27 3e d1 d3 6a be 30 6f 85 be 30 56 5e 3c
       0.16373865 -0.22932364 -0.26061392 0.013570353

layer_list.conv1.bias f4 [64]
000000 f5 de 84 3c 83 ed 8d bc 01 5a c5 bb 50 e2 a0 3c
       0.016219595 -0.017325168 -0.006022692 0.019639164
000010 fe 52 ee 3b d6 d0 d3 3c 68 ed 0a 3c d5 c5 ec bb
       0.007273077 0.025856417 0.008479454 -0.007225732
000020 ce f3 28 3d 3c ef e0 3b 93 7c 5a 3c 5e 58 f9 bc
       0.041248135 0.0068644565 0.013335365 -0.030437645
000030 7d 8f 40 3d 43 07 0d 3d 4a e2 37 bc b5 8e b6 3c
       0.04701184 0.034430753 -0.011223385 0.022284845
000040 a8 ff 9e 3c 4a e9 d3 3c 8a 53 0d 3d 44 29 3d bc
       0.019409016 0.025868077 0.034503497 -0.011545483
000050 09 ba 98 bc 27 9a e4 3c 1b 2b 38 3d ff 61 57 3c
       -0.018643396 0.027905537 0.044962984 0.013145923
000060 ae ca 06 3c f3 2c b2 ba 4e d4 85 3c 03 0b 4a 3b
       0.008227034 -0.0013593718 0.016336586 0.0030829317
000070 2b a1 8e 3c 28 ac 85 ba 0a 5e 2c 3d 33 a6 de 3a
       0.017410835 -0.0010198401 0.04208187 0.0016986787
000080 46 b7 95 ba 57 e3 5c bc b9 2d 64 3d f4 42 ad 3b
       -0.0011422418 -0.013481936 0.055707667 0.0052875225
000090 99 a7 ee 3c 2c e3 cb bc 64 55 0d 3d 51 3c 53 3b
       0.029132651 -0.024888597 0.034505263 0.0032231996
0000a0 0e 73 61 bc 3d 21 95 bc ef 84 d7 bc 69 47 a2 bc
       -0.013760341 -0.018204326 -0.026308505 -0.019809442
0000b0 5d 64 97 3c 6e 7f 02 3d ea 92 ca bc 6b 2f ce 3b
       0.018480474 0.031859808 -0.024728257 0.0062922738
0000c0 df e2 09 3a ac 87 32 bd 3d d8 3f 3c 01 d0 3f bc
       0.00052599417 -0.043586418 0.01170927 -0.011707307
0000d0 d2 a5 53 3b 25 90 4f bb af 97 c4 3b 8a 2c 26 bd
       0.0032294882 -0.003167161 0.0059995274 -0.04056982
0000e0 85 fa f0 bb b8 4f ac 3c 33 42 29 3c 83 ed 66 bb
       -0.007354083 0.021034107 0.0103307245 -0.0035236783
0000f0 58 b4 f0 bc 32 1e bc 3c f6 cf f5 3c d8 f7 76 3d
       -0.02938287 0.022963617 0.03000639 0.060294956

layer_list.conv1.lin_src.weight f4 [64, 1433]
000000 fc 17 07 be e6 72 09 be 7f 6a 98 bd 5f cf 4a bd
       -0.13192743 -0.13422737 -0.074421875 -0.04951417
000010 fe b2 2f bd 0f e2 f9 3c c1 79 9e 3d 2f 12 e8 bd
       -0.04289531 0.030503301 0.077380665 -0.11331593
000020 bc 9b 77 bd c7 fb 41 3a af 54 b6 3c b1 6d 43 bd
       -0.060451254 0.00073998835 0.022257177 -0.04771203
000030 67 b0 3b be ea a6 ea 3c fd 05 3f bd 94 9c 89 bb
       -0.18329011 0.028644044 -0.04663657 -0.004199574
000040 0f 49 89 bc 3a f1 60 3d 3d 3d 2d 3c a6 ae 37 3e
       -0.01675847 0.05491755 0.010573682 0.17937717
000050 05 c3 d5 3b 89 ea 59 bd 19 59 42 bc f3 e7 52 3d
       0.0065234923 -0.053202186 -0.011862063 0.051490735
000060 53 be ab bc db 64 02 be 1c 8c 2c bd 14 d3 da bd
       -0.020964777 -0.12733786 -0.042125806 -0.10684791
000070 ea 48 43 bd 28 f3 71 3d 98 de a4 b5 ad a9 d8 3b
       -0.04767696 0.059069782 -1.2283735e-06 0.006612024
000080 4e 44 97 3c 6c 3b 9c bc 81 a7 38 3c ce fc d8 ba
       0.018465187 -0.019071303 0.011270405 -0.0016554834
000090 9e a0 f1 3c 3d 71 4e bc b1 e1 3a bd ba 20 c6 3d
       0.029495534 -0.01260024 -0.045625392 0.09674211
0000a0 96 0e c1 bd 92 53 2e be 94 9b 41 3b 13 e8 20 3c
       -0.0942661 -0.17024067 0.0029542195 0.009820956
0000b0 fe e3 0a 3d c7 50 9b bd d6 c5 55 3d 73 80 c0 bd
       0.033908837 -0.075837664 0.052190624 -0.093995
0000c0 da 2d 69 3c 86 39 6b 3c 99 6c 11 be 85 33 57 be
       0.014232123 0.014356976 -0.14201583 -0.21015747
0000d0 db b7 94 3d 1e 45 82 3c bd 68 5f 3c ac 1c 09 bc
       0.0726163 0.015902098 0.013635811 -0.008368652
0000e0 8f 63 9e 3d 09 aa f6 3c 55 e7 34 bc f9 4a 74 3d
       0.07733833 0.030110376 -0.011041482 0.059641812
0000f0 cd 20 d1 bb 9c 73 16 3d 81 c4 11 3d ba a3 f0 3c
       -0.006382084 0.036731347 0.03558779 0.029374946
000100 91 37 37 bd 9b 6f f7 bd 18 21 c3 3c 61 d4 0d 3c
       -0.044730727 -0.12081834 0.023819491 0.008656592
000110 9d 86 ce 3c bb 18 9a bb 73 bc 45 bd 69 9f c7 3c
       0.025210673 -0.004702655 -0.048275422 0.024368005
000120 3b 1d 73 3d 59 bf db 3c 4c da 5f bd 81 c4 8f 3d
       0.05935405 0.02682464 -0.054651543 0.07019902
000130 fd 51 48 3b ab e3 a6 3c 85 7f 6f be 62 31 a0 ba
       0.0030566447 0.020372232 -0.23388489 -0.0012221748
000140 54 48 8f bd 0b f3 dc bd c5 36 af bd 24 9f bf 3c
       -0.06996217 -0.10788544 -0.08555368 0.023391314
000150 34 30 02 bb e8 50 78 3d a3 00 48 3b ea d0 a1 bd
       -0.0019865157 0.060624033 0.0030517958 -0.07901175
000160 e6 d9 d5 3c 34 70 e9 bc 28 4f 2b bd ea 10 d5 bc
       0.026104879 -0.028495885 -0.041823536 -0.026009042
000170 cf 22 01 3d 79 35 9e be e9 5d 18 be 15 54 93 bc
       0.031527337 -0.3090017 -0.14879574 -0.01798443
000180 d6 f6 44 bc 68 bd 2e bd 0b 3e 8f 3c 87 54 ec 3d
       -0.012021741 -0.0426611 0.01748564 0.1153956
000190 18 79 00 bc 26 ab 52 3b f3 50 e5 bc e1 eb c3 bd
       -0.007841371 0.003214547 -0.027992701 -0.09566475
0001a0 55 6e 5c 3d d3 ea 13 3d 14 cb b7 3a f2 a1 78 3c
       0.05381616 0.036112618 0.0014022314 0.0151753295
0001b0 a1 74 66 36 5d d9 1d 3d 80 d7 6f 3d 48 a2 ef bc
       3.4340558e-06 0.038537372 0.058555126 -0.029252186
0001c0 4b 1a 80 bc 3a 2f 64 b9 48 5d 82 3c cd e0 54 3a
       -0.015637537 -0.00021761368 0.01591362 0.0008120656
0001d0 78 6c f6 3b b9 7f 7d 3d cc e6 8a 3d 40 17 14 3c
       0.0075202547 0.061889384 0.06782302 0.009038746
0001e0 72 45 4a bd 48 af ec 3c f2 2c 36 be f0 d2 1a 3c
       -0.049382634 0.028892174 -0.17790583 0.0094497055
0001f0 12 64 d2 3a c0 f0 14 bd bd ef e5 3b ad 1d d3 bd
       0.0016051552 -0.03636241 0.0070171044 -0.103083946
000200 fa 11 5c 3d 29 82 ba bd c5 50 b0 bd 21 61 ad ba
       0.05372808 -0.09106857 -0.086091556 -0.0013227799
000210 d6 81 e8 3d ca 59 11 3c 14 b9 c1 bc 5a e4 ac bd
       0.11352889 0.008871505 -0.023647822 -0.08441992
000220 85 82 dc 3c 1f 83 b0 bd 01 5a a0 3c fb 5b 2a 3c
       0.026917705 -0.08618759 0.019574167 0.010397906
000230 97 cc 3e 3e 4c 96 9a 3c 8b 1d d0 3b e1 53 ca 3d
       0.18632732 0.018870495 0.006351178 0.0987928
000240 8d e2 2c bd 66 77 9f bc 45 0a 34 bd 17 d8 73 bd
       -0.042208243 -0.019466113 -0.043955106 -0.05953225
000250 96 ee 66 3c a0 30 d0 bc 8f c8 99 bc 99 f0 50 bd
       0.014094969 -0.025413811 -0.018772392 -0.0510107
000260 9b 8b 65 3c 0a df 64 bd 76 af 08 3e 89 1c 44 bc
       0.014010335 -0.05587677 0.13348183 -0.011969694
000270 07 7a b0 3d 06 6c 6c 3d 8b 5b cc bc 29 f2 3e bb
       0.08617025 0.057720207 -0.024945995 -0.0029136038
000280 e2 35 4d 3d 68 9c 58 3b 6f 50 c8 bb f2 22 f3 3b
       0.050100215 0.003305221 -0.006113104 0.0074199373
000290 f2 5b c8 bc b7 f3 74 3c 5a 5e f2 3b 33 b7 8f 3d
       -0.024457905 0.014950684 0.0073965015 0.07017364
0002a0 8f 37 e4 bd d3 1e 18 bb a3 3d 00 ba 81 75 42 3d
       -0.111434095 -0.0023211732 -0.0004891997 0.04747534
0002b0 3d a2 2c bd 13 8c 25 be d0 4a a4 3c 2a 05 47 3d
       -0.04214691 -0.16166715 0.020055205 0.04858891
0002c0 2d 22 41 3e f4 c7 21 ba 83 4a e0 bc e0 cf 9b 3d
       0.18860693 -0.0006171458 -0.02737928 0.076080084
0002d0 8f 13 bc bc ea 51 1d 3c 5e fe 00 be 2e 22 35 3c
       -0.022958545 0.009602049 -0.12597033 0.011055512
0002e0 4e 2c 53 3c f6 d8 3d bc 88 a4 55 3d 7f 97 7a be
       0.012888981 -0.011587372 0.052158862 -0.24471854
0002f0 44 40 9a bb c0 62 fb 3c c3 b7 bf bc 98 9c be bd
       -0.004707368 0.030686736 -0.023403054 -0.09307212
000300 df cf 0a bd 42 ce 16 be 03 8f c3 bc 69 05 91 3d
       -0.033889648 -0.14727119 -0.023871904 0.0708111
000310 1e 67 64 bd 0e 62 56 bd 40 cb 58 bd 30 84 6d bd
       -0.055762403 -0.052339606 -0.05292821 -0.057987392
000320 74 f1 95 bb 8a 67 92 3c 6e 45 37 3d 95 c4 df 3d
       -0.0045759026 0.017871637 0.044743948 0.10926167
000330 9c 6d 2e 3d 3c 09 c1 3d 4d 96 3f 3c aa b4 dc bd
       0.042585 0.094255894 0.011693549 -0.107766464
000340 90 21 eb 3c 93 41 c0 bb ef 43 86 bb 8d 5a 40 be
       0.028702527 -0.005867192 -0.004097454 -0.18784542
000350 90 6c 4f bd 38 46 73 bc 0e 48 34 3b bc 81 7e bd
       -0.050640643 -0.014848284 0.0027508768 -0.062135443
000360 ec b8 b4 bb 1d 6c 23 3e 1e 6b 35 3d 99 9b 61 3d
       -0.0055152085 0.1595921 0.044291608 0.05508003
000370 9a 29 8f 3d af 8b 0d be 0f 4d e6 3c b7 b4 c0 3b
       0.06990357 -0.13822816 0.028112916 0.005880918
000380 d0 b7 c7 3d d3 0d 57 3d 3f 23 1c bd 07 4b de 3c
       0.09751856 0.05250342 -0.03811955 0.027135385
000390 50 bb 5c be 22 68 7f bd e6 64 c3 bd 87 cb a8 3d
       -0.21555829 -0.06235517 -0.09540729 0.08241945
0003a0 ea e0 99 bc c9 a4 54 bd 1c 31 e9 bd 76 bc 3b 3c
       -0.018784005 -0.051914964 -0.1138632 0.011458507
0003b0 13 4a ab bc 1b c8 30 3d de 2b 8e 3e e2 93 de bc
       -0.020909345 0.043159585 0.27767843 -0.027170125
0003c0 2b 4f ef 3b d4 2d a1 ba c2 8f 20 be 66 ba 57 3d
       0.0073031387 -0.0012296983 -0.15679839 0.052667998
0003d0 13 0a d6 3d 24 f3 51 bd d9 a2 91 bc 3f 50 dc bc
       0.1045114 -0.051257268 -0.017777847 -0.026893733
0003e0 f7 ad e7 bc f1 77 1c bd 38 58 49 be 35 4a 10 3d
       -0.028281195 -0.038200323 -0.19662559 0.03522702
0003f0 e4 5b f3 3c c4 86 ea b8 9d 6e 30 bd 9a 7c b5 3c
       0.029706903 -0.000111830916 -0.04307424 0.022154141

layer_list.conv1.lin_dst.weight f4 [64, 1433]
000000 fc 17 07 be e6 72 09 be 7f 6a 98 bd 5f cf 4a bd
       -0.13192743 -0.13422737 -0.074421875 -0.04951417
000010 fe b2 2f bd 0f e2 f9 3c c1 79 9e 3d 2f 12 e8 bd
       -0.04289531 0.030503301 0.077380665 -0.11331593
000020 bc 9b 77 bd c7 fb 41 3a af 54 b6 3c b1 6d 43 bd
       -0.060451254 0.00073998835 0.022257177 -0.04771203
000030 67 b0 3b be ea a6 ea 3c fd 05 3f bd 94 9c 89 bb
       -0.18329011 0.028644044 -0.04663657 -0.004199574
000040 0f 49 89 bc 3a f1 60 3d 3d 3d 2d 3c a6 ae 37 3e
       -0.01675847 0.05491755 0.010573682 0.17937717
000050 05 c3 d5 3b 89 ea 59 bd 19 59 42 bc f3 e7 52 3d
       0.0065234923 -0.053202186 -0.011862063 0.051490735
000060 53 be ab bc db 64 02 be 1c 8c 2c bd 14 d3 da bd
       -0.020964777 -0.12733786 -0.042125806 -0.10684791
000070 ea 48 43 bd 28 f3 71 3d 98 de a4 b5 ad a9 d8 3b
       -0.04767696 0.059069782 -1.2283735e-06 0.006612024
000080 4e 44 97 3c 6c 3b 9c bc 81 a7 38 3c ce fc d8 ba
       0.018465187 -0.019071303 0.011270405 -0.0016554834
000090 9e a0 f1 3c 3d 71 4e bc b1 e1 3a bd ba 20 c6 3d
       0.029495534 -0.01260024 -0.045625392 0.09674211
0000a0 96 0e c1 bd 92 53 2e be 94 9b 41 3b 13 e8 20 3c
       -0.0942661 -0.17024067 0.0029542195 0.009820956
0000b0 fe e3 0a 3d c7 50 9b bd d6 c5 55 3d 73 80 c0 bd
       0.033908837 -0.075837664 0.052190624 -0.093995
0000c0 da 2d 69 3c 86 39 6b 3c 99 6c 11 be 85 33 57 be
       0.014232123 0.014356976 -0.14201583 -0.21015747
0000d0 db b7 94 3d 1e 45 82 3c bd 68 5f 3c ac 1c 09 bc
       0.0726163 0.015902098 0.013635811 -0.008368652
0000e0 8f 63 9e 3d 09 aa f6 3c 55 e7 34 bc f9 4a 74 3d
       0.07733833 0.030110376 -0.011041482 0.059641812
0000f0 cd 20 d1 bb 9c 73 16 3d 81 c4 11 3d ba a3 f0 3c
       -0.006382084 0.036731347 0.03558779 0.029374946
000100 91 37 37 bd 9b 6f f7 bd 18 21 c3 3c 61 d4 0d 3c
       -0.044730727 -0.12081834 0.023819491 0.008656592
000110 9d 86 ce 3c bb 18 9a bb 73 bc 45 bd 69 9f c7 3c
       0.025210673 -0.004702655 -0.048275422 0.024368005
000120 3b 1d 73 3d 59 bf db 3c 4c da 5f bd 81 c4 8f 3d
       0.05935405 0.02682464 -0.054651543 0.07019902
000130 fd 51 48 3b ab e3 a6 3c 85 7f 6f be 62 31 a0 ba
       0.0030566447 0.020372232 -0.23388489 -0.0012221748
000140 54 48 8f bd 0b f3 dc bd c5 36 af bd 24 9f bf 3c
       -0.06996217 -0.10788544 -0.08555368 0.023391314
000150 34 30 02 bb e8 50 78 3d a3 00 48 3b ea d0 a1 bd
       -0.0019865157 0.060624033 0.0030517958 -0.07901175
000160 e6 d9 d5 3c 34 70 e9 bc 28 4f 2b bd ea 10 d5 bc
       0.026104879 -0.028495885 -0.041823536 -0.026009042
000170 cf 22 01 3d 79 35 9e be e9 5d 18 be 15 54 93 bc
       0.031527337 -0.3090017 -0.14879574 -0.01798443
000180 d6 f6 44 bc 68 bd 2e bd 0b 3e 8f 3c 87 54 ec 3d
       -0.012021741 -0.0426611 0.01748564 0.1153956
000190 18 79 00 bc 26 ab 52 3b f3 50 e5 bc e1 eb c3 bd
       -0.007841371 0.003214547 -0.027992701 -0.09566475
0001a0 55 6e 5c 3d d3 ea 13 3d 14 cb b7 3a f2 a1 78 3c
       0.05381616 0.036112618 0.0014022314 0.0151753295
0001b0 a1 74 66 36 5d d9 1d 3d 80 d7 6f 3d 48 a2 ef bc
       3.4340558e-06 0.038537372 0.058555126 -0.029252186
0001c0 4b 1a 80 bc 3a 2f 64 b9 48 5d 82 3c cd e0 54 3a
       -0.015637537 -0.00021761368 0.01591362 0.0008120656
0001d0 78 6c f6 3b b9 7f 7d 3d cc e6 8a 3d 40 17 14 3c
       0.0075202547 0.061889384 0.06782302 0.009038746
0001e0 72 45 4a bd 48 af ec 3c f2 2c 36 be f0 d2 1a 3c
       -0.049382634 0.028892174 -0.17790583 0.0094497055
0001f0 12 64 d2 3a c0 f0 14 bd bd ef e5 3b ad 1d d3 bd
       0.0016051552 -0.03636241 0.0070171044 -0.103083946
000200 fa 11 5c 3d 29 82 ba bd c5 50 b0 bd 21 61 ad ba
       0.05372808 -0.09106857 -0.086091556 -0.0013227799
000210 d6 81 e8 3d ca 59 11 3c 14 b9 c1 bc 5a e4 ac bd
       0.11352889 0.008871505 -0.023647822 -0.08441992
000220 85 82 dc 3c 1f 83 b0 bd 01 5a a0 3c fb 5b 2a 3c
       0.026917705 -0.08618759 0.019574167 0.010397906
000230 97 cc 3e 3e 4c 96 9a 3c 8b 1d d0 3b e1 53 ca 3d
       0.18632732 0.018870495 0.006351178 0.0987928
000240 8d e2 2c bd 66 77 9f bc 45 0a 34 bd 17 d8 73 bd
       -0.042208243 -0.019466113 -0.043955106 -0.05953225
000250 96 ee 66 3c a0 30 d0 bc 8f c8 99 bc 99 f0 50 bd
       0.014094969 -0.025413811 -0.018772392 -0.0510107
000260 9b 8b 65 3c 0a df 64 bd 76 af 08 3e 89 1c 44 bc
       0.014010335 -0.05587677 0.13348183 -0.011969694
000270 07 7a b0 3d 06 6c 6c 3d 8b 5b cc bc 29 f2 3e bb
       0.08617025 0.057720207 -0.024945995 -0.0029136038
000280 e2 35 4d 3d 68 9c 58 3b 6f 50 c8 bb f2 22 f3 3b
       0.050100215 0.003305221 -0.006113104 0.0074199373
000290 f2 5b c8 bc b7 f3 74 3c 5a 5e f2 3b 33 b7 8f 3d
       -0.024457905 0.014950684 0.0073965015 0.07017364
0002a0 8f 37 e4 bd d3 1e 18 bb a3 3d 00 ba 81 75 42 3d
       -0.111434095 -0.0023211732 -0.0004891997 0.04747534
0002b0 3d a2 2c bd 13 8c 25 be d0 4a a4 3c 2a 05 47 3d
       -0.04214691 -0.16166715 0.020055205 0.04858891
0002c0 2d 22 41 3e f4 c7 21 ba 83 4a e0 bc e0 cf 9b 3d
       0.18860693 -0.0006171458 -0.02737928 0.076080084
0002d0 8f 13 bc bc ea 51 1d 3c 5e fe 00 be 2e 22 35 3c
       -0.022958545 0.009602049 -0.12597033 0.011055512
0002e0 4e 2c 53 3c f6 d8 3d bc 88 a4 55 3d 7f 97 7a be
       0.012888981 -0.011587372 0.052158862 -0.24471854
0002f0 44 40 9a bb c0 62 fb 3c c3 b7 bf bc 98 9c be bd
       -0.004707368 0.030686736 -0.023403054 -0.09307212
000300 df cf 0a bd 42 ce 16 be 03 8f c3 bc 69 05 91 3d
       -0.033889648 -0.14727119 -0.023871904 0.0708111
000310 1e 67 64 bd 0e 62 56 bd 40 cb 58 bd 30 84 6d bd
       -0.055762403 -0.052339606 -0.05292821 -0.057987392
000320 74 f1 95 bb 8a 67 92 3c 6e 45 37 3d 95 c4 df 3d
       -0.0045759026 0.017871637 0.044743948 0.10926167
000330 9c 6d 2e 3d 3c 09 c1 3d 4d 96 3f 3c aa b4 dc bd
       0.042585 0.094255894 0.011693549 -0.107766464
000340 90 21 eb 3c 93 41 c0 bb ef 43 86 bb 8d 5a 40 be
       0.028702527 -0.005867192 -0.004097454 -0.18784542
000350 90 6c 4f bd 38 46 73 bc 0e 48 34 3b bc 81 7e bd
       -0.050640643 -0.014848284 0.0027508768 -0.062135443
000360 ec b8 b4 bb 1d 6c 23 3e 1e 6b 35 3d 99 9b 61 3d
       -0.0055152085 0.1595921 0.044291608 0.05508003
000370 9a 29 8f 3d af 8b 0d be 0f 4d e6 3c b7 b4 c0 3b
       0.06990357 -0.13822816 0.028112916 0.005880918
000380 d0 b7 c7 3d d3 0d 57 3d 3f 23 1c bd 07 4b de 3c
       0.09751856 0.05250342 -0.03811955 0.027135385
000390 50 bb 5c be 22 68 7f bd e6 64 c3 bd 87 cb a8 3d
       -0.21555829 -0.06235517 -0.09540729 0.08241945
0003a0 ea e0 99 bc c9 a4 54 bd 1c 31 e9 bd 76 bc 3b 3c
       -0.018784005 -0.051914964 -0.1138632 0.011458507
0003b0 13 4a ab bc 1b c8 30 3d de 2b 8e 3e e2 93 de bc
       -0.020909345 0.043159585 0.27767843 -0.027170125
0003c0 2b 4f ef 3b d4 2d a1 ba c2 8f 20 be 66 ba 57 3d
       0.0073031387 -0.0012296983 -0.15679839 0.052667998
0003d0 13 0a d6 3d 24 f3 51 bd d9 a2 91 bc 3f 50 dc bc
       0.1045114 -0.051257268 -0.017777847 -0.026893733
0003e0 f7 ad e7 bc f1 77 1c bd 38 58 49 be 35 4a 10 3d
       -0.028281195 -0.038200323 -0.19662559 0.03522702
0003f0 e4 5b f3 3c c4 86 ea b8 9d 6e 30 bd 9a 7c b5 3c
       0.029706903 -0.000111830916 -0.04307424 0.022154141

layer_list.conv2.att_src f4 [1, 1, 7]
000000 99 28 2d 3e 27 c0 94 3e 40 e2 e8 3d b9 2f 80 3e
       0.16910018 0.2905285 0.11371279 0.2503641
000010 e0 97 81 3e aa 80 f8 3d 8a b1 16 3d
       0.25311184 0.12133916 0.03679041

layer_list.conv2.att_dst f4 [1, 1, 7]
000000 fd 68 d4 be 93 5c b0 3e a6 2d 4d be db 6e 65 3f
       -0.4148635 0.3444563 -0.20036945 0.8962228
000010 a3 89 3b 3d d4 9d d4 be 12 54 aa 3e
       0.045785557 -0.41526663 0.33267266

layer_list.conv2.bias f4 [7]
000000 ea d8 37 be e3 fd 10 bf ae e6 af bd f9 9c 18 3f
       -0.1795384 -0.566374 -0.085889205 0.5961452
000010 aa 2d 85 3d 76 74 83 be 06 e7 0c bf
       0.0650285 -0.2567479 -0.55040014

layer_list.conv2.lin_src.weight f4 [7, 64]
000000 b4 b3 25 3f 48 35 a0 bf c3 c8 14 bf 16 34 1e 3f
       0.6472733 -1.251626 -0.5811884 0.61798227
000010 b7 99 e5 3e 4d a0 49 bf d9 2d d0 3e e8 58 e4 3d
       0.44843838 -0.78760225 0.4065998 0.1114977
000020 e3 99 16 3e 99 13 64 3f cd 18 96 bf fc c5 3a bf
       0.1470714 0.89092404 -1.1726319 -0.7295835
000030 d3 f2 81 3f c0 e1 a5 bd 3c dd aa 3f 2d 61 17 bf
       1.0152229 -0.08099699 1.3348765 -0.59132653
000040 cf ef 0d 3f 34 b0 9e bf 4c a2 92 3f a9 5d e9 3e
       0.55444044 -1.2397523 1.1455779 0.4557927
000050 bd cd 79 bf bb 16 95 3f 17 51 7d 3e d7 68 c4 3e
       -0.97579557 1.1647562 0.24737965 0.38361236
000060 11 fc 3f bf 2a fe 85 bf ce 4c 08 bf bc 07 98 3f
       -0.74994 -1.046819 -0.53242195 1.187736
000070 b3 cc d0 3e 10 9d 94 bf 01 0d 8e 3e f5 9d 80 bf
       0.40781173 -1.1610432 0.27744296 -1.0048205
000080 ea f9 65 3f e2 41 92 bf 0a 36 86 3f c1 a1 7b 3f
       0.89834464 -1.1426356 1.0485241 0.9829369
000090 dd 32 64 3f 68 71 8f 3f 5b 08 35 3f c6 35 58 3f
       0.8914011 1.1206484 0.70715874 0.8445705
0000a0 09 7a 96 3f c0 ac 1a bf b9 65 33 3f 0d 20 5c bf
       1.1755992 -0.60419846 0.7007709 -0.85986406
0000b0 82 60 33 3f 90 21 22 be c8 69 5c bf 83 f2 2f bf
       0.70069134 -0.15833116 -0.8609891 -0.6872942
0000c0 11 0a 7e bf 64 09 85 3f 57 3c 9f 3f 96 c9 80 bf
       -0.9923411 1.0393491 1.2440289 -1.0061519
0000d0 9e 3c b3 be 23 e5 8f bf b2 50 46 bf 2e 5d 8e 3f
       -0.35007185 -1.1241802 -0.7746688 1.1122186
0000e0 89 b6 a8 3f c2 b8 81 bf 63 41 27 bf 02 5e 3d bf
       1.3180705 -1.0134509 -0.6533415 -0.7397157
0000f0 2b f6 a4 be 25 73 39 bf 3a d3 2d bf 5c 12 8c bf
       -0.3221906 -0.7244132 -0.6790043 -1.0943103
000100 d7 6b 86 bf 5d 8f 81 bf 24 bd 2b 3e 75 ec 58 3f
       -1.050166 -1.0121876 0.1677137 0.84735805
000110 27 0c 93 bf fd 39 1f 3f 0b 9a 8d bf c7 94 19 3f
       -1.1488084 0.6219786 -1.1062635 0.5999264
000120 ce 6a 6e 3e fd 41 ec 3c a2 20 95 3f cf 6c 5e 3f
       0.2328293 0.02884006 1.1650584 0.8688478
000130 b8 f2 a5 bc 21 75 98 be 19 4e a1 bf d4 da 62 be
       -0.020257339 -0.29776862 -1.2601959 -0.22153789
000140 42 de d7 3e a0 4b 74 3f 88 74 81 bf 67 16 73 3f
       0.42161757 0.95427895 -1.0113688 0.9495606
000150 e8 e1 9e 3f dc c3 2d 3f b9 bc 86 3f 51 5e 04 3f
       1.2412691 0.6787698 1.0526344 0.51706415
000160 e5 ca 8d bf 2e da 8c bf dd 7d 83 bf 03 92 61 3f
       -1.1077543 -1.1004083 -1.0272785 0.8811342
000170 76 5f ed 3e 6f 02 ad 3f f9 6a 57 3f 34 e8 87 3f
       0.46361893 1.3516368 0.841476 1.0617738
000180 5f 93 8d 3f 22 19 9f 3f 9d 1b 92 bf f8 84 54 bf
       1.1060599 1.2429545 -1.1414677 -0.83015394
000190 a5 1f 40 bf 9d 5c 71 3f 35 bb 25 3d e9 2d 7c 3f
       -0.75048286 0.9428194 0.040461738 0.98507553
0001a0 e2 21 24 bf be a2 07 3e 23 fa 8e 3f 37 13 83 3f
       -0.641142 0.13245675 1.1170086 1.0240239
0001b0 42 40 8a 3f 70 09 6e 3f e9 94 93 bd 57 13 85 3f
       1.080086 0.9298315 -0.07206137 1.0396527
0001c0 a6 6a 5d be b7 80 6e 3f 77 b2 64 bf 42 6e 49 3f
       -0.21622714 0.93165153 -0.89334816 0.78683865
0001d0 7e a1 8b bf e6 dd bf be 65 fa 87 bf e6 1d f2 be
       -1.0908659 -0.37473983 -1.0623289 -0.47288436
0001e0 a1 d1 45 bf 03 f6 8c 3f 73 08 96 3f 5e ef 90 3f
       -0.77272993 1.1012577 1.1721328 1.1323049
0001f0 33 0d 77 bf 62 bb 81 3f f2 13 88 3e 41 4a 7c bf
       -0.96504515 1.013531 0.26577717 -0.985508
000200 f1 75 34 3f d6 4b 8f 3f 4e d8 88 3f d1 43 86 bf
       0.70492464 1.1195018 1.0691011 -1.0489446
000210 c3 e1 34 3f 7a 6c 85 3f a4 7d f8 bd 7c 63 d1 be
       0.70656985 1.042373 -0.12133339 -0.40896213
000220 d2 dc 99 bf 12 12 4d 3f 93 2b 77 3f 32 fd 93 3f
       -1.2020514 0.801057 0.96550864 1.1561644
000230 cd ff 93 bf de 9f 56 3f 57 e5 6c 3f 8a 31 5a 3f
       -1.1562439 0.8383769 0.92537445 0.8523184
000240 e7 66 8e bf e6 07 55 3f 9b 94 15 3f 55 8f 89 3f
       -1.1125153 0.8321518 0.5842988 1.0746866
000250 89 b1 81 3f 84 db 6b bf 4b a4 9b bd f4 bb 45 3f
       1.0132304 -0.9213183 -0.07599696 0.7723992
000260 05 ee 8f 3f 77 8d 94 3f e4 b6 16 3f 98 46 82 bf
       1.1244513 1.1605672 0.5887282 -1.0177794
000270 6e da 88 bf 84 68 84 3f b5 ea 2a 3e d0 7a 28 bf
       -1.069166 1.0344396 0.16691096 -0.65812397
000280 96 f2 21 bf 25 1e 63 3f 05 6e 91 bf c7 44 7a 3f
       -0.6326078 0.8871787 -1.13617 0.97761196
000290 1e 83 42 bf 82 d7 7e bf 14 52 94 bf bf 9b 73 3f
       -0.7598132 -0.9954759 -1.1587548 0.95159525
0002a0 78 69 67 bf 6d dc 88 3f 93 3b 45 bf 29 17 74 3f
       -0.9039531 1.0692269 -0.7704403 0.9534784
0002b0 68 3e 90 bf 22 2b 82 bf 0a 27 50 3f 4a 56 65 3f
       -1.1269045 -1.0169413 0.8130957 0.8958479
0002c0 96 35 84 3f 59 9b 67 3f 9b fa 8f 3f 58 f9 83 3f
       1.0328853 0.90471417 1.1248354 1.0310469
0002d0 54 2d 66 bf fa 09 8c 3f 5d ac 66 bf ab ea 84 bf
       -0.89912915 1.0940545 -0.90106755 -1.0384115
0002e0 1b 82 93 3f 18 98 36 3f d7 f4 7a 3f af cb 89 3f
       1.152408 0.71325827 0.98029846 1.0765284
0002f0 34 92 97 3f b2 45 83 bf 98 43 80 bf c8 32 38 3f
       1.1841493 -1.0255644 -1.0020628 0.71952486
000300 4a 3c 3e 3f 45 7b 8b 3f 9f eb 45 3f 6a 5d 0f 3f
       0.74310744 1.0896994 0.77312654 0.56001914
000310 1a 46 3d 3f 56 72 86 3f 54 7a 43 3f a8 3f 68 3f
       0.7393509 1.0503643 0.7635853 0.9072213
000320 64 e3 61 3f f9 09 1c bf 07 90 0b bf 57 2e b2 be
       0.88237596 -0.6095272 -0.54516643 -0.3480098
000330 b6 a4 60 3f 87 cf 88 bf 9e 31 7f bf 6d 68 6b bf
       0.8775133 -1.0688332 -0.99685085 -0.91956216
000340 a9 21 46 bf 99 07 86 bf 8d 6d 48 3f 3d 20 8a bf
       -0.7739511 -1.0471069 0.7829216 -1.0791088
000350 7a 69 63 bf d6 8a 57 bf 25 dd 95 bf 6f 61 54 3f
       -0.8883282 -0.8419622 -1.1708113 0.8296117
000360 ad 45 eb be 96 9e 96 3f aa 1e bd 3e 8f 12 85 bf
       -0.45951596 1.1767147 0.36937457 -1.0396289
000370 6f eb 93 3f 65 1b c4 3b ea b2 e0 3e c6 63 2d bd
       1.1556224 0.005984711 0.438865 -0.04233148
000380 9a 01 8d bf a4 8e 67 3f eb 12 06 bf 4d 4f 84 3f
       -1.1016114 0.9045203 -0.52372617 1.0336701
000390 3e 62 2a 3f fa bf 98 bf 0d bb 82 3f 09 01 92 bf
       0.66556156 -1.1933587 1.0213333 -1.1406566
0003a0 d0 65 29 bf bb 51 68 3f be 6e b8 3e b3 58 90 3f
       -0.6617098 0.9074971 0.3602199 1.1277069
0003b0 06 76 10 be 4d a8 99 bf 22 6f c0 3e 03 e7 7a bf
       -0.14107522 -1.2004486 0.37584788 -0.98008746
0003c0 09 a4 86 bf ba aa 44 bf 07 7e 80 bf 3b 04 84 3f
       -1.051881 -0.7682301 -1.003846 1.0313791
0003d0 ee 32 8e 3f e1 53 81 bf b0 b2 85 3f 24 7d 86 bf
       1.1109293 -1.0103723 1.0445156 -1.050694
0003e0 f7 9c 88 bf e9 e2 90 3f 59 d2 8c bf 11 77 49 bf
       -1.0672902 1.1319247 -1.1001693 -0.78697306
0003f0 04 39 93 bf db a1 98 3f cd 9e 83 3f 01 d8 36 3e
       -1.1501775 1.1924394 1.0282837 0.17855836

layer_list.conv2.lin_dst.weight f4 [7, 64]
000000 b4 b3 25 3f 48 35 a0 bf c3 c8 14 bf 16 34 1e 3f
       0.6472733 -1.251626 -0.5811884 0.61798227
000010 b7 99 e5 3e 4d a0 49 bf d9 2d d0 3e e8 58 e4 3d
       0.44843838 -0.78760225 0.4065998 0.1114977
000020 e3 99 16 3e 99 13 64 3f cd 18 96 bf fc c5 3a bf
       0.1470714 0.89092404 -1.1726319 -0.7295835
000030 d3 f2 81 3f c0 e1 a5 bd 3c dd aa 3f 2d 61 17 bf
       1.0152229 -0.08099699 1.3348765 -0.59132653
000040 cf ef 0d 3f 34 b0 9e bf 4c a2 92 3f a9 5d e9 3e
       0.55444044 -1.2397523 1.1455779 0.4557927
000050 bd cd 79 bf bb 16 95 3f 17 51 7d 3e d7 68 c4 3e
       -0.97579557 1.1647562 0.24737965 0.38361236
000060 11 fc 3f bf 2a fe 85 bf ce 4c 08 bf bc 07 98 3f
       -0.74994 -1.046819 -0.53242195 1.187736
000070 b3 cc d0 3e 10 9d 94 bf 01 0d 8e 3e f5 9d 80 bf
       0.40781173 -1.1610432 0.27744296 -1.0048205
000080 ea f9 65 3f e2 41 92 bf 0a 36 86 3f c1 a1 7b 3f
       0.89834464 -1.1426356 1.0485241 0.9829369
000090 dd 32 64 3f 68 71 8f 3f 5b 08 35 3f c6 35 58 3f
       0.8914011 1.1206484 0.70715874 0.8445705
0000a0 09 7a 96 3f c0 ac 1a bf b9 65 33 3f 0d 20 5c bf
       1.1755992 -0.60419846 0.7007709 -0.85986406
0000b0 82 60 33 3f 90 21 22 be c8 69 5c bf 83 f2 2f bf
       0.70069134 -0.15833116 -0.8609891 -0.6872942
0000c0 11 0a 7e bf 64 09 85 3f 57 3c 9f 3f 96 c9 80 bf
       -0.9923411 1.0393491 1.2440289 -1.0061519
0000d0 9e 3c b3 be 23 e5 8f bf b2 50 46 bf 2e 5d 8e 3f
       -0.35007185 -1.1241802 -0.7746688 1.1122186
0000e0 89 b6 a8 3f c2 b8 81 bf 63 41 27 bf 02 5e 3d bf
       1.3180705 -1.0134509 -0.6533415 -0.7397157
0000f0 2b f6 a4 be 25 73 39 bf 3a d3 2d bf 5c 12 8c bf
       -0.3221906 -0.7244132 -0.6790043 -1.0943103
000100 d7 6b 86 bf 5d 8f 81 bf 24 bd 2b 3e 75 ec 58 3f
       -1.050166 -1.0121876 0.1677137 0.84735805
000110 27 0c 93 bf fd 39 1f 3f 0b 9a 8d bf c7 94 19 3f
       -1.1488084 0.6219786 -1.1062635 0.5999264
000120 ce 6a 6e 3e fd 41 ec 3c a2 20 95 3f cf 6c 5e 3f
       0.2328293 0.02884006 1.1650584 0.8688478
000130 b8 f2 a5 bc 21 75 98 be 19 4e a1 bf d4 da 62 be
       -0.020257339 -0.29776862 -1.2601959 -0.22153789
000140 42 de d7 3e a0 4b 74 3f 88 74 81 bf 67 16 73 3f
       0.42161757 0.95427895 -1.0113688 0.9495606
000150 e8 e1 9e 3f dc c3 2d 3f b9 bc 86 3f 51 5e 04 3f
       1.2412691 0.6787698 1.0526344 0.51706415
000160 e5 ca 8d bf 2e da 8c bf dd 7d 83 bf 03 92 61 3f
       -1.1077543 -1.1004083 -1.0272785 0.8811342
000170 76 5f ed 3e 6f 02 ad 3f f9 6a 57 3f 34 e8 87 3f
       0.46361893 1.3516368 0.841476 1.0617738
000180 5f 93 8d 3f 22 19 9f 3f 9d 1b 92 bf f8 84 54 bf
       1.1060599 1.2429545 -1.1414677 -0.83015394
000190 a5 1f 40 bf 9d 5c 71 3f 35 bb 25 3d e9 2d 7c 3f
       -0.75048286 0.9428194 0.040461738 0.98507553
0001a0 e2 21 24 bf be a2 07 3e 23 fa 8e 3f 37 13 83 3f
       -0.641142 0.13245675 1.1170086 1.0240239
0001b0 42 40 8a 3f 70 09 6e 3f e9 94 93 bd 57 13 85 3f
       1.080086 0.9298315 -0.07206137 1.0396527
0001c0 a6 6a 5d be b7 80 6e 3f 77 b2 64 bf 42 6e 49 3f
       -0.21622714 0.93165153 -0.89334816 0.78683865
0001d0 7e a1 8b bf e6 dd bf be 65 fa 87 bf e6 1d f2 be
       -1.0908659 -0.37473983 -1.0623289 -0.47288436
0001e0 a1 d1 45 bf 03 f6 8c 3f 73 08 96 3f 5e ef 90 3f
       -0.77272993 1.1012577 1.1721328 1.1323049
0001f0 33 0d 77 bf 62 bb 81 3f f2 13 88 3e 41 4a 7c bf
       -0.96504515 1.013531 0.26577717 -0.985508
000200 f1 75 34 3f d6 4b 8f 3f 4e d8 88 3f d1 43 86 bf
       0.70492464 1.1195018 1.0691011 -1.0489446
000210 c3 e1 34 3f 7a 6c 85 3f a4 7d f8 bd 7c 63 d1 be
       0.70656985 1.042373 -0.12133339 -0.40896213
000220 d2 dc 99 bf 12 12 4d 3f 93 2b 77 3f 32 fd 93 3f
       -1.2020514 0.801057 0.96550864 1.1561644
000230 cd ff 93 bf de 9f 56 3f 57 e5 6c 3f 8a 31 5a 3f
       -1.1562439 0.8383769 0.92537445 0.8523184
000240 e7 66 8e bf e6 07 55 3f 9b 94 15 3f 55 8f 89 3f
       -1.1125153 0.8321518 0.5842988 1.0746866
000250 89 b1 81 3f 84 db 6b bf 4b a4 9b bd f4 bb 45 3f
       1.0132304 -0.9213183 -0.07599696 0.7723992
000260 05 ee 8f 3f 77 8d 94 3f e4 b6 16 3f 98 46 82 bf
       1.1244513 1.1605672 0.5887282 -1.0177794
000270 6e da 88 bf 84 68 84 3f b5 ea 2a 3e d0 7a 28 bf
       -1.069166 1.0344396 0.16691096 -0.65812397
000280 96 f2 21 bf 25 1e 63 3f 05 6e 91 bf c7 44 7a 3f
       -0.6326078 0.8871787 -1.13617 0.97761196
000290 1e 83 42 bf 82 d7 7e bf 14 52 94 bf bf 9b 73 3f
       -0.7598132 -0.9954759 -1.1587548 0.95159525
0002a0 78 69 67 bf 6d dc 88 3f 93 3b 45 bf 29 17 74 3f
       -0.9039531 1.0692269 -0.7704403 0.9534784
0002b0 68 3e 90 bf 22 2b 82 bf 0a 27 50 3f 4a 56 65 3f
       -1.1269045 -1.0169413 0.8130957 0.8958479
0002c0 96 35 84 3f 59 9b 67 3f 9b fa 8f 3f 58 f9 83 3f
       1.0328853 0.90471417 1.1248354 1.0310469
0002d0 54 2d 66 bf fa 09 8c 3f 5d ac 66 bf ab ea 84 bf
       -0.89912915 1.0940545 -0.90106755 -1.0384115
0002e0 1b 82 93 3f 18 98 36 3f d7 f4 7a 3f af cb 89 3f
       1.152408 0.71325827 0.98029846 1.0765284
0002f0 34 92 97 3f b2 45 83 bf 98 43 80 bf c8 32 38 3f
       1.1841493 -1.0255644 -1.0020628 0.71952486
000300 4a 3c 3e 3f 45 7b 8b 3f 9f eb 45 3f 6a 5d 0f 3f
       0.74310744 1.0896994 0.77312654 0.56001914
000310 1a 46 3d 3f 56 72 86 3f 54 7a 43 3f a8 3f 68 3f
       0.7393509 1.0503643 0.7635853 0.9072213
000320 64 e3 61 3f f9 09 1c bf 07 90 0b bf 57 2e b2 be
       0.88237596 -0.6095272 -0.54516643 -0.3480098
000330 b6 a4 60 3f 87 cf 88 bf 9e 31 7f bf 6d 68 6b bf
       0.8775133 -1.0688332 -0.99685085 -0.91956216
000340 a9 21 46 bf 99 07 86 bf 8d 6d 48 3f 3d 20 8a bf
       -0.7739511 -1.0471069 0.7829216 -1.0791088
000350 7a 69 63 bf d6 8a 57 bf 25 dd 95 bf 6f 61 54 3f
       -0.8883282 -0.8419622 -1.1708113 0.8296117
000360 ad 45 eb be 96 9e 96 3f aa 1e bd 3e 8f 12 85 bf
       -0.45951596 1.1767147 0.36937457 -1.0396289
000370 6f eb 93 3f 65 1b c4 3b ea b2 e0 3e c6 63 2d bd
       1.1556224 0.005984711 0.438865 -0.04233148
000380 9a 01 8d bf a4 8e 67 3f eb 12 06 bf 4d 4f 84 3f
       -1.1016114 0.9045203 -0.52372617 1.0336701
000390 3e 62 2a 3f fa bf 98 bf 0d bb 82 3f 09 01 92 bf
       0.66556156 -1.1933587 1.0213333 -1.1406566
0003a0 d0 65 29 bf bb 51 68 3f be 6e b8 3e b3 58 90 3f
       -0.6617098 0.9074971 0.3602199 1.1277069
0003b0 06 76 10 be 4d a8 99 bf 22 6f c0 3e 03 e7 7a bf
       -0.14107522 -1.2004486 0.37584788 -0.98008746
0003c0 09 a4 86 bf ba aa 44 bf 07 7e 80 bf 3b 04 84 3f
       -1.051881 -0.7682301 -1.003846 1.0313791
0003d0 ee 32 8e 3f e1 53 81 bf b0 b2 85 3f 24 7d 86 bf
       1.1109293 -1.0103723 1.0445156 -1.050694
0003e0 f7 9c 88 bf e9 e2 90 3f 59 d2 8c bf 11 77 49 bf
       -1.0672902 1.1319247 -1.1001693 -0.78697306
0003f0 04 39 93 bf db a1 98 3f cd 9e 83 3f 01 d8 36 3e
       -1.1501775 1.1924394 1.0282837 0.17855836
