vanilla_models/Cora/5_3f_85/split3/init3/GAT_dp0_5_5e_4_f2.pt (torch, 372919 bytes, 10 tensors)

layer_list.conv1.att_src f4 [1, 8, 8]
0.91435367 0.7178397 0.17856535 0.26194948 0.012211853 0.7172398 0.9604629 -0.7899564
0.61964226 -0.6712208 -0.0068336483 -0.66355175 0.4123616 -0.4695981 0.27451387 0.28004977
-0.7426305 0.7386208 0.02485902 -0.014824291 0.60337096 0.8021343 -0.030260125 0.23779285
0.46951786 0.5209274 -0.27474323 -0.6081769 0.3098185 -0.63520527 0.28518656 -0.42328346
-0.99113685 -0.56105965 0.62127495 0.63779056 -0.8825669 -0.5527618 -0.669559 0.62727916
0.6185456 -0.18909661 -0.3997096 -0.59119457 -0.4019954 0.19614027 -0.6210591 -0.6737186
0.44203156 0.6346484 0.6666356 -0.8860335 -0.46688688 -0.2594498 -0.17143519 0.1637034
0.24055758 -0.7020891 -0.14483158 -0.20435114 0.4872276 0.7002623 -0.24226 -0.32481587
00000000: 1513 6a3f 58c4 373f d6d9 363e 3e1e 863e
00000010: 3914 483c 079d 373f e6e0 753f 953a 4abf
00000020: e0a0 1e3f 20d5 2bbf ccec dfbb 87de 29bf
00000030: 0f21 d33e 2a6f f0be 158d 8c3e af62 8f3e
00000040: 081d 3ebf 4116 3d3f 25a5 cb3c 95e1 72bc
00000050: 8576 1a3f ac58 4d3f 15e4 f7bc f87f 733e
00000060: a564 f03e 805b 053f 25ab 8cbe 7bb1 1bbf
00000070: 88a0 9e3e d09c 22bf f903 923e 9cb8 d8be
00000080: 25bb 7dbf 9ba1 0fbf e00b 1f3f 3e46 233f
00000090: e8ef 61bf cc81 0dbf 3868 2bbf 5e95 203f
000000a0: 0159 1e3f 8ba2 41be bda6 ccbe 8758 17bf
000000b0: 57d2 cdbe ffd8 483e bbfd 1ebf d278 2cbf
000000c0: f651 e23e 5178 223f a1a8 2a3f 17d3 62bf
000000d0: cc0b efbe 9bd6 84be b58c 2fbe dda1 273e
000000e0: ba54 763e 1cbc 33bf bb4e 14be 6d41 51be
000000f0: e575 f93e 6444 333f 0113 78be 444e a6be

layer_list.conv1.att_dst f4 [1, 8, 8]
0.20646755 0.22733808 -0.04356899 0.14814487 -0.058728494 0.12307069 0.22453731 -0.16124411
0.105452485 -0.19573729 -0.08464007 -0.14557359 0.09015502 -0.07976245 -0.013418203 -0.015903417
-0.19797945 0.21694988 0.11256397 0.07544203 0.086891204 0.2095531 0.03588032 -0.10307944
0.13950545 0.22763066 -0.07504941 -0.1685216 0.056540933 -0.21347603 -0.0017617911 -0.1963023
-0.37045476 -0.0014291101 -0.0029209682 0.090721406 -0.23659533 -0.043391038 -0.073339514 0.11591648
0.23607376 -0.07140904 -0.19433512 -0.22017455 -0.13932037 0.018288326 -0.24015848 -0.23994413
0.09539154 0.20931794 0.14756846 -0.22505498 -0.11058389 -0.07311798 0.011838694 -0.051610198
-0.012599218 -0.19369227 -0.096664876 -0.011979922 0.06403316 0.14412078 -0.09552132 -0.1070376
00000000: 3b6c 533e 50cb 683e 6675 32bd 4ab3 173e
00000010: 4a8d 70bd 7c0c fc3d 1ced 653e 2d1d 25be
00000020: 79f7 d73d 5b6f 48be c657 adbd 3e11 15be
00000030: 32a3 b83d 7f5a a3bd 06d8 5bbc e247 82bc
00000040: 20bb 4abe 1c28 5e3e f087 e63d 5a81 9a3d
00000050: 04f4 b13d 1695 563e 3ef7 123d 501b d3bd
00000060: 84da 0e3e 0318 693e 81b3 99bd ed90 2cbe
00000070: 7797 673d 7699 5abe e6eb e6ba 7803 49be
00000080: 3fac bdbe fa50 bbba b76d 3fbb 25cc b93d
00000090: 0c46 72be cdba 31bd 0733 96bd 9f65 ed3d
000000a0: 52bd 713e e73e 92bd c9ff 46be 7075 61be
000000b0: 00aa 0ebe 66d1 953c 1bec 75be eab3 75be
000000c0: a45c c33d 7157 563e 301c 173e d074 66be
000000d0: ce79 e2bd e1be 95bd 15f7 413c 3765 53bd
000000e0: f36c 4ebc 4457 46be 3cf8 c5bd 6f47 44bc
000000f0: d123 833d 6694 133e afa0 c3bd 8736 dbbd

layer_list.conv1.bias f4 [64]
0.0025925995 -0.023620484 -0.010030812 -0.0013591802 -0.04186715 -0.024324965 -0.02366914 -4.4435463e-05
0.013828572 0.006329336 0.024535209 -0.006092727 0.022571174 0.023486026 0.0289755 -0.022457793
-0.028313326 -0.026806768 -0.014099732 0.011315674 0.015624765 0.027246643 0.0139579065 0.0035433075
0.015201808 0.0077880532 -0.007300198 0.0020356176 0.022511153 -0.018575305 -0.015875062 0.0329068
0.002372597 0.044412445 0.00095479126 -0.0040013134 0.003663212 0.01866555 0.024537684 0.03131378
0.02966975 -0.004804803 0.0076745837 0.022776976 -0.0006835854 -0.021573544 0.01018226 0.01761262
0.0065482715 0.007902922 0.021265943 0.0177738 -0.0074050645 0.030686216 -0.002641107 0.010505528
0.026545212 0.010697015 0.02416759 0.0020051075 0.018200837 0.008889605 0.039339118 0.023824308
00000000: 9ae8 293b bf7f c1bc 4658 24bc 8526 b2ba
00000010: e47c 2bbd 2645 c7bc c9e5 c1bc 3760 3ab8
00000020: 3c91 623c 5266 cf3b 10fe c83c 80a5 c7bb
00000030: 2fe7 b83c c465 c03c 075e ed3c 68f9 b7bc
00000040: 59f1 e7bc de99 dbbc 9002 67bc 6065 393c
00000050: 04ff 7f3c 5a34 df3c b4af 643c d636 683b
00000060: 0111 793c ed32 ff3b 8036 efbb ff67 053b
00000070: 4f69 b83c 3d2b 98bc 6b0c 82bc 48c9 063d
00000080: 937d 1b3b d3e9 353d f54a 7a3a 731d 83bb
00000090: 8012 703b 7fe8 983c 4103 c93c e142 003d
000000a0: fa0d f33c 9c71 9dbb 137b fb3b c896 ba3c
000000b0: a432 33ba 00bb b0bc 7ed3 263c 5748 903c
000000c0: e292 d63b 427b 013c ea35 ae3c 5c9a 913c
000000d0: 2fa6 f2bb a961 fb3c 6c16 2dbb 611f 2c3c
000000e0: 5875 d93c 8842 2f3c 1cfb c53c 1f68 033b
000000f0: ec19 953c b5a5 113c 0e22 213d 322b c33c

layer_list.conv1.lin_src.weight f4 [64, 1433]
0.026686152 -0.026379233 0.0307222 -0.0479815 0.26475075 0.014623073 0.13050504 0.12384205
0.102374576 -0.014344953 -0.052415885 -0.021424014 0.081302285 -0.036388583 0.013353909 0.065001324
-0.022657769 0.06933036 -0.044042826 -0.23823175 -0.014253489 0.09809102 -0.01170495 -0.050883222
0.0022887925 -0.16357242 0.15710102 0.008143691 0.05437945 0.1333925 2.7745273e-10 0.008753299
-0.017368915 0.0029194797 -0.061823554 0.03366555 0.031762477 -0.028169481 0.06489328 0.017930154
0.15600012 -0.107192375 -0.031552404 -0.1218585 0.06990487 0.11224379 -0.01573469 -0.09471943
-0.12666993 0.010056421 -0.13410737 -0.07028821 -0.15701164 -0.0077492967 -0.032789435 0.023158105
0.07262748 -0.14883576 -0.23779634 0.030825073 0.017965313 -0.022338135 -0.08466104 0.04327709
-0.06663318 0.17179371 -0.07866403 -0.16285688 -0.034547623 0.029344223 -0.038531456 0.029455584
-0.116360486 -0.06585294 0.014948865 -0.109707676 -7.5459415e-05 -0.109886 0.076099515 0.006305605
0.022361765 -0.04040694 0.04469317 0.05810113 -0.015066764 -0.18123539 -0.056822248 0.08633101
-0.15815473 -0.07138112 0.064884216 0.010952021 0.014639815 0.21322487 -0.15450941 -0.10885288
-0.0047284286 -0.16463292 0.073067866 0.3653811 -0.08835233 0.06681325 -0.0316459 -0.049327653
-0.09257267 -0.027621208 -0.020218527 -0.078252174 9.545131e-11 -0.029745227 0.0029821522 0.03811311
0.07842465 -0.0014946295 -0.01528653 0.010377815 0.0063879904 0.071663804 -0.116148464 -0.027068675
0.06022417 0.16842492 -0.061606333 0.07186316 -0.0564435 0.054731872 -0.060865153 -0.12166693
-0.086020134 -0.034329474 -0.1262946 -0.101400115 0.32135162 -0.113099895 0.01731598 -0.2557522
-0.023103707 0.022302886 0.012931364 0.010642916 0.24328014 0.061050415 0.021298494 -0.00923567
0.032150306 -0.008561317 -0.029679833 0.07103442 -0.0030501212 -0.07550941 -0.0045202747 -0.058632024
-0.046808295 0.081179276 0.005720655 0.031958 -0.045598615 -0.082516626 0.029352816 0.046153486
-0.07900156 0.09643906 -0.14637002 -0.004079326 0.0028321752 0.06105582 -0.0059499554 0.08735746
0.19004154 -0.041193634 0.020721486 -0.08312037 -0.06496197 0.12523785 -0.010941759 -0.026346533
-0.14291643 -0.090769 0.014248651 0.081467554 -0.10640765 -0.0036978847 -0.09293821 0.017027644
0.15455136 -0.033313073 0.21016261 0.56246454 -0.0069111777 0.00470649 0.004820232 -0.051910058
0.10636294 -0.04295767 -0.047579568 0.06095473 0.015678389 -0.049742453 0.018327387 -0.0072790096
0.005175233 -0.06260329 0.05190209 -0.42956266 -0.036483094 -0.008099555 0.017379118 -0.18051802
-0.041372236 0.012802112 0.12108424 0.27171224 -0.083610766 0.017316502 -0.009986265 -0.17725411
0.0009982807 -0.053304 -0.047128376 0.101426154 0.073228925 -0.09648272 0.097280204 -0.005900903
0.037265003 -0.14141232 0.049408965 -0.029382365 0.082502164 0.00016467091 0.093894206 -0.10536207
-0.0021922279 0.04521323 0.16675831 0.07111414 0.016655374 0.12504098 -0.16710033 0.0071717855
-0.05960075 -0.0013605038 0.012924424 0.029811336 -0.03132835 -0.03733004 -0.011749475 0.09546643
-0.06922128 0.082501456 0.13827337 0.09155646 0.044352878 -0.0041004005 0.12693278 -0.007597526
00000000: eb9c da3c 4319 d8bc 20ad fb3c 4088 44bd
00000010: 698d 873e 9d95 6f3c 1da3 053e e7a0 fd3d
00000020: c3a9 d13d 1807 6bbc 0ab2 56bd 6a81 afbc
00000030: d081 a63d 320c 15bd 5bca 5a3c 6a1f 853d
00000040: c99c b9bc 13fd 8d3d 4066 34bd 06f3 73be
00000050: 7787 69bc f2e3 c83d 1ec6 3fbc ed6a 50bd
00000060: 91ff 153b 877f 27be 17df 203e 1e6d 053c
00000070: fcbc 5e3d 0b98 083e 0088 982f ff69 0f3c
00000080: 4149 8ebc be54 3f3b b23a 7dbd e3e4 093d
00000090: 5f19 023d afc3 e6bc c5e6 843d 42e2 923c
000000a0: 7fbe 1f3e ad87 dbbd 183d 01bd f390 f9bd
000000b0: 492a 8f3d 12e0 e53d 09e6 80bc 43fc c1bd
000000c0: c3b5 01be b0c3 243c 7153 09be 44f3 8fbd
000000d0: a9c7 20be d0ed fdbb 374e 06bd 11b6 bd3c
000000e0: b7bd 943d 6768 18be e280 73be dd84 fc3c
000000f0: fe2b 933c 77fe b6bc c462 adbd 5143 313d
00000100: fa76 88bd b1ea 2f3e 9b1a a1bd f4c3 26be
00000110: cf81 0dbd 4c63 f03c 29d3 1dbd d64c f13c
00000120: 684e eebd e8dd 86bd 16ec 743c 6bae e0bd
00000130: f73f 9eb8 e90b e1bd 10da 9b3d 409f ce3b
00000140: 0530 b73c bf81 25bd 2f10 373d 73fb 6d3d
00000150: 97da 76bc c595 39be 72be 68bd 50ce b03d
00000160: 50f3 21be 4430 92bd 04e2 843d 1b70 333c
00000170: d6db 6f3c 9f57 5a3e b737 1ebe 42ee debd
00000180: eff0 9abb 8895 28be 9ba4 953d 3b13 bb3e
00000190: 11f2 b4bd 63d5 883d 229f 01bd cb0b 4abd
000001a0: bd96 bdbd df45 e2bc 53a1 a5bc ad42 a0bd
000001b0: 4fe6 d12e 43ac f3bc 3670 433b 7e1c 1c3d
000001c0: 1a9d a03d 72e7 c3ba 5b74 7abc b607 2a3c
000001d0: 5952 d13b 79c4 923d 3fdf edbd 20bf ddbc
000001e0: 9fad 763d 9577 2c3e ec56 7cbd fe2c 933d
000001f0: 4d31 67bd 872e 603d bd4d 79bd 832c f9bd
00000200: 532b b0bd 109d 0cbd 5f53 01be ddaa cfbd
00000210: 3388 a43e eba0 e7bd 3eda 8d3c f4f1 82be
00000220: fc43 bdbc 8bb4 b63c 12de 533c a05f 2e3c
00000230: 6e1e 793e 0010 7a3d 2e7a ae3c 3551 17bc
00000240: 0ab0 033d c444 0cbc 1f23 f3bc 7e7a 913d
00000250: 8be4 47bb ada4 9abd d01e 94bb 2228 70bd
00000260: 0eba 3fbd 5241 a63d 5574 bb3b 64e6 023d
00000270: 9dc5 3abd 7afe a8bd 5175 f03c 700b 3d3d
00000280: 92cb a1bd d881 c53d 06e2 15be deab 85bb
00000290: 049c 393b ab15 7a3d d8f7 c2bb 78e8 b23d
000002a0: 409a 423e a8ba 28bd 1bc0 a93c 033b aabd
000002b0: c80a 85bd 5a3e 003e 1045 33bc afd4 d7bc
000002c0: af58 12be 19e5 b9bd 2d73 693c 76d8 a63d
000002d0: 41ec d9bd 3658 72bb 6356 bebd 8f7d 8b3c
000002e0: b642 1e3e 4a73 08bd de34 573e adfd 0f3f
000002f0: 2977 e2bb e638 9a3b 09f3 9d3b a49f 54bd
00000300: d0d4 d93d 62f4 2fbd cbe2 42bd abab 793d
00000310: f76f 803c bebe 4bbd 5123 963c c284 eebb
00000320: 0095 a93b 2736 80bd 4997 543d a3ef dbbe
00000330: 4c6f 15bd ffb3 04bc a75e 8e3c b7d9 38be
00000340: ef75 29bd f3bf 513c 04fb f73d de1d 8b3e
00000350: 1f3c abbd 56db 8d3c 6e9d 23bc 1a82 35be
00000360: bed8 823a 4c55 5abd af09 41bd 84b8 cf3d
00000370: 0cf9 953d bb98 c5bd d83a c73d 5d5c c1bb
00000380: 30a3 183d 64ce 10be 0e61 4a3d 49b3 f0bc
00000390: e5f6 a83d 83ab 2c39 9b4b c03d 12c8 d7bd
000003a0: 7bab 0fbb 8231 393d b1c2 2a3e 4aa4 913d
000003b0: da70 883c be0a 003e 591c 2bbe 4c01 eb3b
000003c0: eb1f 74bd ef52 b2ba f7c0 533c e736 f43c
000003d0: 2852 00bd 62e7 18bd df80 40bc e783 c33d
000003e0: e3c3 8dbd 86f6 a83d 8997 0d3e f481 bb3d
000003f0: 5dab 353d a75c 86bb abfa 013e abf4 f8bb

layer_list.conv1.lin_dst.weight f4 [64, 1433]
0.026686152 -0.026379233 0.0307222 -0.0479815 0.26475075 0.014623073 0.13050504 0.12384205
0.102374576 -0.014344953 -0.052415885 -0.021424014 0.081302285 -0.036388583 0.013353909 0.065001324
-0.022657769 0.06933036 -0.044042826 -0.23823175 -0.014253489 0.09809102 -0.01170495 -0.050883222
0.0022887925 -0.16357242 0.15710102 0.008143691 0.05437945 0.1333925 2.7745273e-10 0.008753299
-0.017368915 0.0029194797 -0.061823554 0.03366555 0.031762477 -0.028169481 0.06489328 0.017930154
0.15600012 -0.107192375 -0.031552404 -0.1218585 0.06990487 0.11224379 -0.01573469 -0.09471943
-0.12666993 0.010056421 -0.13410737 -0.07028821 -0.15701164 -0.0077492967 -0.032789435 0.023158105
0.07262748 -0.14883576 -0.23779634 0.030825073 0.017965313 -0.022338135 -0.08466104 0.04327709
-0.06663318 0.17179371 -0.07866403 -0.16285688 -0.034547623 0.029344223 -0.038531456 0.029455584
-0.116360486 -0.06585294 0.014948865 -0.109707676 -7.5459415e-05 -0.109886 0.076099515 0.006305605
0.022361765 -0.04040694 0.04469317 0.05810113 -0.015066764 -0.18123539 -0.056822248 0.08633101
-0.15815473 -0.07138112 0.064884216 0.010952021 0.014639815 0.21322487 -0.15450941 -0.10885288
-0.0047284286 -0.16463292 0.073067866 0.3653811 -0.08835233 0.06681325 -0.0316459 -0.049327653
-0.09257267 -0.027621208 -0.020218527 -0.078252174 9.545131e-11 -0.029745227 0.0029821522 0.03811311
0.07842465 -0.0014946295 -0.01528653 0.010377815 0.0063879904 0.071663804 -0.116148464 -0.027068675
0.06022417 0.16842492 -0.061606333 0.07186316 -0.0564435 0.054731872 -0.060865153 -0.12166693
-0.086020134 -0.034329474 -0.1262946 -0.101400115 0.32135162 -0.113099895 0.01731598 -0.2557522
-0.023103707 0.022302886 0.012931364 0.010642916 0.24328014 0.061050415 0.021298494 -0.00923567
0.032150306 -0.008561317 -0.029679833 0.07103442 -0.0030501212 -0.07550941 -0.0045202747 -0.058632024
-0.046808295 0.081179276 0.005720655 0.031958 -0.045598615 -0.082516626 0.029352816 0.046153486
-0.07900156 0.09643906 -0.14637002 -0.004079326 0.0028321752 0.06105582 -0.0059499554 0.08735746
0.19004154 -0.041193634 0.020721486 -0.08312037 -0.06496197 0.12523785 -0.010941759 -0.026346533
-0.14291643 -0.090769 0.014248651 0.081467554 -0.10640765 -0.0036978847 -0.09293821 0.017027644
0.15455136 -0.033313073 0.21016261 0.56246454 -0.0069111777 0.00470649 0.004820232 -0.051910058
0.10636294 -0.04295767 -0.047579568 0.06095473 0.015678389 -0.049742453 0.018327387 -0.0072790096
0.005175233 -0.06260329 0.05190209 -0.42956266 -0.036483094 -0.008099555 0.017379118 -0.18051802
-0.041372236 0.012802112 0.12108424 0.27171224 -0.083610766 0.017316502 -0.009986265 -0.17725411
0.0009982807 -0.053304 -0.047128376 0.101426154 0.073228925 -0.09648272 0.097280204 -0.005900903
0.037265003 -0.14141232 0.049408965 -0.029382365 0.082502164 0.00016467091 0.093894206 -0.10536207
-0.0021922279 0.04521323 0.16675831 0.07111414 0.016655374 0.12504098 -0.16710033 0.0071717855
-0.05960075 -0.0013605038 0.012924424 0.029811336 -0.03132835 -0.03733004 -0.011749475 0.09546643
-0.06922128 0.082501456 0.13827337 0.09155646 0.044352878 -0.0041004005 0.12693278 -0.007597526
00000000: eb9c da3c 4319 d8bc 20ad fb3c 4088 44bd
00000010: 698d 873e 9d95 6f3c 1da3 053e e7a0 fd3d
00000020: c3a9 d13d 1807 6bbc 0ab2 56bd 6a81 afbc
00000030: d081 a63d 320c 15bd 5bca 5a3c 6a1f 853d
00000040: c99c b9bc 13fd 8d3d 4066 34bd 06f3 73be
00000050: 7787 69bc f2e3 c83d 1ec6 3fbc ed6a 50bd
00000060: 91ff 153b 877f 27be 17df 203e 1e6d 053c
00000070: fcbc 5e3d 0b98 083e 0088 982f ff69 0f3c
00000080: 4149 8ebc be54 3f3b b23a 7dbd e3e4 093d
00000090: 5f19 023d afc3 e6bc c5e6 843d 42e2 923c
000000a0: 7fbe 1f3e ad87 dbbd 183d 01bd f390 f9bd
000000b0: 492a 8f3d 12e0 e53d 09e6 80bc 43fc c1bd
000000c0: c3b5 01be b0c3 243c 7153 09be 44f3 8fbd
000000d0: a9c7 20be d0ed fdbb 374e 06bd 11b6 bd3c
000000e0: b7bd 943d 6768 18be e280 73be dd84 fc3c
000000f0: fe2b 933c 77fe b6bc c462 adbd 5143 313d
00000100: fa76 88bd b1ea 2f3e 9b1a a1bd f4c3 26be
00000110: cf81 0dbd 4c63 f03c 29d3 1dbd d64c f13c
00000120: 684e eebd e8dd 86bd 16ec 743c 6bae e0bd
00000130: f73f 9eb8 e90b e1bd 10da 9b3d 409f ce3b
00000140: 0530 b73c bf81 25bd 2f10 373d 73fb 6d3d
00000150: 97da 76bc c595 39be 72be 68bd 50ce b03d
00000160: 50f3 21be 4430 92bd 04e2 843d 1b70 333c
00000170: d6db 6f3c 9f57 5a3e b737 1ebe 42ee debd
00000180: eff0 9abb 8895 28be 9ba4 953d 3b13 bb3e
00000190: 11f2 b4bd 63d5 883d 229f 01bd cb0b 4abd
000001a0: bd96 bdbd df45 e2bc 53a1 a5bc ad42 a0bd
000001b0: 4fe6 d12e 43ac f3bc 3670 433b 7e1c 1c3d
000001c0: 1a9d a03d 72e7 c3ba 5b74 7abc b607 2a3c
000001d0: 5952 d13b 79c4 923d 3fdf edbd 20bf ddbc
000001e0: 9fad 763d 9577 2c3e ec56 7cbd fe2c 933d
000001f0: 4d31 67bd 872e 603d bd4d 79bd 832c f9bd
00000200: 532b b0bd 109d 0cbd 5f53 01be ddaa cfbd
00000210: 3388 a43e eba0 e7bd 3eda 8d3c f4f1 82be
00000220: fc43 bdbc 8bb4 b63c 12de 533c a05f 2e3c
00000230: 6e1e 793e 0010 7a3d 2e7a ae3c 3551 17bc
00000240: 0ab0 033d c444 0cbc 1f23 f3bc 7e7a 913d
00000250: 8be4 47bb ada4 9abd d01e 94bb 2228 70bd
00000260: 0eba 3fbd 5241 a63d 5574 bb3b 64e6 023d
00000270: 9dc5 3abd 7afe a8bd 5175 f03c 700b 3d3d
00000280: 92cb a1bd d881 c53d 06e2 15be deab 85bb
00000290: 049c 393b ab15 7a3d d8f7 c2bb 78e8 b23d
000002a0: 409a 423e a8ba 28bd 1bc0 a93c 033b aabd
000002b0: c80a 85bd 5a3e 003e 1045 33bc afd4 d7bc
000002c0: af58 12be 19e5 b9bd 2d73 693c 76d8 a63d
000002d0: 41ec d9bd 3658 72bb 6356 bebd 8f7d 8b3c
000002e0: b642 1e3e 4a73 08bd de34 573e adfd 0f3f
000002f0: 2977 e2bb e638 9a3b 09f3 9d3b a49f 54bd
00000300: d0d4 d93d 62f4 2fbd cbe2 42bd abab 793d
00000310: f76f 803c bebe 4bbd 5123 963c c284 eebb
00000320: 0095 a93b 2736 80bd 4997 543d a3ef dbbe
00000330: 4c6f 15bd ffb3 04bc a75e 8e3c b7d9 38be
00000340: ef75 29bd f3bf 513c 04fb f73d de1d 8b3e
00000350: 1f3c abbd 56db 8d3c 6e9d 23bc 1a82 35be
00000360: bed8 823a 4c55 5abd af09 41bd 84b8 cf3d
00000370: 0cf9 953d bb98 c5bd d83a c73d 5d5c c1bb
00000380: 30a3 183d 64ce 10be 0e61 4a3d 49b3 f0bc
00000390: e5f6 a83d 83ab 2c39 9b4b c03d 12c8 d7bd
000003a0: 7bab 0fbb 8231 393d b1c2 2a3e 4aa4 913d
000003b0: da70 883c be0a 003e 591c 2bbe 4c01 eb3b
000003c0: eb1f 74bd ef52 b2ba f7c0 533c e736 f43c
000003d0: 2852 00bd 62e7 18bd df80 40bc e783 c33d
000003e0: e3c3 8dbd 86f6 a83d 8997 0d3e f481 bb3d
000003f0: 5dab 353d a75c 86bb abfa 013e abf4 f8bb

layer_list.conv2.att_src f4 [1, 1, 7]
-0.21487871 -0.26214278 -0.25438914 -0.3054347 -0.13193996 -0.12530935 -0.18319258
00000000: 2a09 5cbe 9437 86be 4b3f 82be f061 9cbe
00000010: 451b 07be 1851 00be d696 3bbe

layer_list.conv2.att_dst f4 [1, 1, 7]
0.41118407 -0.17699862 -0.14764044 -0.4057298 0.4534065 0.22748812 0.102089174
00000000: b886 d23e 203f 35be 0e2f 17be d1bb cfbe
00000010: e624 e83e a5f2 683e 2114 d13d

layer_list.conv2.bias f4 [7]
-0.052646484 -0.6892803 -0.17933746 0.67116463 0.16913667 -0.32286006 -0.5360045
00000000: d7a3 57bd ac74 30bf 3da4 37be 72d1 2b3f
00000010: 2a32 2d3e ea4d a5be 9737 09bf

layer_list.conv2.lin_src.weight f4 [7, 64]
1.1558473 -1.5892806 0.86457443 0.64454365 -1.023661 1.007046 0.21507782 -0.8040999
0.44105187 -1.2948302 -1.3213701 1.1197906 0.31478143 1.2031344 -0.7501073 -1.1039168
-0.47451267 -1.5604949 0.47126585 1.4521599 -1.0332677 -1.5481285 -0.5101785 -1.4834698
-1.434988 1.6042879 -0.07056684 -0.4396132 -1.3583452 -1.2930716 0.53163123 0.7463131
1.03936 1.247777 -0.7443955 -0.8019273 -1.055775 1.6724964 0.53029037 0.4371351
1.2824409 -1.2439754 -1.4359103 -1.6687483 -1.6192971 1.1885387 -1.4552735 -1.7666435
1.6289607 -1.1123221 -0.810234 -0.080132976 1.1721622 0.5254464 1.1617041 0.13960744
-0.5067443 -0.9647247 0.94517297 1.1585535 -1.6781161 1.1801431 -1.2941811 0.9155651
1.4021636 1.2623013 -1.3098849 -0.271273 0.3063293 -0.16380705 1.4370147 -0.7352728
1.207583 0.571738 -1.1267924 -1.0415797 1.0730866 -1.3768204 1.0624427 -0.14276084
1.4926695 0.95494556 -1.0173514 0.45056242 -1.1023077 -0.43925738 1.4566509 0.83014333
0.8727567 -0.5642631 0.97166544 1.560335 -0.990727 1.5814073 -1.2047632 -0.77762413
1.2204665 -1.4223195 -1.319289 0.82421356 1.2834255 1.5348274 -0.5814649 -0.5502099
-0.18387112 -1.5033202 1.0842205 1.2674571 1.467693 -0.55430645 0.48527637 1.0962921
1.1383992 1.1637101 1.3941106 -1.4509721 0.24401338 -0.515848 1.3446965 -0.5617301
-0.34736776 -0.8354975 0.27831075 -1.3433269 1.2011439 1.3257651 0.34117508 1.0355463
0.8925528 0.54161584 1.2283831 -1.0145454 1.1957624 1.2460128 1.1750915 -1.1712523
0.88476205 -1.3553401 1.1856086 -0.98572904 0.08815861 -1.2682321 1.2006861 1.3505534
-1.4945407 1.3073089 -0.8840857 -1.2302315 1.2808894 1.4282342 -0.87578386 1.3211237
1.0572782 0.70619273 -1.2611649 -1.1162157 1.3739268 -1.1395712 1.1995925 -1.334271
-1.5278605 -1.2911788 1.285331 1.4538882 -1.388922 -1.4465082 -1.2724679 1.2596885
-1.1435225 -1.162482 -0.84964776 1.1488982 0.9358468 -0.6725486 0.953342 -1.1900836
0.96835357 1.0728853 1.2642756 -1.0332803 -1.393104 -1.3671103 -1.3859645 1.1659569
1.1696218 -0.91458243 -1.3484666 1.0484792 1.2649635 0.7177658 -0.81769156 -0.15386055
-1.5366055 -1.0108488 0.98818177 -1.2511005 1.5401682 -0.9476736 -1.3214616 1.2040492
-1.3928173 -0.24140918 -1.2174277 1.5607153 -1.4860529 -1.3824093 1.1559178 -0.86521673
-1.4058548 1.2038026 1.5011117 1.327801 1.3110368 1.4736371 1.5546848 -1.4553655
-1.1227105 -1.424419 -0.76566 1.2028742 1.3004225 1.2501999 -1.1338085 0.85907954
-1.500733 1.0824054 1.0396085 1.1936651 -1.074921 1.0384687 -1.2903086 -0.72465867
1.1516082 1.0647339 1.3000989 1.0024625 -1.1179156 1.3726763 -1.1308246 0.98574996
-1.3862298 0.5935234 -0.77061 1.4779325 -0.6674241 -1.4113547 0.39170742 -1.2527527
-1.3485777 1.565075 0.37352782 1.5075833 0.48857665 -1.4113641 1.0199517 1.1248562
00000000: cef2 933f 8c6d cbbf c054 5d3f d000 253f
00000010: 5307 83bf e2e6 803f 5c3d 5c3e 7ed9 4dbf
00000020: 8dd1 e13e ffbc a5bf a822 a9bf 4c55 8f3f
00000030: 082b a13e 4f00 9a3f 0807 40bf 254d 8dbf
00000040: 53f3 f2be 4cbe c7bf c249 f13e 60e0 b93f
00000050: 1e42 84bf 1329 c6bf 0f9b 02bf 57e2 bdbf
00000060: b0ad b7bf 4e59 cd3f 5985 90bd fb14 e1be
00000070: 41de adbf 5f83 a5bf fc18 083f 600e 3f3f
00000080: c009 853f 28b7 9f3f b490 3ebf 1c4b 4dbf
00000090: a323 87bf 5d14 d63f 1cc1 073f 2cd0 df3e
000000a0: 0627 a43f 963a 9fbf e9cb b7bf 8b99 d5bf
000000b0: 2145 cfbf 0922 983f 6746 babf 6021 e2bf
000000c0: c981 d03f 9260 8ebf 7f6b 4fbf c21c a4bd
000000d0: 6909 963f a883 063f b8b2 943f 41f5 0e3e
000000e0: ffb9 01bf 33f8 76bf dbf6 713f 7b4b 943f
000000f0: 82cc d6bf ee0e 973f baa7 a5bf 7962 6a3f
00000100: 197a b33f 1793 a13f 4faa a7bf 4be4 8abe
00000110: 32d7 9c3e 09bd 27be 19f0 b73f d73a 3cbf
00000120: 1492 9a3f 6c5d 123f bc3a 90bf 7c52 85bf
00000130: e75a 893f a73b b0bf 1ffe 873f e62f 12be
00000140: cb0f bf3f 5077 743f 9238 82bf 1eb0 e63e
00000150: 6b18 8dbf 58e6 e0be 8973 ba3f 4684 543f
00000160: fc6c 5f3f 8c73 10bf 11bf 783f 0fb9 c73f
00000170: 49a0 7dbf 8e6b ca3f ae35 9abf 6012 47bf
00000180: 3f38 9c3f 910e b6bf 76de a8bf a9ff 523f
00000190: 4947 a43f 3975 c43f e2da 14bf 8eda 0cbf
000001a0: b648 3cbe cc6c c0bf bdc7 8a3f 093c a23f
000001b0: 5ddd bb3f 07e7 0dbf 2576 f83e 4d53 8c3f
000001c0: 11b7 913f 74f4 943f 3772 b23f 74b9 b9bf
000001d0: a5de 793e 9d0e 04bf 041f ac3f 8bcd 0fbf
000001e0: 30da b1be 2ae3 55bf bf7e 8e3e 23f2 abbf
000001f0: 15bf 993f acb2 a93f 80ae ae3e c88c 843f
00000200: 577e 643f 56a7 0a3f a83b 9d3f a0dc 81bf
00000210: be0e 993f 597d 9f3f 6669 963f 98eb 95bf
00000220: c47f 623f c97b adbf 06c2 973f bd58 7cbf
00000230: 808c b43d 6e55 a2bf 15b0 993f efde ac3f
00000240: 1c4d bfbf e655 a73f 7153 62bf 3a78 9dbf
00000250: 2ff4 a33f 61d0 b63f 5f33 60bf 951a a93f
00000260: e454 873f 0cc9 343f da6d a1bf 28e0 8ebf
00000270: d5dc af3f 78dd 91bf 3f8c 993f 64c9 aabf
00000280: ef90 c3bf 5945 a5bf ba85 a43f 0219 ba3f
00000290: 32c8 b1bf 2e27 b9bf 3ae0 a2bf 793d a13f
000002a0: f25e 92bf 36cc 94bf 8482 59bf 190f 933f
000002b0: a893 6f3f 252c 2cbf 390e 743f a954 98bf
000002c0: 05e6 773f 4e54 893f c8d3 a13f 8742 84bf
000002d0: 3b51 b2bf 78fd aebf 4967 b1bf 133e 953f
000002e0: 2bb6 953f 1322 6abf 8e9a acbf 9134 863f
000002f0: 53ea a13f 80bf 373f 3c54 51bf 9f8d 1dbe
00000300: 7daf c4bf 7e63 81bf 7bf9 7c3f 1024 a0bf
00000310: 3b24 c53f bd9a 72bf a725 a9bf 491e 9a3f
00000320: d647 b2bf f833 77be acd4 9bbf 85c5 c73f
00000330: fb36 bebf caf2 b0bf 1df5 933f d87e 5dbf
00000340: 0df3 b3bf 3416 9a3f 6e24 c03f 62f5 a93f
00000350: 0ed0 a73f 24a0 bc3f e9ff c63f 6b49 babf
00000360: fab4 8fbf 5d53 b6bf 4b02 44bf c8f7 993f
00000370: 3f74 a63f 8d06 a03f a320 91bf a3ec 5b3f
00000380: 0518 c0bf 438c 8a3f e411 853f 05ca 983f
00000390: 0397 89bf 8bec 843f d528 a5bf 3b83 39bf
000003a0: e667 933f 3349 883f a469 a63f b150 803f
000003b0: dc17 8fbf dbb3 af3f dcbe 90bf 1c5a 7c3f
000003c0: fa6f b1bf 26f1 173f b246 45bf e42c bd3f
000003d0: 4edc 2abf 45a7 b4bf e08d c83e 335a a0bf
000003e0: 329e acbf 6154 c83f 0a3f bf3e 7df8 c03f
000003f0: b826 fa3e 94a7 b4bf c78d 823f 4afb 8f3f

layer_list.conv2.lin_dst.weight f4 [7, 64]
1.1558473 -1.5892806 0.86457443 0.64454365 -1.023661 1.007046 0.21507782 -0.8040999
0.44105187 -1.2948302 -1.3213701 1.1197906 0.31478143 1.2031344 -0.7501073 -1.1039168
-0.47451267 -1.5604949 0.47126585 1.4521599 -1.0332677 -1.5481285 -0.5101785 -1.4834698
-1.434988 1.6042879 -0.07056684 -0.4396132 -1.3583452 -1.2930716 0.53163123 0.7463131
1.03936 1.247777 -0.7443955 -0.8019273 -1.055775 1.6724964 0.53029037 0.4371351
1.2824409 -1.2439754 -1.4359103 -1.6687483 -1.6192971 1.1885387 -1.4552735 -1.7666435
1.6289607 -1.1123221 -0.810234 -0.080132976 1.1721622 0.5254464 1.1617041 0.13960744
-0.5067443 -0.9647247 0.94517297 1.1585535 -1.6781161 1.1801431 -1.2941811 0.9155651
1.4021636 1.2623013 -1.3098849 -0.271273 0.3063293 -0.16380705 1.4370147 -0.7352728
1.207583 0.571738 -1.1267924 -1.0415797 1.0730866 -1.3768204 1.0624427 -0.14276084
1.4926695 0.95494556 -1.0173514 0.45056242 -1.1023077 -0.43925738 1.4566509 0.83014333
0.8727567 -0.5642631 0.97166544 1.560335 -0.990727 1.5814073 -1.2047632 -0.77762413
1.2204665 -1.4223195 -1.319289 0.82421356 1.2834255 1.5348274 -0.5814649 -0.5502099
-0.18387112 -1.5033202 1.0842205 1.2674571 1.467693 -0.55430645 0.48527637 1.0962921
1.1383992 1.1637101 1.3941106 -1.4509721 0.24401338 -0.515848 1.3446965 -0.5617301
-0.34736776 -0.8354975 0.27831075 -1.3433269 1.2011439 1.3257651 0.34117508 1.0355463
0.8925528 0.54161584 1.2283831 -1.0145454 1.1957624 1.2460128 1.1750915 -1.1712523
0.88476205 -1.3553401 1.1856086 -0.98572904 0.08815861 -1.2682321 1.2006861 1.3505534
-1.4945407 1.3073089 -0.8840857 -1.2302315 1.2808894 1.4282342 -0.87578386 1.3211237
1.0572782 0.70619273 -1.2611649 -1.1162157 1.3739268 -1.1395712 1.1995925 -1.334271
-1.5278605 -1.2911788 1.285331 1.4538882 -1.388922 -1.4465082 -1.2724679 1.2596885
-1.1435225 -1.162482 -0.84964776 1.1488982 0.9358468 -0.6725486 0.953342 -1.1900836
0.96835357 1.0728853 1.2642756 -1.0332803 -1.393104 -1.3671103 -1.3859645 1.1659569
1.1696218 -0.91458243 -1.3484666 1.0484792 1.2649635 0.7177658 -0.81769156 -0.15386055
-1.5366055 -1.0108488 0.98818177 -1.2511005 1.5401682 -0.9476736 -1.3214616 1.2040492
-1.3928173 -0.24140918 -1.2174277 1.5607153 -1.4860529 -1.3824093 1.1559178 -0.86521673
-1.4058548 1.2038026 1.5011117 1.327801 1.3110368 1.4736371 1.5546848 -1.4553655
-1.1227105 -1.424419 -0.76566 1.2028742 1.3004225 1.2501999 -1.1338085 0.85907954
-1.500733 1.0824054 1.0396085 1.1936651 -1.074921 1.0384687 -1.2903086 -0.72465867
1.1516082 1.0647339 1.3000989 1.0024625 -1.1179156 1.3726763 -1.1308246 0.98574996
-1.3862298 0.5935234 -0.77061 1.4779325 -0.6674241 -1.4113547 0.39170742 -1.2527527
-1.3485777 1.565075 0.37352782 1.5075833 0.48857665 -1.4113641 1.0199517 1.1248562
00000000: cef2 933f 8c6d cbbf c054 5d3f d000 253f
00000010: 5307 83bf e2e6 803f 5c3d 5c3e 7ed9 4dbf
00000020: 8dd1 e13e ffbc a5bf a822 a9bf 4c55 8f3f
00000030: 082b a13e 4f00 9a3f 0807 40bf 254d 8dbf
00000040: 53f3 f2be 4cbe c7bf c249 f13e 60e0 b93f
00000050: 1e42 84bf 1329 c6bf 0f9b 02bf 57e2 bdbf
00000060: b0ad b7bf 4e59 cd3f 5985 90bd fb14 e1be
00000070: 41de adbf 5f83 a5bf fc18 083f 600e 3f3f
00000080: c009 853f 28b7 9f3f b490 3ebf 1c4b 4dbf
00000090: a323 87bf 5d14 d63f 1cc1 073f 2cd0 df3e
000000a0: 0627 a43f 963a 9fbf e9cb b7bf 8b99 d5bf
000000b0: 2145 cfbf 0922 983f 6746 babf 6021 e2bf
000000c0: c981 d03f 9260 8ebf 7f6b 4fbf c21c a4bd
000000d0: 6909 963f a883 063f b8b2 943f 41f5 0e3e
000000e0: ffb9 01bf 33f8 76bf dbf6 713f 7b4b 943f
000000f0: 82cc d6bf ee0e 973f baa7 a5bf 7962 6a3f
00000100: 197a b33f 1793 a13f 4faa a7bf 4be4 8abe
00000110: 32d7 9c3e 09bd 27be 19f0 b73f d73a 3cbf
00000120: 1492 9a3f 6c5d 123f bc3a 90bf 7c52 85bf
00000130: e75a 893f a73b b0bf 1ffe 873f e62f 12be
00000140: cb0f bf3f 5077 743f 9238 82bf 1eb0 e63e
00000150: 6b18 8dbf 58e6 e0be 8973 ba3f 4684 543f
00000160: fc6c 5f3f 8c73 10bf 11bf 783f 0fb9 c73f
00000170: 49a0 7dbf 8e6b ca3f ae35 9abf 6012 47bf
00000180: 3f38 9c3f 910e b6bf 76de a8bf a9ff 523f
00000190: 4947 a43f 3975 c43f e2da 14bf 8eda 0cbf
000001a0: b648 3cbe cc6c c0bf bdc7 8a3f 093c a23f
000001b0: 5ddd bb3f 07e7 0dbf 2576 f83e 4d53 8c3f
000001c0: 11b7 913f 74f4 943f 3772 b23f 74b9 b9bf
000001d0: a5de 793e 9d0e 04bf 041f ac3f 8bcd 0fbf
000001e0: 30da b1be 2ae3 55bf bf7e 8e3e 23f2 abbf
000001f0: 15bf 993f acb2 a93f 80ae ae3e c88c 843f
00000200: 577e 643f 56a7 0a3f a83b 9d3f a0dc 81bf
00000210: be0e 993f 597d 9f3f 6669 963f 98eb 95bf
00000220: c47f 623f c97b adbf 06c2 973f bd58 7cbf
00000230: 808c b43d 6e55 a2bf 15b0 993f efde ac3f
00000240: 1c4d bfbf e655 a73f 7153 62bf 3a78 9dbf
00000250: 2ff4 a33f 61d0 b63f 5f33 60bf 951a a93f
00000260: e454 873f 0cc9 343f da6d a1bf 28e0 8ebf
00000270: d5dc af3f 78dd 91bf 3f8c 993f 64c9 aabf
00000280: ef90 c3bf 5945 a5bf ba85 a43f 0219 ba3f
00000290: 32c8 b1bf 2e27 b9bf 3ae0 a2bf 793d a13f
000002a0: f25e 92bf 36cc 94bf 8482 59bf 190f 933f
000002b0: a893 6f3f 252c 2cbf 390e 743f a954 98bf
000002c0: 05e6 773f 4e54 893f c8d3 a13f 8742 84bf
000002d0: 3b51 b2bf 78fd aebf 4967 b1bf 133e 953f
000002e0: 2bb6 953f 1322 6abf 8e9a acbf 9134 863f
000002f0: 53ea a13f 80bf 373f 3c54 51bf 9f8d 1dbe
00000300: 7daf c4bf 7e63 81bf 7bf9 7c3f 1024 a0bf
00000310: 3b24 c53f bd9a 72bf a725 a9bf 491e 9a3f
00000320: d647 b2bf f833 77be acd4 9bbf 85c5 c73f
00000330: fb36 bebf caf2 b0bf 1df5 933f d87e 5dbf
00000340: 0df3 b3bf 3416 9a3f 6e24 c03f 62f5 a93f
00000350: 0ed0 a73f 24a0 bc3f e9ff c63f 6b49 babf
00000360: fab4 8fbf 5d53 b6bf 4b02 44bf c8f7 993f
00000370: 3f74 a63f 8d06 a03f a320 91bf a3ec 5b3f
00000380: 0518 c0bf 438c 8a3f e411 853f 05ca 983f
00000390: 0397 89bf 8bec 843f d528 a5bf 3b83 39bf
000003a0: e667 933f 3349 883f a469 a63f b150 803f
000003b0: dc17 8fbf dbb3 af3f dcbe 90bf 1c5a 7c3f
000003c0: fa6f b1bf 26f1 173f b246 45bf e42c bd3f
000003d0: 4edc 2abf 45a7 b4bf e08d c83e 335a a0bf
000003e0: 329e acbf 6154 c83f 0a3f bf3e 7df8 c03f
000003f0: b826 fa3e 94a7 b4bf c78d 823f 4afb 8f3f
