vanilla_models/Cora/5_3f_85/split0/init1/GAT_dp0_5_5e_4_f0.pt (torch, 372919 bytes, 10 tensors)

layer_list.conv1.att_src f4 [1, 8, 8]
0	0x3e9d7c35	0.30758825
1	0x3e4ef7af	0.20211671
2	0x3ef6a25b	0.48170742
3	0xbebf6686	-0.37382907
4	0xbefde79b	-0.49590763
5	0xbf2d63a5	-0.6773017
6	0x3eb1ab8d	0.34701195
7	0x3ebb8c38	0.36630416
8	0xbf8282c7	-1.019616
9	0xbddb98b1	-0.10722483
10	0xbe1cf9d8	-0.15329683
11	0x3f922286	1.1416786
12	0xbf270d3b	-0.65254563
13	0xbf8dfdb4	-1.1093049
14	0x3f8205d6	1.0158031
15	0x3d3e64c6	0.046482824
16	0x3d959489	0.073037215
17	0x3f88c73c	1.0685802
18	0xbf5ee6e6	-0.87071073
19	0xbe833ce3	-0.2563239
20	0x3f456b10	0.7711649
21	0xbf41e516	-0.7574018
22	0xbf3e8f9f	-0.744379
23	0x3f67b6fd	0.9051359
24	0xbecd3b61	-0.40084365
25	0xbe19dbf3	-0.1502531
26	0xbea1e1bd	-0.31617537
27	0xbdb6d718	-0.089277446
28	0x3e169c52	0.14708069
29	0x3c597528	0.013272561
30	0xbd24bb16	-0.04021748
31	0xbdefa14b	-0.11700686
32	0xbe3b5fde	-0.18298289
33	0xbe40d469	-0.18831028
34	0x3f380a2f	0.7189054
35	0x3e274979	0.16336621
36	0xbd2120ab	-0.039337795
37	0x3f1e5818	0.6185317
38	0x3f68637a	0.9077679
39	0xbeae4041	-0.34033397
40	0xbe0766a9	-0.13222755
41	0xbe89f110	-0.2694173
42	0xbe3915d6	-0.18074736
43	0x3d91ce52	0.071194306
44	0xbec0f790	-0.37688875
45	0x3e884dbc	0.26621807
46	0x3d17aa7a	0.037027813
47	0x3eb38a11	0.35066274
48	0xbf389746	-0.72105825
49	0xbf503905	-0.81337005
50	0xbf44c93d	-0.76869565
51	0x3e7d4850	0.24734616
52	0x3f11d3ce	0.56963813
53	0x3e6ed47a	0.23323241
54	0xb8b34ac2	-8.54931e-05
55	0x3f39221e	0.72317684
56	0xbf0c203a	-0.54736674
57	0x3f1b14ab	0.6057841
58	0xbf5eb00d	-0.8698738
59	0xbf17eb19	-0.59343106
60	0x3f222de2	0.6335126
61	0xbef83ef0	-0.48485518
62	0xbe9dccd5	-0.30820337
63	0xbf3225e9	-0.69589096

layer_list.conv1.att_dst f4 [1, 8, 8]
0	0x3e125b5d	0.14292665
1	0xbda87b7c	-0.08226678
2	0x3dbcd7f6	0.09220879
3	0xbe011d76	-0.12608895
4	0xbdcfe091	-0.101502545
5	0xbe914b44	-0.28377736
6	0x3dfc929b	0.1233265
7	0x3d21bd70	0.039487302
8	0xbe1258f4	-0.14291745
9	0x3df8f1e5	0.12155513
10	0xbd5eb8b8	-0.05437538
11	0x3d2ebd97	0.042661276
12	0xbde7e0a4	-0.11322144
13	0xbe0f34ef	-0.13985036
14	0x3dfb40bc	0.122682065
15	0x3c9b256c	0.018938743
16	0xbd94eb72	-0.0727147
17	0x3e868827	0.2627575
18	0xbddc6b27	-0.10762625
19	0x3cd50eab	0.02600797
20	0x3dd7231f	0.10504746
21	0xbe03d96a	-0.12875906
22	0xbd89fe31	-0.06737936
23	0x3e0dec6d	0.1385972
24	0xbe3e540a	-0.18586746
25	0xbdd0807f	-0.10180759
26	0xbe474672	-0.19460467
27	0xbc853027	-0.016258312
28	0x3dd82530	0.10553968
29	0xbd85c666	-0.06531982
30	0x3d376e00	0.04478264
31	0xbc9b218f	-0.0189369
32	0xbd0aa859	-0.033851955
33	0xbd68cf82	-0.05683852
34	0x3e1751b4	0.14777261
35	0x3dd21d76	0.102595255
36	0x3d3a4c5b	0.045482974
37	0x3dfd0d22	0.123560205
38	0x3e95c29f	0.29250047
39	0xbd4bf344	-0.049792543
40	0xbc6517bb	-0.013982709
41	0xbdc6aad2	-0.0970055
42	0xb775d8b7	-1.4653596e-05
43	0xbb2c3a3b	-0.0026279825
44	0xbe277e63	-0.16356806
45	0x3ddbbab7	0.107289724
46	0x3deaf1ec	0.11471924
47	0x3e0ad20e	0.13556692
48	0xbe37a333	-0.1793335
49	0xbd97c327	-0.07410269
50	0xbdf3230e	-0.118719205
51	0x3cd55b62	0.026044551
52	0x3dc1e072	0.09466638
53	0xbc4636a0	-0.012097985
54	0xbd1c6735	-0.038184363
55	0x3db4481b	0.088028155
56	0xbd059f82	-0.03262282
57	0x3e830fcd	0.25597993
58	0xbe6b1d1e	-0.22960326
59	0xbd85ce0a	-0.065334395
60	0x3dfba23b	0.122868024
61	0x3dcb691c	0.099321574
62	0xbd78aa01	-0.060709003
63	0xbe2f204e	-0.17102167

layer_list.conv1.bias f4 [64]
0	0x3cc25434	0.023721792
1	0x3c90cb1e	0.017674979
2	0xbc6b5074	-0.014362443
3	0x3b75fbd7	0.0037534141
4	0x3c652211	0.013985173
5	0x3c427974	0.011869777
6	0x3d3da37c	0.04629849
7	0xbba044e8	-0.0048910268
8	0x3abe6803	0.0014526848
9	0x3c7cd0c8	0.015430637
10	0x3d3b50c4	0.04573132
11	0xbc89dcd7	-0.016828937
12	0x3c1e97e9	0.009679773
13	0x3cff7c0b	0.031187078
14	0xba852aaa	-0.001015981
15	0x3cbc6318	0.02299647
16	0x3d24e6cd	0.04025917
17	0xbaf787af	-0.0018885041
18	0x3d6becd3	0.0575989
19	0xbcaff7da	-0.02148049
20	0x3c266f3a	0.010158354
21	0x3b2990a2	0.0025873561
22	0x3cf6e4f4	0.03013847
23	0xbcf75a5a	-0.03019445
24	0xbc51faa3	-0.012816104
25	0xbc72470c	-0.014787447
26	0xbb063ace	-0.0020481828
27	0x3cb46f6b	0.022025784
28	0x3c97801d	0.018493706
29	0x3c32e1fa	0.010918135
30	0xbcb892e7	-0.022530986
31	0xbd37b330	-0.04484862
32	0xbb50e6ba	-0.0031875805
33	0x3cacec73	0.021108842
34	0xbcb771a2	-0.022393052
35	0x3cf63f97	0.030059619
36	0xbc4562f4	-0.012047518
37	0x3c9f53d9	0.019449161
38	0x3b2a2bfb	0.0025966156
39	0x3cab7ed2	0.020934496
40	0x3aa8d90a	0.0012882065
41	0xbcd1ef89	-0.025626915
42	0xbb025414	-0.001988654
43	0x3c9c4888	0.019077554
44	0x3ccd0c88	0.02503039
45	0x3c577b4f	0.013151958
46	0xbcdf36b7	-0.02724777
47	0xbc07ae23	-0.0082812635
48	0x3c6c4a1f	0.014421969
49	0x3c57e1d2	0.013176398
50	0x3cb28d2d	0.021795833
51	0xbc80d75e	-0.015727695
52	0x3c5a900e	0.013340009
53	0xbca00683	-0.019534355
54	0x3c676421	0.014122994
55	0xbc34f675	-0.011045088
56	0x3c8ef921	0.017452778
57	0x3c3e72be	0.011624036
58	0x3d312ae0	0.04325378
59	0x3be3a10d	0.006946689
60	0x3bb33625	0.005469101
61	0x3d3d7105	0.046250362
62	0xbc10b01f	-0.008831053
63	0x3d3aef3a	0.0456383

layer_list.conv1.lin_src.weight f4 [64, 1433]
0	0xbd7c896c	-0.061654493
1	0xbd373cb6	-0.044735633
2	0x3c15b654	0.009137709
3	0x3e319093	0.17340307
4	0xbe7da30a	-0.24769226
5	0xb9f16578	-0.00046042702
6	0x3d431cef	0.047635015
7	0xbcd12ecf	-0.025535015
8	0x3cfd8304	0.030946262
9	0x3bba349c	0.005682541
10	0x3d71822e	0.05896204
11	0xbd046e6a	-0.03233186
12	0xbe1bbb88	-0.15208256
13	0x3c95c552	0.018282566
14	0xbdc59ec7	-0.09649425
15	0xbd87a985	-0.0662413
16	0xbd10592c	-0.03524129
17	0xbc37053f	-0.011170684
18	0x3cefc8de	0.029270586
19	0x3e8baea4	0.27281678
20	0xbc8819b0	-0.016613811
21	0x3cc8c77d	0.024509186
22	0xbdd64716	-0.10462777
23	0x3ced87f5	0.028995493
24	0x3c4bfdf8	0.012450688
25	0x3d6a3160	0.057175994
26	0x3e468168	0.19385302
27	0x3c663811	0.014051453
28	0x3c95aec3	0.01827181
29	0x3d12ac1b	0.035808664
30	0xbe205f4a	-0.1566135
31	0x3ccfbd34	0.025358774
32	0x3cf91e34	0.03040991
33	0xba120c8e	-0.0005571329
34	0xbe07525c	-0.13215011
35	0x3d1a05cb	0.03760318
36	0xbc71693e	-0.014734564
37	0x3bec981c	0.0072202813
38	0xbb605d5b	-0.0034235332
39	0x3e1187da	0.1421198
40	0xbd13930b	-0.036028903
41	0xbe000628	-0.12502348
42	0x3ce2d01d	0.027687127
43	0x3c274f98	0.010211848
44	0xbe9bd2d8	-0.304343
45	0xbd08e32a	-0.033419766
46	0x3d8c491b	0.06849881
47	0xbcacc613	-0.021090543
48	0xbd987895	-0.07444874
49	0x3c9fbab9	0.019498216
50	0xbdc07da6	-0.093989655
51	0xbd8d59cf	-0.06901895
52	0xbddc8fb8	-0.107696
53	0x3c970773	0.01843617
54	0xbd5c9696	-0.053854547
55	0x3c5c1230	0.013432071
56	0x3d843093	0.06454577
57	0xbc0d16ef	-0.008611425
58	0xbd601777	-0.054709878
59	0xbc37bcf0	-0.01121448
60	0xbd8358e8	-0.06413442
61	0x3e6e9e98	0.23302686
62	0x3d53507a	0.05159042
63	0x3dbf42c4	0.093389064
64	0xbdc2c3ec	-0.095100254
65	0xbe1b3723	-0.15157752
66	0xbcbcdc57	-0.023054285
67	0xbcb3a0dd	-0.021927292
68	0xbc84b3c1	-0.016198995
69	0xbce8630b	-0.02836754
70	0x3d846d6a	0.064661816
71	0xbb33d97a	-0.0027442859
72	0x3d2fcd8e	0.04292064
73	0x3d5781bd	0.052613962
74	0x3cbe7e49	0.023253577
75	0x3cc818a1	0.024425806
76	0xbb3c6949	-0.0028749278
77	0xbd8c701a	-0.06857319
78	0xbe6d95b1	-0.23201634
79	0x3bffbb49	0.0078043086
80	0x3db99549	0.09061677
81	0x3dfadc93	0.122491024
82	0xbdb8455b	-0.089976035
83	0xbce95200	-0.028481483
84	0xbda85993	-0.0822021
85	0x3d9f52f0	0.07779491
86	0xbd6799e0	-0.05654323
87	0xbd67b261	-0.0565666
88	0x3e0ebdbb	0.13939564
89	0x3c956c54	0.018240131
90	0xbc09d1e9	-0.008411863
91	0xbda6aa6e	-0.08137976
92	0x3d754108	0.05987647
93	0xbe28982c	-0.16464299
94	0x3d10838e	0.03528171
95	0xbd88fbd3	-0.06688657
96	0xbde43604	-0.11143115
97	0xbd70c8a4	-0.058785096
98	0x3c384fd0	0.0112494975
99	0x3e9b77cc	0.30364835
100	0x3d58cb35	0.05292817
101	0x3909c170	0.00013137399
102	0x3d312273	0.043245744
103	0x3d69e411	0.057102267
104	0x3d2b16e1	0.041769866
105	0xbd7db833	-0.061943244
106	0xbe276b58	-0.16349542
107	0xbd2d274a	-0.042273797
108	0xbe5e2cce	-0.21696779
109	0x3d36c1b8	0.04461834
110	0x3da6b0c1	0.08139182
111	0xbd395c3b	-0.045253973
112	0x3d2bee8b	0.04197554
113	0xba281f9a	-0.00064134004
114	0x3bf73996	0.0075447066
115	0xbbdabeab	-0.0066755614
116	0x3ae44a84	0.0017417227
117	0xbd3e3f8a	-0.046447314
118	0x3ce1966f	0.027537553
119	0x3c2c1b29	0.010504522
120	0x3be37eac	0.0069425907
121	0xbd481c96	-0.048855387
122	0x3cca43a4	0.024690457
123	0x3cfbbe18	0.030730292
124	0xbcdf8265	-0.027283857
125	0xbdda4f36	-0.106596395
126	0xbd18821e	-0.037233464
127	0xbc4786bd	-0.01217812
128	0x3e7cbefc	0.2468223
129	0x3cf541e1	0.02993864
130	0xbd92f517	-0.071756534
131	0xbd23997b	-0.039941292
132	0x3e47e5c0	0.19521236
133	0x3da451df	0.08023428
134	0xbcbc2e51	-0.022971304
135	0xbde6e434	-0.11273995
136	0x3d8207de	0.06349157
137	0x3c799ef8	0.015235655
138	0x3c6ac705	0.0143296765
139	0xbd766e3d	-0.060163725
140	0x3e4dd686	0.20101365
141	0x3d78cc1c	0.06074153
142	0xbd13d4d6	-0.036091648
143	0x3c87b1e2	0.016564313
144	0xbd49a4fd	-0.04922961
145	0xbda64848	-0.08119255
146	0x3d598c08	0.05311206
147	0xbdc8b520	-0.09800172
148	0x3c084f3e	0.008319674
149	0xbe6b36be	-0.22970101
150	0xbcdf4c58	-0.027258083
151	0xbda042f9	-0.07825274
152	0xbb9380b2	-0.0045014257
153	0xbd91dfe9	-0.071227856
154	0x3db34e98	0.08755225
155	0x3d8d72f4	0.06906691
156	0xbdac0f5b	-0.08401366
157	0xbc91a405	-0.017778406
158	0x3cff097a	0.031132448
159	0x39fe5d98	0.00048516388
160	0xbb4a94b0	-0.0030911379
161	0x3d96ac07	0.0735703
162	0x3db33881	0.08751012
163	0x3d8aa47c	0.06769654
164	0x3c8f0129	0.017456608
165	0x3d33f8ab	0.04393832
166	0xbc60bb88	-0.013716586
167	0x3daee9e6	0.08540706
168	0xbe4fe1d4	-0.2030099
169	0x3cead953	0.028668081
170	0xbc3395a7	-0.010960973
171	0x3d7c5413	0.061603617
172	0x3da70948	0.08156067
173	0xbd9ee649	-0.07758767
174	0xbda1f40e	-0.07907878
175	0x3cd520a8	0.026016548
176	0xbcfd1953	-0.030895865
177	0xbdbb5e3a	-0.09148832
178	0xbdd75543	-0.10514309
179	0x3dbdd528	0.09269172
180	0xbbf14e5a	-0.0073640766
181	0xbc0cf1cb	-0.00860257
182	0x3c90bcfa	0.017668236
183	0xbd79644b	-0.060886662
184	0x3cae2157	0.021256132
185	0x39a2d76b	0.00031059547
186	0xbdbe2223	-0.09283855
187	0xbe3a8a6a	-0.18216863
188	0xbd00c4d3	-0.031437706
189	0x3c8fa2bb	0.01753365
190	0xbd6fc0a9	-0.058533344
191	0xbcd66251	-0.026169928
192	0xbdcfc8d0	-0.10145724
193	0xbd488450	-0.048954308
194	0xbe424d44	-0.18974787
195	0xbbda0d28	-0.0066544004
196	0xbe57eec2	-0.21087173
197	0x3d857ed7	0.065183334
198	0x3c7311db	0.0148358
199	0x3a88a5c1	0.0010425375
200	0xbe0931ec	-0.1339795
201	0x3930e6ab	0.00016870598
202	0xbd884b43	-0.0665498
203	0x3dbe963b	0.09305998
204	0x3b8479f3	0.004042858
205	0x3e0d4582	0.13796046
206	0xbc7b320c	-0.015331756
207	0xbd2c5825	-0.04207625
208	0x3daec505	0.08533672
209	0x3b4076ab	0.0029367607
210	0x3c917221	0.017754616
211	0x3db0eb0a	0.0863858
212	0xbc68aa07	-0.014200694
213	0x3d93ae6c	0.07211003
214	0xbc162e32	-0.009166287
215	0x3d5885f2	0.052862115
216	0xbc908aef	-0.017644374
217	0x3d68ed83	0.056867134
218	0x3df5b168	0.11996728
219	0x3cae41ab	0.021271547
220	0x3cdba855	0.026813665
221	0x3c8a4c34	0.01688204
222	0xbdef53ba	-0.116858914
223	0x3c497f23	0.012298378
224	0x3c9f6fd3	0.019462502
225	0x3c6d9f0e	0.014503254
226	0x3bad0354	0.0052799378
227	0x3cac992a	0.021069128
228	0xbe2766a5	-0.1634775
229	0x3d39cca2	0.04536117
230	0xbd2b041f	-0.041751977
231	0xbd444d9e	-0.047925584
232	0x3bb237c8	0.0054387785
233	0xbc1eef6d	-0.009700638
234	0xbe014ca7	-0.12626897
235	0x3c658901	0.014009715
236	0xbd39f0da	-0.04539571
237	0x3e127529	0.14302506
238	0x3e06d80f	0.13168357
239	0xbd11fae1	-0.035639647
240	0x3baf85d0	0.005356528
241	0x3cb82617	0.0224791
242	0xbd5b8382	-0.053592212
243	0xbb542a8a	-0.0032373988
244	0x3de3587d	0.11100862
245	0x3c568945	0.013094251
246	0xbb3be6d6	-0.0028671524
247	0x3d36ce06	0.044630073
248	0xbd8094ef	-0.06278407
249	0xbd20894a	-0.03919343
250	0xbb8cd0ac	-0.0042973366
251	0x3d46e594	0.048558787
252	0x3e052493	0.13002233
253	0xbab970e3	-0.0014148023
254	0xbc9fbe78	-0.019500002
255	0x3cee4e0d	0.029089952

layer_list.conv1.lin_dst.weight f4 [64, 1433]
0	0xbd7c896c	-0.061654493
1	0xbd373cb6	-0.044735633
2	0x3c15b654	0.009137709
3	0x3e319093	0.17340307
4	0xbe7da30a	-0.24769226
5	0xb9f16578	-0.00046042702
6	0x3d431cef	0.047635015
7	0xbcd12ecf	-0.025535015
8	0x3cfd8304	0.030946262
9	0x3bba349c	0.005682541
10	0x3d71822e	0.05896204
11	0xbd046e6a	-0.03233186
12	0xbe1bbb88	-0.15208256
13	0x3c95c552	0.018282566
14	0xbdc59ec7	-0.09649425
15	0xbd87a985	-0.0662413
16	0xbd10592c	-0.03524129
17	0xbc37053f	-0.011170684
18	0x3cefc8de	0.029270586
19	0x3e8baea4	0.27281678
20	0xbc8819b0	-0.016613811
21	0x3cc8c77d	0.024509186
22	0xbdd64716	-0.10462777
23	0x3ced87f5	0.028995493
24	0x3c4bfdf8	0.012450688
25	0x3d6a3160	0.057175994
26	0x3e468168	0.19385302
27	0x3c663811	0.014051453
28	0x3c95aec3	0.01827181
29	0x3d12ac1b	0.035808664
30	0xbe205f4a	-0.1566135
31	0x3ccfbd34	0.025358774
32	0x3cf91e34	0.03040991
33	0xba120c8e	-0.0005571329
34	0xbe07525c	-0.13215011
35	0x3d1a05cb	0.03760318
36	0xbc71693e	-0.014734564
37	0x3bec981c	0.0072202813
38	0xbb605d5b	-0.0034235332
39	0x3e1187da	0.1421198
40	0xbd13930b	-0.036028903
41	0xbe000628	-0.12502348
42	0x3ce2d01d	0.027687127
43	0x3c274f98	0.010211848
44	0xbe9bd2d8	-0.304343
45	0xbd08e32a	-0.033419766
46	0x3d8c491b	0.06849881
47	0xbcacc613	-0.021090543
48	0xbd987895	-0.07444874
49	0x3c9fbab9	0.019498216
50	0xbdc07da6	-0.093989655
51	0xbd8d59cf	-0.06901895
52	0xbddc8fb8	-0.107696
53	0x3c970773	0.01843617
54	0xbd5c9696	-0.053854547
55	0x3c5c1230	0.013432071
56	0x3d843093	0.06454577
57	0xbc0d16ef	-0.008611425
58	0xbd601777	-0.054709878
59	0xbc37bcf0	-0.01121448
60	0xbd8358e8	-0.06413442
61	0x3e6e9e98	0.23302686
62	0x3d53507a	0.05159042
63	0x3dbf42c4	0.093389064
64	0xbdc2c3ec	-0.095100254
65	0xbe1b3723	-0.15157752
66	0xbcbcdc57	-0.023054285
67	0xbcb3a0dd	-0.021927292
68	0xbc84b3c1	-0.016198995
69	0xbce8630b	-0.02836754
70	0x3d846d6a	0.064661816
71	0xbb33d97a	-0.0027442859
72	0x3d2fcd8e	0.04292064
73	0x3d5781bd	0.052613962
74	0x3cbe7e49	0.023253577
75	0x3cc818a1	0.024425806
76	0xbb3c6949	-0.0028749278
77	0xbd8c701a	-0.06857319
78	0xbe6d95b1	-0.23201634
79	0x3bffbb49	0.0078043086
80	0x3db99549	0.09061677
81	0x3dfadc93	0.122491024
82	0xbdb8455b	-0.089976035
83	0xbce95200	-0.028481483
84	0xbda85993	-0.0822021
85	0x3d9f52f0	0.07779491
86	0xbd6799e0	-0.05654323
87	0xbd67b261	-0.0565666
88	0x3e0ebdbb	0.13939564
89	0x3c956c54	0.018240131
90	0xbc09d1e9	-0.008411863
91	0xbda6aa6e	-0.08137976
92	0x3d754108	0.05987647
93	0xbe28982c	-0.16464299
94	0x3d10838e	0.03528171
95	0xbd88fbd3	-0.06688657
96	0xbde43604	-0.11143115
97	0xbd70c8a4	-0.058785096
98	0x3c384fd0	0.0112494975
99	0x3e9b77cc	0.30364835
100	0x3d58cb35	0.05292817
101	0x3909c170	0.00013137399
102	0x3d312273	0.043245744
103	0x3d69e411	0.057102267
104	0x3d2b16e1	0.041769866
105	0xbd7db833	-0.061943244
106	0xbe276b58	-0.16349542
107	0xbd2d274a	-0.042273797
108	0xbe5e2cce	-0.21696779
109	0x3d36c1b8	0.04461834
110	0x3da6b0c1	0.08139182
111	0xbd395c3b	-0.045253973
112	0x3d2bee8b	0.04197554
113	0xba281f9a	-0.00064134004
114	0x3bf73996	0.0075447066
115	0xbbdabeab	-0.0066755614
116	0x3ae44a84	0.0017417227
117	0xbd3e3f8a	-0.046447314
118	0x3ce1966f	0.027537553
119	0x3c2c1b29	0.010504522
120	0x3be37eac	0.0069425907
121	0xbd481c96	-0.048855387
122	0x3cca43a4	0.024690457
123	0x3cfbbe18	0.030730292
124	0xbcdf8265	-0.027283857
125	0xbdda4f36	-0.106596395
126	0xbd18821e	-0.037233464
127	0xbc4786bd	-0.01217812
128	0x3e7cbefc	0.2468223
129	0x3cf541e1	0.02993864
130	0xbd92f517	-0.071756534
131	0xbd23997b	-0.039941292
132	0x3e47e5c0	0.19521236
133	0x3da451df	0.08023428
134	0xbcbc2e51	-0.022971304
135	0xbde6e434	-0.11273995
136	0x3d8207de	0.06349157
137	0x3c799ef8	0.015235655
138	0x3c6ac705	0.0143296765
139	0xbd766e3d	-0.060163725
140	0x3e4dd686	0.20101365
141	0x3d78cc1c	0.06074153
142	0xbd13d4d6	-0.036091648
143	0x3c87b1e2	0.016564313
144	0xbd49a4fd	-0.04922961
145	0xbda64848	-0.08119255
146	0x3d598c08	0.05311206
147	0xbdc8b520	-0.09800172
148	0x3c084f3e	0.008319674
149	0xbe6b36be	-0.22970101
150	0xbcdf4c58	-0.027258083
151	0xbda042f9	-0.07825274
152	0xbb9380b2	-0.0045014257
153	0xbd91dfe9	-0.071227856
154	0x3db34e98	0.08755225
155	0x3d8d72f4	0.06906691
156	0xbdac0f5b	-0.08401366
157	0xbc91a405	-0.017778406
158	0x3cff097a	0.031132448
159	0x39fe5d98	0.00048516388
160	0xbb4a94b0	-0.0030911379
161	0x3d96ac07	0.0735703
162	0x3db33881	0.08751012
163	0x3d8aa47c	0.06769654
164	0x3c8f0129	0.017456608
165	0x3d33f8ab	0.04393832
166	0xbc60bb88	-0.013716586
167	0x3daee9e6	0.08540706
168	0xbe4fe1d4	-0.2030099
169	0x3cead953	0.028668081
170	0xbc3395a7	-0.010960973
171	0x3d7c5413	0.061603617
172	0x3da70948	0.08156067
173	0xbd9ee649	-0.07758767
174	0xbda1f40e	-0.07907878
175	0x3cd520a8	0.026016548
176	0xbcfd1953	-0.030895865
177	0xbdbb5e3a	-0.09148832
178	0xbdd75543	-0.10514309
179	0x3dbdd528	0.09269172
180	0xbbf14e5a	-0.0073640766
181	0xbc0cf1cb	-0.00860257
182	0x3c90bcfa	0.017668236
183	0xbd79644b	-0.060886662
184	0x3cae2157	0.021256132
185	0x39a2d76b	0.00031059547
186	0xbdbe2223	-0.09283855
187	0xbe3a8a6a	-0.18216863
188	0xbd00c4d3	-0.031437706
189	0x3c8fa2bb	0.01753365
190	0xbd6fc0a9	-0.058533344
191	0xbcd66251	-0.026169928
192	0xbdcfc8d0	-0.10145724
193	0xbd488450	-0.048954308
194	0xbe424d44	-0.18974787
195	0xbbda0d28	-0.0066544004
196	0xbe57eec2	-0.21087173
197	0x3d857ed7	0.065183334
198	0x3c7311db	0.0148358
199	0x3a88a5c1	0.0010425375
200	0xbe0931ec	-0.1339795
201	0x3930e6ab	0.00016870598
202	0xbd884b43	-0.0665498
203	0x3dbe963b	0.09305998
204	0x3b8479f3	0.004042858
205	0x3e0d4582	0.13796046
206	0xbc7b320c	-0.015331756
207	0xbd2c5825	-0.04207625
208	0x3daec505	0.08533672
209	0x3b4076ab	0.0029367607
210	0x3c917221	0.017754616
211	0x3db0eb0a	0.0863858
212	0xbc68aa07	-0.014200694
213	0x3d93ae6c	0.07211003
214	0xbc162e32	-0.009166287
215	0x3d5885f2	0.052862115
216	0xbc908aef	-0.017644374
217	0x3d68ed83	0.056867134
218	0x3df5b168	0.11996728
219	0x3cae41ab	0.021271547
220	0x3cdba855	0.026813665
221	0x3c8a4c34	0.01688204
222	0xbdef53ba	-0.116858914
223	0x3c497f23	0.012298378
224	0x3c9f6fd3	0.019462502
225	0x3c6d9f0e	0.014503254
226	0x3bad0354	0.0052799378
227	0x3cac992a	0.021069128
228	0xbe2766a5	-0.1634775
229	0x3d39cca2	0.04536117
230	0xbd2b041f	-0.041751977
231	0xbd444d9e	-0.047925584
232	0x3bb237c8	0.0054387785
233	0xbc1eef6d	-0.009700638
234	0xbe014ca7	-0.12626897
235	0x3c658901	0.014009715
236	0xbd39f0da	-0.04539571
237	0x3e127529	0.14302506
238	0x3e06d80f	0.13168357
239	0xbd11fae1	-0.035639647
240	0x3baf85d0	0.005356528
241	0x3cb82617	0.0224791
242	0xbd5b8382	-0.053592212
243	0xbb542a8a	-0.0032373988
244	0x3de3587d	0.11100862
245	0x3c568945	0.013094251
246	0xbb3be6d6	-0.0028671524
247	0x3d36ce06	0.044630073
248	0xbd8094ef	-0.06278407
249	0xbd20894a	-0.03919343
250	0xbb8cd0ac	-0.0042973366
251	0x3d46e594	0.048558787
252	0x3e052493	0.13002233
253	0xbab970e3	-0.0014148023
254	0xbc9fbe78	-0.019500002
255	0x3cee4e0d	0.029089952

layer_list.conv2.att_src f4 [1, 1, 7]
0	0x3dee9778	0.11649984
1	0x3e480d82	0.19536403
2	0x3df3a682	0.11896993
3	0x3e846c23	0.25863752
4	0x3e9c40fa	0.30518323
5	0x3ea5e5ef	0.32401988
6	0x3e48b153	0.19598894

layer_list.conv2.att_dst f4 [1, 1, 7]
0	0xbe3baefc	-0.1832847
1	0x3eae9f3a	0.34105855
2	0xbe2be9b9	-0.16788377
3	0x3d7aad17	0.061200228
4	0x3f01fc9d	0.5077608
5	0x3f21cedb	0.6320626
6	0xbbf8c10c	-0.0075913724

layer_list.conv2.bias f4 [7]
0	0xbe51bb5c	-0.20481628
1	0xbf02506b	-0.5090396
2	0xbe83221b	-0.25611958
3	0x3f2b5c06	0.6693729
4	0x3e171c32	0.1475685
5	0xbe6ea3f7	-0.23304735
6	0xbf16a76d	-0.5884922

layer_list.conv2.lin_src.weight f4 [7, 64]
0	0x3f5e9554	0.86946607
1	0x3f56c1d1	0.8388949
2	0xbfa67702	-1.3005068
3	0xbf0290a6	-0.51001966
4	0x3f373bf9	0.71575886
5	0x3fa24764	1.2678037
6	0x3f904699	1.1271545
7	0x3f8d2823	1.1027874
8	0x3f978304	1.1836858
9	0xbf983d44	-1.1893697
10	0x3f8951ee	1.0728128
11	0x3f86686c	1.0500617
12	0x3fa7a177	1.309615
13	0x3f4177e7	0.7557358
14	0xbf82da60	-1.0222893
15	0xbe8bf156	-0.27332562
16	0xbe177682	-0.14791301
17	0x3f8f7722	1.1208231
18	0xbef8e510	-0.4861226
19	0x3f869d8a	1.0516827
20	0x3fa40b5e	1.2815969
21	0x3f847236	1.0347354
22	0x3f323f9b	0.69628304
23	0xbf997185	-1.1987768
24	0x3f8da6ca	1.1066525
25	0x3f5c4035	0.8603547
26	0x3f4eb90b	0.80751103
27	0x3f536c02	0.8258668
28	0xbf9c9a50	-1.2234592
29	0x3f90452b	1.1271108
30	0x3ed78c2b	0.42099127
31	0x3f8cf2dc	1.1011615
32	0xbeb70033	-0.3574234
33	0x3f0c1e13	0.5473339
34	0xbf9b3456	-1.2125347
35	0xbf282cae	-0.65693176
36	0x3f8f95ce	1.1217592
37	0xbf834da5	-1.025807
38	0xbf64e411	-0.894105
39	0xbf72bc1d	-0.9481829
40	0xbf1ec2a5	-0.62015754
41	0xbf793002	-0.9733888
42	0x3fa3aa5e	1.2786367
43	0xbfaa78ac	-1.3318076
44	0xbec04915	-0.37555757
45	0xbf8fbba3	-1.1229137
46	0x3faa658b	1.3312238
47	0x3f818abc	1.0120463
48	0x3f7bbdcd	0.9833649
49	0xbf61c93a	-0.8819767
50	0xbf861697	-1.0475644
51	0x3f93c609	1.154481
52	0xbfa186f1	-1.2619306
53	0xbfa59ceb	-1.2938513
54	0xbf7eec99	-0.9957977
55	0xbf991fd3	-1.1962837
56	0x3fa304d6	1.2735851
57	0xbf84a1d3	-1.0361885
58	0x3f64c455	0.8936208
59	0xbf8ac081	-1.0839998
60	0x3f868b21	1.0511209
61	0x3ef44043	0.47705278
62	0xbea5418a	-0.32276565
63	0x3f9c47a3	1.2209362
64	0xbf68de02	-0.9096376
65	0x3f86eaba	1.0540383
66	0x3f948233	1.1602234
67	0x3f78236f	0.9692907
68	0xbf99a5a7	-1.2003678
69	0xbfb4cdb2	-1.4125273
70	0x3f6abe67	0.9169678
71	0x3f975200	1.18219
72	0xbfb87662	-1.4411128
73	0x3f8ff41d	1.1246372
74	0xbfab41ea	-1.337949
75	0x3fa04f0d	1.2524124
76	0xbf145d7e	-0.5795516
77	0xbf991162	-1.195843
78	0x3f6f7fdc	0.9355447
79	0xbfa93d42	-1.3221819
80	0xbf99d120	-1.2016945
81	0x3f44cbbd	0.7687338
82	0x3f55c51a	0.8350388
83	0xbf40284c	-0.7506149
84	0xbf526b51	-0.82195
85	0x3f506a28	0.8141198
86	0xbf44dd04	-0.76899743
87	0x3f8050a2	1.0024607
88	0xbf174ba0	-0.5909977
89	0x3f4ac985	0.79213744
90	0x3f9e6db6	1.2377231
91	0x3f348f7c	0.7053144
92	0xbeff9c32	-0.49923855
93	0x3f73877a	0.95128596
94	0x3f940d49	1.1566554
95	0x3f8c95b5	1.0983187
96	0xbe50a054	-0.2037366
97	0xbf8b4e3b	-1.0883249
98	0xbef5112c	-0.47864664
99	0xbf97201b	-1.1806673
100	0xbf759c6f	-0.95941824
101	0xbf5508aa	-0.83216345
102	0xbf891350	-1.0709019
103	0xbf888a41	-1.0667192
104	0xbf3546b0	-0.70810986
105	0xbf2f2df7	-0.6842951
106	0xbf920ce3	-1.1410183
107	0x3e9c8c05	0.30575576
108	0xbf714a4c	-0.94253993
109	0x3f678214	0.9043286
110	0xbf68cb3c	-0.9093511
111	0x3ecb632a	0.39724094
112	0xbf8bbffb	-1.0917963
113	0xbf833d26	-1.0253036
114	0xbf7d9f17	-0.99070877
115	0xbf3ca75e	-0.7369288
116	0x3eb19139	0.3468111
117	0x3f79954d	0.9749344
118	0xbfa828ec	-1.3137488
119	0x3f632b18	0.8873763
120	0x3f22499c	0.6339357
121	0xbfa1296f	-1.259077
122	0xbebe08b7	-0.37116024
123	0xbf8d7dfa	-1.105407
124	0xbf449783	-0.7679369
125	0xbf19c997	-0.60073227
126	0x3f49b525	0.7879203
127	0xbfa9ea59	-1.3274642
128	0x3f78369a	0.96958315
129	0x3f68c6b9	0.90928227
130	0x3f4a8225	0.79104835
131	0xbf91ddb5	-1.1395785
132	0xbf643658	-0.8914542
133	0xbf78bbf2	-0.9716178
134	0xbf926ff7	-1.1440419
135	0x3f86bcaf	1.0526332
136	0xbf834847	-1.0256432
137	0xbf7723b8	-0.9653888
138	0x3f6f542e	0.93487823
139	0x3f554150	0.83302784
140	0xbf5ae4b6	-0.85505235
141	0xbf937214	-1.1519189
142	0x3f7b06dd	0.9805735
143	0x3f750de9	0.9572435
144	0x3f7feef5	0.99973994
145	0x3f8dee84	1.1088414
146	0xbf7c0431	-0.98443896
147	0xbf85d06e	-1.0454233
148	0x3f63ab9e	0.8893374
149	0xbf880aea	-1.0628331
150	0xbed2b81c	-0.4115609
151	0x3f5b9b33	0.8578369
152	0x3f7d4994	0.98940396
153	0x3f6d42f0	0.92680264
154	0x3f655579	0.89583546
155	0x3f8025f0	1.0011578
156	0x3f745b77	0.95452064
157	0x3f724a04	0.9464419
158	0x3e2c251e	0.16811034
159	0xbf374a29	-0.71597534
160	0x3f8df16b	1.10893
161	0xbf801587	-1.000657
162	0x3f9093f2	1.1295149
163	0x3f759d7a	0.95943415
164	0xbf69409e	-0.91114223
165	0xbe77df11	-0.24206187
166	0x3f95e138	1.1709356
167	0xbf89de01	-1.0770875
168	0x3f907b45	1.1287619
169	0x3f90adf6	1.1303089
170	0x3f79d40f	0.975892
171	0xbf979f58	-1.1845503
172	0x3f620c35	0.88299876
173	0x3ee41b50	0.44552088
174	0xbf99e085	-1.2021643
175	0xbf906c62	-1.1283076
176	0xbf37ab08	-0.7174535
177	0xbf496da2	-0.7868291
178	0xbf7cbbeb	-0.9872424
179	0x3f795a13	0.9740307
180	0x3e1de885	0.1542073
181	0x3d8d8f2c	0.069120735
182	0x3f8f82fa	1.1211846
183	0x3f85bce4	1.044827
184	0xbf9cc21e	-1.224674
185	0x3f9b15c1	1.2116014
186	0xbf90c6f1	-1.1310712
187	0xbf5134d4	-0.81721234
188	0x3f695c28	0.91156244
189	0xbf97287d	-1.1809231
190	0xbf8958ae	-1.0730188
191	0xbf913165	-1.1343199
192	0x3f4bc842	0.79602444
193	0xbf8c3f5c	-1.0956836
194	0x3f7410ca	0.9533812
195	0xbf8668fe	-1.0500791
196	0x3e424bf9	0.18974294
197	0xbf9cd416	-1.2252223
198	0x3f9a8431	1.2071592
199	0xbf67427d	-0.9033583
200	0xbf83c552	-1.0294592
201	0x3f56d0d1	0.8391238
202	0x3f889349	1.0669948
203	0xbf907d72	-1.1288283
204	0xbf7f1316	-0.996385
205	0x3f89ee7d	1.0775906
206	0xbf52ac0a	-0.8229376
207	0x3f1b468a	0.6065451
208	0x3f1e3e0f	0.61813444
209	0xbf925a29	-1.1433765
210	0x3f7960d4	0.97413373
211	0xbed527dd	-0.41631976
212	0xbf9f0f8c	-1.242662
213	0x3fa0f9af	1.2576197
214	0x3f12572a	0.5716425
215	0xbf7cb556	-0.98714197
216	0xbed1da76	-0.40986985
217	0xbf6a42a3	-0.9150793
218	0xbf8491dc	-1.0357013
219	0xbf8c686e	-1.096937
220	0x3f86bada	1.0525773
221	0xbfa4a7e0	-1.2863731
222	0xbf512512	-0.8169719
223	0x3f8ccc06	1.0999763
224	0x3fab1ae4	1.3367581
225	0x3f97d1bf	1.1860884
226	0xbf5e7c6e	-0.86908615
227	0x3f600735	0.87511
228	0xbf63e146	-0.89015615
229	0xbf8fac54	-1.1224465
230	0xbf8e20ea	-1.1103795
231	0x3f8fb7d4	1.1227975
232	0xbf581fcf	-0.84423536
233	0x3e06ec4a	0.13176075
234	0xbe52ee36	-0.20598683
235	0x3f127da1	0.57222944
236	0x3f9cbb1a	1.2244599
237	0xbf90b422	-1.1304972
238	0xbf906001	-1.1279298
239	0xbfa2c937	-1.2717656
240	0x3f8e9d84	1.114182
241	0x3f92113b	1.1411508
242	0x3f959ed1	1.1689092
243	0xbf260b4a	-0.64860976
244	0xbfa0f75a	-1.2575486
245	0x3f8b5b0a	1.0887158
246	0x3f871001	1.0551759
247	0xbf81c325	-1.0137678
248	0xbf91aa88	-1.1380167
249	0x3f5a500e	0.85278404
250	0xbf87c34d	-1.0606476
251	0x3f6345eb	0.8877856
252	0x3ecba13d	0.39771453
253	0x3f85e8c0	1.0461655
254	0x3f95333e	1.1656263
255	0x3f27275e	0.65294445

layer_list.conv2.lin_dst.weight f4 [7, 64]
0	0x3f5e9554	0.86946607
1	0x3f56c1d1	0.8388949
2	0xbfa67702	-1.3005068
3	0xbf0290a6	-0.51001966
4	0x3f373bf9	0.71575886
5	0x3fa24764	1.2678037
6	0x3f904699	1.1271545
7	0x3f8d2823	1.1027874
8	0x3f978304	1.1836858
9	0xbf983d44	-1.1893697
10	0x3f8951ee	1.0728128
11	0x3f86686c	1.0500617
12	0x3fa7a177	1.309615
13	0x3f4177e7	0.7557358
14	0xbf82da60	-1.0222893
15	0xbe8bf156	-0.27332562
16	0xbe177682	-0.14791301
17	0x3f8f7722	1.1208231
18	0xbef8e510	-0.4861226
19	0x3f869d8a	1.0516827
20	0x3fa40b5e	1.2815969
21	0x3f847236	1.0347354
22	0x3f323f9b	0.69628304
23	0xbf997185	-1.1987768
24	0x3f8da6ca	1.1066525
25	0x3f5c4035	0.8603547
26	0x3f4eb90b	0.80751103
27	0x3f536c02	0.8258668
28	0xbf9c9a50	-1.2234592
29	0x3f90452b	1.1271108
30	0x3ed78c2b	0.42099127
31	0x3f8cf2dc	1.1011615
32	0xbeb70033	-0.3574234
33	0x3f0c1e13	0.5473339
34	0xbf9b3456	-1.2125347
35	0xbf282cae	-0.65693176
36	0x3f8f95ce	1.1217592
37	0xbf834da5	-1.025807
38	0xbf64e411	-0.894105
39	0xbf72bc1d	-0.9481829
40	0xbf1ec2a5	-0.62015754
41	0xbf793002	-0.9733888
42	0x3fa3aa5e	1.2786367
43	0xbfaa78ac	-1.3318076
44	0xbec04915	-0.37555757
45	0xbf8fbba3	-1.1229137
46	0x3faa658b	1.3312238
47	0x3f818abc	1.0120463
48	0x3f7bbdcd	0.9833649
49	0xbf61c93a	-0.8819767
50	0xbf861697	-1.0475644
51	0x3f93c609	1.154481
52	0xbfa186f1	-1.2619306
53	0xbfa59ceb	-1.2938513
54	0xbf7eec99	-0.9957977
55	0xbf991fd3	-1.1962837
56	0x3fa304d6	1.2735851
57	0xbf84a1d3	-1.0361885
58	0x3f64c455	0.8936208
59	0xbf8ac081	-1.0839998
60	0x3f868b21	1.0511209
61	0x3ef44043	0.47705278
62	0xbea5418a	-0.32276565
63	0x3f9c47a3	1.2209362
64	0xbf68de02	-0.9096376
65	0x3f86eaba	1.0540383
66	0x3f948233	1.1602234
67	0x3f78236f	0.9692907
68	0xbf99a5a7	-1.2003678
69	0xbfb4cdb2	-1.4125273
70	0x3f6abe67	0.9169678
71	0x3f975200	1.18219
72	0xbfb87662	-1.4411128
73	0x3f8ff41d	1.1246372
74	0xbfab41ea	-1.337949
75	0x3fa04f0d	1.2524124
76	0xbf145d7e	-0.5795516
77	0xbf991162	-1.195843
78	0x3f6f7fdc	0.9355447
79	0xbfa93d42	-1.3221819
80	0xbf99d120	-1.2016945
81	0x3f44cbbd	0.7687338
82	0x3f55c51a	0.8350388
83	0xbf40284c	-0.7506149
84	0xbf526b51	-0.82195
85	0x3f506a28	0.8141198
86	0xbf44dd04	-0.76899743
87	0x3f8050a2	1.0024607
88	0xbf174ba0	-0.5909977
89	0x3f4ac985	0.79213744
90	0x3f9e6db6	1.2377231
91	0x3f348f7c	0.7053144
92	0xbeff9c32	-0.49923855
93	0x3f73877a	0.95128596
94	0x3f940d49	1.1566554
95	0x3f8c95b5	1.0983187
96	0xbe50a054	-0.2037366
97	0xbf8b4e3b	-1.0883249
98	0xbef5112c	-0.47864664
99	0xbf97201b	-1.1806673
100	0xbf759c6f	-0.95941824
101	0xbf5508aa	-0.83216345
102	0xbf891350	-1.0709019
103	0xbf888a41	-1.0667192
104	0xbf3546b0	-0.70810986
105	0xbf2f2df7	-0.6842951
106	0xbf920ce3	-1.1410183
107	0x3e9c8c05	0.30575576
108	0xbf714a4c	-0.94253993
109	0x3f678214	0.9043286
110	0xbf68cb3c	-0.9093511
111	0x3ecb632a	0.39724094
112	0xbf8bbffb	-1.0917963
113	0xbf833d26	-1.0253036
114	0xbf7d9f17	-0.99070877
115	0xbf3ca75e	-0.7369288
116	0x3eb19139	0.3468111
117	0x3f79954d	0.9749344
118	0xbfa828ec	-1.3137488
119	0x3f632b18	0.8873763
120	0x3f22499c	0.6339357
121	0xbfa1296f	-1.259077
122	0xbebe08b7	-0.37116024
123	0xbf8d7dfa	-1.105407
124	0xbf449783	-0.7679369
125	0xbf19c997	-0.60073227
126	0x3f49b525	0.7879203
127	0xbfa9ea59	-1.3274642
128	0x3f78369a	0.96958315
129	0x3f68c6b9	0.90928227
130	0x3f4a8225	0.79104835
131	0xbf91ddb5	-1.1395785
132	0xbf643658	-0.8914542
133	0xbf78bbf2	-0.9716178
134	0xbf926ff7	-1.1440419
135	0x3f86bcaf	1.0526332
136	0xbf834847	-1.0256432
137	0xbf7723b8	-0.9653888
138	0x3f6f542e	0.93487823
139	0x3f554150	0.83302784
140	0xbf5ae4b6	-0.85505235
141	0xbf937214	-1.1519189
142	0x3f7b06dd	0.9805735
143	0x3f750de9	0.9572435
144	0x3f7feef5	0.99973994
145	0x3f8dee84	1.1088414
146	0xbf7c0431	-0.98443896
147	0xbf85d06e	-1.0454233
148	0x3f63ab9e	0.8893374
149	0xbf880aea	-1.0628331
150	0xbed2b81c	-0.4115609
151	0x3f5b9b33	0.8578369
152	0x3f7d4994	0.98940396
153	0x3f6d42f0	0.92680264
154	0x3f655579	0.89583546
155	0x3f8025f0	1.0011578
156	0x3f745b77	0.95452064
157	0x3f724a04	0.9464419
158	0x3e2c251e	0.16811034
159	0xbf374a29	-0.71597534
160	0x3f8df16b	1.10893
161	0xbf801587	-1.000657
162	0x3f9093f2	1.1295149
163	0x3f759d7a	0.95943415
164	0xbf69409e	-0.91114223
165	0xbe77df11	-0.24206187
166	0x3f95e138	1.1709356
167	0xbf89de01	-1.0770875
168	0x3f907b45	1.1287619
169	0x3f90adf6	1.1303089
170	0x3f79d40f	0.975892
171	0xbf979f58	-1.1845503
172	0x3f620c35	0.88299876
173	0x3ee41b50	0.44552088
174	0xbf99e085	-1.2021643
175	0xbf906c62	-1.1283076
176	0xbf37ab08	-0.7174535
177	0xbf496da2	-0.7868291
178	0xbf7cbbeb	-0.9872424
179	0x3f795a13	0.9740307
180	0x3e1de885	0.1542073
181	0x3d8d8f2c	0.069120735
182	0x3f8f82fa	1.1211846
183	0x3f85bce4	1.044827
184	0xbf9cc21e	-1.224674
185	0x3f9b15c1	1.2116014
186	0xbf90c6f1	-1.1310712
187	0xbf5134d4	-0.81721234
188	0x3f695c28	0.91156244
189	0xbf97287d	-1.1809231
190	0xbf8958ae	-1.0730188
191	0xbf913165	-1.1343199
192	0x3f4bc842	0.79602444
193	0xbf8c3f5c	-1.0956836
194	0x3f7410ca	0.9533812
195	0xbf8668fe	-1.0500791
196	0x3e424bf9	0.18974294
197	0xbf9cd416	-1.2252223
198	0x3f9a8431	1.2071592
199	0xbf67427d	-0.9033583
200	0xbf83c552	-1.0294592
201	0x3f56d0d1	0.8391238
202	0x3f889349	1.0669948
203	0xbf907d72	-1.1288283
204	0xbf7f1316	-0.996385
205	0x3f89ee7d	1.0775906
206	0xbf52ac0a	-0.8229376
207	0x3f1b468a	0.6065451
208	0x3f1e3e0f	0.61813444
209	0xbf925a29	-1.1433765
210	0x3f7960d4	0.97413373
211	0xbed527dd	-0.41631976
212	0xbf9f0f8c	-1.242662
213	0x3fa0f9af	1.2576197
214	0x3f12572a	0.5716425
215	0xbf7cb556	-0.98714197
216	0xbed1da76	-0.40986985
217	0xbf6a42a3	-0.9150793
218	0xbf8491dc	-1.0357013
219	0xbf8c686e	-1.096937
220	0x3f86bada	1.0525773
221	0xbfa4a7e0	-1.2863731
222	0xbf512512	-0.8169719
223	0x3f8ccc06	1.0999763
224	0x3fab1ae4	1.3367581
225	0x3f97d1bf	1.1860884
226	0xbf5e7c6e	-0.86908615
227	0x3f600735	0.87511
228	0xbf63e146	-0.89015615
229	0xbf8fac54	-1.1224465
230	0xbf8e20ea	-1.1103795
231	0x3f8fb7d4	1.1227975
232	0xbf581fcf	-0.84423536
233	0x3e06ec4a	0.13176075
234	0xbe52ee36	-0.20598683
235	0x3f127da1	0.57222944
236	0x3f9cbb1a	1.2244599
237	0xbf90b422	-1.1304972
238	0xbf906001	-1.1279298
239	0xbfa2c937	-1.2717656
240	0x3f8e9d84	1.114182
241	0x3f92113b	1.1411508
242	0x3f959ed1	1.1689092
243	0xbf260b4a	-0.64860976
244	0xbfa0f75a	-1.2575486
245	0x3f8b5b0a	1.0887158
246	0x3f871001	1.0551759
247	0xbf81c325	-1.0137678
248	0xbf91aa88	-1.1380167
249	0x3f5a500e	0.85278404
250	0xbf87c34d	-1.0606476
251	0x3f6345eb	0.8877856
252	0x3ecba13d	0.39771453
253	0x3f85e8c0	1.0461655
254	0x3f95333e	1.1656263
255	0x3f27275e	0.65294445
