vanilla_models/Cora/5_3f_85/split1/init2/GAT_dp0_5_5e_4_f1.pt (torch, 372919 bytes, 10 tensors)

layer_list.conv1.att_src f4 [1, 8, 8]
0	0xbf3f7617	-0.74789566
1	0x3f62d53a	0.8860661
2	0xbf5a6470	-0.85309505
3	0xbf176d33	-0.59151
4	0xbf02b0f5	-0.51051265
5	0x3eb14664	0.34624016
6	0xbf464242	-0.7744485
7	0xbeccd730	-0.40007925
8	0xbca0821b	-0.01959329
9	0xbf06999a	-0.5257813
10	0x3e5087fc	0.20364374
11	0x3eed719c	0.4637574
12	0x3ec3cf81	0.3824425
13	0x3dbc308d	0.09188948
14	0xbf5f4032	-0.8720733
15	0x3f02369f	0.50864595
16	0xbdbfb885	-0.09361366
17	0x3d2f0dd2	0.04273779
18	0x3ed1e4a5	0.40994754
19	0x3ec59bb3	0.38595352
20	0x3f02c3d1	0.5108004
21	0x3ecfca8d	0.4058422
22	0xbea4a8b6	-0.32159966
23	0xbe49a2a6	-0.19690952
24	0x3e2a9a31	0.16660382
25	0xbe2bc990	-0.16776109
26	0xbe5adef4	-0.21374112
27	0x3e1a5a0b	0.15073411
28	0x3f15b526	0.58479536
29	0x3ef0ed4d	0.47056046
30	0xbe404eda	-0.1878008
31	0xbde195ba	-0.11014886
32	0x3c8ff3a4	0.017572232
33	0xbeae683e	-0.34063905
34	0x3f167bf5	0.58782893
35	0x3e9bd93d	0.30439177
36	0x3d91bd6d	0.07116208
37	0xbf19eef6	-0.6013025
38	0xbdc60e97	-0.096707515
39	0xbdf7a370	-0.1209172
40	0xbf5fca36	-0.87417924
41	0x3eacf39a	0.33779603
42	0xbec99f3f	-0.39379308
43	0xbeff07a9	-0.49810532
44	0xbe7443d1	-0.23853995
45	0xbf10a956	-0.56508386
46	0xbd9655a3	-0.07340553
47	0xbbff9e44	-0.007800849
48	0xbed097d7	-0.40740845
49	0x3e4ad0cc	0.19806212
50	0x3f3c3126	0.73512495
51	0xbf05df50	-0.5229387
52	0xbf1218b2	-0.5706893
53	0x3f34507e	0.7043532
54	0x3f5c63f1	0.8609
55	0xbd983eee	-0.07433878
56	0xbf28bb03	-0.6591036
57	0x3ee6c71d	0.45073786
58	0x3f06400e	0.5244149
59	0xbe8681fe	-0.2627105
60	0x3eec53b5	0.46157613
61	0x3eefd83d	0.46844664
62	0x3e825cc2	0.25461394
63	0xbf4acd9c	-0.79219985

layer_list.conv1.att_dst f4 [1, 8, 8]
0	0xbdfa9a7c	-0.12236497
1	0x3e95268c	0.2913097
2	0xbe4993c3	-0.19685273
3	0xbe3546ee	-0.17702839
4	0xbd6d5fb1	-0.057952587
5	0xbd5393b8	-0.051654547
6	0xbe70d0be	-0.23517129
7	0xbd889b6a	-0.06670268
8	0xbd0df30e	-0.034655623
9	0xbdc20f47	-0.0947557
10	0x3d3cf8bd	0.046135653
11	0x3df58c78	0.11989683
12	0x3d1ef9e4	0.038812533
13	0x3c6613a5	0.01404277
14	0xbe4dbfda	-0.20092717
15	0x3d913748	0.07090622
16	0xbe151646	-0.14559278
17	0x3d497428	0.04918304
18	0x3df228c1	0.118241794
19	0xba4ca119	-0.0007805988
20	0x3e2196c7	0.15780173
21	0x3e162b4c	0.14664954
22	0xbca5de57	-0.020247621
23	0xbe441887	-0.19149981
24	0x3ce09c60	0.027418315
25	0xbd3835d7	-0.04497322
26	0xbd51f2e2	-0.05125702
27	0x3d8233b4	0.06357518
28	0x3e27b698	0.16378248
29	0x3e2b2287	0.1671239
30	0xbde06aea	-0.10957892
31	0xbd135a08	-0.035974532
32	0x3c9583e7	0.018251373
33	0xbe4d6dbb	-0.2006139
34	0x3e7a021f	0.24414872
35	0x3d448a0c	0.047983214
36	0xbb21324c	-0.002459663
37	0xbe86a4d9	-0.26297644
38	0x3d877ece	0.06615983
39	0xbdfc8a0e	-0.12331019
40	0xbe442ecd	-0.19158478
41	0x3e117cf5	0.14207824
42	0xbd289e1c	-0.04116641
43	0xbdd55097	-0.10415762
44	0xbde9dff4	-0.11419669
45	0xbe409267	-0.18805848
46	0x3d2806c7	0.04102209
47	0xbd8c288a	-0.0684367
48	0xbd210cac	-0.039318725
49	0x3dea50eb	0.11441215
50	0x3ea93a02	0.3305207
51	0xbe46bb4c	-0.19407386
52	0xbdb29d03	-0.08721354
53	0x3e8a0277	0.26955006
54	0x3ebefea8	0.37303662
55	0xbd5e5c53	-0.054287266
56	0xbe556020	-0.2083745
57	0x3df8a272	0.12140359
58	0xbd296f80	-0.0413661
59	0xbcfa517d	-0.030556435
60	0xbd4cb8d6	-0.04998096
61	0x3d963242	0.07333805
62	0xbcb48351	-0.022035273
63	0xbe3326e9	-0.17495312

layer_list.conv1.bias f4 [64]
0	0x3cf367cd	0.029712582
1	0x3ac50f67	0.0015034497
2	0xbc92fdb5	-0.017943243
3	0x3d509ed9	0.05093274
4	0x3c7f166f	0.015569313
5	0x3bb06699	0.0053833243
6	0x3d77203b	0.06033347
7	0x3d08be7c	0.033384785
8	0xbca163d3	-0.01970092
9	0x3d17193d	0.036889303
10	0x3d235a71	0.039881174
11	0x3c99866f	0.01874086
12	0x3befe8fa	0.007321474
13	0xbbcabdfc	-0.0061871987
14	0x3c326db7	0.010890416
15	0xbc44d3c3	-0.012013379
16	0x3d469974	0.048486188
17	0x3c370fb0	0.011173174
18	0x3b1d2600	0.0023978949
19	0xbcd33082	-0.025779966
20	0xbb960251	-0.004577913
21	0x3cc7b420	0.024377882
22	0xbc49f01e	-0.012325315
23	0x3c9f5bc2	0.019452933
24	0x3c4c5a7d	0.012472746
25	0xbc24c22e	-0.010056062
26	0x3d1c0904	0.038094535
27	0x3d0d84e2	0.034550555
28	0x3d05a49f	0.032627698
29	0x3d1cf6d2	0.038321324
30	0xbb97e605	-0.0046355748
31	0xbcaccd50	-0.021093994
32	0x3cbdb99b	0.023159793
33	0x3b587223	0.0033027015
34	0x3d05957e	0.03261327
35	0x3cb55da1	0.022139372
36	0x3cdc8b42	0.026921872
37	0xbcbd49a3	-0.023106402
38	0x3d0d18f4	0.034447625
39	0x3ca03ec8	0.019561186
40	0x3ce8b0b3	0.02840457
41	0xba0e8076	-0.0005436012
42	0xbb877026	-0.004133242
43	0x3ca9f44f	0.020746378
44	0x3cea97d9	0.02863686
45	0x3ce33a05	0.027737627
46	0x3b33d6b8	0.0027441215
47	0x3d2a5109	0.041581187
48	0xbbd5804b	-0.006515538
49	0x3d90f4fe	0.070779786
50	0x3bc27bcc	0.005935168
51	0x3ca23492	0.019800458
52	0x39cf0b6b	0.00039490624
53	0x3c04feda	0.008117402
54	0x3cb45170	0.022011489
55	0xbcb49b7e	-0.0220468
56	0x3ce55d22	0.02799851
57	0xbcbad28a	-0.022805471
58	0x3cf77f4c	0.030212067
59	0x3d43dfb3	0.047820758
60	0xbc55e1e9	-0.013054349
61	0x3c364408	0.011124618
62	0xbd13110d	-0.035904933
63	0x3d5326f1	0.05155081

layer_list.conv1.lin_src.weight f4 [64, 1433]
0	0x3c84806f	0.016174523
1	0xbd81d276	-0.0633897
2	0x3cb87f5a	0.022521663
3	0xbd4a2583	-0.04935218
4	0x3ee8e67f	0.45488355
5	0x3b95cd57	0.0045715976
6	0xbd893191	-0.06698907
7	0xbd858e5b	-0.06521293
8	0x3daa46c0	0.08314276
9	0xbc333688	-0.010938294
10	0xbbaee262	-0.0053370455
11	0xbbfc5401	-0.0077004437
12	0x3d02043a	0.031742312
13	0x3d08ad26	0.033368252
14	0xb88b6aaf	-6.647908e-05
15	0x3c5b81b3	0.013397622
16	0x3d47ffbf	0.048827883
17	0x3cf845ae	0.030306663
18	0x3dcc7217	0.099826984
19	0x3e9844bf	0.2973995
20	0x3d1f03bb	0.038821917
21	0x3c8b9984	0.017040975
22	0x3c57cd2c	0.013171475
23	0x3d5b15dc	0.053487644
24	0x3d3850af	0.04499882
25	0x3e0a9141	0.13531972
26	0x3d8b99c9	0.068164416
27	0x3da227cd	0.07917748
28	0xbd85c573	-0.06531801
29	0xbd0b3615	-0.033987124
30	0xbddb435e	-0.10706209
31	0xbc80dd1d	-0.015730435
32	0x3c92e78d	0.017932678
33	0x3c0b2de0	0.008494824
34	0x3b4361c9	0.0029812923
35	0x3d48b0b5	0.048996646
36	0x3d3e0fac	0.046401665
37	0xbd5006d5	-0.050787766
38	0xbe17823d	-0.14795776
39	0xbd8a1f00	-0.06744194
40	0x3db3f621	0.0878718
41	0xbdba9014	-0.09109512
42	0xbd2921c3	-0.041291963
43	0x3a44750e	0.0007494249
44	0x3de03090	0.109467626
45	0xbcafb550	-0.021448761
46	0xbcc088cf	-0.023502735
47	0xbbadd939	-0.005305436
48	0x3d76c8a4	0.06024994
49	0xbc5da6f8	-0.013528578
50	0xbda886a7	-0.08228808
51	0x3eb35b2d	0.350305
52	0xbdbb2265	-0.091374196
53	0xbdbe02ba	-0.09277864
54	0xbda23e80	-0.07922077
55	0xbd21bd03	-0.039486896
56	0xbd046188	-0.032319576
57	0xbb940791	-0.0045175035
58	0x3e6354f3	0.22200374
59	0x3d24ed00	0.040265083
60	0xbad2efc8	-0.0016093189
61	0x3deab68d	0.114606
62	0x3bb4bc5d	0.0055156187
63	0xbd608044	-0.054809824
64	0x3d273ba5	0.040828366
65	0xbcd5249e	-0.026018437
66	0xbca7a9b0	-0.020466655
67	0xbd46f4d2	-0.048573323
68	0x3d27b685	0.04094555
69	0x3d031d00	0.03201008
70	0xbb956a7a	-0.004559812
71	0xbd165754	-0.036704376
72	0x3d28be3b	0.041197043
73	0x3d2d5458	0.042316765
74	0xbd295139	-0.041337226
75	0x3c8586ac	0.016299568
76	0xbdb1c725	-0.08680562
77	0x3e2adb49	0.16685213
78	0xbcfbf946	-0.030758511
79	0x3cf40765	0.029788682
80	0xbda27391	-0.07932199
81	0xbd9d6cd8	-0.07686776
82	0x3daf8bb2	0.08571567
83	0x3cc5fd9c	0.024168782
84	0x3ca1f2a6	0.019769024
85	0x3e01ba3c	0.12668699
86	0x3c6c7ac9	0.014433571
87	0x3d918007	0.071044974
88	0x3d6d07a7	0.057868626
89	0x3d72d493	0.059284758
90	0x3d4c4439	0.04986975
91	0x3a5d4a9c	0.00084415986
92	0x3c2267a6	0.009912407
93	0x3d440555	0.047856648
94	0x3c3f45d0	0.011674359
95	0x3db1b807	0.086776786
96	0x3d08c8c8	0.033394605
97	0x3e0f07e0	0.13967848
98	0xba12891c	-0.0005589889
99	0xbeb9b7b7	-0.36272976
100	0x3cdd09af	0.026982157
101	0xbda0e75a	-0.07856627
102	0x3d9100aa	0.07080205
103	0x3d9a00a8	0.075196564
104	0x3d0aad78	0.03385684
105	0xbd2c5dd9	-0.042081688
106	0xbc99e086	-0.018783819
107	0x3cfeb210	0.031090766
108	0xbda9cd75	-0.08291141
109	0x3cd3d5f5	0.025858859
110	0xbb6eb3ba	-0.0036423043
111	0xbcd00772	-0.025394175
112	0x3dc22ec1	0.09481574
113	0xbb865fa0	-0.004100755
114	0xbc7b96a5	-0.015355741
115	0xbcac19b2	-0.021008346
116	0x3b2b5bc4	0.0026147226
117	0x3cc1b3a1	0.023645224
118	0xbde6712c	-0.112520546
119	0x3d26fb89	0.040767226
120	0xbd2a3f71	-0.04156441
121	0xbdbf81d5	-0.09350935
122	0xbd8e32b5	-0.06943265
123	0xbd9b92cb	-0.07596358
124	0x3d1aadbf	0.037763353
125	0x3e9dc9b2	0.30817944
126	0x3b07a962	0.0020700325
127	0x3992529f	0.00027908848
128	0x3df1c8b5	0.1180586
129	0x3dbb06fb	0.09132191
130	0xbd1f5315	-0.038897593
131	0xbca08c03	-0.019598013
132	0xbd507c4f	-0.0508998
133	0x3c6fa9fe	0.014627932
134	0xbca2749a	-0.01983099
135	0x3e860e97	0.26183006
136	0x3d7378f6	0.05944153
137	0xbb883458	-0.0041566305
138	0x3cc74ae7	0.024327708
139	0xbda833e4	-0.08213022
140	0xbee91dfb	-0.45530686
141	0xbbd82862	-0.006596611
142	0xbde95770	-0.113936305
143	0x3d351801	0.044212345
144	0x3df8c8ec	0.12147698
145	0x3cf0c2a0	0.02938968
146	0xbc8c8bc4	-0.01715649
147	0xbd26ed93	-0.040753912
148	0xbd6acac6	-0.057322286
149	0xbdd7f30a	-0.10544403
150	0xb99ba8fb	-0.00029689804
151	0x3e25ab72	0.16178682
152	0xbcdebe71	-0.027190419
153	0x3ddcb24b	0.10776194
154	0xbd0dbc89	-0.03460363
155	0x3d9b33da	0.07578249
156	0xbc76c659	-0.015061938
157	0x3de6ea96	0.112752125
158	0xbd1f5996	-0.038903795
159	0xbc9aaca2	-0.018881146
160	0x3d8d99ea	0.069141224
161	0x3b1b6c5f	0.0023715717
162	0x3c5bd2ad	0.013416928
163	0xbcba5c5c	-0.022749119
164	0xbbe4a628	-0.006977815
165	0x3c560bf8	0.013064377
166	0xbccc270b	-0.02492096
167	0xbd305fca	-0.0430601
168	0x3e0abceb	0.13548629
169	0x3d4fdb0c	0.05074601
170	0x3bb07819	0.0053854105
171	0x3be79a75	0.0070679733
172	0x3ce11cf5	0.027479628
173	0xbd7e66ea	-0.062109865
174	0xbd35944b	-0.044330876
175	0xbd4116c5	-0.047140855
176	0x3e26a417	0.16273533
177	0xbbf30403	-0.0074162497
178	0xbd0396f3	-0.03212638
179	0x3d22318a	0.039598025
180	0xbccbccfb	-0.024878016
181	0x3c5732c7	0.013134665
182	0x3d227e60	0.0396713
183	0xbd0c8d23	-0.034314286
184	0xbcbfe664	-0.023425288
185	0x3be60a5f	0.0070202793
186	0xbd832b87	-0.064047866
187	0xbe30df54	-0.17272693
188	0xbe0ea475	-0.13929923
189	0x3d104cb3	0.035229396
190	0x3c38d9b2	0.011282371
191	0xbd965ffc	-0.07342526
192	0x3da0693d	0.078325726
193	0x3cecb820	0.028896391
194	0xbde62338	-0.11237186
195	0x3b169e06	0.0022982373
196	0xbd4378cd	-0.047722626
197	0xbc82c3e1	-0.015962543
198	0x3d07740d	0.03306966
199	0x3b3fa4c2	0.002924249
200	0xbde811a5	-0.113314904
201	0x3b96412a	0.004585405
202	0x3d2ab0f8	0.041672677
203	0x3d5fa93e	0.05460476
204	0x3bf89f2f	0.0075873355
205	0x3d9e2322	0.07721545
206	0x3dc72018	0.09722918
207	0x3c38737e	0.011258004
208	0xbb5e8e09	-0.0033959171
209	0x3cca737d	0.024713272
210	0xbc10d7d4	-0.00884052
211	0xbc95412e	-0.018219557
212	0x3bd65224	0.0065405536
213	0xbc3a1362	-0.01135716
214	0x3cbaf1ba	0.022820342
215	0x3b94a865	0.0045366758
216	0x3c061aac	0.00818507
217	0x3d2fb8a0	0.04290068
218	0xbb7bd313	-0.003842537
219	0xbbec36e4	-0.007208692
220	0xbc3801b8	-0.0112308785
221	0x3bb7025f	0.0055849995
222	0x3c33a29c	0.010964062
223	0xbb314438	-0.0027048718
224	0xbd2bab1d	-0.041911233
225	0xbc30d005	-0.010791783
226	0x3d93b591	0.072123654
227	0xbe4cfa7a	-0.20017424
228	0xbda57e39	-0.08080716
229	0xbcaabe72	-0.020842765
230	0x3cd7194f	0.026257185
231	0x3d75bab6	0.059992515
232	0x3d500380	0.050784588
233	0xbd27a7bd	-0.040931452
234	0x3df3674d	0.118849374
235	0xbd6a6c6d	-0.05723231
236	0x3d409695	0.047018606
237	0xbdf89dc2	-0.12139465
238	0x3e25f6fa	0.16207495
239	0x3d7518a3	0.05983795
240	0x3c91f2dd	0.017816002
241	0x3bab1781	0.0052213077
242	0x3d27171c	0.040793523
243	0x3d406457	0.04697069
244	0x3e2bb555	0.16768391
245	0x3d3a7785	0.04552414
246	0xbaf0e36f	-0.0018378327
247	0xbd96e7f1	-0.07368458
248	0x3c1c856e	0.0095532965
249	0xbc81eda4	-0.015860386
250	0x3b58d173	0.0033083826
251	0xbdb7ce06	-0.08974843
252	0x3d0b8340	0.034060717
253	0xbcefeeac	-0.029288612
254	0xbd0b9733	-0.03407974
255	0xbd04dbdb	-0.032436233

layer_list.conv1.lin_dst.weight f4 [64, 1433]
0	0x3c84806f	0.016174523
1	0xbd81d276	-0.0633897
2	0x3cb87f5a	0.022521663
3	0xbd4a2583	-0.04935218
4	0x3ee8e67f	0.45488355
5	0x3b95cd57	0.0045715976
6	0xbd893191	-0.06698907
7	0xbd858e5b	-0.06521293
8	0x3daa46c0	0.08314276
9	0xbc333688	-0.010938294
10	0xbbaee262	-0.0053370455
11	0xbbfc5401	-0.0077004437
12	0x3d02043a	0.031742312
13	0x3d08ad26	0.033368252
14	0xb88b6aaf	-6.647908e-05
15	0x3c5b81b3	0.013397622
16	0x3d47ffbf	0.048827883
17	0x3cf845ae	0.030306663
18	0x3dcc7217	0.099826984
19	0x3e9844bf	0.2973995
20	0x3d1f03bb	0.038821917
21	0x3c8b9984	0.017040975
22	0x3c57cd2c	0.013171475
23	0x3d5b15dc	0.053487644
24	0x3d3850af	0.04499882
25	0x3e0a9141	0.13531972
26	0x3d8b99c9	0.068164416
27	0x3da227cd	0.07917748
28	0xbd85c573	-0.06531801
29	0xbd0b3615	-0.033987124
30	0xbddb435e	-0.10706209
31	0xbc80dd1d	-0.015730435
32	0x3c92e78d	0.017932678
33	0x3c0b2de0	0.008494824
34	0x3b4361c9	0.0029812923
35	0x3d48b0b5	0.048996646
36	0x3d3e0fac	0.046401665
37	0xbd5006d5	-0.050787766
38	0xbe17823d	-0.14795776
39	0xbd8a1f00	-0.06744194
40	0x3db3f621	0.0878718
41	0xbdba9014	-0.09109512
42	0xbd2921c3	-0.041291963
43	0x3a44750e	0.0007494249
44	0x3de03090	0.109467626
45	0xbcafb550	-0.021448761
46	0xbcc088cf	-0.023502735
47	0xbbadd939	-0.005305436
48	0x3d76c8a4	0.06024994
49	0xbc5da6f8	-0.013528578
50	0xbda886a7	-0.08228808
51	0x3eb35b2d	0.350305
52	0xbdbb2265	-0.091374196
53	0xbdbe02ba	-0.09277864
54	0xbda23e80	-0.07922077
55	0xbd21bd03	-0.039486896
56	0xbd046188	-0.032319576
57	0xbb940791	-0.0045175035
58	0x3e6354f3	0.22200374
59	0x3d24ed00	0.040265083
60	0xbad2efc8	-0.0016093189
61	0x3deab68d	0.114606
62	0x3bb4bc5d	0.0055156187
63	0xbd608044	-0.054809824
64	0x3d273ba5	0.040828366
65	0xbcd5249e	-0.026018437
66	0xbca7a9b0	-0.020466655
67	0xbd46f4d2	-0.048573323
68	0x3d27b685	0.04094555
69	0x3d031d00	0.03201008
70	0xbb956a7a	-0.004559812
71	0xbd165754	-0.036704376
72	0x3d28be3b	0.041197043
73	0x3d2d5458	0.042316765
74	0xbd295139	-0.041337226
75	0x3c8586ac	0.016299568
76	0xbdb1c725	-0.08680562
77	0x3e2adb49	0.16685213
78	0xbcfbf946	-0.030758511
79	0x3cf40765	0.029788682
80	0xbda27391	-0.07932199
81	0xbd9d6cd8	-0.07686776
82	0x3daf8bb2	0.08571567
83	0x3cc5fd9c	0.024168782
84	0x3ca1f2a6	0.019769024
85	0x3e01ba3c	0.12668699
86	0x3c6c7ac9	0.014433571
87	0x3d918007	0.071044974
88	0x3d6d07a7	0.057868626
89	0x3d72d493	0.059284758
90	0x3d4c4439	0.04986975
91	0x3a5d4a9c	0.00084415986
92	0x3c2267a6	0.009912407
93	0x3d440555	0.047856648
94	0x3c3f45d0	0.011674359
95	0x3db1b807	0.086776786
96	0x3d08c8c8	0.033394605
97	0x3e0f07e0	0.13967848
98	0xba12891c	-0.0005589889
99	0xbeb9b7b7	-0.36272976
100	0x3cdd09af	0.026982157
101	0xbda0e75a	-0.07856627
102	0x3d9100aa	0.07080205
103	0x3d9a00a8	0.075196564
104	0x3d0aad78	0.03385684
105	0xbd2c5dd9	-0.042081688
106	0xbc99e086	-0.018783819
107	0x3cfeb210	0.031090766
108	0xbda9cd75	-0.08291141
109	0x3cd3d5f5	0.025858859
110	0xbb6eb3ba	-0.0036423043
111	0xbcd00772	-0.025394175
112	0x3dc22ec1	0.09481574
113	0xbb865fa0	-0.004100755
114	0xbc7b96a5	-0.015355741
115	0xbcac19b2	-0.021008346
116	0x3b2b5bc4	0.0026147226
117	0x3cc1b3a1	0.023645224
118	0xbde6712c	-0.112520546
119	0x3d26fb89	0.040767226
120	0xbd2a3f71	-0.04156441
121	0xbdbf81d5	-0.09350935
122	0xbd8e32b5	-0.06943265
123	0xbd9b92cb	-0.07596358
124	0x3d1aadbf	0.037763353
125	0x3e9dc9b2	0.30817944
126	0x3b07a962	0.0020700325
127	0x3992529f	0.00027908848
128	0x3df1c8b5	0.1180586
129	0x3dbb06fb	0.09132191
130	0xbd1f5315	-0.038897593
131	0xbca08c03	-0.019598013
132	0xbd507c4f	-0.0508998
133	0x3c6fa9fe	0.014627932
134	0xbca2749a	-0.01983099
135	0x3e860e97	0.26183006
136	0x3d7378f6	0.05944153
137	0xbb883458	-0.0041566305
138	0x3cc74ae7	0.024327708
139	0xbda833e4	-0.08213022
140	0xbee91dfb	-0.45530686
141	0xbbd82862	-0.006596611
142	0xbde95770	-0.113936305
143	0x3d351801	0.044212345
144	0x3df8c8ec	0.12147698
145	0x3cf0c2a0	0.02938968
146	0xbc8c8bc4	-0.01715649
147	0xbd26ed93	-0.040753912
148	0xbd6acac6	-0.057322286
149	0xbdd7f30a	-0.10544403
150	0xb99ba8fb	-0.00029689804
151	0x3e25ab72	0.16178682
152	0xbcdebe71	-0.027190419
153	0x3ddcb24b	0.10776194
154	0xbd0dbc89	-0.03460363
155	0x3d9b33da	0.07578249
156	0xbc76c659	-0.015061938
157	0x3de6ea96	0.112752125
158	0xbd1f5996	-0.038903795
159	0xbc9aaca2	-0.018881146
160	0x3d8d99ea	0.069141224
161	0x3b1b6c5f	0.0023715717
162	0x3c5bd2ad	0.013416928
163	0xbcba5c5c	-0.022749119
164	0xbbe4a628	-0.006977815
165	0x3c560bf8	0.013064377
166	0xbccc270b	-0.02492096
167	0xbd305fca	-0.0430601
168	0x3e0abceb	0.13548629
169	0x3d4fdb0c	0.05074601
170	0x3bb07819	0.0053854105
171	0x3be79a75	0.0070679733
172	0x3ce11cf5	0.027479628
173	0xbd7e66ea	-0.062109865
174	0xbd35944b	-0.044330876
175	0xbd4116c5	-0.047140855
176	0x3e26a417	0.16273533
177	0xbbf30403	-0.0074162497
178	0xbd0396f3	-0.03212638
179	0x3d22318a	0.039598025
180	0xbccbccfb	-0.024878016
181	0x3c5732c7	0.013134665
182	0x3d227e60	0.0396713
183	0xbd0c8d23	-0.034314286
184	0xbcbfe664	-0.023425288
185	0x3be60a5f	0.0070202793
186	0xbd832b87	-0.064047866
187	0xbe30df54	-0.17272693
188	0xbe0ea475	-0.13929923
189	0x3d104cb3	0.035229396
190	0x3c38d9b2	0.011282371
191	0xbd965ffc	-0.07342526
192	0x3da0693d	0.078325726
193	0x3cecb820	0.028896391
194	0xbde62338	-0.11237186
195	0x3b169e06	0.0022982373
196	0xbd4378cd	-0.047722626
197	0xbc82c3e1	-0.015962543
198	0x3d07740d	0.03306966
199	0x3b3fa4c2	0.002924249
200	0xbde811a5	-0.113314904
201	0x3b96412a	0.004585405
202	0x3d2ab0f8	0.041672677
203	0x3d5fa93e	0.05460476
204	0x3bf89f2f	0.0075873355
205	0x3d9e2322	0.07721545
206	0x3dc72018	0.09722918
207	0x3c38737e	0.011258004
208	0xbb5e8e09	-0.0033959171
209	0x3cca737d	0.024713272
210	0xbc10d7d4	-0.00884052
211	0xbc95412e	-0.018219557
212	0x3bd65224	0.0065405536
213	0xbc3a1362	-0.01135716
214	0x3cbaf1ba	0.022820342
215	0x3b94a865	0.0045366758
216	0x3c061aac	0.00818507
217	0x3d2fb8a0	0.04290068
218	0xbb7bd313	-0.003842537
219	0xbbec36e4	-0.007208692
220	0xbc3801b8	-0.0112308785
221	0x3bb7025f	0.0055849995
222	0x3c33a29c	0.010964062
223	0xbb314438	-0.0027048718
224	0xbd2bab1d	-0.041911233
225	0xbc30d005	-0.010791783
226	0x3d93b591	0.072123654
227	0xbe4cfa7a	-0.20017424
228	0xbda57e39	-0.08080716
229	0xbcaabe72	-0.020842765
230	0x3cd7194f	0.026257185
231	0x3d75bab6	0.059992515
232	0x3d500380	0.050784588
233	0xbd27a7bd	-0.040931452
234	0x3df3674d	0.118849374
235	0xbd6a6c6d	-0.05723231
236	0x3d409695	0.047018606
237	0xbdf89dc2	-0.12139465
238	0x3e25f6fa	0.16207495
239	0x3d7518a3	0.05983795
240	0x3c91f2dd	0.017816002
241	0x3bab1781	0.0052213077
242	0x3d27171c	0.040793523
243	0x3d406457	0.04697069
244	0x3e2bb555	0.16768391
245	0x3d3a7785	0.04552414
246	0xbaf0e36f	-0.0018378327
247	0xbd96e7f1	-0.07368458
248	0x3c1c856e	0.0095532965
249	0xbc81eda4	-0.015860386
250	0x3b58d173	0.0033083826
251	0xbdb7ce06	-0.08974843
252	0x3d0b8340	0.034060717
253	0xbcefeeac	-0.029288612
254	0xbd0b9733	-0.03407974
255	0xbd04dbdb	-0.032436233

layer_list.conv2.att_src f4 [1, 1, 7]
0	0xbdbd96cf	-0.0925728
1	0xbe6205cb	-0.22072522
2	0xbde4606b	-0.11151203
3	0xbd16b5d6	-0.036794506
4	0xbdd31644	-0.10306981
5	0x3e10aa37	0.14127432
6	0xbdca01bf	-0.09863614

layer_list.conv2.att_dst f4 [1, 1, 7]
0	0xbea6a6b0	-0.32549047
1	0xbdec80ac	-0.1154798
2	0x3d1e7729	0.03868786
3	0xbe61d9c1	-0.22055723
4	0x3a5c4353	0.0008402366
5	0x3f1035d8	0.5633216
6	0x3bc02342	0.005863578

layer_list.conv2.bias f4 [7]
0	0xbe358edb	-0.17730276
1	0xbee69887	-0.45038244
2	0x3d40e87e	0.04709672
3	0x3ef9aaab	0.48763022
4	0xbdaffcbf	-0.08593129
5	0xbe6ff187	-0.23431979
6	0xbef4478e	-0.47710842

layer_list.conv2.lin_src.weight f4 [7, 64]
0	0xbdbe0136	-0.09277575
1	0x3f6c76c0	0.923687
2	0x3f715cbd	0.9428213
3	0xbe843bb2	-0.25826794
4	0x3f85b2b6	1.0445163
5	0x3e9569d3	0.291823
6	0xbf38d2a5	-0.7219642
7	0x3f67748b	0.90412205
8	0xbf65dab5	-0.89786845
9	0xbe888e74	-0.26671183
10	0x3f5d660c	0.86483836
11	0x3f5a7b40	0.85344315
12	0x3e8240b7	0.25439999
13	0xbee66dc9	-0.45005634
14	0xbf2407a1	-0.6407414
15	0xbf2366a2	-0.6382848
16	0xbf14a6fd	-0.58067304
17	0x3f4aed1c	0.7926805
18	0x3f5d0e3c	0.86349845
19	0x3c5bd8e5	0.013418411
20	0x3f7b6f3a	0.98216593
21	0xbf2768ac	-0.6539409
22	0xbf4a38d0	-0.7899294
23	0x3ed27f95	0.41112962
24	0xbf2b09f6	-0.66812074
25	0xbf3a7643	-0.72836703
26	0x3f6683b6	0.90044725
27	0xbeff5873	-0.4987217
28	0xbf76f555	-0.96468097
29	0xbf61f838	-0.88269377
30	0x3f621b97	0.8832335
31	0xbf17335a	-0.5906273
32	0x3f5d8a92	0.86539567
33	0xbf665dad	-0.8998669
34	0x3f7ff08f	0.9997644
35	0x3f80e09a	1.0068543
36	0x3f58e98f	0.8473138
37	0xbf66e5c2	-0.9019433
38	0xbeebfe26	-0.46092337
39	0xbf4f8bca	-0.81072676
40	0xbf836302	-1.026459
41	0x3f85f7f1	1.0466291
42	0xbf30b5f2	-0.69027627
43	0xbf871d84	-1.0555882
44	0xbf59e2af	-0.85111517
45	0xbf6dacbc	-0.92841697
46	0x3f560bbc	0.83611655
47	0x3f82408b	1.0175947
48	0x3f5078e7	0.8143448
49	0xbf68ad1a	-0.9088913
50	0xbf40bfdb	-0.7529275
51	0x3f6c3ddb	0.92281884
52	0x3f3ea49b	0.7446992
53	0xbde58540	-0.11207056
54	0xbf73270f	-0.94981474
55	0x3f765b75	0.962333
56	0x3ead417d	0.33839026
57	0xbf1db5cf	-0.6160554
58	0xbf617f2b	-0.8808467
59	0xbf6fe1d5	-0.9370397
60	0x3f745c35	0.95453197
61	0xbf3252a8	-0.69657373
62	0xbf6155fe	-0.8802184
63	0x3f5af64f	0.8553209
64	0xbf4eaeff	-0.8073577
65	0x3f3ebfd8	0.7451148
66	0xbf605aaf	-0.8763837
67	0xbf3bd4ca	-0.73371565
68	0x3ee27a97	0.44234154
69	0x3f1b8bbf	0.6076011
70	0xbf5504d8	-0.83210516
71	0xbf56931e	-0.83818233
72	0xbeccb404	-0.3998109
73	0x3f6847e5	0.907347
74	0x3f188380	0.59575653
75	0xbf8e0383	-1.1094822
76	0xbf2e587c	-0.68103766
77	0x3f6c03da	0.92193377
78	0xbef85908	-0.48505425
79	0x3f50e8a2	0.8160497
80	0xbf468682	-0.7754899
81	0xbed99e7a	-0.4250372
82	0xbf256c6f	-0.6461858
83	0x3f2c0180	0.6718979
84	0x3ef89e84	0.48558438
85	0xbf105113	-0.5637371
86	0xbf09634d	-0.53667146
87	0x3f09e159	0.5385948
88	0x3f3dea6e	0.74185836
89	0xbf83b7a4	-1.0290418
90	0xbf84e446	-1.0382164
91	0xbf774ee8	-0.96604776
92	0x3f500dc8	0.8127103
93	0x3f3d61a5	0.7397712
94	0xbf85d26e	-1.0454843
95	0xbf546626	-0.82968366
96	0xbee8cc0f	-0.45468184
97	0xbf44883a	-0.76770365
98	0x3f342992	0.7037593
99	0x3f8ef430	1.116827
100	0xbf697337	-0.9119143
101	0xbf535da5	-0.82564765
102	0xbe6ddb9c	-0.23228306
103	0x3f85441d	1.0411412
104	0xbf410437	-0.75397056
105	0x3ef54fd6	0.47912472
106	0xbd95c37a	-0.07312675
107	0x3f7c582b	0.98572034
108	0x3f1efc87	0.62104076
109	0xbf544ed4	-0.8293278
110	0xbf297d04	-0.66206384
111	0xbf7143ef	-0.94244283
112	0x3f0734d9	0.52815014
113	0xbe05fa9f	-0.13083886
114	0x3e85f880	0.26166153
115	0x3ec58b11	0.38582662
116	0xbf0f33b3	-0.5593826
117	0xbf4d74c9	-0.80256325
118	0xbe87d8b2	-0.26532513
119	0xbf379d2e	-0.7172421
120	0xbf2b45fb	-0.66903657
121	0xbf5a22c5	-0.85209304
122	0x3f6028f3	0.87562484
123	0xbf201c9f	-0.6254367
124	0xbd811e98	-0.063046634
125	0xbf33a8df	-0.7017955
126	0xbee9a305	-0.45632187
127	0xbf7ce520	-0.98787117
128	0xbf41e20d	-0.7573555
129	0x3f7710bf	0.9650993
130	0xbf59588e	-0.8490075
131	0xbf20e8c4	-0.6285517
132	0xbf650e3f	-0.8947486
133	0x3e1305a7	0.14357625
134	0xbf31f1ac	-0.69509387
135	0xbf1d84b2	-0.615306
136	0x3f6d1afc	0.926193
137	0xbf862a63	-1.0481685
138	0xbf46abc5	-0.7760585
139	0x3e431927	0.19052564
140	0x3f408bb8	0.75213194
141	0x3f346d76	0.70479524
142	0xbf41c4cb	-0.7569091
143	0x3f4fc489	0.81159264
144	0x3f73127a	0.9495007
145	0x3f69859a	0.91219485
146	0xbf4f72fd	-0.81034833
147	0x3ea12705	0.31475082
148	0xbf43d2d4	-0.76493573
149	0xbf20b760	-0.6277981
150	0x3f3a618e	0.72805107
151	0x3f469db8	0.7758441
152	0x3f4a422e	0.7900723
153	0x3f3a9b6c	0.72893405
154	0xbf24be33	-0.6435272
155	0xbf41b16e	-0.7566136
156	0xbf6c37b2	-0.92272484
157	0xbeb7542d	-0.3580641
158	0x3f5c8fcb	0.8615691
159	0x3f5d14ee	0.8636006
160	0xbf7440e4	-0.95411515
161	0x3f837680	1.0270538
162	0xbf0104c6	-0.5039791
163	0x3ee24670	0.44194365
164	0xbf58145b	-0.8440606
165	0x3f746770	0.95470333
166	0xbf577888	-0.8416829
167	0x3f2bc38b	0.6709525
168	0xbf8495a9	-1.0358173
169	0x3f5b241c	0.85601974
170	0x3f3f4765	0.74718314
171	0x3f3737d7	0.7156958
172	0x3f3fdc10	0.74945164
173	0x3f802f24	1.0014386
174	0xbf422ac8	-0.7584653
175	0x3f38cb53	0.7218525
176	0xbf3d81c9	-0.7402616
177	0xbf3a2e0e	-0.72726524
178	0x3f3fa77c	0.74864936
179	0xbf4949b5	-0.78628093
180	0xbf7b7f19	-0.9824081
181	0x3f75bd30	0.959918
182	0x3f5a5da0	0.8529911
183	0x3f57063f	0.83993906
184	0xbf5cff71	-0.8632727
185	0x3f739d36	0.9516176
186	0x3f405c3f	0.75140756
187	0xbf3577d7	-0.70885986
188	0x3f50a70b	0.8150489
189	0x3f6005a8	0.8750863
190	0x3f700cc6	0.9376949
191	0xbf7873d6	-0.9705175
192	0x3f017f6c	0.50585055
193	0xbf82e95a	-1.0227463
194	0x3f6b4ed1	0.9191714
195	0x3f53b599	0.8269897
196	0xbe234544	-0.15944391
197	0xbf5db5ae	-0.86605346
198	0x3f695a1b	0.91153115
199	0x3f69ba64	0.91300035
200	0xbedf8cbd	-0.43662062
201	0x3f7cb9b2	0.9872085
202	0xbd4f121b	-0.050554376
203	0xbea5bde7	-0.32371446
204	0x3f1c5f4e	0.61082923
205	0xbf42ecdb	-0.7614266
206	0x3f649796	0.892938
207	0xbf0dc5f5	-0.55380183
208	0x3f54dfaf	0.83153814
209	0xbf3c7750	-0.73619556
210	0xbf24e18c	-0.6440666
211	0xbf4f787f	-0.8104324
212	0xbf8130f4	-1.0093064
213	0xbf1efe08	-0.6210637
214	0x3f43cc68	0.76483774
215	0x3f51a4c7	0.81892055
216	0x3f567aa9	0.83780915
217	0xbf0359f7	-0.5130915
218	0x3f61c8d2	0.8819705
219	0x3f6aaff1	0.91674715
220	0xbf1a2ac7	-0.60221523
221	0xbf2b5d3a	-0.6693913
222	0xbf79ef05	-0.9763034
223	0xbf5e16a2	-0.86753285
224	0xbf31a2af	-0.6938886
225	0x3d21993d	0.03945278
226	0x3f575778	0.8411784
227	0xbf452fa1	-0.770258
228	0x3f0c7ca0	0.5487766
229	0xbf67f72a	-0.9061152
230	0x3f8771db	1.0581621
231	0xbf6edff7	-0.93310493
232	0x3f70c289	0.9404684
233	0xbf8179e5	-1.0115324
234	0xbf2f1fb6	-0.6840776
235	0x3c87e099	0.016586589
236	0x3f3d50b7	0.73951286
237	0x3f2a0609	0.6641546
238	0xbf04686c	-0.51721835
239	0x3f61e20c	0.88235545
240	0xbf6e2feb	-0.93041867
241	0x3f6b6d0e	0.9196328
242	0x3dffc10a	0.12487991
243	0x3dbffe39	0.09374661
244	0xbf4e2edb	-0.80540246
245	0x3e019078	0.12652767
246	0xbf241928	-0.64100885
247	0xbf5383a0	-0.8262272
248	0xbf60c405	-0.877991
249	0x3f467b50	0.7753191
250	0xbf74a675	-0.95566493
251	0x3f3fbbc7	0.748959
252	0xbf363ea5	-0.7118934
253	0x3f129bbf	0.572689
254	0xbf212598	-0.6294799
255	0x3db7ccdd	0.089746214

layer_list.conv2.lin_dst.weight f4 [7, 64]
0	0xbdbe0136	-0.09277575
1	0x3f6c76c0	0.923687
2	0x3f715cbd	0.9428213
3	0xbe843bb2	-0.25826794
4	0x3f85b2b6	1.0445163
5	0x3e9569d3	0.291823
6	0xbf38d2a5	-0.7219642
7	0x3f67748b	0.90412205
8	0xbf65dab5	-0.89786845
9	0xbe888e74	-0.26671183
10	0x3f5d660c	0.86483836
11	0x3f5a7b40	0.85344315
12	0x3e8240b7	0.25439999
13	0xbee66dc9	-0.45005634
14	0xbf2407a1	-0.6407414
15	0xbf2366a2	-0.6382848
16	0xbf14a6fd	-0.58067304
17	0x3f4aed1c	0.7926805
18	0x3f5d0e3c	0.86349845
19	0x3c5bd8e5	0.013418411
20	0x3f7b6f3a	0.98216593
21	0xbf2768ac	-0.6539409
22	0xbf4a38d0	-0.7899294
23	0x3ed27f95	0.41112962
24	0xbf2b09f6	-0.66812074
25	0xbf3a7643	-0.72836703
26	0x3f6683b6	0.90044725
27	0xbeff5873	-0.4987217
28	0xbf76f555	-0.96468097
29	0xbf61f838	-0.88269377
30	0x3f621b97	0.8832335
31	0xbf17335a	-0.5906273
32	0x3f5d8a92	0.86539567
33	0xbf665dad	-0.8998669
34	0x3f7ff08f	0.9997644
35	0x3f80e09a	1.0068543
36	0x3f58e98f	0.8473138
37	0xbf66e5c2	-0.9019433
38	0xbeebfe26	-0.46092337
39	0xbf4f8bca	-0.81072676
40	0xbf836302	-1.026459
41	0x3f85f7f1	1.0466291
42	0xbf30b5f2	-0.69027627
43	0xbf871d84	-1.0555882
44	0xbf59e2af	-0.85111517
45	0xbf6dacbc	-0.92841697
46	0x3f560bbc	0.83611655
47	0x3f82408b	1.0175947
48	0x3f5078e7	0.8143448
49	0xbf68ad1a	-0.9088913
50	0xbf40bfdb	-0.7529275
51	0x3f6c3ddb	0.92281884
52	0x3f3ea49b	0.7446992
53	0xbde58540	-0.11207056
54	0xbf73270f	-0.94981474
55	0x3f765b75	0.962333
56	0x3ead417d	0.33839026
57	0xbf1db5cf	-0.6160554
58	0xbf617f2b	-0.8808467
59	0xbf6fe1d5	-0.9370397
60	0x3f745c35	0.95453197
61	0xbf3252a8	-0.69657373
62	0xbf6155fe	-0.8802184
63	0x3f5af64f	0.8553209
64	0xbf4eaeff	-0.8073577
65	0x3f3ebfd8	0.7451148
66	0xbf605aaf	-0.8763837
67	0xbf3bd4ca	-0.73371565
68	0x3ee27a97	0.44234154
69	0x3f1b8bbf	0.6076011
70	0xbf5504d8	-0.83210516
71	0xbf56931e	-0.83818233
72	0xbeccb404	-0.3998109
73	0x3f6847e5	0.907347
74	0x3f188380	0.59575653
75	0xbf8e0383	-1.1094822
76	0xbf2e587c	-0.68103766
77	0x3f6c03da	0.92193377
78	0xbef85908	-0.48505425
79	0x3f50e8a2	0.8160497
80	0xbf468682	-0.7754899
81	0xbed99e7a	-0.4250372
82	0xbf256c6f	-0.6461858
83	0x3f2c0180	0.6718979
84	0x3ef89e84	0.48558438
85	0xbf105113	-0.5637371
86	0xbf09634d	-0.53667146
87	0x3f09e159	0.5385948
88	0x3f3dea6e	0.74185836
89	0xbf83b7a4	-1.0290418
90	0xbf84e446	-1.0382164
91	0xbf774ee8	-0.96604776
92	0x3f500dc8	0.8127103
93	0x3f3d61a5	0.7397712
94	0xbf85d26e	-1.0454843
95	0xbf546626	-0.82968366
96	0xbee8cc0f	-0.45468184
97	0xbf44883a	-0.76770365
98	0x3f342992	0.7037593
99	0x3f8ef430	1.116827
100	0xbf697337	-0.9119143
101	0xbf535da5	-0.82564765
102	0xbe6ddb9c	-0.23228306
103	0x3f85441d	1.0411412
104	0xbf410437	-0.75397056
105	0x3ef54fd6	0.47912472
106	0xbd95c37a	-0.07312675
107	0x3f7c582b	0.98572034
108	0x3f1efc87	0.62104076
109	0xbf544ed4	-0.8293278
110	0xbf297d04	-0.66206384
111	0xbf7143ef	-0.94244283
112	0x3f0734d9	0.52815014
113	0xbe05fa9f	-0.13083886
114	0x3e85f880	0.26166153
115	0x3ec58b11	0.38582662
116	0xbf0f33b3	-0.5593826
117	0xbf4d74c9	-0.80256325
118	0xbe87d8b2	-0.26532513
119	0xbf379d2e	-0.7172421
120	0xbf2b45fb	-0.66903657
121	0xbf5a22c5	-0.85209304
122	0x3f6028f3	0.87562484
123	0xbf201c9f	-0.6254367
124	0xbd811e98	-0.063046634
125	0xbf33a8df	-0.7017955
126	0xbee9a305	-0.45632187
127	0xbf7ce520	-0.98787117
128	0xbf41e20d	-0.7573555
129	0x3f7710bf	0.9650993
130	0xbf59588e	-0.8490075
131	0xbf20e8c4	-0.6285517
132	0xbf650e3f	-0.8947486
133	0x3e1305a7	0.14357625
134	0xbf31f1ac	-0.69509387
135	0xbf1d84b2	-0.615306
136	0x3f6d1afc	0.926193
137	0xbf862a63	-1.0481685
138	0xbf46abc5	-0.7760585
139	0x3e431927	0.19052564
140	0x3f408bb8	0.75213194
141	0x3f346d76	0.70479524
142	0xbf41c4cb	-0.7569091
143	0x3f4fc489	0.81159264
144	0x3f73127a	0.9495007
145	0x3f69859a	0.91219485
146	0xbf4f72fd	-0.81034833
147	0x3ea12705	0.31475082
148	0xbf43d2d4	-0.76493573
149	0xbf20b760	-0.6277981
150	0x3f3a618e	0.72805107
151	0x3f469db8	0.7758441
152	0x3f4a422e	0.7900723
153	0x3f3a9b6c	0.72893405
154	0xbf24be33	-0.6435272
155	0xbf41b16e	-0.7566136
156	0xbf6c37b2	-0.92272484
157	0xbeb7542d	-0.3580641
158	0x3f5c8fcb	0.8615691
159	0x3f5d14ee	0.8636006
160	0xbf7440e4	-0.95411515
161	0x3f837680	1.0270538
162	0xbf0104c6	-0.5039791
163	0x3ee24670	0.44194365
164	0xbf58145b	-0.8440606
165	0x3f746770	0.95470333
166	0xbf577888	-0.8416829
167	0x3f2bc38b	0.6709525
168	0xbf8495a9	-1.0358173
169	0x3f5b241c	0.85601974
170	0x3f3f4765	0.74718314
171	0x3f3737d7	0.7156958
172	0x3f3fdc10	0.74945164
173	0x3f802f24	1.0014386
174	0xbf422ac8	-0.7584653
175	0x3f38cb53	0.7218525
176	0xbf3d81c9	-0.7402616
177	0xbf3a2e0e	-0.72726524
178	0x3f3fa77c	0.74864936
179	0xbf4949b5	-0.78628093
180	0xbf7b7f19	-0.9824081
181	0x3f75bd30	0.959918
182	0x3f5a5da0	0.8529911
183	0x3f57063f	0.83993906
184	0xbf5cff71	-0.8632727
185	0x3f739d36	0.9516176
186	0x3f405c3f	0.75140756
187	0xbf3577d7	-0.70885986
188	0x3f50a70b	0.8150489
189	0x3f6005a8	0.8750863
190	0x3f700cc6	0.9376949
191	0xbf7873d6	-0.9705175
192	0x3f017f6c	0.50585055
193	0xbf82e95a	-1.0227463
194	0x3f6b4ed1	0.9191714
195	0x3f53b599	0.8269897
196	0xbe234544	-0.15944391
197	0xbf5db5ae	-0.86605346
198	0x3f695a1b	0.91153115
199	0x3f69ba64	0.91300035
200	0xbedf8cbd	-0.43662062
201	0x3f7cb9b2	0.9872085
202	0xbd4f121b	-0.050554376
203	0xbea5bde7	-0.32371446
204	0x3f1c5f4e	0.61082923
205	0xbf42ecdb	-0.7614266
206	0x3f649796	0.892938
207	0xbf0dc5f5	-0.55380183
208	0x3f54dfaf	0.83153814
209	0xbf3c7750	-0.73619556
210	0xbf24e18c	-0.6440666
211	0xbf4f787f	-0.8104324
212	0xbf8130f4	-1.0093064
213	0xbf1efe08	-0.6210637
214	0x3f43cc68	0.76483774
215	0x3f51a4c7	0.81892055
216	0x3f567aa9	0.83780915
217	0xbf0359f7	-0.5130915
218	0x3f61c8d2	0.8819705
219	0x3f6aaff1	0.91674715
220	0xbf1a2ac7	-0.60221523
221	0xbf2b5d3a	-0.6693913
222	0xbf79ef05	-0.9763034
223	0xbf5e16a2	-0.86753285
224	0xbf31a2af	-0.6938886
225	0x3d21993d	0.03945278
226	0x3f575778	0.8411784
227	0xbf452fa1	-0.770258
228	0x3f0c7ca0	0.5487766
229	0xbf67f72a	-0.9061152
230	0x3f8771db	1.0581621
231	0xbf6edff7	-0.93310493
232	0x3f70c289	0.9404684
233	0xbf8179e5	-1.0115324
234	0xbf2f1fb6	-0.6840776
235	0x3c87e099	0.016586589
236	0x3f3d50b7	0.73951286
237	0x3f2a0609	0.6641546
238	0xbf04686c	-0.51721835
239	0x3f61e20c	0.88235545
240	0xbf6e2feb	-0.93041867
241	0x3f6b6d0e	0.9196328
242	0x3dffc10a	0.12487991
243	0x3dbffe39	0.09374661
244	0xbf4e2edb	-0.80540246
245	0x3e019078	0.12652767
246	0xbf241928	-0.64100885
247	0xbf5383a0	-0.8262272
248	0xbf60c405	-0.877991
249	0x3f467b50	0.7753191
250	0xbf74a675	-0.95566493
251	0x3f3fbbc7	0.748959
252	0xbf363ea5	-0.7118934
253	0x3f129bbf	0.572689
254	0xbf212598	-0.6294799
255	0x3db7ccdd	0.089746214
