vanilla_models/Cora/5_3f_85/split1/init0/GAT_dp0_5_5e_4_f2.pt (torch, 372919 bytes, 10 tensors)

layer_list.conv1.att_src f4 [1, 8, 8]
000000 07 34 27 3d 30 b8 45 bf 38 bc b2 be 3f d8 ea 3e
       0.0408211 -0.7723417 -0.34909225 0.45868108
000010 7c 67 9a be 60 ea a0 be ee 24 3f bf 18 45 0a bf
       -0.30157077 -0.31428814 -0.74665725 -0.5401168
000020 2d ea 05 3f f6 f7 7d 3c 78 08 cb 3e e1 c7 d2 3e
       0.5231045 0.015501013 0.396549 0.4116812
000030 66 5f 20 bf ab 64 75 be 1f 6a b2 3e 3c 0a ff be
       -0.62645566 -0.23964183 0.3484659 -0.49812496
000040 54 d8 72 be c5 be 68 be a6 da 06 bf 9a 71 91 be
       -0.23715335 -0.22729023 -0.5267738 -0.28406984
000050 46 1d 70 bd a8 56 25 3f 04 1f 13 bf fc 29 33 be
       -0.058621667 0.6458535 -0.574692 -0.17496485
000060 ef 2d 46 bf e9 74 4a be 99 42 1b 3f 90 dc fb be
       -0.7741384 -0.1977116 0.60648495 -0.49191713
000070 d2 3e 34 3e 37 a9 f1 3e 8d 09 b5 3e 5f 85 94 3d
       0.17602089 0.47199413 0.3535885 0.07252001
000080 fc b7 76 be 51 d7 b4 be 4c d6 25 3e e7 0f 17 3e
       -0.24093622 -0.35320523 0.16195029 0.1475216
000090 43 37 4f 3d 17 12 85 be 96 7e 83 3e 79 2f f9 be
       0.05058981 -0.25990364 0.25682515 -0.4866903
0000a0 51 e3 92 be d5 9c 04 3e e7 82 4f be a3 85 91 be
       -0.28689054 0.12950452 -0.20264779 -0.2842227
0000b0 d1 90 5a bc a6 6f 0e be 5a e0 0e 3f 83 6f 26 3f
       -0.013340191 -0.13909778 0.55811083 0.65013903
0000c0 91 c2 38 bc 45 cb 0c bf 58 a3 4d 3f 65 eb 17 3f
       -0.011276857 -0.54997665 0.8032737 0.5934356
0000d0 40 44 61 3f 9d 04 a7 be c2 cd c4 be c1 cb 3b 3e
       0.87994766 -0.32620707 -0.3843823 0.18339445
0000e0 8a 3e 8f be 4f e3 44 bf a0 10 ed 3b 14 53 ac bd
       -0.279774 -0.76909345 0.007234648 -0.084142834
0000f0 d1 bf 22 bf 6a fe 08 3e 55 8a 03 3f f2 90 5d 3f
       -0.6357394 0.13378301 0.5138295 0.86549294

layer_list.conv1.att_dst f4 [1, 8, 8]
000000 98 60 03 be 42 ee 43 be 1d 52 0f be 4f 56 cb 3d
       -0.12829816 -0.19133857 -0.13996167 0.099285714
000010 27 ac 81 be c9 2a 2d 3c 47 36 85 be e7 66 3f be
       -0.25326654 0.010569283 -0.26017973 -0.18691598
000020 70 a8 27 3d b4 09 f2 bd 07 a1 34 3e d9 d4 e4 3c
       0.04093212 -0.11818257 0.17639552 0.027933525
000030 1a 5b 3d bd 27 6f 1b 3e 68 46 69 3e 0b 59 4b bc
       -0.04622946 0.1517912 0.22780764 -0.012411366
000040 45 61 a2 bd 77 3c 99 bc fe 27 08 be 96 ad f3 bd
       -0.07928709 -0.01870559 -0.13296506 -0.11898343
000050 3c 99 db bc 90 a0 2b 3e be 87 89 bd d2 89 c2 bd
       -0.026806466 0.16760468 -0.06715344 -0.094989434
000060 54 b0 63 be 64 9c e6 bd 2c 19 39 3e 63 48 e6 bd
       -0.22235233 -0.11260298 0.18076009 -0.112442754
000070 45 d0 f1 3d d6 51 42 3e 52 95 40 3e 7a 67 e1 3c
       0.118073024 0.1897653 0.18806961 0.027515162
000080 cd cd 3c be 35 d0 43 bc 99 e3 be 3d 83 c0 d8 3c
       -0.18437882 -0.011951496 0.093207546 0.026458984
000090 ea 1d ad 3b 0a 15 1c be b1 17 5e 3e d9 e9 28 be
       0.005283107 -0.15242401 0.21688725 -0.16495456
0000a0 ad 4d 57 bd f4 8e 01 bd 2e 4b aa bc 43 07 6b bd
       -0.05256431 -0.03163047 -0.020787802 -0.057379972
0000b0 be 32 55 3d c3 7a c6 bd 51 fa 88 3e c9 ba 58 3e
       0.052050345 -0.09691384 0.26753476 0.21165003
0000c0 d6 27 8e 3d e0 d3 81 be 9f f5 8c 3e 62 12 80 bd
       0.06941192 -0.2535696 0.27531144 -0.06253506
0000d0 66 69 47 3e 64 7d 16 be 11 94 0a be b2 2d a8 3c
       0.194738 -0.1469627 -0.13533045 0.020529602
0000e0 58 54 34 3c 59 71 87 be c7 cf 06 3c c0 da c4 bd
       0.011006437 -0.26453665 0.008228249 -0.09612036
0000f0 8b fd 6a be 7e f7 09 bd d7 ad 8e 3d 80 eb 5f 3e
       -0.22948281 -0.033683293 0.06966751 0.2186718

layer_list.conv1.bias f4 [64]
000000 40 dd d5 bb 02 57 9f 3c d6 0a 88 3c de 21 9a bc
       -0.006526619 0.019450668 0.01660673 -0.018814977
000010 b0 c4 b4 3c fc 41 04 3d 59 03 25 3a 0c 48 23 3d
       0.022066444 0.03228949 0.00062947493 0.03986363
000020 01 91 7f 3c 45 dc d0 3b 82 2b 02 3c 11 ed c5 bb
       0.0155985365 0.0063739144 0.007944943 -0.0060402234
000030 65 94 43 3c 2f 48 1e 3c e9 b8 59 3b 0d 48 b5 3a
       0.0119372355 0.009660765 0.0033221787 0.0013830677
000040 ca fe aa 3c ad 42 7a 3b be 87 01 3d d5 26 ae 3c
       0.020873446 0.0038186715 0.031623594 0.02125875
000050 dc fc 18 3d 46 aa 35 bc d3 42 ba 3c dc 0b 4a bc
       0.03735052 -0.01108796 0.022736942 -0.012331929
000060 93 8f 01 3d c2 5c f6 3c 1d a0 37 3b eb 1f e5 bc
       0.031631064 0.030073527 0.002801902 -0.027969321
000070 2a 0b 85 bb 47 6c d0 3b 9e cd 49 bc 5f 03 6f 3a
       -0.0040601688 0.006360564 -0.012317089 0.0009117629
000080 ab ba 71 3c c9 32 89 3b 7b 04 56 bc 4a e8 9e 3b
       0.014753978 0.0041869623 -0.013062592 0.0048494684
000090 34 f1 cf bc fb 31 32 bc a3 57 90 3b 58 59 25 bc
       -0.02538357 -0.010876174 0.0044049784 -0.010092102
0000a0 6b 0c 8a 3b 20 23 8f 3c 5f 54 e0 3c 27 2d db 37
       0.004212906 0.017472804 0.027383981 2.612786e-05
0000b0 46 5f 95 3b b7 81 10 3c 5f 11 19 bc 0c 41 53 3c
       0.0045584766 0.008819989 -0.0093425205 0.012893926
0000c0 a7 8d 29 ba 67 a5 a8 3b a6 e5 01 bc a7 c2 9b bc
       -0.0006467946 0.0051466706 -0.007928288 -0.019013716
0000d0 2f af 92 3a 90 2d 2b 3b 7f c4 f5 bc aa 16 22 3d
       0.0011191125 0.0026119687 -0.030000923 0.039572395
0000e0 8f c2 34 bc 0a 31 49 bc b7 34 d5 3a e6 f2 7e bc
       -0.0110327145 -0.012279758 0.0016266321 -0.015560841
0000f0 c3 d9 9c 3c 1f 6d 7d 3b 27 83 0c 3d 9a 9f 88 3c
       0.019146806 0.0038669778 0.034304764 0.016677666

layer_list.conv1.lin_src.weight f4 [64, 1433]
000000 da f5 96 bd 3a cd 8d 3c 03 87 ea bd 1c 9c 2a 3e
       -0.07371111 0.017309774 -0.11451533 0.16661114
000010 c1 a2 56 3e f4 ca 17 bd f1 44 be 3d 67 52 a9 bc
       0.20960523 -0.037058786 0.09290493 -0.020669175
000020 9e 58 18 be 82 0a a1 bb 6d 98 83 bc f7 97 c4 3b
       -0.14877555 -0.0049145827 -0.016063893 0.005999561
000030 00 b3 af bd 9e 0b 1f bd 35 65 1b 3d e0 44 0c bd
       -0.085790634 -0.03882944 0.037938315 -0.03424537
000040 89 df 1d be 02 a4 f8 3b 0f 7e 0a be f4 ba 74 be
       -0.15417303 0.0075879106 -0.1352465 -0.23899442
000050 f0 48 c2 bc d6 9a d3 bc 30 31 4b 3d 00 93 e1 bb
       -0.02371642 -0.025830667 0.049607456 -0.006883979
000060 7c c6 a9 bd 49 cb 6d bd eb e1 68 3e b0 7c 93 3d
       -0.08289811 -0.058055196 0.22742431 0.07201517
000070 1b 04 d2 3c 56 67 cb 3d c1 ff d0 bd 9d 80 2a bd
       0.025636723 0.09931819 -0.10205031 -0.04162656
000080 86 c4 e1 bc ef 23 26 3c 30 ff 68 bd b8 59 86 3c
       -0.02755953 0.010140403 -0.05688399 0.016400203
000090 38 d6 12 bd fe 8e 9f bb c2 a5 4d bd 41 64 8a bd
       -0.035848826 -0.004869341 -0.050206907 -0.06757403
0000a0 92 a6 90 3e 2a 31 94 bd 77 0b 6c 3d 7d c2 73 3c
       0.28252083 -0.0723594 0.05762812 0.014877913
0000b0 c7 82 07 be 23 5b 23 bc 56 b7 be b9 b5 39 b2 bd
       -0.13233481 -0.009970459 -0.0003637622 -0.08702413
0000c0 86 81 42 bd 83 7f 2e 3e 3f 87 d4 bd a2 5a b3 be
       -0.047486804 0.1704083 -0.10377359 -0.35030085
0000d0 06 6f 09 3e a0 63 15 bd 2c 29 bf bd 0b 00 15 3c
       0.13421258 -0.036471963 -0.09334025 0.0090942485
0000e0 5a bb 20 3e b5 aa c4 3d ce c7 74 be 18 e8 3a 3c
       0.15696469 0.09602872 -0.23904344 0.0114078745
0000f0 cb 7c de bb e9 99 a6 3e c3 49 d1 3c bd 7f af 3d
       -0.006789779 0.325393 0.025547868 0.08569286
000100 04 8b 91 3d 37 4d 0d be 47 ea 06 3d 40 01 b1 bd
       0.07106593 -0.13798986 0.032938268 -0.086428165
000110 07 e1 eb 3b cf 8a 73 bc 3c d0 9a bd fb 56 b0 3b
       0.007198456 -0.0148646375 -0.07559249 0.0053814626
000120 84 7e 95 3b 54 5f a0 bc 4d e0 16 bc 7c 34 69 3a
       0.004562201 -0.019576706 -0.009208751 0.00088960654
000130 2d fe c0 b8 b9 80 e3 3c c1 d0 52 bd ec a0 f0 bc
       -9.2026174e-05 0.02777134 -0.051468614 -0.029373609
000140 d9 ab c8 3c b7 b7 70 be 8e 0e 28 3d 78 da 0b 3c
       0.024496006 -0.23507582 0.041029505 0.008535974
000150 c9 10 a7 ba 94 e5 b6 bd 00 4f 2a be 3a 4d 5b 3e
       -0.0012746091 -0.08930507 -0.16631699 0.21416178
000160 a9 c0 00 bc 24 54 f9 3a 2f 7f ec 3b a9 24 eb 3c
       -0.007858434 0.0019022268 0.00721731 0.028704004
000170 ba b4 17 3e e9 e0 ea bd 93 f1 08 bd 7e 6f 21 bd
       0.14815035 -0.114686795 -0.033433508 -0.039412968
000180 cb 18 45 bd 43 e5 1e 3d eb 3b 92 3d 1d 53 96 3e
       -0.048119348 0.03879286 0.07140335 0.29360285
000190 ac 3f b6 bc 23 d1 95 3b e6 c8 67 bc 9e ee 48 3e
       -0.022247158 0.00457205 -0.014147019 0.19622275
0001a0 09 89 05 3e 47 b5 38 bd db fa 85 bd 9f c7 13 bd
       0.13040556 -0.045094755 -0.065419875 -0.036079045
0001b0 1d 18 04 bd 6f ff b2 3b 91 82 43 3d f6 4e 75 3d
       -0.03224956 0.005462579 0.04773194 0.059889756
0001c0 55 56 f1 bc ea 7c 22 3d 40 13 a2 3c f3 46 9b 3c
       -0.029460112 0.03966991 0.01978457 0.01895473
0001d0 af 24 0a bb dd 12 c2 3c 5d bf 3e 3e f9 12 76 3d
       -0.0021078994 0.023690635 0.18627687 0.060076687
0001e0 a7 2a e9 3c 52 ef a9 3d d3 80 e3 bd fd 97 82 3d
       0.028462721 0.082976 -0.11108556 0.06376646
0001f0 1b 32 07 bd ac da 03 bd 6e 6f 89 be 93 7d 1a be
       -0.03300677 -0.032190964 -0.26842827 -0.15086965
000200 6f 97 9e bc 8b 6e cc bd dc 40 79 3d 60 3c f7 bc
       -0.019359319 -0.09982022 0.06085287 -0.030180156
000210 5b 52 a6 3d 99 ae 15 bd 79 d3 50 3c 88 a7 1b be
       0.08121177 -0.036543462 0.0127457315 -0.15200627
000220 f5 15 1e bd e1 65 21 3c b7 ac 21 bd 8b 47 24 be
       -0.03859516 0.00985095 -0.039471354 -0.16042916
000230 7c a2 3c 3e d8 7c 00 bc ce b0 c1 bd 22 37 30 3c
       0.18421358 -0.007842265 -0.09457551 0.010755332
000240 02 e0 a4 3c 27 77 5b bd ce 96 09 be 95 c7 8d bd
       0.020126346 -0.05358043 -0.13436434 -0.06922833
000250 74 1f 23 3d df 90 69 bd 56 ca a1 bc fc 50 dd bd
       0.039824918 -0.057022925 -0.019749802 -0.10806462
000260 17 aa 2c 3d b3 9e 94 bd ea 74 4f 3d 5a 72 c7 3a
       0.042154398 -0.07256832 0.050648607 0.0015216575
000270 a0 75 75 bd 1d e3 0f bd 67 db f2 3b 1a a2 89 3c
       -0.05992663 -0.0351287 0.0074114087 0.016800929
000280 7f 2c 98 bc bc f5 11 3d ea e3 83 3d a0 64 2b 3d
       -0.018575905 0.03563474 0.064399555 0.04184401
000290 34 97 28 3c d4 96 ad 3c 3c 38 63 bc b8 8d e1 3c
       0.010289956 0.021190085 -0.013868388 0.027533397
0002a0 84 39 fa bc 37 e2 04 3e 01 35 ad ba 33 86 02 3d
       -0.030545004 0.12976919 -0.0013214649 0.031866264
0002b0 7b 45 17 bd 60 2e 6a bc f7 c9 f7 ba 6c 86 59 bd
       -0.036931496 -0.014293283 -0.0018904795 -0.05310671
0002c0 7f b1 13 bc 12 25 bb 3c 30 16 98 bb 56 64 4e 3e
       -0.009014486 0.022844825 -0.004641317 0.20155463
0002d0 4d 0b 0c 3d 70 2a d9 3c 4c 55 6f 3d 4d dc 2a bb
       0.034190465 0.026509494 0.058430955 -0.002607125
0002e0 b4 31 38 3d 35 02 9b bc 89 96 9d bc cf c1 56 3e
       0.044969276 -0.01892195 -0.01923682 0.2097237
0002f0 a9 9b ae bd 00 4f a9 ba 20 35 bc bd 8f 4b e0 3d
       -0.085257836 -0.0012917221 -0.0918982 0.10951912
000300 c4 03 c6 3d c1 c5 f2 3b 41 34 97 bc 40 db 29 bd
       0.09668687 0.007408828 -0.018457534 -0.04146886
000310 28 6b aa ba e2 f8 14 bd ef 68 89 bd e9 ba f7 bc
       -0.0013001906 -0.036370166 -0.067094676 -0.030240493
000320 ee 73 40 bc d5 c0 a4 b9 20 51 a2 bd 8a 2a 82 be
       -0.01174639 -0.0003142419 -0.079256296 -0.2542308
000330 f0 ab de 3c f4 7f e7 3e 1f 6d 1c 3d ac b1 00 bd
       0.027181596 0.45214808 0.038190003 -0.03141944
000340 03 c1 f3 3d c1 42 e4 b9 eb a0 50 3c 3a 2b c0 3e
       0.119020484 -0.00043537284 0.012733678 0.3753298
000350 91 34 45 3d 13 6d b0 3d 90 12 b4 bc c2 bb 46 bc
       0.048145834 0.08614554 -0.021981508 -0.012129726
000360 92 b2 c4 bb 44 20 ed 3d 09 58 8c 3c 07 79 19 3d
       -0.0060027326 0.1157842 0.017131822 0.037468936
000370 77 3a 4c 3d 4b 88 e4 bd 9d fc 7c 3d d4 68 9a 3c
       0.049860444 -0.11158808 0.06176435 0.018848814
000380 b9 1b e2 3c be 4c af bb 65 2d d4 3d 7e 14 44 bd
       0.02760111 -0.0053497246 0.10360221 -0.047871105
000390 2e 28 6d be 2d db 82 3c f4 32 6f 3d 70 b2 cf 3c
       -0.23159859 0.015973652 0.058398202 0.02535364
0003a0 9e 47 65 bc 10 b0 29 3d 6a 5f 82 3e 7e 1a b2 3d
       -0.013994126 0.041427672 0.2546342 0.08696459
0003b0 53 ed 39 3e 9d 24 33 3e 3f ca 6e be df 53 5b 3c
       0.18156938 0.17494436 -0.23319338 0.013386696
0003c0 33 82 46 3b d9 ed 2a 3c fe 10 da 3c a3 b4 81 bd
       0.0030290007 0.010432684 0.02661943 -0.06333282
0003d0 87 47 82 bd 2c 90 e2 bc e9 55 08 be 2a 2c 63 3d
       -0.06361299 -0.027656637 -0.13314022 0.05546204
0003e0 8d da 00 bc 5a 28 68 3d 4e 92 11 3e 24 25 79 3d
       -0.007864607 0.056679107 0.14215967 0.060826436
0003f0 3f fe cb bd ae 40 06 bd 47 58 9c bb 66 46 9f bd
       -0.09960603 -0.032776527 -0.0047712657 -0.07777099

layer_list.conv1.lin_dst.weight f4 [64, 1433]
000000 da f5 96 bd 3a cd 8d 3c 03 87 ea bd 1c 9c 2a 3e
       -0.07371111 0.017309774 -0.11451533 0.16661114
000010 c1 a2 56 3e f4 ca 17 bd f1 44 be 3d 67 52 a9 bc
       0.20960523 -0.037058786 0.09290493 -0.020669175
000020 9e 58 18 be 82 0a a1 bb 6d 98 83 bc f7 97 c4 3b
       -0.14877555 -0.0049145827 -0.016063893 0.005999561
000030 00 b3 af bd 9e 0b 1f bd 35 65 1b 3d e0 44 0c bd
       -0.085790634 -0.03882944 0.037938315 -0.03424537
000040 89 df 1d be 02 a4 f8 3b 0f 7e 0a be f4 ba 74 be
       -0.15417303 0.0075879106 -0.1352465 -0.23899442
000050 f0 48 c2 bc d6 9a d3 bc 30 31 4b 3d 00 93 e1 bb
       -0.02371642 -0.025830667 0.049607456 -0.006883979
000060 7c c6 a9 bd 49 cb 6d bd eb e1 68 3e b0 7c 93 3d
       -0.08289811 -0.058055196 0.22742431 0.07201517
000070 1b 04 d2 3c 56 67 cb 3d c1 ff d0 bd 9d 80 2a bd
       0.025636723 0.09931819 -0.10205031 -0.04162656
000080 86 c4 e1 bc ef 23 26 3c 30 ff 68 bd b8 59 86 3c
       -0.02755953 0.010140403 -0.05688399 0.016400203
000090 38 d6 12 bd fe 8e 9f bb c2 a5 4d bd 41 64 8a bd
       -0.035848826 -0.004869341 -0.050206907 -0.06757403
0000a0 92 a6 90 3e 2a 31 94 bd 77 0b 6c 3d 7d c2 73 3c
       0.28252083 -0.0723594 0.05762812 0.014877913
0000b0 c7 82 07 be 23 5b 23 bc 56 b7 be b9 b5 39 b2 bd
       -0.13233481 -0.009970459 -0.0003637622 -0.08702413
0000c0 86 81 42 bd 83 7f 2e 3e 3f 87 d4 bd a2 5a b3 be
       -0.047486804 0.1704083 -0.10377359 -0.35030085
0000d0 06 6f 09 3e a0 63 15 bd 2c 29 bf bd 0b 00 15 3c
       0.13421258 -0.036471963 -0.09334025 0.0090942485
0000e0 5a bb 20 3e b5 aa c4 3d ce c7 74 be 18 e8 3a 3c
       0.15696469 0.09602872 -0.23904344 0.0114078745
0000f0 cb 7c de bb e9 99 a6 3e c3 49 d1 3c bd 7f af 3d
       -0.006789779 0.325393 0.025547868 0.08569286
000100 04 8b 91 3d 37 4d 0d be 47 ea 06 3d 40 01 b1 bd
       0.07106593 -0.13798986 0.032938268 -0.086428165
000110 07 e1 eb 3b cf 8a 73 bc 3c d0 9a bd fb 56 b0 3b
       0.007198456 -0.0148646375 -0.07559249 0.0053814626
000120 84 7e 95 3b 54 5f a0 bc 4d e0 16 bc 7c 34 69 3a
       0.004562201 -0.019576706 -0.009208751 0.00088960654
000130 2d fe c0 b8 b9 80 e3 3c c1 d0 52 bd ec a0 f0 bc
       -9.2026174e-05 0.02777134 -0.051468614 -0.029373609
000140 d9 ab c8 3c b7 b7 70 be 8e 0e 28 3d 78 da 0b 3c
       0.024496006 -0.23507582 0.041029505 0.008535974
000150 c9 10 a7 ba 94 e5 b6 bd 00 4f 2a be 3a 4d 5b 3e
       -0.0012746091 -0.08930507 -0.16631699 0.21416178
000160 a9 c0 00 bc 24 54 f9 3a 2f 7f ec 3b a9 24 eb 3c
       -0.007858434 0.0019022268 0.00721731 0.028704004
000170 ba b4 17 3e e9 e0 ea bd 93 f1 08 bd 7e 6f 21 bd
       0.14815035 -0.114686795 -0.033433508 -0.039412968
000180 cb 18 45 bd 43 e5 1e 3d eb 3b 92 3d 1d 53 96 3e
       -0.048119348 0.03879286 0.07140335 0.29360285
000190 ac 3f b6 bc 23 d1 95 3b e6 c8 67 bc 9e ee 48 3e
       -0.022247158 0.00457205 -0.014147019 0.19622275
0001a0 09 89 05 3e 47 b5 38 bd db fa 85 bd 9f c7 13 bd
       0.13040556 -0.045094755 -0.065419875 -0.036079045
0001b0 1d 18 04 bd 6f ff b2 3b 91 82 43 3d f6 4e 75 3d
       -0.03224956 0.005462579 0.04773194 0.059889756
0001c0 55 56 f1 bc ea 7c 22 3d 40 13 a2 3c f3 46 9b 3c
       -0.029460112 0.03966991 0.01978457 0.01895473
0001d0 af 24 0a bb dd 12 c2 3c 5d bf 3e 3e f9 12 76 3d
       -0.0021078994 0.023690635 0.18627687 0.060076687
0001e0 a7 2a e9 3c 52 ef a9 3d d3 80 e3 bd fd 97 82 3d
       0.028462721 0.082976 -0.11108556 0.06376646
0001f0 1b 32 07 bd ac da 03 bd 6e 6f 89 be 93 7d 1a be
       -0.03300677 -0.032190964 -0.26842827 -0.15086965
000200 6f 97 9e bc 8b 6e cc bd dc 40 79 3d 60 3c f7 bc
       -0.019359319 -0.09982022 0.06085287 -0.030180156
000210 5b 52 a6 3d 99 ae 15 bd 79 d3 50 3c 88 a7 1b be
       0.08121177 -0.036543462 0.0127457315 -0.15200627
000220 f5 15 1e bd e1 65 21 3c b7 ac 21 bd 8b 47 24 be
       -0.03859516 0.00985095 -0.039471354 -0.16042916
000230 7c a2 3c 3e d8 7c 00 bc ce b0 c1 bd 22 37 30 3c
       0.18421358 -0.007842265 -0.09457551 0.010755332
000240 02 e0 a4 3c 27 77 5b bd ce 96 09 be 95 c7 8d bd
       0.020126346 -0.05358043 -0.13436434 -0.06922833
000250 74 1f 23 3d df 90 69 bd 56 ca a1 bc fc 50 dd bd
       0.039824918 -0.057022925 -0.019749802 -0.10806462
000260 17 aa 2c 3d b3 9e 94 bd ea 74 4f 3d 5a 72 c7 3a
       0.042154398 -0.07256832 0.050648607 0.0015216575
000270 a0 75 75 bd 1d e3 0f bd 67 db f2 3b 1a a2 89 3c
       -0.05992663 -0.0351287 0.0074114087 0.016800929
000280 7f 2c 98 bc bc f5 11 3d ea e3 83 3d a0 64 2b 3d
       -0.018575905 0.03563474 0.064399555 0.04184401
000290 34 97 28 3c d4 96 ad 3c 3c 38 63 bc b8 8d e1 3c
       0.010289956 0.021190085 -0.013868388 0.027533397
0002a0 84 39 fa bc 37 e2 04 3e 01 35 ad ba 33 86 02 3d
       -0.030545004 0.12976919 -0.0013214649 0.031866264
0002b0 7b 45 17 bd 60 2e 6a bc f7 c9 f7 ba 6c 86 59 bd
       -0.036931496 -0.014293283 -0.0018904795 -0.05310671
0002c0 7f b1 13 bc 12 25 bb 3c 30 16 98 bb 56 64 4e 3e
       -0.009014486 0.022844825 -0.004641317 0.20155463
0002d0 4d 0b 0c 3d 70 2a d9 3c 4c 55 6f 3d 4d dc 2a bb
       0.034190465 0.026509494 0.058430955 -0.002607125
0002e0 b4 31 38 3d 35 02 9b bc 89 96 9d bc cf c1 56 3e
       0.044969276 -0.01892195 -0.01923682 0.2097237
0002f0 a9 9b ae bd 00 4f a9 ba 20 35 bc bd 8f 4b e0 3d
       -0.085257836 -0.0012917221 -0.0918982 0.10951912
000300 c4 03 c6 3d c1 c5 f2 3b 41 34 97 bc 40 db 29 bd
       0.09668687 0.007408828 -0.018457534 -0.04146886
000310 28 6b aa ba e2 f8 14 bd ef 68 89 bd e9 ba f7 bc
       -0.0013001906 -0.036370166 -0.067094676 -0.030240493
000320 ee 73 40 bc d5 c0 a4 b9 20 51 a2 bd 8a 2a 82 be
       -0.01174639 -0.0003142419 -0.079256296 -0.2542308
000330 f0 ab de 3c f4 7f e7 3e 1f 6d 1c 3d ac b1 00 bd
       0.027181596 0.45214808 0.038190003 -0.03141944
000340 03 c1 f3 3d c1 42 e4 b9 eb a0 50 3c 3a 2b c0 3e
       0.119020484 -0.00043537284 0.012733678 0.3753298
000350 91 34 45 3d 13 6d b0 3d 90 12 b4 bc c2 bb 46 bc
       0.048145834 0.08614554 -0.021981508 -0.012129726
000360 92 b2 c4 bb 44 20 ed 3d 09 58 8c 3c 07 79 19 3d
       -0.0060027326 0.1157842 0.017131822 0.037468936
000370 77 3a 4c 3d 4b 88 e4 bd 9d fc 7c 3d d4 68 9a 3c
       0.049860444 -0.11158808 0.06176435 0.018848814
000380 b9 1b e2 3c be 4c af bb 65 2d d4 3d 7e 14 44 bd
       0.02760111 -0.0053497246 0.10360221 -0.047871105
000390 2e 28 6d be 2d db 82 3c f4 32 6f 3d 70 b2 cf 3c
       -0.23159859 0.015973652 0.058398202 0.02535364
0003a0 9e 47 65 bc 10 b0 29 3d 6a 5f 82 3e 7e 1a b2 3d
       -0.013994126 0.041427672 0.2546342 0.08696459
0003b0 53 ed 39 3e 9d 24 33 3e 3f ca 6e be df 53 5b 3c
       0.18156938 0.17494436 -0.23319338 0.013386696
0003c0 33 82 46 3b d9 ed 2a 3c fe 10 da 3c a3 b4 81 bd
       0.0030290007 0.010432684 0.02661943 -0.06333282
0003d0 87 47 82 bd 2c 90 e2 bc e9 55 08 be 2a 2c 63 3d
       -0.06361299 -0.027656637 -0.13314022 0.05546204
0003e0 8d da 00 bc 5a 28 68 3d 4e 92 11 3e 24 25 79 3d
       -0.007864607 0.056679107 0.14215967 0.060826436
0003f0 3f fe cb bd ae 40 06 bd 47 58 9c bb 66 46 9f bd
       -0.09960603 -0.032776527 -0.0047712657 -0.07777099

layer_list.conv2.att_src f4 [1, 1, 7]
000000 16 70 8e bd 7c da 28 3d 29 93 c9 3c a9 c2 e3 bd
       -0.069549724 0.041223988 0.024606304 -0.11121113
000010 5b 10 49 bd 8e 11 3c 3d 9b ad cf 3c
       -0.049087863 0.04591518 0.025351336

layer_list.conv2.att_dst f4 [1, 1, 7]
000000 4b 48 47 bd 94 39 b2 3e 23 0a 08 3f f9 12 95 be
       -0.04865293 0.34809554 0.5314047 -0.29116037
000010 f8 c7 ef 3d b0 c6 97 be 15 70 d7 3e
       0.11708063 -0.29643774 0.420777

layer_list.conv2.bias f4 [7]
000000 9d 46 34 be 6e a9 11 bf 90 5d 6b bd 6a 45 26 3f
       -0.17605062 -0.56899154 -0.057462275 0.6494967
000010 c6 d0 21 3c ee 1f 8d be 00 5d 1e bf
       0.009876436 -0.27563423 -0.61860657

layer_list.conv2.lin_src.weight f4 [7, 64]
000000 05 55 99 3f b6 e5 b2 3f 18 39 0c 3f 22 b1 60 bf
       1.1979071 1.3976352 0.5477462 -0.87770283
000010 59 f5 6e 3f 05 0a aa bf 3f 94 b1 3f 7d 02 ba 3f
       0.9334312 -1.3284308 1.3873366 1.4532009
000020 39 b7 b6 bf 70 e2 84 bf 64 39 b4 bf f3 c4 33 bf
       -1.4274665 -1.0381603 -1.4080014 -0.70222396
000030 63 2a 58 3f fc a8 bf 3e 2b f3 8e bf 4a a2 39 3f
       0.84439677 0.37433612 -1.1167959 0.7251326
000040 0e 64 b8 3f 78 15 a3 bf 88 47 a7 3f 4d 2e e1 3e
       1.4405534 -1.2740927 1.3068705 0.43980637
000050 c2 c4 9f 3f 16 0d a6 bf f2 53 82 3f 6e 04 58 3f
       1.2481921 -1.2972744 1.0181868 0.8438176
000060 97 61 8e 3f 3b e2 10 3f 2f 63 9b bf 6f 22 a2 3e
       1.1123532 0.565952 -1.2139643 0.31666896
000070 30 2d af 3e 4c e6 c0 bf d1 a4 8c bf 51 3d 9f 3f
       0.34214163 -1.5070281 -1.0987798 1.2440587
000080 8e d3 86 3f 8b 4f 33 3f 20 85 a8 3f 76 58 35 be
       1.0533311 0.7004325 1.3165627 -0.17709526
000090 fd de 55 3f b2 05 6a 3f 9f cb 97 bf 3c d4 b9 3f
       0.8354338 0.9141494 -1.1859015 1.4517894
0000a0 66 34 69 bf c2 c8 a3 3f 20 72 9d be 5e 0d a2 bf
       -0.9109558 1.2795641 -0.30751133 -1.2660329
0000b0 1a 48 37 3f 05 e5 9c bf 02 eb a7 3f 41 46 be 3f
       0.71594393 -1.2257391 1.3118594 1.486519
0000c0 1c 5e 49 bf 1d de a9 bf 9b 0c b0 3f c9 78 c2 be
       -0.78659225 -1.3270909 1.3753847 -0.37982777
0000d0 9e c9 85 3f 0c 6c a1 bf d4 1e 9e bf cf ba 99 bf
       1.0452154 -1.2611098 -1.2353158 -1.2010134
0000e0 dc 3c af 3f cb 27 96 3f c1 87 35 3f 97 70 aa 3f
       1.3690448 1.1730894 0.7091027 1.331561
0000f0 52 8a a0 3f df 45 25 bf f6 31 aa be 4b db 6f bf
       1.2542212 -0.6455974 -0.33241242 -0.9369399
000100 e3 f2 5a bf 9f c7 bc 3e 24 bf 92 bf 11 b3 a9 bf
       -0.85526866 0.3687105 -1.1464581 -1.3257772
000110 d4 ab 9b bf 60 75 85 be f9 ed b3 3f 6a 68 af bf
       -1.2161813 -0.26066113 1.4056998 -1.370374
000120 de 01 9a be ca 9b 44 3f 6e 5d 81 3f d9 70 8e 3f
       -0.3007955 0.76800215 1.0106637 1.1128188
000130 30 67 8f 3f 6d fa a0 3f bd 22 77 bf b7 98 97 3f
       1.1203365 1.2576424 -0.9653738 1.184348
000140 b5 a0 b1 bf 21 db 9c 3f b5 eb 85 bf 63 b1 c4 bf
       -1.3877169 1.2254373 -1.0462557 -1.5366634
000150 3c 0b ca bd 78 6d 97 3f a8 48 89 3f ac ea bd bf
       -0.09865424 1.1830282 1.0725298 -1.4837241
000160 02 84 c4 bf e1 fe 9d 3f 36 f7 83 3f 97 b3 94 3f
       -1.5352786 1.2343408 1.0309818 1.1617306
000170 27 26 b0 3f fb 5f 81 3f 87 45 37 3f 35 53 73 3f
       1.3761643 1.0107416 0.71590465 0.9504884
000180 5b a1 b3 bf ca de 14 bd a1 b9 3a 3f fa 58 cd bf
       -1.4033617 -0.03634528 0.729395 -1.6042778
000190 dd 91 83 bf 98 d8 80 bf 18 5e 2f bf d6 33 09 bf
       -1.0278889 -1.0066099 -0.6850295 -0.5359472
0001a0 91 2d 96 3d 0e 1f 70 bf bc c8 c8 be 69 c5 a8 bf
       0.0733291 -0.93797386 -0.39215648 -1.3185245
0001b0 5b 10 52 be be 17 90 bf a1 82 8a bf d9 c3 ba bf
       -0.20514052 -1.1257246 -1.0821115 -1.4591018
0001c0 1e 96 b2 bf 5d 1f 68 3e 47 a2 67 bf 2b 49 15 bf
       -1.3952062 0.22668214 -0.9048199 -0.5831477
0001d0 78 2f 95 bf d3 2c 87 bf 3e 9a 83 3f 1e fd be bf
       -1.1655111 -1.0560554 1.0281446 -1.4920995
0001e0 f9 9d 69 3f 5f e3 c5 bf 9a 28 97 bf 20 8b 9a 3f
       0.9125667 -1.5460013 -1.1809266 1.2073708
0001f0 ce 66 ae bf 29 0b 82 bf eb 82 b6 3f bc f3 bc 3f
       -1.3625124 -1.0159656 1.4258703 1.4761882
000200 fb 5d 6c 3f ec 02 af bf f9 97 83 bf e4 45 44 3f
       0.923309 -1.3672767 -1.0280753 0.76669145
000210 cb 52 54 3f 9b f1 aa bf 5d 66 a0 bf fe 66 e6 be
       0.8293883 -1.3354982 -1.2531239 -0.45000452
000220 8c 2f 0c ba 37 75 94 3f c7 fb 94 3f e9 2e a8 3f
       -0.0005347661 1.1598271 1.1639336 1.3139316
000230 19 08 ab bf 63 73 9b bf 38 b1 9c 3f 50 65 06 bf
       -1.3361846 -1.2144588 1.2241583 -0.5249834
000240 e2 f4 98 bf 6f 38 88 bf ee 20 94 bf 1f 74 76 bf
       -1.1949732 -1.0642222 -1.1572549 -0.96270937
000250 27 79 88 bf e8 40 83 3f 66 ad 8d bf 4a dd 97 3f
       -1.0661973 1.0254183 -1.1068542 1.1864407
000260 c8 5b 99 bf 06 81 8b bf d1 ee 5e bf bf 14 91 bf
       -1.1981134 -1.089875 -0.87083155 -1.1334456
000270 a5 75 69 3f 3d 10 86 3f 48 ed 45 3f 41 90 8b bf
       0.91195136 1.0473706 0.7731519 -1.0903398
000280 5e 54 97 3f f9 4a eb be 23 03 8c bf db 7c 8d bf
       1.1822622 -0.45955637 -1.0938457 -1.1053728
000290 79 b6 97 3f d9 56 90 3f 05 5b 92 bf 33 a2 92 3f
       1.1852561 1.1276504 -1.1434027 1.1455749
0002a0 f8 d2 82 bf 0e 9d 8d bf 48 64 99 bf 14 73 86 bf
       -1.0220633 -1.1063554 -1.1983728 -1.0503869
0002b0 b8 7c a9 bf 14 7c 67 3f 84 59 5f 3f a1 18 6d 3f
       -1.3241186 0.90423703 0.87245965 0.92615706
0002c0 3b 5f 8e bf 0c 5e 82 3f 9e 33 86 bf 67 c2 90 3f
       -1.1122812 1.0184951 -1.0484502 1.1309327
0002d0 1f b5 33 bf e7 ce 9b 3f ae 7c 99 3f 5c 9a 86 bf
       -0.70198244 1.2172517 1.1991174 -1.0515857
0002e0 f9 62 4b 3f 80 76 6c 3f e0 d4 73 3f 26 20 73 3f
       0.79447895 0.92368317 0.95246696 0.9497093
0002f0 9e 56 ab bf fe 7a 98 3f ef 8c 8a 3f 42 5b 0b 3f
       -1.3385808 1.1912534 1.082426 0.54436123
000300 ea ad 2e be df 76 a6 bf c6 01 47 3f 40 a1 75 3f
       -0.1705853 -1.3005027 0.7773708 0.9594917
000310 04 87 b3 bf 10 83 fc be 3a ef b5 bf 5c cb ae bf
       -1.4025578 -0.49318743 -1.4213631 -1.365581
000320 70 ab a7 3f e0 8e 8b bf 04 54 90 3f f3 bb a3 3e
       1.3099194 -1.0902977 1.127564 0.3197933
000330 13 05 f4 be 93 64 a5 3f cf 0e af 3f 0a 8a 93 bf
       -0.4766012 1.2921318 1.3676394 -1.1526501
000340 39 60 91 bf 31 3c 83 3f f1 b8 84 3f 9d 32 3f 3f
       -1.135749 1.0252744 1.036894 0.74686605
000350 62 48 98 bf 68 ec af bf 05 44 a6 3f 06 f2 88 3f
       -1.189709 -1.374402 1.2989508 1.069886
000360 5e c9 bd 3f 46 6d 5a 3f ae 62 a1 bf 47 aa ad 3f
       1.4827077 0.8532299 -1.260824 1.356759
000370 d9 26 7b bf 4e fb 64 bf db dc 64 bf 38 25 a3 bf
       -0.9810615 -0.8944596 -0.893995 -1.2745733
000380 31 c1 6b bf 9e 8a 79 bf 41 45 95 3f a6 b2 42 3f
       -0.9209166 -0.9747714 1.166176 0.76053846
000390 c6 fc 08 bf d8 5c a2 3f 45 92 bd 3f 0c dd 3f bf
       -0.535107 1.2684584 1.4810263 -0.74946666
0003a0 8c c5 65 3f 7d ae 82 bf 8e b1 9b 3f 9b 3b 97 3f
       0.8975456 -1.02095 1.216356 1.1815065
0003b0 26 b0 9e 3f 02 a0 48 bf 25 6b 9d 3f 49 62 35 3f
       1.2397506 -0.7836915 1.2298323 0.70853096
0003c0 8a dc 89 3f df c0 6c bf 69 89 54 3f 09 13 00 3f
       1.0770428 -0.924818 0.8302217 0.50029045
0003d0 9b 59 8a 3f 32 40 b3 3f 6f 68 78 3f b3 ee 70 3f
       1.0808595 1.4003966 0.97034353 0.94114226
0003e0 96 c3 94 bf 7d 01 b5 bf 52 53 a4 bf 9f c7 a8 bf
       -1.1622188 -1.4141079 -1.2837927 -1.318592
0003f0 9f e0 ae bf 97 c4 ca be b1 04 b4 bf 3e f3 d3 be
       -1.3662299 -0.3960311 -1.4063932 -0.41396517

layer_list.conv2.lin_dst.weight f4 [7, 64]
000000 05 55 99 3f b6 e5 b2 3f 18 39 0c 3f 22 b1 60 bf
       1.1979071 1.3976352 0.5477462 -0.87770283
000010 59 f5 6e 3f 05 0a aa bf 3f 94 b1 3f 7d 02 ba 3f
       0.9334312 -1.3284308 1.3873366 1.4532009
000020 39 b7 b6 bf 70 e2 84 bf 64 39 b4 bf f3 c4 33 bf
       -1.4274665 -1.0381603 -1.4080014 -0.70222396
000030 63 2a 58 3f fc a8 bf 3e 2b f3 8e bf 4a a2 39 3f
       0.84439677 0.37433612 -1.1167959 0.7251326
000040 0e 64 b8 3f 78 15 a3 bf 88 47 a7 3f 4d 2e e1 3e
       1.4405534 -1.2740927 1.3068705 0.43980637
000050 c2 c4 9f 3f 16 0d a6 bf f2 53 82 3f 6e 04 58 3f
       1.2481921 -1.2972744 1.0181868 0.8438176
000060 97 61 8e 3f 3b e2 10 3f 2f 63 9b bf 6f 22 a2 3e
       1.1123532 0.565952 -1.2139643 0.31666896
000070 30 2d af 3e 4c e6 c0 bf d1 a4 8c bf 51 3d 9f 3f
       0.34214163 -1.5070281 -1.0987798 1.2440587
000080 8e d3 86 3f 8b 4f 33 3f 20 85 a8 3f 76 58 35 be
       1.0533311 0.7004325 1.3165627 -0.17709526
000090 fd de 55 3f b2 05 6a 3f 9f cb 97 bf 3c d4 b9 3f
       0.8354338 0.9141494 -1.1859015 1.4517894
0000a0 66 34 69 bf c2 c8 a3 3f 20 72 9d be 5e 0d a2 bf
       -0.9109558 1.2795641 -0.30751133 -1.2660329
0000b0 1a 48 37 3f 05 e5 9c bf 02 eb a7 3f 41 46 be 3f
       0.71594393 -1.2257391 1.3118594 1.486519
0000c0 1c 5e 49 bf 1d de a9 bf 9b 0c b0 3f c9 78 c2 be
       -0.78659225 -1.3270909 1.3753847 -0.37982777
0000d0 9e c9 85 3f 0c 6c a1 bf d4 1e 9e bf cf ba 99 bf
       1.0452154 -1.2611098 -1.2353158 -1.2010134
0000e0 dc 3c af 3f cb 27 96 3f c1 87 35 3f 97 70 aa 3f
       1.3690448 1.1730894 0.7091027 1.331561
0000f0 52 8a a0 3f df 45 25 bf f6 31 aa be 4b db 6f bf
       1.2542212 -0.6455974 -0.33241242 -0.9369399
000100 e3 f2 5a bf 9f c7 bc 3e 24 bf 92 bf 11 b3 a9 bf
       -0.85526866 0.3687105 -1.1464581 -1.3257772
000110 d4 ab 9b bf 60 75 85 be f9 ed b3 3f 6a 68 af bf
       -1.2161813 -0.26066113 1.4056998 -1.370374
000120 de 01 9a be ca 9b 44 3f 6e 5d 81 3f d9 70 8e 3f
       -0.3007955 0.76800215 1.0106637 1.1128188
000130 30 67 8f 3f 6d fa a0 3f bd 22 77 bf b7 98 97 3f
       1.1203365 1.2576424 -0.9653738 1.184348
000140 b5 a0 b1 bf 21 db 9c 3f b5 eb 85 bf 63 b1 c4 bf
       -1.3877169 1.2254373 -1.0462557 -1.5366634
000150 3c 0b ca bd 78 6d 97 3f a8 48 89 3f ac ea bd bf
       -0.09865424 1.1830282 1.0725298 -1.4837241
000160 02 84 c4 bf e1 fe 9d 3f 36 f7 83 3f 97 b3 94 3f
       -1.5352786 1.2343408 1.0309818 1.1617306
000170 27 26 b0 3f fb 5f 81 3f 87 45 37 3f 35 53 73 3f
       1.3761643 1.0107416 0.71590465 0.9504884
000180 5b a1 b3 bf ca de 14 bd a1 b9 3a 3f fa 58 cd bf
       -1.4033617 -0.03634528 0.729395 -1.6042778
000190 dd 91 83 bf 98 d8 80 bf 18 5e 2f bf d6 33 09 bf
       -1.0278889 -1.0066099 -0.6850295 -0.5359472
0001a0 91 2d 96 3d 0e 1f 70 bf bc c8 c8 be 69 c5 a8 bf
       0.0733291 -0.93797386 -0.39215648 -1.3185245
0001b0 5b 10 52 be be 17 90 bf a1 82 8a bf d9 c3 ba bf
       -0.20514052 -1.1257246 -1.0821115 -1.4591018
0001c0 1e 96 b2 bf 5d 1f 68 3e 47 a2 67 bf 2b 49 15 bf
       -1.3952062 0.22668214 -0.9048199 -0.5831477
0001d0 78 2f 95 bf d3 2c 87 bf 3e 9a 83 3f 1e fd be bf
       -1.1655111 -1.0560554 1.0281446 -1.4920995
0001e0 f9 9d 69 3f 5f e3 c5 bf 9a 28 97 bf 20 8b 9a 3f
       0.9125667 -1.5460013 -1.1809266 1.2073708
0001f0 ce 66 ae bf 29 0b 82 bf eb 82 b6 3f bc f3 bc 3f
       -1.3625124 -1.0159656 1.4258703 1.4761882
000200 fb 5d 6c 3f ec 02 af bf f9 97 83 bf e4 45 44 3f
       0.923309 -1.3672767 -1.0280753 0.76669145
000210 cb 52 54 3f 9b f1 aa bf 5d 66 a0 bf fe 66 e6 be
       0.8293883 -1.3354982 -1.2531239 -0.45000452
000220 8c 2f 0c ba 37 75 94 3f c7 fb 94 3f e9 2e a8 3f
       -0.0005347661 1.1598271 1.1639336 1.3139316
000230 19 08 ab bf 63 73 9b bf 38 b1 9c 3f 50 65 06 bf
       -1.3361846 -1.2144588 1.2241583 -0.5249834
000240 e2 f4 98 bf 6f 38 88 bf ee 20 94 bf 1f 74 76 bf
       -1.1949732 -1.0642222 -1.1572549 -0.96270937
000250 27 79 88 bf e8 40 83 3f 66 ad 8d bf 4a dd 97 3f
       -1.0661973 1.0254183 -1.1068542 1.1864407
000260 c8 5b 99 bf 06 81 8b bf d1 ee 5e bf bf 14 91 bf
       -1.1981134 -1.089875 -0.87083155 -1.1334456
000270 a5 75 69 3f 3d 10 86 3f 48 ed 45 3f 41 90 8b bf
       0.91195136 1.0473706 0.7731519 -1.0903398
000280 5e 54 97 3f f9 4a eb be 23 03 8c bf db 7c 8d bf
       1.1822622 -0.45955637 -1.0938457 -1.1053728
000290 79 b6 97 3f d9 56 90 3f 05 5b 92 bf 33 a2 92 3f
       1.1852561 1.1276504 -1.1434027 1.1455749
0002a0 f8 d2 82 bf 0e 9d 8d bf 48 64 99 bf 14 73 86 bf
       -1.0220633 -1.1063554 -1.1983728 -1.0503869
0002b0 b8 7c a9 bf 14 7c 67 3f 84 59 5f 3f a1 18 6d 3f
       -1.3241186 0.90423703 0.87245965 0.92615706
0002c0 3b 5f 8e bf 0c 5e 82 3f 9e 33 86 bf 67 c2 90 3f
       -1.1122812 1.0184951 -1.0484502 1.1309327
0002d0 1f b5 33 bf e7 ce 9b 3f ae 7c 99 3f 5c 9a 86 bf
       -0.70198244 1.2172517 1.1991174 -1.0515857
0002e0 f9 62 4b 3f 80 76 6c 3f e0 d4 73 3f 26 20 73 3f
       0.79447895 0.92368317 0.95246696 0.9497093
0002f0 9e 56 ab bf fe 7a 98 3f ef 8c 8a 3f 42 5b 0b 3f
       -1.3385808 1.1912534 1.082426 0.54436123
000300 ea ad 2e be df 76 a6 bf c6 01 47 3f 40 a1 75 3f
       -0.1705853 -1.3005027 0.7773708 0.9594917
000310 04 87 b3 bf 10 83 fc be 3a ef b5 bf 5c cb ae bf
       -1.4025578 -0.49318743 -1.4213631 -1.365581
000320 70 ab a7 3f e0 8e 8b bf 04 54 90 3f f3 bb a3 3e
       1.3099194 -1.0902977 1.127564 0.3197933
000330 13 05 f4 be 93 64 a5 3f cf 0e af 3f 0a 8a 93 bf
       -0.4766012 1.2921318 1.3676394 -1.1526501
000340 39 60 91 bf 31 3c 83 3f f1 b8 84 3f 9d 32 3f 3f
       -1.135749 1.0252744 1.036894 0.74686605
000350 62 48 98 bf 68 ec af bf 05 44 a6 3f 06 f2 88 3f
       -1.189709 -1.374402 1.2989508 1.069886
000360 5e c9 bd 3f 46 6d 5a 3f ae 62 a1 bf 47 aa ad 3f
       1.4827077 0.8532299 -1.260824 1.356759
000370 d9 26 7b bf 4e fb 64 bf db dc 64 bf 38 25 a3 bf
       -0.9810615 -0.8944596 -0.893995 -1.2745733
000380 31 c1 6b bf 9e 8a 79 bf 41 45 95 3f a6 b2 42 3f
       -0.9209166 -0.9747714 1.166176 0.76053846
000390 c6 fc 08 bf d8 5c a2 3f 45 92 bd 3f 0c dd 3f bf
       -0.535107 1.2684584 1.4810263 -0.74946666
0003a0 8c c5 65 3f 7d ae 82 bf 8e b1 9b 3f 9b 3b 97 3f
       0.8975456 -1.02095 1.216356 1.1815065
0003b0 26 b0 9e 3f 02 a0 48 bf 25 6b 9d 3f 49 62 35 3f
       1.2397506 -0.7836915 1.2298323 0.70853096
0003c0 8a dc 89 3f df c0 6c bf 69 89 54 3f 09 13 00 3f
       1.0770428 -0.924818 0.8302217 0.50029045
0003d0 9b 59 8a 3f 32 40 b3 3f 6f 68 78 3f b3 ee 70 3f
       1.0808595 1.4003966 0.97034353 0.94114226
0003e0 96 c3 94 bf 7d 01 b5 bf 52 53 a4 bf 9f c7 a8 bf
       -1.1622188 -1.4141079 -1.2837927 -1.318592
0003f0 9f e0 ae bf 97 c4 ca be b1 04 b4 bf 3e f3 d3 be
       -1.3662299 -0.3960311 -1.4063932 -0.41396517
