vanilla_models/Cora/5_3f_85/split1/init0/GAT_dp0_5_5e_4_f0.pt (torch, 372919 bytes, 10 tensors)

layer_list.conv1.att_src f4 [1, 8, 8]
000000 1f d1 d9 bc fe e8 ca be 58 54 f7 3e 3f 72 0b bc
       -0.026588975 -0.39630884 0.48306537 -0.008511125
000010 ab 31 30 3d 71 45 f0 3e b5 ea e9 be 22 57 e6 3e
       0.043016117 0.4692798 -0.4568688 0.44988352
000020 9d 91 b3 3e e5 40 18 bf 08 78 ae be 5d 6f 05 bf
       0.35072032 -0.5947402 -0.34075952 -0.5212305
000030 46 81 0b 3f b2 f6 fe 3e 0a f2 af bd 93 54 b6 3e
       0.5449413 0.4979759 -0.08591087 0.356114
000040 47 af 17 3e af af ff 3d 30 72 78 3d 83 89 4e 3e
       0.14812957 0.12484681 0.060655773 0.20169644
000050 c2 e2 19 3f f2 9f 5a bd 44 52 14 bf a3 e4 48 be
       0.6011163 -0.053375192 -0.5793803 -0.19618468
000060 44 b3 ed bd c7 b0 94 be af 05 c6 3e d8 b7 0a bf
       -0.11606458 -0.2904112 0.3867621 -0.54186773
000070 23 2e e7 3e 5f 7a f9 3e 1a 50 12 3f 6b be 5e bd
       0.45152387 0.48726174 0.57153475 -0.054380815
000080 c3 54 bc 3e 9b 58 00 3e d4 d3 06 3e bc fd de 3e
       0.36783418 0.125338 0.13166744 0.4355296
000090 99 ba eb 3e 0e 2f 2a 3d a1 81 fc be 0f f0 53 3e
       0.460408 0.04154878 -0.4931765 0.20697044
0000a0 5d 0c 11 3f 78 24 2b be 51 9c fb be 95 53 01 bf
       0.5665949 -0.1671313 -0.49142697 -0.5051816
0000b0 3c 7a c6 be cf c0 02 bf a4 6e 24 be 28 2a be 3e
       -0.38765132 -0.5107545 -0.16057831 0.37141538
0000c0 66 23 16 bf 38 e0 f2 be 26 e4 2a 3e 2b d7 08 3f
       -0.58647764 -0.4743669 0.16688594 0.5345332
0000d0 80 f5 f7 3e 4f 8d 09 bf 6c 1a f4 be 66 68 2d bb
       0.4842949 -0.53731245 -0.47676408 -0.0026459931
0000e0 40 bc dc 3e ce 78 20 3f 3c a3 e3 3e 84 b5 16 3f
       0.43112373 0.62684333 0.44460475 0.5887072
0000f0 88 07 64 be 22 44 44 3f 41 5f a6 3e 0a f5 f3 be
       -0.22268498 0.7666646 0.32494548 -0.47647887

layer_list.conv1.att_dst f4 [1, 8, 8]
000000 bb fb 52 bd a5 90 8e bd 6e d9 8b 3d 57 03 61 3d
       -0.0515096 -0.069611825 0.06828581 0.054934826
000010 7a 1f 98 3d 4b 63 2e 3e 33 e9 20 bd 60 5b 03 3e
       0.07427879 0.17030065 -0.039284896 0.12827826
000020 2f 44 b5 3d 07 04 17 be f6 81 bc bd f9 f8 35 be
       0.088508956 -0.1474763 -0.092044756 -0.17770757
000030 65 89 68 bc f9 db 2c 3c 5d 8c 4e bd 9f 8f 01 3d
       -0.014192914 0.010550492 -0.05042683 0.03163111
000040 e0 c3 7b bd cc ca 13 bd 69 03 91 bd 8b 7f 34 3e
       -0.061466098 -0.036082074 -0.070807286 0.17626779
000050 78 57 a7 3d 6e 18 d0 bd f9 3e 23 be 00 a6 d6 bd
       0.0817098 -0.101609096 -0.15941991 -0.10480881
000060 44 be 02 be d6 a6 3d bd 62 c7 75 3d a4 e3 4a 3c
       -0.12767893 -0.046301685 0.0600046 0.012383375
000070 82 cd 19 3d 21 6f af 3d c6 21 27 3d 39 37 ac 3d
       0.037549503 0.08566118 0.040803693 0.084089704
000080 d8 11 3a 3e 33 a8 c9 3c 44 9f 45 3d 2d c5 88 bd
       0.1817087 0.024616336 0.04824759 -0.06678233
000090 3f d7 20 3e 59 ab d8 3d 8d 1c 05 be 05 25 68 3d
       0.1570711 0.10579557 -0.12999173 0.05667593
0000a0 75 1b ec 3d 4e 78 62 bd 89 3d 16 bd 8d a1 c7 bd
       0.115286745 -0.055290513 -0.03667978 -0.0974761
0000b0 c5 f3 0c be 39 43 38 be eb 51 a5 3b 1c 80 81 bd
       -0.13764866 -0.17994393 0.005045166 -0.06323263
0000c0 2f c5 d9 bd ef f0 5a bd c6 5e bf 3c 1d 64 1d 3e
       -0.10633313 -0.05345243 0.023360621 0.15370221
0000d0 4e ca b5 3d ba 7a 68 be c3 22 46 be 96 1f 1e bd
       0.08876477 -0.22703066 -0.19349198 -0.03860434
0000e0 64 e1 94 bd 66 30 16 3e fa 96 b9 3d 6a 04 17 3d
       -0.07269552 0.146669 0.090619996 0.036869444
0000f0 d1 0d 12 3e 0c 4a 41 3e d1 aa 0e 3e 70 c1 de bd
       0.14263083 0.18875903 0.13932349 -0.10876739

layer_list.conv1.bias f4 [64]
000000 15 d9 22 3d 17 65 9b bc 0d 22 fe bc 8d 7c 8c 3c
       0.039757807 -0.018969102 -0.031022096 0.017149234
000010 89 46 01 bd e4 49 aa 3c 08 c5 62 3a 7b fd 30 3d
       -0.03156141 0.020787187 0.0008650576 0.043210488
000020 0c f0 16 bd 06 72 84 3d d3 94 46 3c 0b 0b ce 3d
       -0.03685002 0.06467061 0.012120443 0.100607
000030 45 63 97 ba d7 f8 50 3d 15 db c6 3c f9 b3 76 bc
       -0.001154997 0.051018562 0.024274388 -0.015057557
000040 43 2d d5 3c b1 18 8c 3c 8c 9a 14 3d 53 e9 07 bd
       0.026022559 0.017101618 0.0362802 -0.0331815
000050 26 f1 69 3d 61 2e a5 bc 21 27 fc bc 2c c0 1c 3d
       0.057114743 -0.020163717 -0.030780377 0.038269207
000060 a6 88 3b 3d c7 0d bd 3a b4 d7 57 3d fb fd fa ba
       0.045784615 0.0014423662 0.052695945 -0.0019149178
000070 e1 df 03 3c b2 47 56 bc 98 d3 c4 3c 15 29 1e 3b
       0.008048982 -0.013078617 0.024026677 0.0024133374
000080 88 1d bc bb 54 81 c3 3c af a0 9a 3c 5f 3b 7f 3b
       -0.005740825 0.02386538 0.018875448 0.00389453
000090 99 ee 4b bc ed 58 c6 3c 4b ed 88 3d 69 99 d6 ba
       -0.012447023 0.024212325 0.06685885 -0.0016372624
0000a0 60 5a d9 3c 71 32 04 3d 87 e1 82 3d 0a 26 81 3b
       0.026532352 0.032274667 0.06390672 0.003941302
0000b0 c8 69 83 3d 4a 4e 54 3d e3 f1 c5 3d e9 90 fa 3b
       0.064166605 0.051832475 0.09665277 0.007646669
0000c0 0b ed 70 bc 48 d3 c3 bb 4d 24 c6 3c c1 f3 50 3d
       -0.014704953 -0.0059761144 0.024187231 0.05101371
0000d0 cb c8 5a bb cf f8 44 3b 40 83 ca ba b1 e3 33 bd
       -0.0033383842 0.0030055528 -0.0015450493 -0.043918315
0000e0 14 10 f7 3c 59 a9 15 3d 56 f9 a7 bb 15 18 e9 bc
       0.030159034 0.036538456 -0.0051261587 -0.028453866
0000f0 1b 84 2c 3d 25 60 8c 3c 8a e9 8c 3c a3 c4 b5 3c
       0.042118173 0.017135689 0.017201204 0.02218849

layer_list.conv1.lin_src.weight f4 [64, 1433]
000000 a4 73 a3 bd b7 99 82 bd 8f 8a a5 bd c9 21 17 bb
       -0.07981041 -0.06376975 -0.080830686 -0.002306091
000010 e3 9f af 3e 20 3e 1c bd 23 64 18 be af 68 08 be
       0.3430167 -0.038145185 -0.14881949 -0.13321184
000020 6c 53 a4 bb 65 7e 10 3c ec b3 bd bc aa 5f 1f bc
       -0.0050148275 0.008819197 -0.023157082 -0.009727398
000030 7a df 34 3e 74 14 f0 bc 4d 96 0d 3c bc 46 e6 bc
       0.17663375 -0.029306628 0.0086417915 -0.0281099
000040 a0 de 09 be 96 08 7e 3c c3 c2 a9 bd db db 0d bf
       -0.13463831 0.015504977 -0.08289101 -0.554136
000050 0d 59 72 bc 43 91 9a bd ab 1e 9d bc 71 57 11 3e
       -0.014791739 -0.07547238 -0.019179663 0.14193512
000060 6a db dc 3b 3a 0c 53 3c f0 01 37 bd 3f 0e 11 3d
       0.0067400234 0.012881333 -0.044679582 0.035413977
000070 6c 96 96 bb db a0 d4 3d 4f 4c a5 3d 13 16 88 bc
       -0.0045955684 0.10382243 0.08071195 -0.016612088
000080 56 93 10 3c c5 a8 e6 3b c1 fe 26 bb fc 18 e3 bd
       0.00882419 0.007039162 -0.0025481435 -0.1108875
000090 58 2e 3c bd 74 be 0e 3d db e1 d2 be 39 9e 39 be
       -0.045942634 0.0348496 -0.4118794 -0.18126763
0000a0 8e 5c cb 3e fe 57 79 3c bd a6 1e bd 6d 26 0e 3c
       0.3971905 0.015218733 -0.038733233 0.008676154
0000b0 35 2c 06 be 46 88 61 3d ca 66 97 ba 84 37 e1 3d
       -0.13102801 0.0550616 -0.0011551019 0.10996917
0000c0 bf 2f 92 3d be 6d 00 3e 9f 9d aa 3d 71 6e ad be
       0.07138013 0.12541863 0.08330845 -0.33873323
0000d0 7c 35 6a 3e 81 3e 9b 3c f7 ea c7 bb 43 f7 61 bc
       0.22871965 0.018950703 -0.006101008 -0.013791862
0000e0 8e 6c 2b 3e 38 42 3e 3d 99 32 d4 bd 4b 4e 9b bd
       0.16740629 0.04644987 -0.10361213 -0.075832926
0000f0 d5 47 b2 3c 9f 7c a2 3c 36 4e b9 3c ef be 7d bd
       0.021762768 0.019834815 0.022620302 -0.061949667
000100 0f 4a 3e 3c 1f 12 bf bd 0d 70 9d bc b5 41 9d bc
       0.011614337 -0.09329628 -0.019218469 -0.01919637
000110 f1 8a 31 3d 5e 6a 55 b7 90 dd 44 3d 6b c5 bc 3d
       0.043345395 -1.2720555e-05 0.04806286 0.09217342
000120 94 f5 57 3d ac 84 02 3d a8 d3 30 3d 0b b7 83 3d
       0.052724436 0.031864807 0.0431706 0.06431397
000130 d9 29 bd 3d 38 f3 f8 bc f6 40 03 3e ca a9 e9 3c
       0.092364974 -0.030389413 0.1281775 0.028523345
000140 35 5c d7 bd 0e 23 40 3d e5 81 3c 3d 75 88 17 3d
       -0.10515634 0.04690843 0.046022315 0.03699537
000150 0e c4 8d 3d 1a 2a 1f 3d 09 a5 80 bd 4e b9 84 3e
       0.0692216 0.03885851 -0.06281478 0.25922626
000160 11 ac 03 3e e2 6a 2c be 70 b5 78 ba 53 9a 8a 3d
       0.12858607 -0.16837648 -0.00094874855 0.06767716
000170 04 ee 6e bd 05 17 b9 3d 1a 86 90 3d 7a c7 2a bd
       -0.05833246 0.09037594 0.07056828 -0.041694142
000180 7d 80 d4 3d a0 34 ba bd 15 e5 89 3d f0 76 98 be
       0.1037607 -0.09092069 0.06733147 -0.29778242
000190 42 e4 86 bc 9a e3 a0 bc fd cb 18 3d c6 4c dc bc
       -0.016466264 -0.019639779 0.037303913 -0.026892077
0001a0 96 8f 26 3e 99 20 b1 bc a0 63 06 3e 0a d4 7f 3c
       0.16265711 -0.02162199 0.13123941 0.015614519
0001b0 ee b2 d9 3d 9c fb b0 3c d0 f0 89 3d f7 c5 4a bd
       0.10629831 0.021604352 0.067353845 -0.0495052
0001c0 3f ab 2c 3d 69 af 50 bc d1 1f 24 bc c8 74 29 bd
       0.0421555 -0.012737134 -0.010017351 -0.041371137
0001d0 1c d3 61 3d 12 e3 7c 3c 33 55 22 be 82 73 be 3c
       0.05513297 0.015434997 -0.15852813 0.023248438
0001e0 7e 1d 9c 3d 82 ab a8 bc f0 4a 87 bc fe f1 aa 3a
       0.07622813 -0.020589594 -0.016515225 0.001304209
0001f0 10 a3 5d bc df 38 98 3d 5f 2d 5b bd 30 a2 29 bd
       -0.013527647 0.07432722 -0.053510066 -0.04141444
000200 4f ab 09 3d 1e 40 90 bd 2e 0d e7 bd bf cf 39 bd
       0.03361064 -0.070434794 -0.11281811 -0.045364138
000210 79 be d1 3d b0 03 b5 3d b2 02 47 bd 90 83 85 3d
       0.10241408 0.08838594 -0.048586555 0.06519234
000220 4b 77 ac 3c 41 ed 06 3c d9 d9 e9 bc 88 f2 d7 bb
       0.021052977 0.008235277 -0.02854626 -0.0065901913
000230 6b 57 a8 be 60 40 07 3b 95 3d 62 3c b3 fc 2c 3c
       -0.32879195 0.0020637736 0.013808628 0.010558295
000240 ff 69 58 bd fe 4b 05 bd 98 36 1e bd be af 25 3d
       -0.05283546 -0.032543175 -0.038626283 0.040450804
000250 ab 2c 70 b9 69 40 3c be fe dd a0 3d 8b 1b e0 bd
       -0.00022904824 -0.18383946 0.07854842 -0.109427534
000260 98 74 ba bc e3 77 3f ba 76 f0 72 bd a2 8a 61 3d
       -0.022760674 -0.0007303936 -0.059311353 0.05506385
000270 f6 a1 58 3d 94 aa 84 3c 54 d2 9c bc bb 28 d0 bb
       0.052888833 0.01619462 -0.019143261 -0.0063525117
000280 e2 e3 25 bb 4b dd de 3c dd 25 ae 3d bc 58 93 bd
       -0.002531283 0.02720513 0.085033156 -0.07194659
000290 cc b7 6d bd 3a 44 17 bc 7a 96 f7 bc f8 19 be 3d
       -0.05803661 -0.009232575 -0.03022312 0.09282297
0002a0 f8 f6 16 be 9f 44 0a 3e 81 8d 5b 3c 3b 40 50 bc
       -0.14742649 0.1350274 0.013400436 -0.012710626
0002b0 92 dc 24 39 18 86 f4 3d 85 98 55 3d d7 c3 0c 3d
       0.00015722428 0.11939639 0.052147407 0.034366455
0002c0 05 5f e0 3c ae 9f ab 3d 6b 6c 4e bd 36 c7 2e 3e
       0.027389059 0.08380066 -0.050396364 0.1706818
0002d0 05 0f cd 3d 29 29 24 bb ed 02 e1 3c 10 da 39 3d
       0.100126304 -0.0025048947 0.027467215 0.045373976
0002e0 3a e5 90 3b 6c a5 2e bb 42 66 0a 3e df a5 77 be
       0.004421857 -0.0026648892 0.13515571 -0.24184369
0002f0 b4 59 de 3c 35 61 0a 3c f5 33 94 3a 1a e4 03 3d
       0.027142383 0.0084460275 0.0011306988 0.032199956
000300 c6 57 13 3e 50 0a 69 bc 9f 30 63 bd f7 3f 8f bd
       0.14388952 -0.01422365 -0.05546629 -0.06994622
000310 8d b2 12 be ee d6 21 bd 67 10 f2 bc 58 46 75 bc
       -0.14325924 -0.039511614 -0.029548837 -0.014970385
000320 93 c3 93 3d 7d 1b 5a 3c 8a fb 86 3e 52 0f b6 bd
       0.07215037 0.013312218 0.26363784 -0.08889641
000330 1d 1d bf 3c 0d 97 72 3e 94 e6 f5 bc ad 86 96 bc
       0.023329312 0.23690434 -0.030017175 -0.018374765
000340 e1 d5 ff bc 68 aa 12 bd 33 0e d9 3d b2 3b 8c 3d
       -0.031229915 -0.035807043 0.105984114 0.068473235
000350 1f 18 0c bd f0 bd 74 bd e3 c2 78 bc bf 3f 8b 3d
       -0.03420269 -0.05975145 -0.015183183 0.06799268
000360 91 c9 eb 3c 31 18 92 3d 7d f8 02 3b 14 af 6e bc
       0.028782638 0.071335204 0.0019984536 -0.014568109
000370 81 fe 48 bc 21 d2 d8 3d 17 89 3b bd 3d 64 d6 bb
       -0.01226771 0.10586954 -0.045785036 -0.006542711
000380 85 6f 53 3d 61 02 59 bc b9 56 12 3e a1 aa 00 be
       0.051620025 -0.013245196 0.14290895 -0.1256509
000390 ab 4c 27 bd 2b 60 32 3d 97 b1 09 3c 53 76 7f 3e
       -0.0408446 0.043548744 0.008404157 0.24947481
0003a0 56 23 78 3c 72 33 bf 3d c0 4d a0 3e 8c 1a 18 bd
       0.0151451435 0.09335984 0.3130932 -0.037134692
0003b0 bc 1a 0f 3e 22 d7 c7 3d 98 b6 07 3e 09 d8 9a 3d
       0.13975042 0.0975783 0.13253248 0.07560737
0003c0 0a 06 cd bd 92 35 2d 3b 9b 86 00 3d 40 82 43 3d
       -0.100109175 0.0026429635 0.03137837 0.047731638
0003d0 13 08 b1 3c d7 d0 6a 3d 08 9e b4 bd d5 6e ff 3d
       0.021610295 0.05732807 -0.088192046 0.124723114
0003e0 a0 bd 25 3d dc e8 95 bb 2b c8 24 be c9 4d 2a bd
       0.040464044 -0.004574878 -0.16091983 -0.041578088
0003f0 4f 2a bf 3b 90 87 9a 3b 29 86 6c 3c 0f bb cf 3d
       0.005833901 0.0047158673 0.014436283 0.101431005

layer_list.conv1.lin_dst.weight f4 [64, 1433]
000000 a4 73 a3 bd b7 99 82 bd 8f 8a a5 bd c9 21 17 bb
       -0.07981041 -0.06376975 -0.080830686 -0.002306091
000010 e3 9f af 3e 20 3e 1c bd 23 64 18 be af 68 08 be
       0.3430167 -0.038145185 -0.14881949 -0.13321184
000020 6c 53 a4 bb 65 7e 10 3c ec b3 bd bc aa 5f 1f bc
       -0.0050148275 0.008819197 -0.023157082 -0.009727398
000030 7a df 34 3e 74 14 f0 bc 4d 96 0d 3c bc 46 e6 bc
       0.17663375 -0.029306628 0.0086417915 -0.0281099
000040 a0 de 09 be 96 08 7e 3c c3 c2 a9 bd db db 0d bf
       -0.13463831 0.015504977 -0.08289101 -0.554136
000050 0d 59 72 bc 43 91 9a bd ab 1e 9d bc 71 57 11 3e
       -0.014791739 -0.07547238 -0.019179663 0.14193512
000060 6a db dc 3b 3a 0c 53 3c f0 01 37 bd 3f 0e 11 3d
       0.0067400234 0.012881333 -0.044679582 0.035413977
000070 6c 96 96 bb db a0 d4 3d 4f 4c a5 3d 13 16 88 bc
       -0.0045955684 0.10382243 0.08071195 -0.016612088
000080 56 93 10 3c c5 a8 e6 3b c1 fe 26 bb fc 18 e3 bd
       0.00882419 0.007039162 -0.0025481435 -0.1108875
000090 58 2e 3c bd 74 be 0e 3d db e1 d2 be 39 9e 39 be
       -0.045942634 0.0348496 -0.4118794 -0.18126763
0000a0 8e 5c cb 3e fe 57 79 3c bd a6 1e bd 6d 26 0e 3c
       0.3971905 0.015218733 -0.038733233 0.008676154
0000b0 35 2c 06 be 46 88 61 3d ca 66 97 ba 84 37 e1 3d
       -0.13102801 0.0550616 -0.0011551019 0.10996917
0000c0 bf 2f 92 3d be 6d 00 3e 9f 9d aa 3d 71 6e ad be
       0.07138013 0.12541863 0.08330845 -0.33873323
0000d0 7c 35 6a 3e 81 3e 9b 3c f7 ea c7 bb 43 f7 61 bc
       0.22871965 0.018950703 -0.006101008 -0.013791862
0000e0 8e 6c 2b 3e 38 42 3e 3d 99 32 d4 bd 4b 4e 9b bd
       0.16740629 0.04644987 -0.10361213 -0.075832926
0000f0 d5 47 b2 3c 9f 7c a2 3c 36 4e b9 3c ef be 7d bd
       0.021762768 0.019834815 0.022620302 -0.061949667
000100 0f 4a 3e 3c 1f 12 bf bd 0d 70 9d bc b5 41 9d bc
       0.011614337 -0.09329628 -0.019218469 -0.01919637
000110 f1 8a 31 3d 5e 6a 55 b7 90 dd 44 3d 6b c5 bc 3d
       0.043345395 -1.2720555e-05 0.04806286 0.09217342
000120 94 f5 57 3d ac 84 02 3d a8 d3 30 3d 0b b7 83 3d
       0.052724436 0.031864807 0.0431706 0.06431397
000130 d9 29 bd 3d 38 f3 f8 bc f6 40 03 3e ca a9 e9 3c
       0.092364974 -0.030389413 0.1281775 0.028523345
000140 35 5c d7 bd 0e 23 40 3d e5 81 3c 3d 75 88 17 3d
       -0.10515634 0.04690843 0.046022315 0.03699537
000150 0e c4 8d 3d 1a 2a 1f 3d 09 a5 80 bd 4e b9 84 3e
       0.0692216 0.03885851 -0.06281478 0.25922626
000160 11 ac 03 3e e2 6a 2c be 70 b5 78 ba 53 9a 8a 3d
       0.12858607 -0.16837648 -0.00094874855 0.06767716
000170 04 ee 6e bd 05 17 b9 3d 1a 86 90 3d 7a c7 2a bd
       -0.05833246 0.09037594 0.07056828 -0.041694142
000180 7d 80 d4 3d a0 34 ba bd 15 e5 89 3d f0 76 98 be
       0.1037607 -0.09092069 0.06733147 -0.29778242
000190 42 e4 86 bc 9a e3 a0 bc fd cb 18 3d c6 4c dc bc
       -0.016466264 -0.019639779 0.037303913 -0.026892077
0001a0 96 8f 26 3e 99 20 b1 bc a0 63 06 3e 0a d4 7f 3c
       0.16265711 -0.02162199 0.13123941 0.015614519
0001b0 ee b2 d9 3d 9c fb b0 3c d0 f0 89 3d f7 c5 4a bd
       0.10629831 0.021604352 0.067353845 -0.0495052
0001c0 3f ab 2c 3d 69 af 50 bc d1 1f 24 bc c8 74 29 bd
       0.0421555 -0.012737134 -0.010017351 -0.041371137
0001d0 1c d3 61 3d 12 e3 7c 3c 33 55 22 be 82 73 be 3c
       0.05513297 0.015434997 -0.15852813 0.023248438
0001e0 7e 1d 9c 3d 82 ab a8 bc f0 4a 87 bc fe f1 aa 3a
       0.07622813 -0.020589594 -0.016515225 0.001304209
0001f0 10 a3 5d bc df 38 98 3d 5f 2d 5b bd 30 a2 29 bd
       -0.013527647 0.07432722 -0.053510066 -0.04141444
000200 4f ab 09 3d 1e 40 90 bd 2e 0d e7 bd bf cf 39 bd
       0.03361064 -0.070434794 -0.11281811 -0.045364138
000210 79 be d1 3d b0 03 b5 3d b2 02 47 bd 90 83 85 3d
       0.10241408 0.08838594 -0.048586555 0.06519234
000220 4b 77 ac 3c 41 ed 06 3c d9 d9 e9 bc 88 f2 d7 bb
       0.021052977 0.008235277 -0.02854626 -0.0065901913
000230 6b 57 a8 be 60 40 07 3b 95 3d 62 3c b3 fc 2c 3c
       -0.32879195 0.0020637736 0.013808628 0.010558295
000240 ff 69 58 bd fe 4b 05 bd 98 36 1e bd be af 25 3d
       -0.05283546 -0.032543175 -0.038626283 0.040450804
000250 ab 2c 70 b9 69 40 3c be fe dd a0 3d 8b 1b e0 bd
       -0.00022904824 -0.18383946 0.07854842 -0.109427534
000260 98 74 ba bc e3 77 3f ba 76 f0 72 bd a2 8a 61 3d
       -0.022760674 -0.0007303936 -0.059311353 0.05506385
000270 f6 a1 58 3d 94 aa 84 3c 54 d2 9c bc bb 28 d0 bb
       0.052888833 0.01619462 -0.019143261 -0.0063525117
000280 e2 e3 25 bb 4b dd de 3c dd 25 ae 3d bc 58 93 bd
       -0.002531283 0.02720513 0.085033156 -0.07194659
000290 cc b7 6d bd 3a 44 17 bc 7a 96 f7 bc f8 19 be 3d
       -0.05803661 -0.009232575 -0.03022312 0.09282297
0002a0 f8 f6 16 be 9f 44 0a 3e 81 8d 5b 3c 3b 40 50 bc
       -0.14742649 0.1350274 0.013400436 -0.012710626
0002b0 92 dc 24 39 18 86 f4 3d 85 98 55 3d d7 c3 0c 3d
       0.00015722428 0.11939639 0.052147407 0.034366455
0002c0 05 5f e0 3c ae 9f ab 3d 6b 6c 4e bd 36 c7 2e 3e
       0.027389059 0.08380066 -0.050396364 0.1706818
0002d0 05 0f cd 3d 29 29 24 bb ed 02 e1 3c 10 da 39 3d
       0.100126304 -0.0025048947 0.027467215 0.045373976
0002e0 3a e5 90 3b 6c a5 2e bb 42 66 0a 3e df a5 77 be
       0.004421857 -0.0026648892 0.13515571 -0.24184369
0002f0 b4 59 de 3c 35 61 0a 3c f5 33 94 3a 1a e4 03 3d
       0.027142383 0.0084460275 0.0011306988 0.032199956
000300 c6 57 13 3e 50 0a 69 bc 9f 30 63 bd f7 3f 8f bd
       0.14388952 -0.01422365 -0.05546629 -0.06994622
000310 8d b2 12 be ee d6 21 bd 67 10 f2 bc 58 46 75 bc
       -0.14325924 -0.039511614 -0.029548837 -0.014970385
000320 93 c3 93 3d 7d 1b 5a 3c 8a fb 86 3e 52 0f b6 bd
       0.07215037 0.013312218 0.26363784 -0.08889641
000330 1d 1d bf 3c 0d 97 72 3e 94 e6 f5 bc ad 86 96 bc
       0.023329312 0.23690434 -0.030017175 -0.018374765
000340 e1 d5 ff bc 68 aa 12 bd 33 0e d9 3d b2 3b 8c 3d
       -0.031229915 -0.035807043 0.105984114 0.068473235
000350 1f 18 0c bd f0 bd 74 bd e3 c2 78 bc bf 3f 8b 3d
       -0.03420269 -0.05975145 -0.015183183 0.06799268
000360 91 c9 eb 3c 31 18 92 3d 7d f8 02 3b 14 af 6e bc
       0.028782638 0.071335204 0.0019984536 -0.014568109
000370 81 fe 48 bc 21 d2 d8 3d 17 89 3b bd 3d 64 d6 bb
       -0.01226771 0.10586954 -0.045785036 -0.006542711
000380 85 6f 53 3d 61 02 59 bc b9 56 12 3e a1 aa 00 be
       0.051620025 -0.013245196 0.14290895 -0.1256509
000390 ab 4c 27 bd 2b 60 32 3d 97 b1 09 3c 53 76 7f 3e
       -0.0408446 0.043548744 0.008404157 0.24947481
0003a0 56 23 78 3c 72 33 bf 3d c0 4d a0 3e 8c 1a 18 bd
       0.0151451435 0.09335984 0.3130932 -0.037134692
0003b0 bc 1a 0f 3e 22 d7 c7 3d 98 b6 07 3e 09 d8 9a 3d
       0.13975042 0.0975783 0.13253248 0.07560737
0003c0 0a 06 cd bd 92 35 2d 3b 9b 86 00 3d 40 82 43 3d
       -0.100109175 0.0026429635 0.03137837 0.047731638
0003d0 13 08 b1 3c d7 d0 6a 3d 08 9e b4 bd d5 6e ff 3d
       0.021610295 0.05732807 -0.088192046 0.124723114
0003e0 a0 bd 25 3d dc e8 95 bb 2b c8 24 be c9 4d 2a bd
       0.040464044 -0.004574878 -0.16091983 -0.041578088
0003f0 4f 2a bf 3b 90 87 9a 3b 29 86 6c 3c 0f bb cf 3d
       0.005833901 0.0047158673 0.014436283 0.101431005

layer_list.conv2.att_src f4 [1, 1, 7]
000000 94 3d 1a 3f 29 26 07 3f d1 b4 60 be f2 2c bc 3e
       0.6025021 0.527926 -0.21943976 0.3675304
000010 4a 3e c2 3e 7e 33 0e 3f 94 c7 71 be
       0.37938148 0.5554732 -0.2361129

layer_list.conv2.att_dst f4 [1, 1, 7]
000000 0a 23 0f 3f 67 38 b2 3e b7 19 37 be 58 4b 30 bc
       0.5591284 0.34808657 -0.17880903 -0.010760151
000010 fe 5b c3 3e 9c 71 eb 3e 9f 49 2f bb
       0.38156122 0.45985115 -0.0026746762

layer_list.conv2.bias f4 [7]
000000 8d 00 17 be 0f 79 ac be 29 5e 05 be 33 ac b3 3e
       -0.14746304 -0.3368611 -0.130242 0.35092315
000010 41 ef 04 3d 65 5d 72 be 7e a4 a3 be
       0.032454733 -0.2366844 -0.31961435

layer_list.conv2.lin_src.weight f4 [7, 64]
000000 4d b6 13 3f 79 84 ae be 57 d5 29 bf ef 02 06 3e
       0.57700044 -0.34085444 -0.66341156 0.13087057
000010 25 0c d1 be 20 6b 3a bf 0f eb d0 be f2 d0 a8 be
       -0.40829578 -0.7281971 -0.40804335 -0.32971913
000020 80 cd ce be fa 9f cb 3e 40 e1 3a 3f 7d 5c 10 3f
       -0.4039116 0.3977049 0.72999954 0.56391126
000030 00 21 3f 3f 8f c5 56 3e 8f e1 ea 3e 23 f3 41 3f
       0.7465973 0.209738 0.45875213 0.7576162
000040 67 7d 50 bf 63 b6 22 bf da 90 35 3f a7 90 3a 3f
       -0.8144135 -0.6355955 0.7092415 0.7287697
000050 f2 4b ef 3e 95 35 2b 3f f9 c0 28 bf 0b 3b 20 bf
       0.4673763 0.66878635 -0.6591945 -0.6259009
000060 5f 2a 29 bf f7 68 8d be 0a e1 a3 bd 58 73 8f 3e
       -0.6608028 -0.27619144 -0.08001907 0.28017688
000070 af 7c 97 3e 92 c7 1c 3f da ea 70 3c e5 23 1d 3f
       0.29587314 0.6124202 0.0147044305 0.61382896
000080 b9 b1 52 bf ec 94 c7 3e 5c 20 f6 be 3a 81 67 3e
       -0.82302433 0.38980806 -0.48071563 0.2260789
000090 9a c2 1a 3e 58 92 00 3d d7 8e bb 3e 4c c3 23 3f
       0.15113297 0.031389564 0.36632416 0.63969874
0000a0 fc 7c c8 be 7f b3 0e bf 85 e4 f4 be 9c 79 1c 3f
       -0.39157856 -0.5574264 -0.47830597 0.6112306
0000b0 d3 df 1a bf 43 0f 96 be cd 16 27 bf 01 d2 03 3e
       -0.6049778 -0.2930852 -0.65269166 0.12873079
0000c0 50 93 14 3e 82 53 94 3e 1b 31 48 3f e4 bd e7 be
       0.1450932 0.2896996 0.7819993 -0.45262063
0000d0 6d a9 20 bf 6b 3b 29 3f be 3f 26 3f 6a 37 47 3f
       -0.62758523 0.6610629 0.6494101 0.7781893
0000e0 73 8f 0f 3f e1 ab 42 bf ab c2 4d bf 29 89 b4 3e
       0.5607826 -0.76043516 -0.80375165 0.35260895
0000f0 4d 9e 8a be aa 49 35 bf 2e 32 17 bf 17 b9 ef be
       -0.270739 -0.7081553 -0.59060943 -0.468209
000100 2f 27 58 bf ae 2b 31 3e ed 0f c5 3e d2 e3 46 3f
       -0.8443479 0.17301819 0.38488713 0.77691376
000110 96 09 25 bf c2 43 ef 3c de e1 49 3f b2 44 cf bd
       -0.6446775 0.029207114 0.7886027 -0.101205245
000120 db 5e a3 3d 96 2a 1b bf fc 4d 24 3f 26 f2 f1 be
       0.079770766 -0.60611856 0.64181495 -0.47255057
000130 75 24 01 bf 11 99 50 be fa 78 b7 3e 53 10 fa 3e
       -0.50446254 -0.2037089 0.35834485 0.4884058
000140 bd a4 3a bf 97 0a f8 3e 28 61 2a bf 20 b9 0f bf
       -0.7290762 0.4844558 -0.665545 -0.56141853
000150 c1 54 30 be 47 8a 8a be f1 a6 11 3f 6c a2 1e 3f
       -0.17219831 -0.27058622 0.5689536 0.61966586
000160 b5 94 5a 3f 6c bc 1e 3f f2 71 21 bf 7b 5c bd bd
       0.8538316 0.6200626 -0.6306449 -0.09246155
000170 27 af 0f 3f 03 b1 49 3f 1e 5a e7 3e e3 01 0d be
       0.56126636 0.78785723 0.4518594 -0.13770251
000180 80 27 29 3f 49 a9 22 bf 12 96 1c bf a2 96 3a 3f
       0.660759 -0.6353956 -0.6116649 0.728861
000190 fd f8 ec bd 13 87 f6 3b 5f 6b 40 be 49 33 a3 be
       -0.11570928 0.0075234263 -0.18790959 -0.31875065
0001a0 1d 8d e8 3e 81 0c 26 3f cc d9 c1 3e 72 61 44 3f
       0.4542016 0.6486283 0.37861478 0.7671119
0001b0 1e b9 d6 3d c8 91 87 bd 06 d1 31 bf f3 9d 06 bf
       0.10484527 -0.066196024 -0.6945957 -0.5258476
0001c0 c7 80 e2 3e 4b ec f9 3e cb 91 e8 be e5 80 f2 be
       0.44238874 0.4881309 -0.4542373 -0.47363964
0001d0 3c f3 36 bf 69 f4 23 3e a0 11 79 3e b4 a2 96 be
       -0.71464896 0.16011204 0.2432313 -0.29421008
0001e0 b3 da 49 bf 5f dd 3c 3f 27 b8 e0 be 94 0d 2f 3f
       -0.78849334 0.73775285 -0.43890497 0.68380094
0001f0 61 70 45 3f 2f aa 3d 3e e4 07 fe 3e 19 bc 17 bf
       0.771246 0.18521951 0.49615395 -0.5927139
000200 fc 59 2e bf f7 94 2e bf 0e ac 4b 3f 84 98 13 3e
       -0.68106055 -0.6819605 0.7955941 0.14413649
000210 9e e7 29 3f a3 fb 0f 3f c3 ab 17 bf d8 f9 45 3f
       0.66369045 0.5624334 -0.5924646 0.77334356
000220 36 9f e5 3e 71 4c 3b bf bf 57 40 bf 44 2d 0c bf
       0.4484803 -0.73163515 -0.7513389 -0.5475657
000230 18 f8 24 3f 14 27 ec 3e 41 bf f9 be d2 bf 08 3f
       0.6444106 0.46123564 -0.48778728 0.53417695
000240 49 1e 12 3f 64 3c 3a bf cf 4d 4c 3f 00 a3 20 bf
       0.5707746 -0.727484 0.79806226 -0.6274872
000250 2b 18 0e bf a9 ec cf be cd f5 28 3f 6b 6b 21 3f
       -0.5550563 -0.40610245 0.6600006 0.6305453
000260 ab 2c 29 bf ec 37 28 bf b2 f9 8a 3e 73 1c 43 bf
       -0.6608378 -0.6571033 0.27143627 -0.76215285
000270 3f 64 ea 3e a7 a9 0b 3f cf 6f 27 3f ae 33 16 bf
       0.45779607 0.54555744 0.6540498 -0.58672607
000280 8f 70 3b 3f 19 68 b0 3e 64 f0 24 3f a5 9a 1a 3f
       0.73218626 0.3445442 0.64429307 0.6039222
000290 8f 63 46 3f d2 ed 45 3f 68 d6 6e be ad e6 3d 3f
       0.77495664 0.7731601 -0.23323977 0.7418011
0002a0 ba 87 3e 3f b4 27 2b bf 3a e4 26 bf cb 41 f3 be
       0.7442585 -0.6685746 -0.65191996 -0.47511134
0002b0 75 ce cb be 66 5d c5 be 04 32 46 be 54 0b 35 3f
       -0.39805952 -0.3854782 -0.19355017 0.7072041
0002c0 33 96 45 bf 40 e5 23 bf e7 fd 2d 3f 30 5d fe 3d
       -0.7718231 -0.6402168 0.6796555 0.12420118
0002d0 fc aa 12 3f db f3 1d bf 89 e9 1d bf e5 9f 2d 3f
       0.5729215 -0.6170022 -0.6168447 0.67822105
0002e0 7a d0 3a 3f 1d 89 36 3f 44 f2 ec 3e 8d 4d 24 3f
       0.7297436 0.7130297 0.46278584 0.64180833
0002f0 4e e2 20 bf a1 5b 4f 3f 1e 1e 55 3f 0e d5 32 bf
       -0.62845314 0.8099919 0.8324908 -0.69856346
000300 9d a8 db 3d a7 dd 1e bf 72 ea 21 bf a4 ad ec be
       0.1072552 -0.62056965 -0.6324836 -0.46226227
000310 dd 67 92 be b4 b0 07 3e 4f dc 01 bf cd 1f 27 bf
       -0.28594866 0.13251 -0.5072679 -0.652829
000320 65 f7 09 bd a3 bd 32 3f 9d 14 0b bf 7b 17 37 3f
       -0.0336832 0.6982061 -0.5432833 0.71520203
000330 8f 70 4a bf 4d 2b b0 3e d9 d2 0b bf 0b 8d 25 bf
       -0.79078 0.34408036 -0.54618603 -0.6466834
000340 c5 48 4a 3e 8f 40 b8 bd 4b 55 fc 3e 3f 41 34 bf
       0.19754322 -0.089966886 0.49283823 -0.7041206
000350 2d bb 0a 3f fb 30 20 bf 1d e6 06 bf 59 10 2f 3f
       0.5419186 -0.6257474 -0.52694875 0.6838432
000360 41 41 ce 3e 55 2d 0a bf 5d a7 fb 3e 7b bf 1b bf
       0.4028416 -0.5397542 0.49151126 -0.6083905
000370 ee 0b 41 bf 0a c5 1f bf 59 18 2b bf e6 b9 d8 be
       -0.7540883 -0.6241003 -0.66834027 -0.4232933
000380 18 b9 3e be fb 51 51 3e dc 93 13 bf 71 87 28 bf
       -0.18625295 0.2044143 -0.5764749 -0.6583167
000390 f4 f7 1d bf ac 64 ce 3e 67 09 38 3f 39 69 20 bf
       -0.6170647 0.40311182 0.71889347 -0.6266056
0003a0 04 9f 14 3f 69 39 f2 3e bb 98 27 be 50 7d bf be
       0.5805514 0.47309425 -0.16366856 -0.37400293
0003b0 12 1f 4a 3f b5 24 a9 be b7 16 23 3f ed e1 ec be
       0.7895366 -0.33035818 0.63706535 -0.46266118
0003c0 be a4 2f bf 17 42 1d bf 7f 7c 17 bf fa b7 07 3f
       -0.6861075 -0.6142897 -0.5917434 0.530151
0003d0 ad 36 b8 be 9d ae ea be 3f 6b 1c bf 0e 03 2e bf
       -0.35979214 -0.45836344 -0.61101145 -0.6797341
0003e0 10 45 16 bf 95 c5 12 3f df 65 f5 3e ef b3 17 bf
       -0.5869913 0.57332736 0.47929284 -0.5925893
0003f0 cd 0c 01 3f 49 70 26 be 3a f4 01 3f 25 f9 8c 3d
       0.5041016 -0.16253771 0.50763285 0.06883458

layer_list.conv2.lin_dst.weight f4 [7, 64]
000000 4d b6 13 3f 79 84 ae be 57 d5 29 bf ef 02 06 3e
       0.57700044 -0.34085444 -0.66341156 0.13087057
000010 25 0c d1 be 20 6b 3a bf 0f eb d0 be f2 d0 a8 be
       -0.40829578 -0.7281971 -0.40804335 -0.32971913
000020 80 cd ce be fa 9f cb 3e 40 e1 3a 3f 7d 5c 10 3f
       -0.4039116 0.3977049 0.72999954 0.56391126
000030 00 21 3f 3f 8f c5 56 3e 8f e1 ea 3e 23 f3 41 3f
       0.7465973 0.209738 0.45875213 0.7576162
000040 67 7d 50 bf 63 b6 22 bf da 90 35 3f a7 90 3a 3f
       -0.8144135 -0.6355955 0.7092415 0.7287697
000050 f2 4b ef 3e 95 35 2b 3f f9 c0 28 bf 0b 3b 20 bf
       0.4673763 0.66878635 -0.6591945 -0.6259009
000060 5f 2a 29 bf f7 68 8d be 0a e1 a3 bd 58 73 8f 3e
       -0.6608028 -0.27619144 -0.08001907 0.28017688
000070 af 7c 97 3e 92 c7 1c 3f da ea 70 3c e5 23 1d 3f
       0.29587314 0.6124202 0.0147044305 0.61382896
000080 b9 b1 52 bf ec 94 c7 3e 5c 20 f6 be 3a 81 67 3e
       -0.82302433 0.38980806 -0.48071563 0.2260789
000090 9a c2 1a 3e 58 92 00 3d d7 8e bb 3e 4c c3 23 3f
       0.15113297 0.031389564 0.36632416 0.63969874
0000a0 fc 7c c8 be 7f b3 0e bf 85 e4 f4 be 9c 79 1c 3f
       -0.39157856 -0.5574264 -0.47830597 0.6112306
0000b0 d3 df 1a bf 43 0f 96 be cd 16 27 bf 01 d2 03 3e
       -0.6049778 -0.2930852 -0.65269166 0.12873079
0000c0 50 93 14 3e 82 53 94 3e 1b 31 48 3f e4 bd e7 be
       0.1450932 0.2896996 0.7819993 -0.45262063
0000d0 6d a9 20 bf 6b 3b 29 3f be 3f 26 3f 6a 37 47 3f
       -0.62758523 0.6610629 0.6494101 0.7781893
0000e0 73 8f 0f 3f e1 ab 42 bf ab c2 4d bf 29 89 b4 3e
       0.5607826 -0.76043516 -0.80375165 0.35260895
0000f0 4d 9e 8a be aa 49 35 bf 2e 32 17 bf 17 b9 ef be
       -0.270739 -0.7081553 -0.59060943 -0.468209
000100 2f 27 58 bf ae 2b 31 3e ed 0f c5 3e d2 e3 46 3f
       -0.8443479 0.17301819 0.38488713 0.77691376
000110 96 09 25 bf c2 43 ef 3c de e1 49 3f b2 44 cf bd
       -0.6446775 0.029207114 0.7886027 -0.101205245
000120 db 5e a3 3d 96 2a 1b bf fc 4d 24 3f 26 f2 f1 be
       0.079770766 -0.60611856 0.64181495 -0.47255057
000130 75 24 01 bf 11 99 50 be fa 78 b7 3e 53 10 fa 3e
       -0.50446254 -0.2037089 0.35834485 0.4884058
000140 bd a4 3a bf 97 0a f8 3e 28 61 2a bf 20 b9 0f bf
       -0.7290762 0.4844558 -0.665545 -0.56141853
000150 c1 54 30 be 47 8a 8a be f1 a6 11 3f 6c a2 1e 3f
       -0.17219831 -0.27058622 0.5689536 0.61966586
000160 b5 94 5a 3f 6c bc 1e 3f f2 71 21 bf 7b 5c bd bd
       0.8538316 0.6200626 -0.6306449 -0.09246155
000170 27 af 0f 3f 03 b1 49 3f 1e 5a e7 3e e3 01 0d be
       0.56126636 0.78785723 0.4518594 -0.13770251
000180 80 27 29 3f 49 a9 22 bf 12 96 1c bf a2 96 3a 3f
       0.660759 -0.6353956 -0.6116649 0.728861
000190 fd f8 ec bd 13 87 f6 3b 5f 6b 40 be 49 33 a3 be
       -0.11570928 0.0075234263 -0.18790959 -0.31875065
0001a0 1d 8d e8 3e 81 0c 26 3f cc d9 c1 3e 72 61 44 3f
       0.4542016 0.6486283 0.37861478 0.7671119
0001b0 1e b9 d6 3d c8 91 87 bd 06 d1 31 bf f3 9d 06 bf
       0.10484527 -0.066196024 -0.6945957 -0.5258476
0001c0 c7 80 e2 3e 4b ec f9 3e cb 91 e8 be e5 80 f2 be
       0.44238874 0.4881309 -0.4542373 -0.47363964
0001d0 3c f3 36 bf 69 f4 23 3e a0 11 79 3e b4 a2 96 be
       -0.71464896 0.16011204 0.2432313 -0.29421008
0001e0 b3 da 49 bf 5f dd 3c 3f 27 b8 e0 be 94 0d 2f 3f
       -0.78849334 0.73775285 -0.43890497 0.68380094
0001f0 61 70 45 3f 2f aa 3d 3e e4 07 fe 3e 19 bc 17 bf
       0.771246 0.18521951 0.49615395 -0.5927139
000200 fc 59 2e bf f7 94 2e bf 0e ac 4b 3f 84 98 13 3e
       -0.68106055 -0.6819605 0.7955941 0.14413649
000210 9e e7 29 3f a3 fb 0f 3f c3 ab 17 bf d8 f9 45 3f
       0.66369045 0.5624334 -0.5924646 0.77334356
000220 36 9f e5 3e 71 4c 3b bf bf 57 40 bf 44 2d 0c bf
       0.4484803 -0.73163515 -0.7513389 -0.5475657
000230 18 f8 24 3f 14 27 ec 3e 41 bf f9 be d2 bf 08 3f
       0.6444106 0.46123564 -0.48778728 0.53417695
000240 49 1e 12 3f 64 3c 3a bf cf 4d 4c 3f 00 a3 20 bf
       0.5707746 -0.727484 0.79806226 -0.6274872
000250 2b 18 0e bf a9 ec cf be cd f5 28 3f 6b 6b 21 3f
       -0.5550563 -0.40610245 0.6600006 0.6305453
000260 ab 2c 29 bf ec 37 28 bf b2 f9 8a 3e 73 1c 43 bf
       -0.6608378 -0.6571033 0.27143627 -0.76215285
000270 3f 64 ea 3e a7 a9 0b 3f cf 6f 27 3f ae 33 16 bf
       0.45779607 0.54555744 0.6540498 -0.58672607
000280 8f 70 3b 3f 19 68 b0 3e 64 f0 24 3f a5 9a 1a 3f
       0.73218626 0.3445442 0.64429307 0.6039222
000290 8f 63 46 3f d2 ed 45 3f 68 d6 6e be ad e6 3d 3f
       0.77495664 0.7731601 -0.23323977 0.7418011
0002a0 ba 87 3e 3f b4 27 2b bf 3a e4 26 bf cb 41 f3 be
       0.7442585 -0.6685746 -0.65191996 -0.47511134
0002b0 75 ce cb be 66 5d c5 be 04 32 46 be 54 0b 35 3f
       -0.39805952 -0.3854782 -0.19355017 0.7072041
0002c0 33 96 45 bf 40 e5 23 bf e7 fd 2d 3f 30 5d fe 3d
       -0.7718231 -0.6402168 0.6796555 0.12420118
0002d0 fc aa 12 3f db f3 1d bf 89 e9 1d bf e5 9f 2d 3f
       0.5729215 -0.6170022 -0.6168447 0.67822105
0002e0 7a d0 3a 3f 1d 89 36 3f 44 f2 ec 3e 8d 4d 24 3f
       0.7297436 0.7130297 0.46278584 0.64180833
0002f0 4e e2 20 bf a1 5b 4f 3f 1e 1e 55 3f 0e d5 32 bf
       -0.62845314 0.8099919 0.8324908 -0.69856346
000300 9d a8 db 3d a7 dd 1e bf 72 ea 21 bf a4 ad ec be
       0.1072552 -0.62056965 -0.6324836 -0.46226227
000310 dd 67 92 be b4 b0 07 3e 4f dc 01 bf cd 1f 27 bf
       -0.28594866 0.13251 -0.5072679 -0.652829
000320 65 f7 09 bd a3 bd 32 3f 9d 14 0b bf 7b 17 37 3f
       -0.0336832 0.6982061 -0.5432833 0.71520203
000330 8f 70 4a bf 4d 2b b0 3e d9 d2 0b bf 0b 8d 25 bf
       -0.79078 0.34408036 -0.54618603 -0.6466834
000340 c5 48 4a 3e 8f 40 b8 bd 4b 55 fc 3e 3f 41 34 bf
       0.19754322 -0.089966886 0.49283823 -0.7041206
000350 2d bb 0a 3f fb 30 20 bf 1d e6 06 bf 59 10 2f 3f
       0.5419186 -0.6257474 -0.52694875 0.6838432
000360 41 41 ce 3e 55 2d 0a bf 5d a7 fb 3e 7b bf 1b bf
       0.4028416 -0.5397542 0.49151126 -0.6083905
000370 ee 0b 41 bf 0a c5 1f bf 59 18 2b bf e6 b9 d8 be
       -0.7540883 -0.6241003 -0.66834027 -0.4232933
000380 18 b9 3e be fb 51 51 3e dc 93 13 bf 71 87 28 bf
       -0.18625295 0.2044143 -0.5764749 -0.6583167
000390 f4 f7 1d bf ac 64 ce 3e 67 09 38 3f 39 69 20 bf
       -0.6170647 0.40311182 0.71889347 -0.6266056
0003a0 04 9f 14 3f 69 39 f2 3e bb 98 27 be 50 7d bf be
       0.5805514 0.47309425 -0.16366856 -0.37400293
0003b0 12 1f 4a 3f b5 24 a9 be b7 16 23 3f ed e1 ec be
       0.7895366 -0.33035818 0.63706535 -0.46266118
0003c0 be a4 2f bf 17 42 1d bf 7f 7c 17 bf fa b7 07 3f
       -0.6861075 -0.6142897 -0.5917434 0.530151
0003d0 ad 36 b8 be 9d ae ea be 3f 6b 1c bf 0e 03 2e bf
       -0.35979214 -0.45836344 -0.61101145 -0.6797341
0003e0 10 45 16 bf 95 c5 12 3f df 65 f5 3e ef b3 17 bf
       -0.5869913 0.57332736 0.47929284 -0.5925893
0003f0 cd 0c 01 3f 49 70 26 be 3a f4 01 3f 25 f9 8c 3d
       0.5041016 -0.16253771 0.50763285 0.06883458
