vanilla_models/Cora/5_3f_85/split2/init2/GAT_dp0_5_5e_4_f2.pt (torch, 372919 bytes, 10 tensors)

layer_list.conv1.att_src f4 [1, 8, 8]
00000000: 167c 043f f551 0bbf 8b00 30bf 1cd6 e2be
00000010: 8ec7 0c3f 6c89 08bf b142 463e c1dd c3be
00000020: 0c13 1abf 4b27 21bf 6faf abbe 51ba b63e
00000030: c8eb 1bbf 8056 1f3f 6f4f 3fbe ecaa cabe
00000040: 8c3f b7bd e298 433f 94bf e23e 49fa 07bf
00000050: 7b61 183f b946 253f 7780 1c3f 18ad e4bd
00000060: ec3c f73d 76d5 123f 08dc 3ebf 1c50 b1be
00000070: a9d2 09bf 22c1 7fbe 3f2a 0abf 4e09 f83e
00000080: 19d5 99be 4f7c abbe 3ea0 6e3d f4d6 adbe
00000090: c379 b5be f7a0 393e f438 193d 410f d53d
000000a0: 2c2b 223f 2151 01bc 3f79 f53e d25d 29bf
000000b0: 4b74 a03e d9de 323d c365 b03d e508 15bf
000000c0: 03fc dc3e 707e b43e dc20 83be ed66 d63e
000000d0: 401a ed3e ee9b 6d3e 5832 ae3d e955 263e
000000e0: 2377 57be fc06 b2be cc6e 3cbd fa6a 0e3e
000000f0: fc6b a1be 2173 743e a912 f5bd c510 da3e
0.5175184 -0.5442193 -0.6875083 -0.44303977 0.54991996 -0.5333469 0.19361378 -0.38255122
-0.60185313 -0.6295058 -0.33532283 0.35689023 -0.6090665 0.62241364 -0.18682645 -0.39583528
-0.089476675 0.76405156 0.44286788 -0.5311628 0.59523743 0.6456104 0.6113352 -0.111658275
0.12072167 0.57356966 -0.7455449 -0.3463143 -0.53837067 -0.24976018 -0.5397071 0.484446
-0.30045393 -0.33493277 0.058258288 -0.3395306 -0.3544446 0.1812781 0.03740783 0.104033
0.63347125 -0.007892878 0.47944066 -0.66158783 0.31338724 0.043669555 0.086131595 -0.58216697
0.4316102 0.35252714 -0.25611007 0.418754 0.4630909 0.23204014 0.08505696 0.1624371
-0.21041541 -0.34770954 -0.0460041 0.13907996 -0.31527698 0.23872043 -0.1196645 0.4259092

layer_list.conv1.att_dst f4 [1, 8, 8]
00000000: d393 253e 563a 6fbe 43a4 44be a57c 063d
00000010: 4b86 a73e f0b8 03be e708 b4bd cc71 71bd
00000020: 4f2b 0dbe f11b 81be 1fe1 d33a 34e6 163d
00000030: 1706 9cbd a862 853e af29 073c 97a1 19bd
00000040: 2dbb f8bb 88c7 fa3d 0ec8 b93d 6649 e6bc
00000050: 88d0 423e 2dc7 a73e 53e6 463d ed34 0cbe
00000060: 1295 a23d cceb 713e f08d 81be db2b 24be
00000070: d013 4cbd 1731 39be abac 27bd a668 9bbd
00000080: 9021 19bd 4651 aebd 47e7 463c a188 ecbd
00000090: f32b 17be 1705 923d e1b8 8e3d e217 69bd
000000a0: b333 38bd e964 cfbd ec9e 953d 09cd f5bd
000000b0: 08c7 153e c0f4 97bb d9d0 043e 20ce 7cbe
000000c0: d8f2 2e3e a0d8 a03d 8d8f c4bd 76d8 593e
000000d0: 6ece ef3d 2542 e53d fd65 4e3d f50f f83b
000000e0: 62ae 04be 382a 11bd a55a 7c3d 392f e93d
000000f0: 5bcb 29be 53a6 313e 85fd 0dbe 8e82 883d
0.16169672 -0.23362097 -0.19203286 0.032833714 0.32719645 -0.12863517 -0.087907605 -0.058946416
-0.13786052 -0.2521663 0.0016165114 0.036840633 -0.07618349 0.2605183 0.008249684 -0.03750762
-0.0075906725 0.12245089 0.090713605 -0.028111171 0.19024861 0.32769147 0.048559498 -0.13692065
0.07938589 0.23625106 -0.25303602 -0.16032355 -0.049823582 -0.18085133 -0.040936153 -0.075883195
-0.037385523 -0.085115954 0.012140102 -0.115494974 -0.14762859 0.07129877 0.069688566 -0.056907542
-0.04497118 -0.10126669 0.073057026 -0.12001998 0.14626706 -0.004637331 0.12970294 -0.24688005
0.17084825 0.07853818 -0.09597693 0.2127398 0.11709295 0.11194257 0.050390232 0.0075702616
-0.12957147 -0.035440654 0.061609883 0.1138596 -0.1658148 0.17348604 -0.13866241 0.06665526

layer_list.conv1.bias f4 [64]
00000000: 06d3 833b be4b 5b3d 8df0 ba3d b51e 5c3d
00000010: 54c6 873b cbff 9f3b b7ad 053d 0ecd 8a3d
00000020: 55d0 3c3b b529 6f3d f4c2 873d 6a83 a93c
00000030: 3eb1 a03c 59f2 153d 65a9 8b3d c088 1c3d
00000040: 6625 d43c 8613 203d c27c bdba 0161 243d
00000050: f037 103d 178f 853d a5c6 e03c 79ff f43a
00000060: 1e09 ff3c 34c5 683d d347 4e3c 43aa 0b3d
00000070: 5dc2 eb3c 378f 833c 6484 443d 8590 6a3d
00000080: 2874 8a3c ff0f c63c 4654 afba 062f f5ba
00000090: 44cb 8c3d 19d3 013a e9fa 053d 72bd 143d
000000a0: 8936 89bc 031f 7d3d 48d1 5ebd 8762 863d
000000b0: a216 8fbb 27c6 0d3d 9a35 203d b155 9b3c
000000c0: 8cbc 593d 8650 493d 1810 163d 3398 833c
000000d0: 08fd 043d 6452 e53a 25aa 793d eb90 66bc
000000e0: 5eed c33c 77b7 c83c afe9 bb3c 69ef 7f3b
000000f0: 594d b43b 1a06 2c3d c355 073d 2d00 383c
0.0040229587 0.05353903 0.09127913 0.053740222 0.0041435156 0.004882788 0.03263637 0.06777392
0.00288107 0.058389384 0.06628981 0.020692546 0.019615766 0.036608074 0.06819419 0.038216352
0.02589674 0.03908112 -0.0014456736 0.040131573 0.035209596 0.06521433 0.027438471 0.001869186
0.031132277 0.056828693 0.012590366 0.03409792 0.028779203 0.016059501 0.04797782 0.05726673
0.01690109 0.02417755 -0.0013376556 -0.0018706031 0.06874707 0.00049524155 0.03270999 0.03631348
-0.016749637 0.061797153 -0.054398805 0.06561761 -0.0043667117 0.0346128 0.03911362 0.01896176
0.053158328 0.04914906 0.036636442 0.016063785 0.032467872 0.0017495868 0.060953278 -0.014072637
0.023916896 0.024501545 0.022938577 0.0039052612 0.0055023846 0.041998006 0.033040773 0.011230511

layer_list.conv1.lin_src.weight f4 [64, 1433]
00000000: 1955 e53c a035 e73d 361a 073e 7eae 2ebd
00000010: 0987 d43e 1a42 cfbc c421 f23c aadb 333e
00000020: a922 193e c756 2fbc 27ce 89bc bc52 933b
00000030: eb7c 40bd c668 3abb 24c2 533d 0841 0cbd
00000040: e8e8 13bd 0d53 c0bb 3658 81bd 0380 94be
00000050: 4910 14bd fc58 863d d36b 6fbb 5d6f c8bd
00000060: e508 eabd aa10 ac3c 868a e33d ca46 663c
00000070: 2b81 c13d f7d4 cfbc 5986 ddbc 2e46 cebc
00000080: 2183 553c 7e3a 64bb 377c 343d 0a3e 18bc
00000090: b9fd d93c dcef 143d 4099 a83e 3a64 0f3c
000000a0: 3f1e 873e ba5d 90bd 781f 3a3d d290 523b
000000b0: 269a 033e 5391 803d 5f06 b5bc 837e adbd
000000c0: c1f5 9e3d 96b1 72bc 3aea dbbc 7c09 8cbe
000000d0: 8049 3ebe 8c17 14bd 0b93 463d 28fa bc3c
000000e0: 7b8c 9ebd 342f f43d 412d 6cbe 6a1e 0bbd
000000f0: bed2 ad3c 1a8f e9bd f404 23bd 933d 0e3c
00000100: d0b9 9cbd 61e8 9abc 63b1 6ebd 3e25 2fbc
00000110: f2f0 893d 6614 d0bc 04ab 17bd 4b5e 93bc
00000120: 7f77 cebc 4cda c1bc 9fef a1bd 5bb3 f0bc
00000130: c707 2abd 71f7 54be 9d10 363e 542e ddbb
00000140: 9033 a73c aed1 f63d 3923 0a3e 5e0d 523d
00000150: 05be 6c3b f562 9cbd 95a5 203c 49e6 713d
00000160: e336 4bbd 5bc8 81bc 8e8a 30bc fd3a b63c
00000170: fbf6 42bc da0f 793e 8583 3abd e240 f2bc
00000180: 257f 7cbc 9810 9fbd bd41 9fbd 4ddd c43e
00000190: 708c 91bd e80b 963b 7474 e8bd 6ca9 c3bd
000001a0: c2f6 89bd 5fab b0bc 1b34 d4bc f2ad 0cbd
000001b0: ead7 54bc 2764 75bc 8e84 dbbc b656 8c3c
000001c0: 3d34 43bc 0be1 5b3b 6329 0cbd 605e 13bc
000001d0: 5070 26bb d8ab a6bc 25a0 ad3d 62c9 193d
000001e0: 55b5 b2bc b603 83bc 0c41 403d 1d5d 2e3d
000001f0: e8f2 643b af30 703d b751 a1bd 00c4 87bd
00000200: d8dc 04be fe3b f0bd 1475 a2bc 2d38 33be
00000210: e24c 183e c6d9 eebc 6cdc 293e db32 c2be
00000220: ba02 9f3c e3e0 cabc 3e4b 59bc aa1d 983c
00000230: 83b8 433e bacc 003c 8204 afbc dd5c acbd
00000240: fa4c c1bd 07d7 89bd 9037 62be 4860 9bbc
00000250: eef8 fb3a e467 ba3a 2919 b4bd 7a38 b83d
00000260: c9e0 da3c bf0f 1ebd 22eb 1f3d 6f2f 9cbc
00000270: 8e3c 263c 0430 7ebd fca1 a73c 81e6 613c
00000280: 40b7 44bd 8301 07bc 939f 39be d9a4 d33b
00000290: e972 d53b a693 84bb e35b 243d 4780 acbc
000002a0: 8655 903e 5788 943d 43b4 88bb 3143 5ebd
000002b0: 84df bcbd b1fa a53d 46ce 62bc 6fed 10bd
000002c0: cc13 8abe 37a6 07bd 4ca0 953d a1db b73d
000002d0: 300e b63b d4b7 1d3b 5eaa 473c f7fc eabc
000002e0: 3940 393c d317 1b3d 9a18 933d 69db 853e
000002f0: 6880 02bc f3ae 4bbc 4fd6 dc3b 683a 823e
00000300: 40c6 0d3d 4452 12bd 8592 f43b 4dc4 28bd
00000310: 4b61 573e c9e7 99bc a1ba e8bb 83e7 c0bb
00000320: 5b5f 13bd f0c5 6bbc f736 dc3c 203e f8bc
00000330: 9c83 e7bd 4014 04bd bd1f 03bd b383 dfbd
00000340: 312f 963d 420c 41bc 104f 983c dd3c d43c
00000350: 9b4e cd3c 7f5a cfbd 5576 a23d 5f7a a1bc
00000360: eb20 ed3b 11d7 17bd 6a61 1bbd 7f2f 3c3b
00000370: 4d45 b13b 8740 adbc cfab 2dbd de04 4c3c
00000380: c165 e03d 1c29 cabd 1f7a ba3c 0ef8 06bd
00000390: f47a 453d 634a 7cbc f125 823c 46c6 82bd
000003a0: 55f2 163c 1a7d 13bc 0676 2b3e ffd9 c83d
000003b0: 078f 563d 3eb1 4b3d 6b60 73be 1ec9 0d3b
000003c0: ba77 b03d d149 59bd 3f9c c53c de89 e238
000003d0: ee12 b13c 5498 313c 8cf7 f63c 19e7 c43d
000003e0: a541 243c bb19 16bb 9905 e7bc 8fa6 91bd
000003f0: df20 cebd 7525 aebc 5f72 b23c e168 1ebd
0.02799468 0.11289525 0.13193592 -0.042646877 0.41509274 -0.025300074 0.029557116 0.17564264
0.14954628 -0.010701842 -0.016821934 0.0044959467 -0.04699413 -0.0028443797 0.05169882 -0.034241706
-0.03611079 -0.0058692754 -0.06315653 -0.29003915 -0.036148343 0.06559941 -0.0036532774 -0.09786866
-0.11427478 0.02100404 0.111104056 0.014054963 0.09448465 -0.025370104 -0.027041601 -0.025179949
0.013031752 -0.0034824903 0.044063773 -0.009292135 0.026610242 0.03636156 0.3292942 0.008751923
0.26390263 -0.07049127 0.045440167 0.0032129777 0.12851772 0.062777184 -0.022097765 -0.08471396
0.077617176 -0.014812848 -0.026845086 -0.27350986 -0.18582726 -0.03615527 0.048480075 0.023068503
-0.07741638 0.11923066 -0.23064138 -0.033964552 0.021218654 -0.114042476 -0.039799646 0.008681673
-0.076526284 -0.018909635 -0.058274638 -0.010690032 0.0673541 -0.025400352 -0.037028328 -0.017989298
-0.025203465 -0.023663662 -0.07907032 -0.029382398 -0.041511323 -0.20797516 0.17779775 -0.0067499075
0.02041033 0.12051712 0.13489999 0.05128228 0.0036124003 -0.07636062 0.009805103 0.059057508
-0.04961289 -0.015842607 -0.0107752215 0.022244925 -0.011899705 0.24322453 -0.045535583 -0.029571954
-0.015411173 -0.07766837 -0.077762105 0.3845009 -0.071068645 0.004579056 -0.11350337 -0.09553799
-0.067365184 -0.021566091 -0.025903752 -0.034345575 -0.012990931 -0.014977491 -0.026796605 0.01713119
-0.01191431 0.0033550884 -0.034219157 -0.008994669 -0.0025396533 -0.020345613 0.08477811 0.03754557
-0.021814981 -0.01599298 0.046937034 0.04256927 0.0034934822 0.05864018 -0.07876914 -0.06629181
-0.1297487 -0.117301926 -0.019831218 -0.17501898 0.14873078 -0.029156577 0.1658799 -0.37929425
0.01941048 -0.024765437 -0.013262568 0.018568832 0.19113354 0.007861311 -0.021364454 -0.0841615
-0.0943851 -0.06730466 -0.22091508 -0.018966809 0.0019223967 0.0014221636 -0.087938614 0.08995147
0.026718514 -0.038589235 0.0390426 -0.019065587 0.010146273 -0.06205751 0.020462982 0.013787867
-0.048026323 -0.0082401065 -0.18127279 0.0064588604 0.0065139425 -0.0040459214 0.040126693 -0.021057261
0.2819025 0.07252567 -0.0041718795 -0.054263297 -0.0922232 0.08104456 -0.013843125 -0.035382684
-0.2696823 -0.0331175 0.07305965 0.08977438 0.0055558905 0.002406587 0.012186615 -0.028685076
0.011306816 0.037864517 0.07182427 0.2614396 -0.007965185 -0.012431848 0.0067394148 0.25435185
0.034612894 -0.035722986 0.0074637556 -0.041202832 0.21033208 -0.018787282 -0.007102326 -0.0058869733
-0.03597961 -0.014390454 0.026881678 -0.030303061 -0.11304399 -0.032245874 -0.03201269 -0.109137915
0.0733322 -0.011782708 0.018592387 0.025907928 0.025061896 -0.10124683 0.07932726 -0.019711671
0.00723659 -0.037070338 -0.0379347 0.0028714833 0.0054098726 -0.021148933 -0.042400178 0.012452332
0.10956908 -0.09871122 0.02276331 -0.032951407 0.04821296 -0.015398595 0.015887232 -0.06385474
0.00921305 -0.0090019945 0.16744241 0.098072045 0.052382495 0.04972958 -0.2376725 0.0021634768
0.08616586 -0.053048912 0.024122356 0.000108021995 0.021615472 0.0108395405 0.030147336 0.09614391
0.0100254165 -0.002290352 -0.028200911 -0.07111847 -0.100648634 -0.021258095 0.021783052 -0.03867424

layer_list.conv1.lin_dst.weight f4 [64, 1433]
00000000: 1955 e53c a035 e73d 361a 073e 7eae 2ebd
00000010: 0987 d43e 1a42 cfbc c421 f23c aadb 333e
00000020: a922 193e c756 2fbc 27ce 89bc bc52 933b
00000030: eb7c 40bd c668 3abb 24c2 533d 0841 0cbd
00000040: e8e8 13bd 0d53 c0bb 3658 81bd 0380 94be
00000050: 4910 14bd fc58 863d d36b 6fbb 5d6f c8bd
00000060: e508 eabd aa10 ac3c 868a e33d ca46 663c
00000070: 2b81 c13d f7d4 cfbc 5986 ddbc 2e46 cebc
00000080: 2183 553c 7e3a 64bb 377c 343d 0a3e 18bc
00000090: b9fd d93c dcef 143d 4099 a83e 3a64 0f3c
000000a0: 3f1e 873e ba5d 90bd 781f 3a3d d290 523b
000000b0: 269a 033e 5391 803d 5f06 b5bc 837e adbd
000000c0: c1f5 9e3d 96b1 72bc 3aea dbbc 7c09 8cbe
000000d0: 8049 3ebe 8c17 14bd 0b93 463d 28fa bc3c
000000e0: 7b8c 9ebd 342f f43d 412d 6cbe 6a1e 0bbd
000000f0: bed2 ad3c 1a8f e9bd f404 23bd 933d 0e3c
00000100: d0b9 9cbd 61e8 9abc 63b1 6ebd 3e25 2fbc
00000110: f2f0 893d 6614 d0bc 04ab 17bd 4b5e 93bc
00000120: 7f77 cebc 4cda c1bc 9fef a1bd 5bb3 f0bc
00000130: c707 2abd 71f7 54be 9d10 363e 542e ddbb
00000140: 9033 a73c aed1 f63d 3923 0a3e 5e0d 523d
00000150: 05be 6c3b f562 9cbd 95a5 203c 49e6 713d
00000160: e336 4bbd 5bc8 81bc 8e8a 30bc fd3a b63c
00000170: fbf6 42bc da0f 793e 8583 3abd e240 f2bc
00000180: 257f 7cbc 9810 9fbd bd41 9fbd 4ddd c43e
00000190: 708c 91bd e80b 963b 7474 e8bd 6ca9 c3bd
000001a0: c2f6 89bd 5fab b0bc 1b34 d4bc f2ad 0cbd
000001b0: ead7 54bc 2764 75bc 8e84 dbbc b656 8c3c
000001c0: 3d34 43bc 0be1 5b3b 6329 0cbd 605e 13bc
000001d0: 5070 26bb d8ab a6bc 25a0 ad3d 62c9 193d
000001e0: 55b5 b2bc b603 83bc 0c41 403d 1d5d 2e3d
000001f0: e8f2 643b af30 703d b751 a1bd 00c4 87bd
00000200: d8dc 04be fe3b f0bd 1475 a2bc 2d38 33be
00000210: e24c 183e c6d9 eebc 6cdc 293e db32 c2be
00000220: ba02 9f3c e3e0 cabc 3e4b 59bc aa1d 983c
00000230: 83b8 433e bacc 003c 8204 afbc dd5c acbd
00000240: fa4c c1bd 07d7 89bd 9037 62be 4860 9bbc
00000250: eef8 fb3a e467 ba3a 2919 b4bd 7a38 b83d
00000260: c9e0 da3c bf0f 1ebd 22eb 1f3d 6f2f 9cbc
00000270: 8e3c 263c 0430 7ebd fca1 a73c 81e6 613c
00000280: 40b7 44bd 8301 07bc 939f 39be d9a4 d33b
00000290: e972 d53b a693 84bb e35b 243d 4780 acbc
000002a0: 8655 903e 5788 943d 43b4 88bb 3143 5ebd
000002b0: 84df bcbd b1fa a53d 46ce 62bc 6fed 10bd
000002c0: cc13 8abe 37a6 07bd 4ca0 953d a1db b73d
000002d0: 300e b63b d4b7 1d3b 5eaa 473c f7fc eabc
000002e0: 3940 393c d317 1b3d 9a18 933d 69db 853e
000002f0: 6880 02bc f3ae 4bbc 4fd6 dc3b 683a 823e
00000300: 40c6 0d3d 4452 12bd 8592 f43b 4dc4 28bd
00000310: 4b61 573e c9e7 99bc a1ba e8bb 83e7 c0bb
00000320: 5b5f 13bd f0c5 6bbc f736 dc3c 203e f8bc
00000330: 9c83 e7bd 4014 04bd bd1f 03bd b383 dfbd
00000340: 312f 963d 420c 41bc 104f 983c dd3c d43c
00000350: 9b4e cd3c 7f5a cfbd 5576 a23d 5f7a a1bc
00000360: eb20 ed3b 11d7 17bd 6a61 1bbd 7f2f 3c3b
00000370: 4d45 b13b 8740 adbc cfab 2dbd de04 4c3c
00000380: c165 e03d 1c29 cabd 1f7a ba3c 0ef8 06bd
00000390: f47a 453d 634a 7cbc f125 823c 46c6 82bd
000003a0: 55f2 163c 1a7d 13bc 0676 2b3e ffd9 c83d
000003b0: 078f 563d 3eb1 4b3d 6b60 73be 1ec9 0d3b
000003c0: ba77 b03d d149 59bd 3f9c c53c de89 e238
000003d0: ee12 b13c 5498 313c 8cf7 f63c 19e7 c43d
000003e0: a541 243c bb19 16bb 9905 e7bc 8fa6 91bd
000003f0: df20 cebd 7525 aebc 5f72 b23c e168 1ebd
0.02799468 0.11289525 0.13193592 -0.042646877 0.41509274 -0.025300074 0.029557116 0.17564264
0.14954628 -0.010701842 -0.016821934 0.0044959467 -0.04699413 -0.0028443797 0.05169882 -0.034241706
-0.03611079 -0.0058692754 -0.06315653 -0.29003915 -0.036148343 0.06559941 -0.0036532774 -0.09786866
-0.11427478 0.02100404 0.111104056 0.014054963 0.09448465 -0.025370104 -0.027041601 -0.025179949
0.013031752 -0.0034824903 0.044063773 -0.009292135 0.026610242 0.03636156 0.3292942 0.008751923
0.26390263 -0.07049127 0.045440167 0.0032129777 0.12851772 0.062777184 -0.022097765 -0.08471396
0.077617176 -0.014812848 -0.026845086 -0.27350986 -0.18582726 -0.03615527 0.048480075 0.023068503
-0.07741638 0.11923066 -0.23064138 -0.033964552 0.021218654 -0.114042476 -0.039799646 0.008681673
-0.076526284 -0.018909635 -0.058274638 -0.010690032 0.0673541 -0.025400352 -0.037028328 -0.017989298
-0.025203465 -0.023663662 -0.07907032 -0.029382398 -0.041511323 -0.20797516 0.17779775 -0.0067499075
0.02041033 0.12051712 0.13489999 0.05128228 0.0036124003 -0.07636062 0.009805103 0.059057508
-0.04961289 -0.015842607 -0.0107752215 0.022244925 -0.011899705 0.24322453 -0.045535583 -0.029571954
-0.015411173 -0.07766837 -0.077762105 0.3845009 -0.071068645 0.004579056 -0.11350337 -0.09553799
-0.067365184 -0.021566091 -0.025903752 -0.034345575 -0.012990931 -0.014977491 -0.026796605 0.01713119
-0.01191431 0.0033550884 -0.034219157 -0.008994669 -0.0025396533 -0.020345613 0.08477811 0.03754557
-0.021814981 -0.01599298 0.046937034 0.04256927 0.0034934822 0.05864018 -0.07876914 -0.06629181
-0.1297487 -0.117301926 -0.019831218 -0.17501898 0.14873078 -0.029156577 0.1658799 -0.37929425
0.01941048 -0.024765437 -0.013262568 0.018568832 0.19113354 0.007861311 -0.021364454 -0.0841615
-0.0943851 -0.06730466 -0.22091508 -0.018966809 0.0019223967 0.0014221636 -0.087938614 0.08995147
0.026718514 -0.038589235 0.0390426 -0.019065587 0.010146273 -0.06205751 0.020462982 0.013787867
-0.048026323 -0.0082401065 -0.18127279 0.0064588604 0.0065139425 -0.0040459214 0.040126693 -0.021057261
0.2819025 0.07252567 -0.0041718795 -0.054263297 -0.0922232 0.08104456 -0.013843125 -0.035382684
-0.2696823 -0.0331175 0.07305965 0.08977438 0.0055558905 0.002406587 0.012186615 -0.028685076
0.011306816 0.037864517 0.07182427 0.2614396 -0.007965185 -0.012431848 0.0067394148 0.25435185
0.034612894 -0.035722986 0.0074637556 -0.041202832 0.21033208 -0.018787282 -0.007102326 -0.0058869733
-0.03597961 -0.014390454 0.026881678 -0.030303061 -0.11304399 -0.032245874 -0.03201269 -0.109137915
0.0733322 -0.011782708 0.018592387 0.025907928 0.025061896 -0.10124683 0.07932726 -0.019711671
0.00723659 -0.037070338 -0.0379347 0.0028714833 0.0054098726 -0.021148933 -0.042400178 0.012452332
0.10956908 -0.09871122 0.02276331 -0.032951407 0.04821296 -0.015398595 0.015887232 -0.06385474
0.00921305 -0.0090019945 0.16744241 0.098072045 0.052382495 0.04972958 -0.2376725 0.0021634768
0.08616586 -0.053048912 0.024122356 0.000108021995 0.021615472 0.0108395405 0.030147336 0.09614391
0.0100254165 -0.002290352 -0.028200911 -0.07111847 -0.100648634 -0.021258095 0.021783052 -0.03867424

layer_list.conv2.att_src f4 [1, 1, 7]
00000000: d582 de3c c0cf 203f ca4f 2cbe 287f 133e
00000010: c672 8c3e 7b71 b13d 8517 0c3e
0.027161995 0.62817 -0.16827312 0.14403975 0.27431315 0.08664223 0.13680847

layer_list.conv2.att_dst f4 [1, 1, 7]
00000000: 185c a539 d02f e23e 1230 f1bd c8d0 9b3d
00000010: a683 0e3f 618b aebe 49f9 70bd
0.00031539868 0.44177103 -0.11776747 0.07608181 0.5566963 -0.34090713 -0.058831487

layer_list.conv2.bias f4 [7]
00000000: 7d3c babd f45b 94be 7756 39bc 0632 a93e
00000010: 3a7b de3d 569b 89be ae08 a6be
-0.090935685 -0.28976405 -0.011312119 0.33045977 0.10863347 -0.26876324 -0.32428497

layer_list.conv2.lin_src.weight f4 [7, 64]
00000000: 5637 dcbe b93b bd3e 769a f4bc f920 bfbe
00000010: de9d 1cbf eafa 24bf 8a11 003f 1fa1 163f
00000020: 8a6a f53e 24f9 323f ad48 233f 9db0 94be
00000030: 72c5 25bf e298 5dbf 6a12 143f 3dcf 45bf
00000040: 86ea 3ebf d336 febe 4f52 ffbe 5fba 70bd
00000050: a923 1dbc c28e 33bf 73e6 4fbf 9602 223f
00000060: 4af0 d7be 1ac4 94bc e5e1 323f b7c7 443f
00000070: a65b 2bbf 5741 493f c7db 15bf 471b 05be
00000080: 0d1d 4f3f 1fab 373f 64cf fbbe 2ccb 1a3e
00000090: 67ac dc3e b678 09bf 61c5 18bf f23b 053f
000000a0: 99c1 ecbe 18b2 55be 3227 94be 3235 263f
000000b0: e410 dbbe f873 ebbe a4c5 b23e b2a2 f33d
000000c0: 4dcb 5cbf 1f13 9abc 056c 0b3f c61c 23bf
000000d0: f3f1 26bf a894 f4be 2796 cdbe 1def 3a3f
000000e0: 9878 fbbe a0f9 2fbf c295 9b3e 6a0e 86be
000000f0: 02c7 38be fd99 4b3f c79b 36bf 0749 343f
00000100: d7dc 4c3f af56 ebbe 26df 62bf ada1 46be
00000110: 56a7 483f 88bf d3bd bd90 2ebf 3de1 15be
00000120: e367 02bf 647a eebe f333 20bf c526 2fbf
00000130: 6c65 bbbe 0c96 243e a5f9 d83e 2ba1 f03e
00000140: f518 c2be 1326 51be 4a8a 083f 7e7b 4cbf
00000150: dfff e93e 5669 f93e 278c 1cbf 66f1 d7be
00000160: 76ba f4be 7ddf aa3d d9ad 89be f7f4 963e
00000170: bf61 95be b28f 423f 572b 01bf 2a03 ccbe
00000180: b185 d6be efeb 64bf 13c9 653e 0318 37be
00000190: 2f4b 05bf 4858 293f a1bc e43e 8703 31bf
000001a0: 10de ad3e 477e 10bf 1195 7fbe 3599 e23e
000001b0: a17c d83e 9ad5 a3bd ff45 fcbe e591 603e
000001c0: 5653 0bbf d939 2e3f 51c7 48bf f000 32bf
000001d0: 01eb 0ebf 1ba9 44be 9b26 583e e238 d8be
000001e0: a68c 17bf bef8 1dbf eb97 a73e abac 9f3c
000001f0: 6715 3abf bb35 a43e 2a7c cc3e ef89 f23e
00000200: 1dd3 5a3e fdf4 4ebf e90e 27bf b178 3fbf
00000210: a516 073f 57f8 3ebf a80c 413f be1f 39bf
00000220: 4fba 28bf c99b 48bf 35f8 00bf fd6b 183f
00000230: 162e 1abf 6606 ac3e b43c 50bf 8270 50bf
00000240: 4576 2fbf 184a 183f 0115 2d3f fef5 14bf
00000250: 084b 3c3f 3afa 1f3f 27a0 473f 1ec4 de3e
00000260: b4cf dbbe e25c 1a3f 6cfd 3cbf 0290 47bf
00000270: 718c 20bf 1f7f e43c 1260 33bf 14ba b63e
00000280: 4333 533f 3b99 19bf 18b5 0cbf 0d70 233f
00000290: 146a 133f b6e8 f33e 76c4 10bf a290 f7be
000002a0: 6219 ea3e c49c 2b3f 13a9 023f 0cca 39bf
000002b0: 533b 4fbe c1e2 2cbf 8a77 07bf 9128 48bf
000002c0: 82bf 303f b2c2 bebe 604a 05bf c578 c23e
000002d0: 8fc4 493f e19c 68be e463 35bf 9ffc 2b3f
000002e0: 8646 cdbe 635b 323f b161 473f 4e53 07be
000002f0: e06f 313f 0334 49bf ead6 053f 9015 46bf
00000300: 679b 02bf 079f 333f 8374 f53e cb49 f73e
00000310: 1386 2cbf a597 233f 254d 0a3f 8c28 4f3e
00000320: bf3e ddbe 9df2 2abf 18a4 123f a3d7 27bc
00000330: 58ef 64bd c0b6 173f 5b7c 9c3e 4174 f23e
00000340: 37b0 343f 64a7 df3e e715 fdbe 51fa 173f
00000350: 6a0c ab3e 1062 0b3f eba0 083e 112b 4bbf
00000360: 279b 433f 4eea 0c3f db3c d4be 550c 5a3e
00000370: 30fb 03bf 42be 3fbf 3997 ab3e 3bd0 073f
00000380: 752a 56bf b5e4 263e b606 04bf a9f7 42bf
00000390: 99f3 28bf dd7e 11bd 9667 efbe 698c 683e
000003a0: a1a6 41bf a063 153f ac7c 2cbf aa58 2f3f
000003b0: e3c6 17bf 614e 1c3f cd06 fcbe 7e84 163f
000003c0: 51ce 2e3f a6f6 443f 02ef 4fbe 99f5 1e3f
000003d0: a65e 233f 7fad 313f 3b42 0b3f 24e6 d7be
000003e0: e7ab 113f 5ebc 293f a56d 01bf 7a6e 1abf
000003f0: e968 80be a261 eebe c32a eabe e88a cebe
-0.43010968 0.36959627 -0.029858809 -0.37329844 -0.61178386 -0.64445364 0.5002676 0.588396
0.47932845 0.6991141 0.6378277 -0.29040995 -0.647544 -0.86561406 0.578406 -0.77269346
-0.74576604 -0.49651203 -0.49867484 -0.058771487 -0.009591022 -0.70139706 -0.8121101 0.63285196
-0.42175514 -0.018159915 0.6987594 0.7686724 -0.6693672 0.78615326 -0.5853848 -0.12998687
0.809037 0.71745485 -0.49181664 0.15116566 0.43100283 -0.53699815 -0.59676176 0.52044594
-0.46241453 -0.20868719 -0.28936154 0.6492492 -0.42786324 -0.45986915 0.34916413 0.11896266
-0.8624771 -0.018807946 0.544617 -0.6371578 -0.65212935 -0.47769666 -0.4015362 0.7302111
-0.49115443 -0.6874027 0.30387694 -0.26182872 -0.18044665 0.7953184 -0.7133145 0.7042393
0.80024475 -0.45964572 -0.8862175 -0.19397612 0.78380334 -0.10339266 -0.68189603 -0.14636703
-0.5093977 -0.46577752 -0.6257927 -0.6841853 -0.36600816 0.16072863 0.42377964 0.4699796
-0.37909666 -0.2042468 0.5333601 -0.79875934 0.45703027 0.48713177 -0.61151356 -0.4217636
-0.47798508 0.08343408 -0.26890448 0.29483768 -0.29176137 0.7600051 -0.50456756 -0.39846164
-0.41898873 -0.89422506 0.22439985 -0.17880253 -0.52067846 0.6615033 0.44675162 -0.6914601
0.33958483 -0.56442684 -0.24959208 0.44257513 0.42282584 -0.07999726 -0.49272153 0.21930654
-0.54424036 0.6805702 -0.7842913 -0.6953268 -0.5582734 -0.19205134 0.21108477 -0.42230898
-0.5919899 -0.61707675 0.32733092 0.019491514 -0.7268891 0.32072243 0.3993848 0.4737086
0.21369596 -0.8084257 -0.65257126 -0.74793535 0.5276893 -0.74597687 0.75409937 -0.7231406
-0.65909284 -0.7836271 -0.50378734 0.5953978 -0.6022657 0.33598632 -0.81342626 -0.81421673
-0.6853984 0.5948806 0.67610174 -0.58187854 0.7355199 0.6249119 0.7797875 0.43509
-0.42931902 0.6029798 -0.7382419 -0.77954113 -0.62714297 0.027892647 -0.70068467 0.3568884
0.82500094 -0.59999436 -0.5496383 0.6384285 0.5758374 0.47638482 -0.56549776 -0.48352534
0.4572249 0.6703608 0.51039237 -0.72573924 -0.20237474 -0.675335 -0.5291678 -0.781869
0.6904222 -0.37257916 -0.5206661 0.37982765 0.7881555 -0.22716095 -0.70855546 0.67182344
-0.40092868 0.69670695 0.7788344 -0.13215372 0.6931133 -0.7859499 0.5228106 -0.7737665
-0.51018375 0.7016453 0.47940454 0.48298487 -0.6739208 0.63903266 0.54023963 0.20230311
-0.43211934 -0.6677645 0.5728164 -0.010244283 -0.05589232 0.5926323 0.30563626 0.4735432
0.7058138 0.43682396 -0.49430773 0.5936633 0.3340791 0.54446507 0.13342635 -0.7936259
0.7640862 0.5504502 -0.4145268 0.21293767 -0.51555157 -0.74899685 0.3351381 0.5305211
-0.83658534 0.16298182 -0.5157274 -0.7615915 -0.659967 -0.035521377 -0.46758717 0.22709812
-0.7564488 0.5835514 -0.67377734 0.68494666 -0.5928785 0.61057097 -0.4922394 0.5879592
0.68283564 0.76938856 -0.20306018 0.620935 0.638163 0.6940536 0.54397935 -0.4216777
0.5690293 0.6630305 -0.5055793 -0.60324824 -0.2508004 -0.46558863 -0.4573575 -0.40340352

layer_list.conv2.lin_dst.weight f4 [7, 64]
00000000: 5637 dcbe b93b bd3e 769a f4bc f920 bfbe
00000010: de9d 1cbf eafa 24bf 8a11 003f 1fa1 163f
00000020: 8a6a f53e 24f9 323f ad48 233f 9db0 94be
00000030: 72c5 25bf e298 5dbf 6a12 143f 3dcf 45bf
00000040: 86ea 3ebf d336 febe 4f52 ffbe 5fba 70bd
00000050: a923 1dbc c28e 33bf 73e6 4fbf 9602 223f
00000060: 4af0 d7be 1ac4 94bc e5e1 323f b7c7 443f
00000070: a65b 2bbf 5741 493f c7db 15bf 471b 05be
00000080: 0d1d 4f3f 1fab 373f 64cf fbbe 2ccb 1a3e
00000090: 67ac dc3e b678 09bf 61c5 18bf f23b 053f
000000a0: 99c1 ecbe 18b2 55be 3227 94be 3235 263f
000000b0: e410 dbbe f873 ebbe a4c5 b23e b2a2 f33d
000000c0: 4dcb 5cbf 1f13 9abc 056c 0b3f c61c 23bf
000000d0: f3f1 26bf a894 f4be 2796 cdbe 1def 3a3f
000000e0: 9878 fbbe a0f9 2fbf c295 9b3e 6a0e 86be
000000f0: 02c7 38be fd99 4b3f c79b 36bf 0749 343f
00000100: d7dc 4c3f af56 ebbe 26df 62bf ada1 46be
00000110: 56a7 483f 88bf d3bd bd90 2ebf 3de1 15be
00000120: e367 02bf 647a eebe f333 20bf c526 2fbf
00000130: 6c65 bbbe 0c96 243e a5f9 d83e 2ba1 f03e
00000140: f518 c2be 1326 51be 4a8a 083f 7e7b 4cbf
00000150: dfff e93e 5669 f93e 278c 1cbf 66f1 d7be
00000160: 76ba f4be 7ddf aa3d d9ad 89be f7f4 963e
00000170: bf61 95be b28f 423f 572b 01bf 2a03 ccbe
00000180: b185 d6be efeb 64bf 13c9 653e 0318 37be
00000190: 2f4b 05bf 4858 293f a1bc e43e 8703 31bf
000001a0: 10de ad3e 477e 10bf 1195 7fbe 3599 e23e
000001b0: a17c d83e 9ad5 a3bd ff45 fcbe e591 603e
000001c0: 5653 0bbf d939 2e3f 51c7 48bf f000 32bf
000001d0: 01eb 0ebf 1ba9 44be 9b26 583e e238 d8be
000001e0: a68c 17bf bef8 1dbf eb97 a73e abac 9f3c
000001f0: 6715 3abf bb35 a43e 2a7c cc3e ef89 f23e
00000200: 1dd3 5a3e fdf4 4ebf e90e 27bf b178 3fbf
00000210: a516 073f 57f8 3ebf a80c 413f be1f 39bf
00000220: 4fba 28bf c99b 48bf 35f8 00bf fd6b 183f
00000230: 162e 1abf 6606 ac3e b43c 50bf 8270 50bf
00000240: 4576 2fbf 184a 183f 0115 2d3f fef5 14bf
00000250: 084b 3c3f 3afa 1f3f 27a0 473f 1ec4 de3e
00000260: b4cf dbbe e25c 1a3f 6cfd 3cbf 0290 47bf
00000270: 718c 20bf 1f7f e43c 1260 33bf 14ba b63e
00000280: 4333 533f 3b99 19bf 18b5 0cbf 0d70 233f
00000290: 146a 133f b6e8 f33e 76c4 10bf a290 f7be
000002a0: 6219 ea3e c49c 2b3f 13a9 023f 0cca 39bf
000002b0: 533b 4fbe c1e2 2cbf 8a77 07bf 9128 48bf
000002c0: 82bf 303f b2c2 bebe 604a 05bf c578 c23e
000002d0: 8fc4 493f e19c 68be e463 35bf 9ffc 2b3f
000002e0: 8646 cdbe 635b 323f b161 473f 4e53 07be
000002f0: e06f 313f 0334 49bf ead6 053f 9015 46bf
00000300: 679b 02bf 079f 333f 8374 f53e cb49 f73e
00000310: 1386 2cbf a597 233f 254d 0a3f 8c28 4f3e
00000320: bf3e ddbe 9df2 2abf 18a4 123f a3d7 27bc
00000330: 58ef 64bd c0b6 173f 5b7c 9c3e 4174 f23e
00000340: 37b0 343f 64a7 df3e e715 fdbe 51fa 173f
00000350: 6a0c ab3e 1062 0b3f eba0 083e 112b 4bbf
00000360: 279b 433f 4eea 0c3f db3c d4be 550c 5a3e
00000370: 30fb 03bf 42be 3fbf 3997 ab3e 3bd0 073f
00000380: 752a 56bf b5e4 263e b606 04bf a9f7 42bf
00000390: 99f3 28bf dd7e 11bd 9667 efbe 698c 683e
000003a0: a1a6 41bf a063 153f ac7c 2cbf aa58 2f3f
000003b0: e3c6 17bf 614e 1c3f cd06 fcbe 7e84 163f
000003c0: 51ce 2e3f a6f6 443f 02ef 4fbe 99f5 1e3f
000003d0: a65e 233f 7fad 313f 3b42 0b3f 24e6 d7be
000003e0: e7ab 113f 5ebc 293f a56d 01bf 7a6e 1abf
000003f0: e968 80be a261 eebe c32a eabe e88a cebe
-0.43010968 0.36959627 -0.029858809 -0.37329844 -0.61178386 -0.64445364 0.5002676 0.588396
0.47932845 0.6991141 0.6378277 -0.29040995 -0.647544 -0.86561406 0.578406 -0.77269346
-0.74576604 -0.49651203 -0.49867484 -0.058771487 -0.009591022 -0.70139706 -0.8121101 0.63285196
-0.42175514 -0.018159915 0.6987594 0.7686724 -0.6693672 0.78615326 -0.5853848 -0.12998687
0.809037 0.71745485 -0.49181664 0.15116566 0.43100283 -0.53699815 -0.59676176 0.52044594
-0.46241453 -0.20868719 -0.28936154 0.6492492 -0.42786324 -0.45986915 0.34916413 0.11896266
-0.8624771 -0.018807946 0.544617 -0.6371578 -0.65212935 -0.47769666 -0.4015362 0.7302111
-0.49115443 -0.6874027 0.30387694 -0.26182872 -0.18044665 0.7953184 -0.7133145 0.7042393
0.80024475 -0.45964572 -0.8862175 -0.19397612 0.78380334 -0.10339266 -0.68189603 -0.14636703
-0.5093977 -0.46577752 -0.6257927 -0.6841853 -0.36600816 0.16072863 0.42377964 0.4699796
-0.37909666 -0.2042468 0.5333601 -0.79875934 0.45703027 0.48713177 -0.61151356 -0.4217636
-0.47798508 0.08343408 -0.26890448 0.29483768 -0.29176137 0.7600051 -0.50456756 -0.39846164
-0.41898873 -0.89422506 0.22439985 -0.17880253 -0.52067846 0.6615033 0.44675162 -0.6914601
0.33958483 -0.56442684 -0.24959208 0.44257513 0.42282584 -0.07999726 -0.49272153 0.21930654
-0.54424036 0.6805702 -0.7842913 -0.6953268 -0.5582734 -0.19205134 0.21108477 -0.42230898
-0.5919899 -0.61707675 0.32733092 0.019491514 -0.7268891 0.32072243 0.3993848 0.4737086
0.21369596 -0.8084257 -0.65257126 -0.74793535 0.5276893 -0.74597687 0.75409937 -0.7231406
-0.65909284 -0.7836271 -0.50378734 0.5953978 -0.6022657 0.33598632 -0.81342626 -0.81421673
-0.6853984 0.5948806 0.67610174 -0.58187854 0.7355199 0.6249119 0.7797875 0.43509
-0.42931902 0.6029798 -0.7382419 -0.77954113 -0.62714297 0.027892647 -0.70068467 0.3568884
0.82500094 -0.59999436 -0.5496383 0.6384285 0.5758374 0.47638482 -0.56549776 -0.48352534
0.4572249 0.6703608 0.51039237 -0.72573924 -0.20237474 -0.675335 -0.5291678 -0.781869
0.6904222 -0.37257916 -0.5206661 0.37982765 0.7881555 -0.22716095 -0.70855546 0.67182344
-0.40092868 0.69670695 0.7788344 -0.13215372 0.6931133 -0.7859499 0.5228106 -0.7737665
-0.51018375 0.7016453 0.47940454 0.48298487 -0.6739208 0.63903266 0.54023963 0.20230311
-0.43211934 -0.6677645 0.5728164 -0.010244283 -0.05589232 0.5926323 0.30563626 0.4735432
0.7058138 0.43682396 -0.49430773 0.5936633 0.3340791 0.54446507 0.13342635 -0.7936259
0.7640862 0.5504502 -0.4145268 0.21293767 -0.51555157 -0.74899685 0.3351381 0.5305211
-0.83658534 0.16298182 -0.5157274 -0.7615915 -0.659967 -0.035521377 -0.46758717 0.22709812
-0.7564488 0.5835514 -0.67377734 0.68494666 -0.5928785 0.61057097 -0.4922394 0.5879592
0.68283564 0.76938856 -0.20306018 0.620935 0.638163 0.6940536 0.54397935 -0.4216777
0.5690293 0.6630305 -0.5055793 -0.60324824 -0.2508004 -0.46558863 -0.4573575 -0.40340352
