vanilla_models/Cora/5_3f_85/split2/init2/GAT_dp0_5_5e_4_f0.pt (torch, 372919 bytes, 10 tensors)

layer_list.conv1.att_src f4 [1, 8, 8]
-0.9646993 -0.21775615 0.49548283 0.75382876 0.71935123 -0.5088189 0.7685782 -0.3644878
-0.20878349 0.11751544 -0.011771229 0.15636118 -0.079931155 -0.06748543 0.3662419 -0.23017828
0.09655285 0.60296285 0.6337815 -0.79843384 0.8591799 -0.94141996 0.6575602 -0.47570673
-0.028537754 0.06064769 0.29546875 -0.42969143 -0.03713904 0.007465346 -0.40165022 0.3386761
0.20610596 0.77161527 -0.3544328 -0.060372822 0.5404473 -0.30283862 0.1146709 -0.28503147
-0.3995191 0.37655216 0.20276105 -0.0026493818 0.13243932 0.4342253 0.21330012 0.15684563
0.050404657 0.11155121 -0.92729366 0.41463906 0.4577662 -0.1285402 0.11335243 0.9607814
-0.2738679 -0.59426105 0.5392933 0.6056573 -0.6747032 -0.0048974846 -0.15309972 -0.12129233
00000000: 89f6 76bf 78fb 5ebe edaf fd3e ecfa 403f
00000010: 6727 383f f541 02bf 8ac1 443f 259e babe
00000020: 57cb 55be efab f03d 1ddc 40bc 251d 203e
00000030: f2b2 a3bd cd35 8abd 0f84 bb3e dbb3 6bbe
00000040: 80bd c53d c65b 1a3f 813f 223f 2966 4cbf
00000050: 37f3 5b3f e600 71bf de55 283f d58f f3be
00000060: 02c8 e9bc b669 783d ae47 973e 8400 dcbe
00000070: 1b1f 18bd dc9f f43b 19a5 cdbe f466 ad3e
00000080: 710d 533e 9488 453f 3778 b5be 7e49 77bd
00000090: c15a 0a3f aa0d 9bbe 94d8 ea3d a5ef 91be
000000a0: c48d ccbe 72cb c03e 98a0 4f3e 40a1 2dbb
000000b0: 2c9e 073e c752 de3e 596b 5a3e 249c 203e
000000c0: 1d75 4e3d f674 e43d 1e63 6dbf 924b d43e
000000d0: 5560 ea3e 0ba0 03be 5225 e83d c5f5 753f
000000e0: 6a38 8cbe 7e21 18bf 200f 0a3f 5b0c 1b3f
000000f0: 59b9 2cbf 147b a0bb 2cc6 1cbe 1d68 f8bd

layer_list.conv1.att_dst f4 [1, 8, 8]
-0.23271942 -0.291791 0.030810894 0.18604213 0.094430536 0.09846851 0.08543624 0.21917292
-0.06040498 0.09960143 0.014265136 0.065930724 -0.03281284 -0.026215961 0.17295898 -0.06107417
-0.15182193 0.029590167 0.08968575 -0.12814009 0.17285895 -0.2034369 0.13591829 -0.099658236
0.0068695163 -0.015140861 0.044959642 -0.19958639 0.04494186 -0.013752505 -0.1432477 0.20939103
0.012169019 0.13071242 -0.0141834095 0.10297587 0.12856312 -0.025271391 0.05456716 -0.08799584
-0.055742316 0.07974204 0.12621161 -0.107464954 -0.048020996 0.17565852 0.07089256 -0.043599714
0.06975564 0.15818042 -0.24996318 0.09627303 0.13448438 0.06369551 -0.0030047859 0.25585875
0.021944778 -0.18782693 0.1941894 -0.02509923 -0.24165195 0.06388956 0.14134325 -0.01419354
00000000: 004e 6ebe a165 95be 2167 fc3c d481 3e3e
00000010: cc64 c13d dca9 c93d 32f9 ae3d de6e 603e
00000020: 366b 77bd d6fb cb3d 51b8 693c b006 873d
00000030: c266 06bd dbc2 d6bc 291c 313e e928 7abd
00000040: 3577 1bbe 1467 f23c 2aad b73d 2837 03be
00000050: f001 313e c351 50be 2a2e 0b3e 9e19 ccbd
00000060: ae19 e13b 6011 78bc 9a27 383d 6060 4cbe
00000070: f514 383d 3052 61bc 86af 12be 9a6a 563e
00000080: 9160 473c 7ad9 053e 8861 68bc 03e5 d23d
00000090: 0da6 033e f305 cfbc d081 5f3d 2a37 b4bd
000000a0: 0e52 64bd cb4f a33d 9e3d 013e 9616 dcbd
000000b0: aab1 44bd d4df 333e 1e30 913d 9d95 32bd
000000c0: 0cdc 8e3d 0cfa 213e 59f6 7fbe cb2a c53d
000000d0: 46b6 093e cb72 823d f1eb 44bb ebff 823e
000000e0: 89c5 b33c b455 40be 96d9 463e e79c cdbc
000000f0: 9c73 77be 88d8 823d 49bc 103e 068c 68bc

layer_list.conv1.bias f4 [64]
0.029319692 -0.00024225604 0.011571718 -0.013828884 0.003741594 -0.0009791588 -0.028210146 -0.012131232
0.045233298 0.010303208 -0.01641355 0.028219651 -0.0101726 0.013303358 0.01259677 0.0048967064
0.00075873843 -0.008562859 -0.01489736 0.0048269993 0.013445614 0.029655034 0.0009049163 0.0065449206
-0.01099514 0.018101387 -0.016032947 0.015297428 0.0032796743 0.0015037365 -0.023566717 0.0019379762
0.014845056 0.0028478543 0.006077198 0.00684251 -0.0061381585 0.0004290266 -0.010651326 0.0051260227
-0.007841995 -0.00068084226 0.030093046 -0.012318849 0.0038687412 0.006498141 0.014026649 -0.028171094
0.020339523 0.014312203 0.02123125 -0.009669629 -0.006720768 0.008734842 -0.023814384 -0.0073285704
0.006883547 0.010133071 0.030983675 0.03116638 0.0055623264 0.014320597 0.02545849 -0.04192053
00000000: da2f f03c 1c06 7eb9 4e97 3d3c 8b92 62bc
00000010: 8835 753b 1e57 80ba f718 e7bc 13c2 46bc
00000020: 8d46 393d c9ce 283c b675 86bc e62c e73c
00000030: faaa 26bc 54f6 593c af62 4e3c 8d74 a03b
00000040: 13e6 463a 3c4b 0cbc 0e14 74bc ce2b 9e3b
00000050: fe4a 5c3c 1def f23c e837 6d3a c676 d63b
00000060: f624 34bc 5c49 943c 8757 83bc 10a2 7a3c
00000070: ceef 563b 0619 c53a fd0e c1bc b103 fe3a
00000080: ae38 733c 11a3 3a3b 3b23 c73b 2237 e03b
00000090: 9b22 c9bb faee e039 e682 2ebc 32f8 a73b
000000a0: b67b 00bc 8d7a 32ba b185 f63c ffd4 49bc
000000b0: b58a 7d3b 5cee d43b 08d0 653c 11c7 e6bc
000000c0: 129f a63c bb7d 6a3c 29ed ad3c 5d6d 1ebc
000000d0: e339 dcbb 951c 0f3c 6216 c3bc 8124 f0bb
000000e0: 618f e13b 2e05 263c 7ad1 fd3c a350 ff3c
000000f0: 2d44 b63b f0a0 6a3c 538e d03c ddb4 2bbd

layer_list.conv1.lin_src.weight f4 [64, 1433]
0.009712971 -0.047071047 -0.07705753 -0.09026372 0.3557561 0.011167019 -0.06921236 -0.055088315
0.11487744 -0.00049472443 -0.029870106 0.0068843532 0.11600062 -0.034488022 -0.021603448 -0.039730273
0.049333554 0.003882269 0.050101068 0.63980925 0.010765762 -0.05820351 0.021953406 0.08364804
-0.037035212 0.14584395 0.05608815 0.1670348 0.0024228226 -0.050168496 0.070340306 0.02065015
0.005811584 0.002077516 0.073337555 -0.0034257616 0.099224806 -0.01753866 -0.25792435 0.02547177
0.13642031 -0.08236275 -0.018670684 -0.028139075 -0.05534443 -0.09647573 -0.10682856 -0.034615885
0.061983462 -0.16902229 0.057810023 0.03531909 0.2451389 0.04043026 0.267675 -0.06871833
-0.11077759 -0.01186502 0.04092446 -0.048907444 0.0278465 -0.13561335 0.0558094 -0.1482606
0.037813645 0.044414327 0.0255015 0.018732952 0.0053460794 -0.014359583 0.07118887 0.03447509
0.0004161099 0.057517916 0.024176689 0.022473441 0.06429802 0.11753962 0.07798781 -0.0041066012
-0.04090581 0.12180515 -0.075057276 -0.009724479 0.022492737 0.07596445 0.04839473 0.1281675
0.11397298 -0.20232314 0.02325836 -0.040049113 -0.056172132 0.07573747 -0.013984718 0.022416262
0.06312863 -0.029327668 -0.073068954 -0.4619887 0.06829468 -0.09150675 0.018401643 0.13578787
0.0053525725 0.1202842 0.14289084 0.022603104 0.05046788 0.022387564 0.07757831 0.011049796
0.006067426 -0.0036230078 0.004586717 -0.007782413 -0.0023599404 0.015347782 -0.24951135 -0.02727494
-0.0093286615 0.16647166 -0.17763418 0.09698375 0.01948071 0.010076607 0.06670101 -0.098925956
0.09536045 -0.00070023147 -0.011933193 0.08965645 -0.23508303 -0.13070166 0.0065376847 0.2908328
0.18485925 0.027923694 0.029054858 0.031245405 -0.7300393 -0.068912946 0.061204925 0.10016204
-0.01640769 -0.003176552 0.102011845 0.08386384 0.04976393 0.101459645 0.080545515 0.035396542
-0.029240359 0.073575675 -0.050690576 -0.03362117 0.040410098 0.13425386 -0.020548644 -0.021987604
0.058319066 -0.03847787 -0.07523144 -0.0013138928 0.020255063 -0.026328357 0.008549926 0.021141538
-0.043222237 0.041828547 -0.012480754 0.08157459 0.06533231 -0.069307536 0.039759703 0.027740406
0.0689221 0.119892865 0.14003882 0.0719127 0.029580286 -0.0072089527 0.040506717 0.03662068
0.019664844 -0.0011469605 -0.03280307 -0.010579182 0.1071442 0.023744762 0.07713215 0.023428816
0.13475043 0.05505504 -0.017791616 -0.011300895 -0.022693953 0.0030746155 0.00061782805 0.0025053858
0.17583267 0.06805735 0.024538381 0.029224409 0.09422129 -0.26620013 0.033323728 0.15462151
0.029864723 -0.012965262 -0.18747203 -0.294326 0.09432879 -0.014531371 -0.16865848 -0.05598147
0.016364066 0.124317564 0.058195226 0.022032598 0.047228724 0.035110805 -0.04369624 -0.009536826
0.023616903 0.053432398 0.013323648 0.11907623 -0.008005685 -0.0020180405 0.007299211 0.0137439985
-0.034737013 0.03025011 0.12301495 -0.023149686 0.116381645 -0.11802179 0.12653023 0.084244765
0.0070472322 -0.0073573706 0.024376243 0.040937945 0.14553694 -0.09024632 0.063035004 -0.18250781
0.02237187 -0.08345919 -0.10689475 0.078605086 0.10526177 0.0012634564 0.0537291 0.05384954
00000000: 2723 1f3c 92cd 40bd 57d0 9dbd 2fdc b8bd
00000010: aa25 b63e dff5 363c 36bf 8dbd 49a4 61bd
00000020: dd44 eb3d 65b0 01ba 27b2 f4bc 2496 e13b
00000030: bc91 ed3d 5043 0dbd b7f9 b0bc 36bc 22bd
00000040: fb11 4a3d aa6d 7e3b c736 4d3d 8aca 233f
00000050: e162 303c ce66 6ebd a1d7 b33c aa4f ab3d
00000060: 3cb2 17bd 1e58 153e b0bc 653d 2c0b 2b3e
00000070: 38c8 1e3b 7b7d 4dbd 940e 903d 812a a93c
00000080: 1a6f be3b ef26 083b 0032 963d be82 60bb
00000090: 6036 cb3d 3cad 8fbc a90e 84be 2caa d03c
000000a0: c4b1 0b3e cdad a8bd 43f3 98bc eb83 e6bc
000000b0: d7b0 62bd 1195 c5bd efc8 dabd 63c9 0dbd
000000c0: 5fe2 7d3d 2e14 2dbe 34ca 6c3d c0aa 103d
000000d0: b105 7b3e 339a 253d b30c 893e 32bc 8cbd
000000e0: 5cdf e2bd 8065 42bc 68a0 273d 2c53 48bd
000000f0: 581e e43c 3ade 0abe 6698 643d a0d1 17be
00000100: 7be2 1a3d cceb 353d 86e8 d03c d975 993c
00000110: 2a2e af3b 7544 6bbc 78cb 913d c135 0d3d
00000120: 5329 da39 e897 6b3d 310e c63c 391a b83c
00000130: aeae 833d 9db8 f03d 13b8 9f3d ab90 86bb
00000140: da8c 27bd fa74 f93d a1b7 99bd 6c53 1fbc
00000150: b042 b83c 4093 9b3d 8d39 463d 573e 033e
00000160: aa6a e93d cc2d 4fbe 5188 be3c 8a0a 24bd
00000170: c014 66bd 3f1c 9b3d 2920 65bc 4fa2 b73c
00000180: 9549 813d 9440 f0bc 2da5 95bd c889 ecbe
00000190: 15de 8b3d e467 bbbd 0bbf 963c fa0b 0b3e
000001a0: a264 af3b 9057 f63d fa51 123e 252a b93c
000001b0: 68b7 4e3d 2066 b73c 61e1 9e3d 340a 353c
000001c0: 42d1 c63b fc6f 6dbb 2c4c 963b 9d03 ffbb
000001d0: 3ba9 1abb 4375 7b3c e77f 7fbe b26f dfbc
000001e0: 3ed7 18bc 8c77 2a3e bce5 35be 6b9f c63d
000001f0: 0396 9f3c 5a18 253c 8a9a 883d b199 cabd
00000200: 574c c33d bd8f 37ba 7083 43bc cd9d b73d
00000210: 9bb9 70be a8d6 05be 133a d63b 09e8 943e
00000220: be4b 3d3e 3bc0 e43c 7404 ee3c 5df6 ff3c
00000230: dbe3 3abf 3b22 8dbd 04b2 7a3d c121 cd3d
00000240: 6b69 86bc b32d 50bb 96eb d03d cec0 ab3d
00000250: 43d5 4b3d 13ca cf3d 0cf5 a43d f7fb 103d
00000260: 7a89 efbc d8ae 963d eca0 4fbd 5ab6 09bd
00000270: 0f85 253d d879 093e a155 a8bc 591f b4bc
00000280: f9df 6e3d f99a 1dbd f112 9abd ed36 acba
00000290: f2ed a53c 91ae d7bc fd14 0c3c 0531 ad3c
000002a0: cd09 31bd 6954 2b3d 147c 4cbc 9410 a73d
000002b0: f2cc 853d 1cf1 8dbd 12db 223d d93f e33c
000002c0: 0827 8d3d 648a f53d 5666 0f3e f746 933d
000002d0: 5b52 f23c 1439 ecbb 5fea 253d 91ff 153d
000002e0: 2b18 a13c 9c55 96ba 835c 06bd 4e54 2dbc
000002f0: 6b6e db3d 6084 c23c 76f7 9d3d caed bf3c
00000300: 04fc 093e 6581 613d b9bf 91bc 6427 39bc
00000310: abe8 b9bc 7d7f 493b bdf5 213a 6631 243b
00000320: 7b0d 343e a761 8b3d b704 c93c 0768 ef3c
00000330: 17f7 c03d 624b 88be 767e 083d 1a55 1e3e
00000340: dda6 f43c 406c 54bc abf8 3fbe e6b1 96be
00000350: 742f c13d fd14 6ebc cfb4 2cbe d34c 65bd
00000360: ef0d 863c 359a fe3d 1e5e 6e3d b57d b43c
00000370: e872 413d 59d0 0f3d d4fa 32bd 5940 1cbc
00000380: 3c78 c13c eedb 5a3d 6e4b 5a3c 3dde f33d
00000390: 472a 03bc 1a41 04bb 382e ef3b 822e 613c
000003a0: 6648 0ebd 14cf f73c 43ef fb3d 69a4 bdbc
000003b0: 8059 ee3d 69b5 f1bd 2491 013e 8588 ac3d
000003c0: 78ec e63b 1916 f1bb b0b0 c73c 8cae 273d
000003d0: a307 153e 10d3 b8bd 7f18 813d 54e3 3abe
000003e0: 3645 b73c a7ec aabd a2eb dabd b4fb a03d
000003f0: 7c93 d73d 909a a53a 0b13 5c3d 5691 5c3d

layer_list.conv1.lin_dst.weight f4 [64, 1433]
0.009712971 -0.047071047 -0.07705753 -0.09026372 0.3557561 0.011167019 -0.06921236 -0.055088315
0.11487744 -0.00049472443 -0.029870106 0.0068843532 0.11600062 -0.034488022 -0.021603448 -0.039730273
0.049333554 0.003882269 0.050101068 0.63980925 0.010765762 -0.05820351 0.021953406 0.08364804
-0.037035212 0.14584395 0.05608815 0.1670348 0.0024228226 -0.050168496 0.070340306 0.02065015
0.005811584 0.002077516 0.073337555 -0.0034257616 0.099224806 -0.01753866 -0.25792435 0.02547177
0.13642031 -0.08236275 -0.018670684 -0.028139075 -0.05534443 -0.09647573 -0.10682856 -0.034615885
0.061983462 -0.16902229 0.057810023 0.03531909 0.2451389 0.04043026 0.267675 -0.06871833
-0.11077759 -0.01186502 0.04092446 -0.048907444 0.0278465 -0.13561335 0.0558094 -0.1482606
0.037813645 0.044414327 0.0255015 0.018732952 0.0053460794 -0.014359583 0.07118887 0.03447509
0.0004161099 0.057517916 0.024176689 0.022473441 0.06429802 0.11753962 0.07798781 -0.0041066012
-0.04090581 0.12180515 -0.075057276 -0.009724479 0.022492737 0.07596445 0.04839473 0.1281675
0.11397298 -0.20232314 0.02325836 -0.040049113 -0.056172132 0.07573747 -0.013984718 0.022416262
0.06312863 -0.029327668 -0.073068954 -0.4619887 0.06829468 -0.09150675 0.018401643 0.13578787
0.0053525725 0.1202842 0.14289084 0.022603104 0.05046788 0.022387564 0.07757831 0.011049796
0.006067426 -0.0036230078 0.004586717 -0.007782413 -0.0023599404 0.015347782 -0.24951135 -0.02727494
-0.0093286615 0.16647166 -0.17763418 0.09698375 0.01948071 0.010076607 0.06670101 -0.098925956
0.09536045 -0.00070023147 -0.011933193 0.08965645 -0.23508303 -0.13070166 0.0065376847 0.2908328
0.18485925 0.027923694 0.029054858 0.031245405 -0.7300393 -0.068912946 0.061204925 0.10016204
-0.01640769 -0.003176552 0.102011845 0.08386384 0.04976393 0.101459645 0.080545515 0.035396542
-0.029240359 0.073575675 -0.050690576 -0.03362117 0.040410098 0.13425386 -0.020548644 -0.021987604
0.058319066 -0.03847787 -0.07523144 -0.0013138928 0.020255063 -0.026328357 0.008549926 0.021141538
-0.043222237 0.041828547 -0.012480754 0.08157459 0.06533231 -0.069307536 0.039759703 0.027740406
0.0689221 0.119892865 0.14003882 0.0719127 0.029580286 -0.0072089527 0.040506717 0.03662068
0.019664844 -0.0011469605 -0.03280307 -0.010579182 0.1071442 0.023744762 0.07713215 0.023428816
0.13475043 0.05505504 -0.017791616 -0.011300895 -0.022693953 0.0030746155 0.00061782805 0.0025053858
0.17583267 0.06805735 0.024538381 0.029224409 0.09422129 -0.26620013 0.033323728 0.15462151
0.029864723 -0.012965262 -0.18747203 -0.294326 0.09432879 -0.014531371 -0.16865848 -0.05598147
0.016364066 0.124317564 0.058195226 0.022032598 0.047228724 0.035110805 -0.04369624 -0.009536826
0.023616903 0.053432398 0.013323648 0.11907623 -0.008005685 -0.0020180405 0.007299211 0.0137439985
-0.034737013 0.03025011 0.12301495 -0.023149686 0.116381645 -0.11802179 0.12653023 0.084244765
0.0070472322 -0.0073573706 0.024376243 0.040937945 0.14553694 -0.09024632 0.063035004 -0.18250781
0.02237187 -0.08345919 -0.10689475 0.078605086 0.10526177 0.0012634564 0.0537291 0.05384954
00000000: 2723 1f3c 92cd 40bd 57d0 9dbd 2fdc b8bd
00000010: aa25 b63e dff5 363c 36bf 8dbd 49a4 61bd
00000020: dd44 eb3d 65b0 01ba 27b2 f4bc 2496 e13b
00000030: bc91 ed3d 5043 0dbd b7f9 b0bc 36bc 22bd
00000040: fb11 4a3d aa6d 7e3b c736 4d3d 8aca 233f
00000050: e162 303c ce66 6ebd a1d7 b33c aa4f ab3d
00000060: 3cb2 17bd 1e58 153e b0bc 653d 2c0b 2b3e
00000070: 38c8 1e3b 7b7d 4dbd 940e 903d 812a a93c
00000080: 1a6f be3b ef26 083b 0032 963d be82 60bb
00000090: 6036 cb3d 3cad 8fbc a90e 84be 2caa d03c
000000a0: c4b1 0b3e cdad a8bd 43f3 98bc eb83 e6bc
000000b0: d7b0 62bd 1195 c5bd efc8 dabd 63c9 0dbd
000000c0: 5fe2 7d3d 2e14 2dbe 34ca 6c3d c0aa 103d
000000d0: b105 7b3e 339a 253d b30c 893e 32bc 8cbd
000000e0: 5cdf e2bd 8065 42bc 68a0 273d 2c53 48bd
000000f0: 581e e43c 3ade 0abe 6698 643d a0d1 17be
00000100: 7be2 1a3d cceb 353d 86e8 d03c d975 993c
00000110: 2a2e af3b 7544 6bbc 78cb 913d c135 0d3d
00000120: 5329 da39 e897 6b3d 310e c63c 391a b83c
00000130: aeae 833d 9db8 f03d 13b8 9f3d ab90 86bb
00000140: da8c 27bd fa74 f93d a1b7 99bd 6c53 1fbc
00000150: b042 b83c 4093 9b3d 8d39 463d 573e 033e
00000160: aa6a e93d cc2d 4fbe 5188 be3c 8a0a 24bd
00000170: c014 66bd 3f1c 9b3d 2920 65bc 4fa2 b73c
00000180: 9549 813d 9440 f0bc 2da5 95bd c889 ecbe
00000190: 15de 8b3d e467 bbbd 0bbf 963c fa0b 0b3e
000001a0: a264 af3b 9057 f63d fa51 123e 252a b93c
000001b0: 68b7 4e3d 2066 b73c 61e1 9e3d 340a 353c
000001c0: 42d1 c63b fc6f 6dbb 2c4c 963b 9d03 ffbb
000001d0: 3ba9 1abb 4375 7b3c e77f 7fbe b26f dfbc
000001e0: 3ed7 18bc 8c77 2a3e bce5 35be 6b9f c63d
000001f0: 0396 9f3c 5a18 253c 8a9a 883d b199 cabd
00000200: 574c c33d bd8f 37ba 7083 43bc cd9d b73d
00000210: 9bb9 70be a8d6 05be 133a d63b 09e8 943e
00000220: be4b 3d3e 3bc0 e43c 7404 ee3c 5df6 ff3c
00000230: dbe3 3abf 3b22 8dbd 04b2 7a3d c121 cd3d
00000240: 6b69 86bc b32d 50bb 96eb d03d cec0 ab3d
00000250: 43d5 4b3d 13ca cf3d 0cf5 a43d f7fb 103d
00000260: 7a89 efbc d8ae 963d eca0 4fbd 5ab6 09bd
00000270: 0f85 253d d879 093e a155 a8bc 591f b4bc
00000280: f9df 6e3d f99a 1dbd f112 9abd ed36 acba
00000290: f2ed a53c 91ae d7bc fd14 0c3c 0531 ad3c
000002a0: cd09 31bd 6954 2b3d 147c 4cbc 9410 a73d
000002b0: f2cc 853d 1cf1 8dbd 12db 223d d93f e33c
000002c0: 0827 8d3d 648a f53d 5666 0f3e f746 933d
000002d0: 5b52 f23c 1439 ecbb 5fea 253d 91ff 153d
000002e0: 2b18 a13c 9c55 96ba 835c 06bd 4e54 2dbc
000002f0: 6b6e db3d 6084 c23c 76f7 9d3d caed bf3c
00000300: 04fc 093e 6581 613d b9bf 91bc 6427 39bc
00000310: abe8 b9bc 7d7f 493b bdf5 213a 6631 243b
00000320: 7b0d 343e a761 8b3d b704 c93c 0768 ef3c
00000330: 17f7 c03d 624b 88be 767e 083d 1a55 1e3e
00000340: dda6 f43c 406c 54bc abf8 3fbe e6b1 96be
00000350: 742f c13d fd14 6ebc cfb4 2cbe d34c 65bd
00000360: ef0d 863c 359a fe3d 1e5e 6e3d b57d b43c
00000370: e872 413d 59d0 0f3d d4fa 32bd 5940 1cbc
00000380: 3c78 c13c eedb 5a3d 6e4b 5a3c 3dde f33d
00000390: 472a 03bc 1a41 04bb 382e ef3b 822e 613c
000003a0: 6648 0ebd 14cf f73c 43ef fb3d 69a4 bdbc
000003b0: 8059 ee3d 69b5 f1bd 2491 013e 8588 ac3d
000003c0: 78ec e63b 1916 f1bb b0b0 c73c 8cae 273d
000003d0: a307 153e 10d3 b8bd 7f18 813d 54e3 3abe
000003e0: 3645 b73c a7ec aabd a2eb dabd b4fb a03d
000003f0: 7c93 d73d 909a a53a 0b13 5c3d 5691 5c3d

layer_list.conv2.att_src f4 [1, 1, 7]
-0.06121481 -0.0064661023 -0.06389414 -0.004888459 0.031700376 -0.021585925 0.014565483
00000000: 61bc 7abd 99e1 d3bb eeda 82bd 5e2f a0bb
00000010: 41d8 013d f7d4 b0bc 10a4 6e3c

layer_list.conv2.att_dst f4 [1, 1, 7]
-0.19757845 0.16850336 -0.4662628 -0.4112013 3.259841e-05 0.30601245 0.44520015
00000000: 0152 4abe 258c 2c3e ffb9 eebe fa88 d2be
00000010: 47ba 0838 aaad 9c3e 46f1 e33e

layer_list.conv2.bias f4 [7]
-0.16528545 -0.5979384 -0.11543868 0.71376604 0.040015783 -0.29818147 -0.6994333
00000000: 9740 29be 7e12 19bf 1d6b ecbd 5fb9 363f
00000010: 97e7 233d 3eab 98be 100e 33bf

layer_list.conv2.lin_src.weight f4 [7, 64]
-1.4193252 -1.0549775 1.413819 -0.8583128 1.3019032 1.2602879 -1.0031965 -0.6009201
-1.0809389 1.2113506 -1.3345525 1.2659609 0.7541257 0.7610091 0.8628457 -1.1467228
1.3819032 -1.1374886 -1.2113625 0.8140035 -1.3860629 -0.40815502 -0.9402658 -0.94363123
-0.49154577 1.148984 -0.94361526 -1.1322474 -0.52597886 0.24796553 0.9139087 -1.3367937
0.8405286 1.1342782 -0.31985515 1.2192442 -1.1485972 0.8379482 -0.94721687 -0.23897594
1.1595885 0.98959345 -1.3105503 -0.07257085 1.092124 -0.9011584 0.6905826 -1.2965659
1.072149 0.87885916 -1.29999 1.1183461 0.97043824 0.31986028 -1.1754231 0.8920302
-0.97311944 -0.88207126 0.9282725 -1.2573577 -0.8980038 0.8838118 -1.1732761 -1.2876992
-1.3333336 -1.1200287 -1.1431804 1.3180445 -0.8178545 -1.1837074 0.9366495 1.0954181
-1.2580804 -0.8831359 0.9667644 -1.179198 1.1399775 0.5145516 -1.2709363 0.8747351
-1.1400535 1.1975498 1.2165875 -0.29154062 -1.0064898 -1.2521197 -1.0797056 1.2483786
1.0002239 -1.0069838 0.5193032 1.1271634 -0.86761355 1.012292 0.069398016 0.004170771
1.2238435 0.96602136 -1.2049685 0.832279 1.1504819 -0.8501693 1.1830709 1.1090481
-0.4277476 -1.0198328 -1.3816609 0.40414903 -0.89882904 -0.9199634 -1.0451342 -0.18097652
-1.1358007 -0.49875236 1.0191718 -1.1287323 -0.26421168 1.3786347 1.2571228 -1.2371936
-1.2835538 -1.2105336 0.9430745 1.180591 -1.0837823 -1.1788921 -0.9738357 1.2205797
-1.2890955 1.0053229 1.0409364 1.0046821 0.9405337 -1.1703517 1.1324526 -1.0624101
-0.9366358 -0.79545355 0.93382293 -0.54562545 -0.9572971 -1.1242087 1.086376 -0.691219
1.1817508 1.0343097 1.1086187 -1.2357585 1.0820043 -0.89724576 1.0665152 -1.1006715
-1.0498297 -1.1196615 0.9661087 1.1428765 -0.7707483 -1.0441612 1.1936954 -1.0183816
-0.3451677 1.0240436 -0.9275917 -1.2032708 1.1750178 -0.5696564 -0.8471063 -1.16026
1.2083122 -1.0963063 -0.5808662 -0.7796957 -0.9460235 0.15895224 -1.1707777 -0.97329247
-1.0467274 -1.2069998 -0.44595605 0.52617913 1.009272 -0.61049867 1.0922401 1.121616
1.1138489 1.1947557 -1.0601596 -1.0382888 0.9909722 -1.282548 0.8757087 0.9359877
1.140723 1.1735758 -1.092334 -0.8200553 -1.0581515 -0.65862197 -1.1512984 -1.030163
1.183427 -0.76820385 -0.9294829 1.0617137 0.016190372 -1.1543626 -0.026079506 -0.7973827
-1.3668854 -0.6696983 -1.010364 -1.2695677 0.54010046 -0.6849579 1.269099 0.53947544
-1.1102211 -1.195731 -0.94833964 -1.1940955 0.89377046 -1.0745873 -1.1855739 1.1828439
-0.8652954 0.7779151 1.033378 1.2275406 0.67296493 -0.82932323 1.1297476 -0.88010013
-1.2831076 0.8338076 1.0034457 -1.0825355 -1.2249888 0.9152962 0.6899216 -1.153021
-0.92396975 -1.170849 0.936308 -0.8532316 -1.1747413 -1.1675053 -0.77851564 -1.2404209
1.1364766 -1.100495 1.0695301 1.0531598 -1.2053827 1.0681741 1.1845746 -0.94512665
00000000: 73ac b5bf 8109 87bf 05f8 b43f 63ba 5bbf
00000010: c4a4 a63f 1d51 a13f be68 80bf e6d5 19bf
00000020: 355c 8abf 890d 9b3f 9ed2 aabf 020b a23f
00000030: 620e 413f 7ed1 423f 75e3 5c3f d0c7 92bf
00000040: 34e2 b03f 3a99 91bf ed0d 9bbf 8962 503f
00000050: 826a b1bf b2f9 d0be 42b5 70bf d191 71bf
00000060: e3ab fbbe e811 933f c590 71bf 7ced 90bf
00000070: 8da6 06bf adea 7d3e ecf5 693f 0e1c abbf
00000080: e22c 573f 0730 913f 0ec4 a3be 3210 9c3f
00000090: 3c05 93bf c683 563f ce7c 72bf 1cb6 74be
000000a0: 656d 943f ff55 7d3f 1dc0 a7bf 07a0 94bd
000000b0: b8ca 8b3f 51b2 66bf 05ca 303f dff5 a5bf
000000c0: 2e3c 893f eafc 603f 1366 a6bf f725 8f3f
000000d0: a46e 783f bac4 a33e 4474 96bf 175c 643f
000000e0: 5b1e 79bf 6ccf 61bf 44a3 6d3f 19f1 a0bf
000000f0: 94e3 65bf 7d41 623f e92d 96bf 54d3 a4bf
00000100: adaa aabf 1a5d 8fbf bc53 92bf afb5 a83f
00000110: ea5e 51bf b983 97bf 43c8 6f3f a936 8c3f
00000120: c708 a1bf 3215 62bf df7d 773f f6ef 96bf
00000130: c8ea 913f a7b9 033f 0aae a2bf a4ee 5f3f
00000140: 46ed 91bf 5049 993f 24b9 9b3f d044 95be
00000150: a8d4 80bf 7545 a0bf cb33 8abf dfca 9f3f
00000160: 5607 803f d8e4 80bf 0ef1 043f e446 903f
00000170: ec1b 5ebf c992 813f 8c20 8e3d f7aa 883b
00000180: e7a6 9c3f 2d4d 773f 683c 9abf 3d10 553f
00000190: fe42 933f b2a4 59bf de6e 973f 4af5 8d3f
000001a0: bc01 dbbe e289 82bf 44da b0bf 9fec ce3e
000001b0: a919 66bf b982 6bbf f5c6 85bf e951 39be
000001c0: eb61 91bf 785c ffbe 3974 823f 4d7a 90bf
000001d0: c146 87be 1a77 b03f 66e9 a03f 5c5c 9ebf
000001e0: 7e4b a4bf c4f2 9abf 556d 713f 9b1d 973f
000001f0: 61b9 8abf f0e5 96bf 4c4d 79bf f53b 9c3f
00000200: 1501 a5bf 6cae 803f 673d 853f 6c99 803f
00000210: d1c6 703f 16ce 95bf 35f4 903f 0efd 87bf
00000220: 5dc7 6fbf d8a2 4bbf 050f 6f3f 1cae 0bbf
00000230: 6c11 75bf 12e6 8fbf 5e0e 8b3f baf3 30bf
00000240: 9c43 973f 4364 843f 38e7 8d3f 562d 9ebf
00000250: 1e7f 8a3f e6b1 65bf 9283 883f cee2 8cbf
00000260: d260 86bf 1151 8fbf e652 773f c749 923f
00000270: c34f 45bf 13a7 85bf 03cb 983f 545a 82bf
00000280: d2b9 b0be dc13 833f a676 6dbf c704 9abf
00000290: fc66 963f 00d5 11bf f5db 58bf 6683 94bf
000002a0: f9a9 9a3f c453 8cbf a6b3 14bf 239a 47bf
000002b0: 992e 72bf 60c4 223e 0bdc 95bf b229 79bf
000002c0: 2afb 85bf f87e 9abf 5a54 e4be adb3 063f
000002d0: d32f 813f a449 1cbf 86ce 8b3f 1d91 8f3f
000002e0: 9a92 8e3f c1ed 983f 4fb3 87bf a6e6 84bf
000002f0: 5bb0 7d3f 882a a4bf 722e 603f e49c 6f3f
00000300: 3603 923f bb37 963f 9ad1 8bbf 25ef 51bf
00000310: 8271 87bf 739b 28bf bf5d 93bf 62dc 83bf
00000320: 897a 973f 02a9 44bf 97f2 6dbf 3ce6 873f
00000330: aca1 843c 27c2 93bf b0a4 d5bc 4621 4cbf
00000340: 1af6 aebf 5971 2bbf 9c53 81bf 3281 a2bf
00000350: 0644 0a3f 6759 2fbf d671 a23f 101b 0a3f
00000360: ba1b 8ebf b70d 99bf 63c6 72bf 1fd8 98bf
00000370: 24ce 643f 148c 89bf e3c0 97bf 6e67 973f
00000380: 0084 5dbf 7225 473f bb45 843f 0d20 9d3f
00000390: 6e47 2c3f 874e 54bf 929b 903f 3e4e 61bf
000003a0: df3c a4bf 6a74 553f e970 803f 8690 8abf
000003b0: 6fcc 9cbf da50 6a3f b49e 303f 3196 93bf
000003c0: 4889 6cbf 61de 95bf e2b1 6f3f 636d 5abf
000003d0: ec5d 96bf d070 95bf cd4c 47bf 1dc6 9ebf
000003e0: 1178 913f 05dd 8cbf 5de6 883f f1cd 863f
000003f0: fb49 9abf eeb9 883f 24a0 973f d2f3 71bf

layer_list.conv2.lin_dst.weight f4 [7, 64]
-1.4193252 -1.0549775 1.413819 -0.8583128 1.3019032 1.2602879 -1.0031965 -0.6009201
-1.0809389 1.2113506 -1.3345525 1.2659609 0.7541257 0.7610091 0.8628457 -1.1467228
1.3819032 -1.1374886 -1.2113625 0.8140035 -1.3860629 -0.40815502 -0.9402658 -0.94363123
-0.49154577 1.148984 -0.94361526 -1.1322474 -0.52597886 0.24796553 0.9139087 -1.3367937
0.8405286 1.1342782 -0.31985515 1.2192442 -1.1485972 0.8379482 -0.94721687 -0.23897594
1.1595885 0.98959345 -1.3105503 -0.07257085 1.092124 -0.9011584 0.6905826 -1.2965659
1.072149 0.87885916 -1.29999 1.1183461 0.97043824 0.31986028 -1.1754231 0.8920302
-0.97311944 -0.88207126 0.9282725 -1.2573577 -0.8980038 0.8838118 -1.1732761 -1.2876992
-1.3333336 -1.1200287 -1.1431804 1.3180445 -0.8178545 -1.1837074 0.9366495 1.0954181
-1.2580804 -0.8831359 0.9667644 -1.179198 1.1399775 0.5145516 -1.2709363 0.8747351
-1.1400535 1.1975498 1.2165875 -0.29154062 -1.0064898 -1.2521197 -1.0797056 1.2483786
1.0002239 -1.0069838 0.5193032 1.1271634 -0.86761355 1.012292 0.069398016 0.004170771
1.2238435 0.96602136 -1.2049685 0.832279 1.1504819 -0.8501693 1.1830709 1.1090481
-0.4277476 -1.0198328 -1.3816609 0.40414903 -0.89882904 -0.9199634 -1.0451342 -0.18097652
-1.1358007 -0.49875236 1.0191718 -1.1287323 -0.26421168 1.3786347 1.2571228 -1.2371936
-1.2835538 -1.2105336 0.9430745 1.180591 -1.0837823 -1.1788921 -0.9738357 1.2205797
-1.2890955 1.0053229 1.0409364 1.0046821 0.9405337 -1.1703517 1.1324526 -1.0624101
-0.9366358 -0.79545355 0.93382293 -0.54562545 -0.9572971 -1.1242087 1.086376 -0.691219
1.1817508 1.0343097 1.1086187 -1.2357585 1.0820043 -0.89724576 1.0665152 -1.1006715
-1.0498297 -1.1196615 0.9661087 1.1428765 -0.7707483 -1.0441612 1.1936954 -1.0183816
-0.3451677 1.0240436 -0.9275917 -1.2032708 1.1750178 -0.5696564 -0.8471063 -1.16026
1.2083122 -1.0963063 -0.5808662 -0.7796957 -0.9460235 0.15895224 -1.1707777 -0.97329247
-1.0467274 -1.2069998 -0.44595605 0.52617913 1.009272 -0.61049867 1.0922401 1.121616
1.1138489 1.1947557 -1.0601596 -1.0382888 0.9909722 -1.282548 0.8757087 0.9359877
1.140723 1.1735758 -1.092334 -0.8200553 -1.0581515 -0.65862197 -1.1512984 -1.030163
1.183427 -0.76820385 -0.9294829 1.0617137 0.016190372 -1.1543626 -0.026079506 -0.7973827
-1.3668854 -0.6696983 -1.010364 -1.2695677 0.54010046 -0.6849579 1.269099 0.53947544
-1.1102211 -1.195731 -0.94833964 -1.1940955 0.89377046 -1.0745873 -1.1855739 1.1828439
-0.8652954 0.7779151 1.033378 1.2275406 0.67296493 -0.82932323 1.1297476 -0.88010013
-1.2831076 0.8338076 1.0034457 -1.0825355 -1.2249888 0.9152962 0.6899216 -1.153021
-0.92396975 -1.170849 0.936308 -0.8532316 -1.1747413 -1.1675053 -0.77851564 -1.2404209
1.1364766 -1.100495 1.0695301 1.0531598 -1.2053827 1.0681741 1.1845746 -0.94512665
00000000: 73ac b5bf 8109 87bf 05f8 b43f 63ba 5bbf
00000010: c4a4 a63f 1d51 a13f be68 80bf e6d5 19bf
00000020: 355c 8abf 890d 9b3f 9ed2 aabf 020b a23f
00000030: 620e 413f 7ed1 423f 75e3 5c3f d0c7 92bf
00000040: 34e2 b03f 3a99 91bf ed0d 9bbf 8962 503f
00000050: 826a b1bf b2f9 d0be 42b5 70bf d191 71bf
00000060: e3ab fbbe e811 933f c590 71bf 7ced 90bf
00000070: 8da6 06bf adea 7d3e ecf5 693f 0e1c abbf
00000080: e22c 573f 0730 913f 0ec4 a3be 3210 9c3f
00000090: 3c05 93bf c683 563f ce7c 72bf 1cb6 74be
000000a0: 656d 943f ff55 7d3f 1dc0 a7bf 07a0 94bd
000000b0: b8ca 8b3f 51b2 66bf 05ca 303f dff5 a5bf
000000c0: 2e3c 893f eafc 603f 1366 a6bf f725 8f3f
000000d0: a46e 783f bac4 a33e 4474 96bf 175c 643f
000000e0: 5b1e 79bf 6ccf 61bf 44a3 6d3f 19f1 a0bf
000000f0: 94e3 65bf 7d41 623f e92d 96bf 54d3 a4bf
00000100: adaa aabf 1a5d 8fbf bc53 92bf afb5 a83f
00000110: ea5e 51bf b983 97bf 43c8 6f3f a936 8c3f
00000120: c708 a1bf 3215 62bf df7d 773f f6ef 96bf
00000130: c8ea 913f a7b9 033f 0aae a2bf a4ee 5f3f
00000140: 46ed 91bf 5049 993f 24b9 9b3f d044 95be
00000150: a8d4 80bf 7545 a0bf cb33 8abf dfca 9f3f
00000160: 5607 803f d8e4 80bf 0ef1 043f e446 903f
00000170: ec1b 5ebf c992 813f 8c20 8e3d f7aa 883b
00000180: e7a6 9c3f 2d4d 773f 683c 9abf 3d10 553f
00000190: fe42 933f b2a4 59bf de6e 973f 4af5 8d3f
000001a0: bc01 dbbe e289 82bf 44da b0bf 9fec ce3e
000001b0: a919 66bf b982 6bbf f5c6 85bf e951 39be
000001c0: eb61 91bf 785c ffbe 3974 823f 4d7a 90bf
000001d0: c146 87be 1a77 b03f 66e9 a03f 5c5c 9ebf
000001e0: 7e4b a4bf c4f2 9abf 556d 713f 9b1d 973f
000001f0: 61b9 8abf f0e5 96bf 4c4d 79bf f53b 9c3f
00000200: 1501 a5bf 6cae 803f 673d 853f 6c99 803f
00000210: d1c6 703f 16ce 95bf 35f4 903f 0efd 87bf
00000220: 5dc7 6fbf d8a2 4bbf 050f 6f3f 1cae 0bbf
00000230: 6c11 75bf 12e6 8fbf 5e0e 8b3f baf3 30bf
00000240: 9c43 973f 4364 843f 38e7 8d3f 562d 9ebf
00000250: 1e7f 8a3f e6b1 65bf 9283 883f cee2 8cbf
00000260: d260 86bf 1151 8fbf e652 773f c749 923f
00000270: c34f 45bf 13a7 85bf 03cb 983f 545a 82bf
00000280: d2b9 b0be dc13 833f a676 6dbf c704 9abf
00000290: fc66 963f 00d5 11bf f5db 58bf 6683 94bf
000002a0: f9a9 9a3f c453 8cbf a6b3 14bf 239a 47bf
000002b0: 992e 72bf 60c4 223e 0bdc 95bf b229 79bf
000002c0: 2afb 85bf f87e 9abf 5a54 e4be adb3 063f
000002d0: d32f 813f a449 1cbf 86ce 8b3f 1d91 8f3f
000002e0: 9a92 8e3f c1ed 983f 4fb3 87bf a6e6 84bf
000002f0: 5bb0 7d3f 882a a4bf 722e 603f e49c 6f3f
00000300: 3603 923f bb37 963f 9ad1 8bbf 25ef 51bf
00000310: 8271 87bf 739b 28bf bf5d 93bf 62dc 83bf
00000320: 897a 973f 02a9 44bf 97f2 6dbf 3ce6 873f
00000330: aca1 843c 27c2 93bf b0a4 d5bc 4621 4cbf
00000340: 1af6 aebf 5971 2bbf 9c53 81bf 3281 a2bf
00000350: 0644 0a3f 6759 2fbf d671 a23f 101b 0a3f
00000360: ba1b 8ebf b70d 99bf 63c6 72bf 1fd8 98bf
00000370: 24ce 643f 148c 89bf e3c0 97bf 6e67 973f
00000380: 0084 5dbf 7225 473f bb45 843f 0d20 9d3f
00000390: 6e47 2c3f 874e 54bf 929b 903f 3e4e 61bf
000003a0: df3c a4bf 6a74 553f e970 803f 8690 8abf
000003b0: 6fcc 9cbf da50 6a3f b49e 303f 3196 93bf
000003c0: 4889 6cbf 61de 95bf e2b1 6f3f 636d 5abf
000003d0: ec5d 96bf d070 95bf cd4c 47bf 1dc6 9ebf
000003e0: 1178 913f 05dd 8cbf 5de6 883f f1cd 863f
000003f0: fb49 9abf eeb9 883f 24a0 973f d2f3 71bf
