vanilla_models/Cora/5_3f_85/split2/init4/GAT_dp0_5_5e_4_f0.pt (torch, 372919 bytes, 10 tensors)

layer_list.conv1.att_src f4 [1, 8, 8]
0	0x3f08d764	0.5345366
1	0xbf43c5dc	-0.76473784
2	0x3edebb13	0.435021
3	0x3efcf51d	0.49405757
4	0x3f4076f3	0.751815
5	0xbf45715b	-0.7712609
6	0x3f37e8e7	0.71839756
7	0x3f67c959	0.9054161
8	0xbf01d9f8	-0.5072322
9	0x3ed1f9a7	0.41010782
10	0x3ee42048	0.4455588
11	0x3e010cdb	0.1260256
12	0x3e304e43	0.17217354
13	0xbe04bf75	-0.1296366
14	0xbed8308a	-0.42224532
15	0x3e83c0cc	0.2573303
16	0xbf3ac3bd	-0.7295492
17	0xbec1d937	-0.37861034
18	0xbf5f5d96	-0.87252176
19	0xbe511042	-0.20416358
20	0x3ec6dfc6	0.388426
21	0xbdad1af5	-0.08452407
22	0xbe0dbdb1	-0.13841893
23	0xbf7f3edc	-0.9970529
24	0xbe68e7dd	-0.22744699
25	0xbf15a980	-0.5846176
26	0x3ea713ed	0.3263239
27	0x3e1b0b67	0.15141068
28	0x3e80d06c	0.25159013
29	0xbe7d27d9	-0.24722232
30	0xbd549efe	-0.05190944
31	0x3f53d431	0.82745653
32	0x3ec5a4fe	0.38602442
33	0x3ca89824	0.020580359
34	0xbd8159fd	-0.06315992
35	0xbe76122d	-0.24030371
36	0xbf081c36	-0.53168046
37	0x3e945964	0.2897445
38	0x3e13d2ca	0.14435878
39	0xbd23a5fd	-0.03995322
40	0xbdc6bd26	-0.09704046
41	0x3f0c84a9	0.54889923
42	0xbeebf45f	-0.46084878
43	0xbee293fe	-0.44253534
44	0x3f06a684	0.5259783
45	0x3f05bf3c	0.52244925
46	0xbcb6e5da	-0.022326399
47	0xbe80952b	-0.25113806
48	0x3f0d9b8f	0.5531549
49	0xbc69aeee	-0.014262898
50	0x3eafc473	0.34329566
51	0xbca31b8e	-0.0199106
52	0x3ed5e016	0.41772527
53	0x3f2fd182	0.6867906
54	0x3ebb0bef	0.36532542
55	0x3d53b74a	0.05168847
56	0x3e9b2c8f	0.30307433
57	0xbeb30d77	-0.3497121
58	0xbec1a105	-0.3781816
59	0x3f3117c0	0.69176865
60	0x3f3c227c	0.7349012
61	0xbeb82851	-0.3596826
62	0xbf14fcc0	-0.58198166
63	0xbf36c871	-0.713996

layer_list.conv1.att_dst f4 [1, 8, 8]
0	0xbb578de0	-0.003289096
1	0xbe724842	-0.23660377
2	0x3e8a6aa7	0.27034494
3	0xbdb6bfbd	-0.0892329
4	0x3e002190	0.12512803
5	0xbe86cd8a	-0.2632869
6	0x3e1cf450	0.15327573
7	0x3e92adc0	0.28648186
8	0xbe2eb79f	-0.17062233
9	0x3d237607	0.03990748
10	0x3e4c37c1	0.19943143
11	0x3d83f1a3	0.06442573
12	0x3d1b019d	0.037843335
13	0x3cec4988	0.028843656
14	0xbe1a8094	-0.15088111
15	0x3dfbcfd6	0.12295501
16	0xbe5931c0	-0.21210384
17	0xbe615e38	-0.22008598
18	0xbe8b7161	-0.2723494
19	0x3ceb8163	0.02874822
20	0x3db26384	0.08710387
21	0xbddfdc15	-0.10930649
22	0xbdf2d134	-0.118563086
23	0xbe7221c5	-0.23645695
24	0xbde71c28	-0.11284667
25	0xbe1a5af0	-0.15073752
26	0x3e28f6fe	0.1650047
27	0x3d8cf1fd	0.06882093
28	0x3d5cfc94	0.053951815
29	0xbe0037ce	-0.12521288
30	0xbd9eb03e	-0.07748459
31	0x3e444647	0.19167434
32	0x3db591cb	0.088656984
33	0x3d95390d	0.07286272
34	0xbe03bd98	-0.12865293
35	0xbddb43d5	-0.10706297
36	0xbdf1fe29	-0.11816055
37	0x3e45bd23	0.19310431
38	0x3c54445d	0.012955752
39	0x3d016f89	0.03160051
40	0x3cd13948	0.02554001
41	0x3e339368	0.175367
42	0xbe443ca2	-0.19163755
43	0xbe81245a	-0.25223047
44	0x3e8a8e53	0.2706171
45	0x3e56b236	0.2096642
46	0x3dc12fb1	0.094329245
47	0xbe404fe0	-0.1878047
48	0x3d1c8369	0.03821126
49	0x3db95eae	0.09051262
50	0x3e4c9aeb	0.19980972
51	0x3d9845d2	0.07435192
52	0x3e3194fe	0.17341992
53	0x3e145c95	0.14488442
54	0xbdef41ea	-0.11682494
55	0xbe0570a1	-0.13031246
56	0xbd6603c2	-0.056155927
57	0x3df36401	0.118843086
58	0x3d0b69e4	0.034036532
59	0x3da8469b	0.08216592
60	0x3e09ca57	0.13456093
61	0xbe717703	-0.23580556
62	0xbe4c3ffc	-0.19946283
63	0xbe44b58e	-0.19209883

layer_list.conv1.bias f4 [64]
0	0x3ba054b5	0.0048929104
1	0x3bb0d251	0.0053961654
2	0xba903cc3	-0.0011004437
3	0xbc87b1a1	-0.016564192
4	0x3cd0e8cb	0.02550163
5	0x3b43f294	0.0029899227
6	0x3c94ff8b	0.018188259
7	0x3c125327	0.008930958
8	0xbba25397	-0.0049538123
9	0xbc2bbc38	-0.010481887
10	0x3c012c85	0.007884149
11	0x3d0ada58	0.033899635
12	0xbb0c4963	-0.0021406047
13	0x3af6a835	0.001881844
14	0x3aed9429	0.001812582
15	0x3d5c9a55	0.05385812
16	0x3b277bf9	0.0025556071
17	0x3cea1410	0.02857402
18	0x3ce008c4	0.02734793
19	0x3b1bee02	0.0023792987
20	0xbc9984aa	-0.018740017
21	0x3c867cca	0.016416926
22	0x3ce2ee6b	0.027701577
23	0x3cf4f07c	0.029899828
24	0xbcade0d1	-0.021225365
25	0x3cc67619	0.024226235
26	0x3c743634	0.014905501
27	0x3cbae053	0.022812044
28	0xbd07426c	-0.03302233
29	0xbc14bb89	-0.009077915
30	0x3ca2d206	0.019875538
31	0x3c37738b	0.011196981
32	0xbc200ea8	-0.009769119
33	0xbc147cf1	-0.0090629915
34	0xbcbb05c4	-0.022829898
35	0x3cc82cd4	0.024435438
36	0xbcfa831c	-0.030580096
37	0x3c0162cf	0.007897093
38	0xba709eec	-0.00091789546
39	0x3c8af27e	0.016961332
40	0x3cf2e668	0.029650882
41	0x3cd0dfe0	0.025497377
42	0x3ce2dad6	0.02769224
43	0x3b14a855	0.0022683342
44	0x3d0f45ac	0.034978554
45	0x3d0a41d9	0.033754203
46	0xbcbc76c6	-0.023005854
47	0x3bf5858e	0.0074927276
48	0x3d0faf9d	0.035079587
49	0xbb800718	-0.0039070956
50	0x3c9d07d3	0.01916877
51	0x3ac07d00	0.001468569
52	0xbbc4feee	-0.0060118353
53	0x3d232bcf	0.0398367
54	0x3cb15850	0.021648556
55	0x3c7f8616	0.015595933
56	0x3bc5dff5	0.0060386606
57	0x3c7843b8	0.015152864
58	0x3cf70342	0.03015292
59	0xbd5429c1	-0.051797632
60	0x3b357802	0.0027689938
61	0x3cc56a46	0.024098527
62	0x3cea1494	0.028574266
63	0x3d2799db	0.040918212

layer_list.conv1.lin_src.weight f4 [64, 1433]
0	0xbcc05c6d	-0.023481572
1	0xbd110fe7	-0.035415556
2	0x3e6e565d	0.23275132
3	0xbd7ebfea	-0.062194742
4	0x3ebd2e09	0.36949185
5	0xbcb6b9ec	-0.022305451
6	0xbd913a53	-0.070912026
7	0xbd653d07	-0.055966403
8	0x3dd8f9f5	0.105945505
9	0x3d251f8e	0.040313296
10	0x3d1c9996	0.03823241
11	0xbd118e56	-0.035536133
12	0xbe01c45e	-0.12672564
13	0xbd0b98c9	-0.034081254
14	0x3caaa1f4	0.020829178
15	0x3dbad317	0.091222934
16	0xbd0d3aee	-0.034480028
17	0x3d398274	0.045290425
18	0xbda341fe	-0.079715714
19	0xbe969427	-0.29409906
20	0xbd8dc6ef	-0.06922709
21	0x3cc4b266	0.024010848
22	0xbcfb1b76	-0.030652743
23	0xbdc96992	-0.09834589
24	0x3c8b46c4	0.017001517
25	0x3e0be776	0.13662514
26	0x3ddff74f	0.10935842
27	0xbe38bafb	-0.18040077
28	0xbd10953f	-0.035298582
29	0x3d270be6	0.04078283
30	0xbdbb0a59	-0.09132833
31	0xbc2bffb2	-0.010497974
32	0xbd5e98f7	-0.054345097
33	0x3c88c904	0.016697414
34	0xbd713467	-0.058887865
35	0x3cf60d47	0.030035628
36	0xbdad15fe	-0.0845146
37	0x3ce25b38	0.027631387
38	0xbe8d45c3	-0.27592286
39	0xbe9a2d73	-0.301128
40	0x3dbe305d	0.09286568
41	0xbda55c36	-0.080742285
42	0xbd9f3f86	-0.07775788
43	0x3c4b0daf	0.012393399
44	0x3c89e57d	0.016833061
45	0x3c8f711a	0.017509986
46	0x3d967261	0.07346035
47	0xbda0e16c	-0.07855496
48	0xbdbb1934	-0.091356665
49	0x3e28d475	0.16487296
50	0xbd13b324	-0.036059514
51	0xbe65ce05	-0.22441871
52	0xbe198181	-0.14990808
53	0x3c4f5f07	0.012656934
54	0xbc3f950e	-0.011693252
55	0x3d58e1e9	0.05294982
56	0x3dd4732a	0.10373528
57	0xbdbc749d	-0.0920193
58	0xbe59b065	-0.21258695
59	0x3c535f8c	0.012901198
60	0x3c78bb6a	0.015181402
61	0x3d841064	0.06448439
62	0x3d1bedf1	0.038068715
63	0x3db48575	0.088145174
64	0x3cbf1f3f	0.023330329
65	0xbe26c520	-0.16286135
66	0xbd021bc5	-0.031764764
67	0xbe10ca8a	-0.14139763
68	0x3bf357bc	0.0074262302
69	0xbc501eb6	-0.012702635
70	0x3d3fb03e	0.046798937
71	0x3cd39fa8	0.025832966
72	0x3b92acfb	0.0044761873
73	0xbc01582b	-0.007894556
74	0xbce675c9	-0.028132336
75	0xbc606435	-0.013695766
76	0xbe038f7f	-0.12847708
77	0xbe3e1da7	-0.18565999
78	0xbe2945c7	-0.16530524
79	0xbc73c183	-0.01487768
80	0xbc30f0be	-0.010799585
81	0x3d1b7a87	0.037958648
82	0xbded46dd	-0.11585782
83	0x3d3a2f63	0.045455348
84	0x3c1ce971	0.009577141
85	0xbe1769e2	-0.14786485
86	0x3cf46df1	0.02983758
87	0x3def62b5	0.11688749
88	0x3dc6376f	0.09678542
89	0x3e0c05f3	0.13674144
90	0xbd92e472	-0.07172479
91	0x3cfe9f3f	0.031081794
92	0x3ca06e3b	0.019583812
93	0x3eb1d0f5	0.34729734
94	0x3c9a6378	0.018846259
95	0xbcc4d0be	-0.024025317
96	0xbd0abb6f	-0.033870157
97	0xbca5f81e	-0.020259913
98	0x3da28e64	0.07937315
99	0x3dc6519b	0.09683534
100	0xbd247148	-0.040147096
101	0x3d6bbdec	0.05755417
102	0xbd8d9da1	-0.06914831
103	0xbdaa0c4d	-0.083031274
104	0xbd5372b9	-0.05162308
105	0xbd836978	-0.06416601
106	0xbdb5ce38	-0.08877224
107	0xbd615b21	-0.055018548
108	0xbcf98f31	-0.030463787
109	0x3b82103d	0.003969221
110	0xbce265f8	-0.027636513
111	0xbd1ec7c1	-0.03876472
112	0x3cf1b5b6	0.029505592
113	0x3a0b8b61	0.0005323198
114	0x3a9f7980	0.0012166947
115	0xbd208a7f	-0.03919458
116	0xbc0847f1	-0.008317933
117	0xbd9a6f15	-0.075407185
118	0x3ea4b6a8	0.32170606
119	0xbc2daca8	-0.0106002465
120	0xbd17bb4f	-0.037043866
121	0xbe5b50c7	-0.21417533
122	0x3d8ab04d	0.06771908
123	0xbcce9c04	-0.025220878
124	0xbd1404e5	-0.03613748
125	0x3dacd647	0.08439308
126	0xbd6f1ea1	-0.05837882
127	0x3d60f2b3	0.054918956
128	0xbe31e1a1	-0.17371227
129	0xbdc53e55	-0.096310295
130	0xbe060e09	-0.13091291
131	0xbdcfeeb4	-0.10152951
132	0xbd272d74	-0.04081483
133	0x3e1d9990	0.1539061
134	0x3daf9134	0.08572617
135	0xbeb7439f	-0.35793778
136	0xbd663136	-0.056199275
137	0x3c8a60ff	0.016891954
138	0xbcd053fa	-0.025430668
139	0xbcf1feb9	-0.029540407
140	0x3ea0df66	0.3142044
141	0x3d40ba5b	0.047052722
142	0xbd6e3b5f	-0.05816209
143	0xbd3f6373	-0.0467257
144	0xbdd0b4bf	-0.101907246
145	0xbd1c5a9b	-0.038172346
146	0xbe887073	-0.26648292
147	0xbb993a89	-0.0046761674
148	0xbce0c4ab	-0.027437529
149	0xbdbdf3c1	-0.09275008
150	0xbdc0740e	-0.09397136
151	0x3b4ba7a8	0.0031075273
152	0xbdec71e3	-0.1154516
153	0x3d1ddb1f	0.03853905
154	0x3df2b199	0.1185028
155	0xbda25faa	-0.07928403
156	0xbd22288a	-0.039589442
157	0xbe00f3a5	-0.12592943
158	0x3ccf9867	0.025341226
159	0x3c8f7fbd	0.017516965
160	0xbd2ae265	-0.041719813
161	0x3c5f4906	0.01362825
162	0x3d6319e8	0.055444628
163	0x3be7805a	0.0070648612
164	0xbb80db29	-0.003932376
165	0x3cca9bec	0.024732552
166	0x3c24756c	0.010037761
167	0x3da970de	0.08273481
168	0xbe444800	-0.19168091
169	0xbd10c586	-0.035344623
170	0x3cf57195	0.029961387
171	0x395adba8	0.00020871928
172	0xbdb9e0bd	-0.090760686
173	0x3db8d55e	0.090250716
174	0x3b89a653	0.0042007356
175	0x3d63a67f	0.055578705
176	0xbe073b20	-0.13206148
177	0xbcfff8d1	-0.031246575
178	0xbd352ebf	-0.044234034
179	0x3e2f2482	0.1710377
180	0x3c42008a	0.011840949
181	0x3c808878	0.015690073
182	0x3ba6dd4b	0.005092298
183	0xbd42a9a5	-0.047525067
184	0x3cda650e	0.026659515
185	0xbbe8bd48	-0.007102642
186	0x3bb4013c	0.005493311
187	0x3e06fc4d	0.13182183
188	0xbd824b08	-0.06361967
189	0xba01985d	-0.00049436634
190	0xbc80a8d6	-0.015705507
191	0x3e751d07	0.23936854
192	0x3d227677	0.039663758
193	0xbdc90981	-0.09816266
194	0xbd8c7f5e	-0.06860231
195	0x3d774c2d	0.06037538
196	0x3d3c4579	0.04596469
197	0x3e3022c4	0.17200762
198	0xbc9226e2	-0.017840806
199	0xbb6cf9e5	-0.003615969
200	0xbe0bfbbc	-0.13670248
201	0xbc2ccf0d	-0.010547412
202	0x3e099163	0.13434367
203	0x3d3a9020	0.045547605
204	0xbdc241a4	-0.09485176
205	0x3ed5b54e	0.41739887
206	0xbce984f7	-0.028505785
207	0xbdb3d045	-0.08779959
208	0xbce37df1	-0.027770014
209	0xbd3063ac	-0.043063805
210	0x3d99cacf	0.07509386
211	0x3dfea834	0.12434426
212	0xbe3fa4b0	-0.18715167
213	0x3e121845	0.1426707
214	0x3d410e6e	0.0471329
215	0x3d9698dd	0.07353375
216	0xbc8a8eab	-0.016913733
217	0xbc0f285a	-0.008737648
218	0x3d87bf84	0.066283256
219	0xb8e4bb43	-0.000109067674
220	0xbba0f366	-0.004911828
221	0x3b20f26c	0.0024558557
222	0x3dca302b	0.098724686
223	0x3b8ddb06	0.004329088
224	0x3e1e1b67	0.1544014
225	0xbe28e284	-0.16492659
226	0xbc72568e	-0.014791144
227	0xbd26c895	-0.040718634
228	0xbe056d83	-0.13030057
229	0xbc35a9f8	-0.011087887
230	0x3e47dce9	0.19517864
231	0x3d909323	0.07059314
232	0x3c6c7b07	0.014433629
233	0x3d89f046	0.06735282
234	0x3e005c16	0.12535128
235	0x3d6606dc	0.056158885
236	0x3d1c930c	0.038226172
237	0xbd8a38b1	-0.06749094
238	0xbe41942d	-0.18904181
239	0x3d2d872e	0.042365246
240	0x3d552138	0.052033633
241	0xbd82613b	-0.063662015
242	0x3d5a210b	0.05325417
243	0xbbf37910	-0.0074302033
244	0xbdbc3b8c	-0.09191045
245	0x3cd38cc7	0.025823964
246	0xbd828623	-0.06373241
247	0x3dd5c96d	0.104388095
248	0x3b338406	0.0027391925
249	0xbcbf1057	-0.023323221
250	0x3e3187aa	0.17336908
251	0xbcb1ede6	-0.021719884
252	0xbd906977	-0.07051366
253	0xbd609d4f	-0.05483752
254	0xbbdf224a	-0.0068095075
255	0xb8d4bb6a	-0.00010143856

layer_list.conv1.lin_dst.weight f4 [64, 1433]
0	0xbcc05c6d	-0.023481572
1	0xbd110fe7	-0.035415556
2	0x3e6e565d	0.23275132
3	0xbd7ebfea	-0.062194742
4	0x3ebd2e09	0.36949185
5	0xbcb6b9ec	-0.022305451
6	0xbd913a53	-0.070912026
7	0xbd653d07	-0.055966403
8	0x3dd8f9f5	0.105945505
9	0x3d251f8e	0.040313296
10	0x3d1c9996	0.03823241
11	0xbd118e56	-0.035536133
12	0xbe01c45e	-0.12672564
13	0xbd0b98c9	-0.034081254
14	0x3caaa1f4	0.020829178
15	0x3dbad317	0.091222934
16	0xbd0d3aee	-0.034480028
17	0x3d398274	0.045290425
18	0xbda341fe	-0.079715714
19	0xbe969427	-0.29409906
20	0xbd8dc6ef	-0.06922709
21	0x3cc4b266	0.024010848
22	0xbcfb1b76	-0.030652743
23	0xbdc96992	-0.09834589
24	0x3c8b46c4	0.017001517
25	0x3e0be776	0.13662514
26	0x3ddff74f	0.10935842
27	0xbe38bafb	-0.18040077
28	0xbd10953f	-0.035298582
29	0x3d270be6	0.04078283
30	0xbdbb0a59	-0.09132833
31	0xbc2bffb2	-0.010497974
32	0xbd5e98f7	-0.054345097
33	0x3c88c904	0.016697414
34	0xbd713467	-0.058887865
35	0x3cf60d47	0.030035628
36	0xbdad15fe	-0.0845146
37	0x3ce25b38	0.027631387
38	0xbe8d45c3	-0.27592286
39	0xbe9a2d73	-0.301128
40	0x3dbe305d	0.09286568
41	0xbda55c36	-0.080742285
42	0xbd9f3f86	-0.07775788
43	0x3c4b0daf	0.012393399
44	0x3c89e57d	0.016833061
45	0x3c8f711a	0.017509986
46	0x3d967261	0.07346035
47	0xbda0e16c	-0.07855496
48	0xbdbb1934	-0.091356665
49	0x3e28d475	0.16487296
50	0xbd13b324	-0.036059514
51	0xbe65ce05	-0.22441871
52	0xbe198181	-0.14990808
53	0x3c4f5f07	0.012656934
54	0xbc3f950e	-0.011693252
55	0x3d58e1e9	0.05294982
56	0x3dd4732a	0.10373528
57	0xbdbc749d	-0.0920193
58	0xbe59b065	-0.21258695
59	0x3c535f8c	0.012901198
60	0x3c78bb6a	0.015181402
61	0x3d841064	0.06448439
62	0x3d1bedf1	0.038068715
63	0x3db48575	0.088145174
64	0x3cbf1f3f	0.023330329
65	0xbe26c520	-0.16286135
66	0xbd021bc5	-0.031764764
67	0xbe10ca8a	-0.14139763
68	0x3bf357bc	0.0074262302
69	0xbc501eb6	-0.012702635
70	0x3d3fb03e	0.046798937
71	0x3cd39fa8	0.025832966
72	0x3b92acfb	0.0044761873
73	0xbc01582b	-0.007894556
74	0xbce675c9	-0.028132336
75	0xbc606435	-0.013695766
76	0xbe038f7f	-0.12847708
77	0xbe3e1da7	-0.18565999
78	0xbe2945c7	-0.16530524
79	0xbc73c183	-0.01487768
80	0xbc30f0be	-0.010799585
81	0x3d1b7a87	0.037958648
82	0xbded46dd	-0.11585782
83	0x3d3a2f63	0.045455348
84	0x3c1ce971	0.009577141
85	0xbe1769e2	-0.14786485
86	0x3cf46df1	0.02983758
87	0x3def62b5	0.11688749
88	0x3dc6376f	0.09678542
89	0x3e0c05f3	0.13674144
90	0xbd92e472	-0.07172479
91	0x3cfe9f3f	0.031081794
92	0x3ca06e3b	0.019583812
93	0x3eb1d0f5	0.34729734
94	0x3c9a6378	0.018846259
95	0xbcc4d0be	-0.024025317
96	0xbd0abb6f	-0.033870157
97	0xbca5f81e	-0.020259913
98	0x3da28e64	0.07937315
99	0x3dc6519b	0.09683534
100	0xbd247148	-0.040147096
101	0x3d6bbdec	0.05755417
102	0xbd8d9da1	-0.06914831
103	0xbdaa0c4d	-0.083031274
104	0xbd5372b9	-0.05162308
105	0xbd836978	-0.06416601
106	0xbdb5ce38	-0.08877224
107	0xbd615b21	-0.055018548
108	0xbcf98f31	-0.030463787
109	0x3b82103d	0.003969221
110	0xbce265f8	-0.027636513
111	0xbd1ec7c1	-0.03876472
112	0x3cf1b5b6	0.029505592
113	0x3a0b8b61	0.0005323198
114	0x3a9f7980	0.0012166947
115	0xbd208a7f	-0.03919458
116	0xbc0847f1	-0.008317933
117	0xbd9a6f15	-0.075407185
118	0x3ea4b6a8	0.32170606
119	0xbc2daca8	-0.0106002465
120	0xbd17bb4f	-0.037043866
121	0xbe5b50c7	-0.21417533
122	0x3d8ab04d	0.06771908
123	0xbcce9c04	-0.025220878
124	0xbd1404e5	-0.03613748
125	0x3dacd647	0.08439308
126	0xbd6f1ea1	-0.05837882
127	0x3d60f2b3	0.054918956
128	0xbe31e1a1	-0.17371227
129	0xbdc53e55	-0.096310295
130	0xbe060e09	-0.13091291
131	0xbdcfeeb4	-0.10152951
132	0xbd272d74	-0.04081483
133	0x3e1d9990	0.1539061
134	0x3daf9134	0.08572617
135	0xbeb7439f	-0.35793778
136	0xbd663136	-0.056199275
137	0x3c8a60ff	0.016891954
138	0xbcd053fa	-0.025430668
139	0xbcf1feb9	-0.029540407
140	0x3ea0df66	0.3142044
141	0x3d40ba5b	0.047052722
142	0xbd6e3b5f	-0.05816209
143	0xbd3f6373	-0.0467257
144	0xbdd0b4bf	-0.101907246
145	0xbd1c5a9b	-0.038172346
146	0xbe887073	-0.26648292
147	0xbb993a89	-0.0046761674
148	0xbce0c4ab	-0.027437529
149	0xbdbdf3c1	-0.09275008
150	0xbdc0740e	-0.09397136
151	0x3b4ba7a8	0.0031075273
152	0xbdec71e3	-0.1154516
153	0x3d1ddb1f	0.03853905
154	0x3df2b199	0.1185028
155	0xbda25faa	-0.07928403
156	0xbd22288a	-0.039589442
157	0xbe00f3a5	-0.12592943
158	0x3ccf9867	0.025341226
159	0x3c8f7fbd	0.017516965
160	0xbd2ae265	-0.041719813
161	0x3c5f4906	0.01362825
162	0x3d6319e8	0.055444628
163	0x3be7805a	0.0070648612
164	0xbb80db29	-0.003932376
165	0x3cca9bec	0.024732552
166	0x3c24756c	0.010037761
167	0x3da970de	0.08273481
168	0xbe444800	-0.19168091
169	0xbd10c586	-0.035344623
170	0x3cf57195	0.029961387
171	0x395adba8	0.00020871928
172	0xbdb9e0bd	-0.090760686
173	0x3db8d55e	0.090250716
174	0x3b89a653	0.0042007356
175	0x3d63a67f	0.055578705
176	0xbe073b20	-0.13206148
177	0xbcfff8d1	-0.031246575
178	0xbd352ebf	-0.044234034
179	0x3e2f2482	0.1710377
180	0x3c42008a	0.011840949
181	0x3c808878	0.015690073
182	0x3ba6dd4b	0.005092298
183	0xbd42a9a5	-0.047525067
184	0x3cda650e	0.026659515
185	0xbbe8bd48	-0.007102642
186	0x3bb4013c	0.005493311
187	0x3e06fc4d	0.13182183
188	0xbd824b08	-0.06361967
189	0xba01985d	-0.00049436634
190	0xbc80a8d6	-0.015705507
191	0x3e751d07	0.23936854
192	0x3d227677	0.039663758
193	0xbdc90981	-0.09816266
194	0xbd8c7f5e	-0.06860231
195	0x3d774c2d	0.06037538
196	0x3d3c4579	0.04596469
197	0x3e3022c4	0.17200762
198	0xbc9226e2	-0.017840806
199	0xbb6cf9e5	-0.003615969
200	0xbe0bfbbc	-0.13670248
201	0xbc2ccf0d	-0.010547412
202	0x3e099163	0.13434367
203	0x3d3a9020	0.045547605
204	0xbdc241a4	-0.09485176
205	0x3ed5b54e	0.41739887
206	0xbce984f7	-0.028505785
207	0xbdb3d045	-0.08779959
208	0xbce37df1	-0.027770014
209	0xbd3063ac	-0.043063805
210	0x3d99cacf	0.07509386
211	0x3dfea834	0.12434426
212	0xbe3fa4b0	-0.18715167
213	0x3e121845	0.1426707
214	0x3d410e6e	0.0471329
215	0x3d9698dd	0.07353375
216	0xbc8a8eab	-0.016913733
217	0xbc0f285a	-0.008737648
218	0x3d87bf84	0.066283256
219	0xb8e4bb43	-0.000109067674
220	0xbba0f366	-0.004911828
221	0x3b20f26c	0.0024558557
222	0x3dca302b	0.098724686
223	0x3b8ddb06	0.004329088
224	0x3e1e1b67	0.1544014
225	0xbe28e284	-0.16492659
226	0xbc72568e	-0.014791144
227	0xbd26c895	-0.040718634
228	0xbe056d83	-0.13030057
229	0xbc35a9f8	-0.011087887
230	0x3e47dce9	0.19517864
231	0x3d909323	0.07059314
232	0x3c6c7b07	0.014433629
233	0x3d89f046	0.06735282
234	0x3e005c16	0.12535128
235	0x3d6606dc	0.056158885
236	0x3d1c930c	0.038226172
237	0xbd8a38b1	-0.06749094
238	0xbe41942d	-0.18904181
239	0x3d2d872e	0.042365246
240	0x3d552138	0.052033633
241	0xbd82613b	-0.063662015
242	0x3d5a210b	0.05325417
243	0xbbf37910	-0.0074302033
244	0xbdbc3b8c	-0.09191045
245	0x3cd38cc7	0.025823964
246	0xbd828623	-0.06373241
247	0x3dd5c96d	0.104388095
248	0x3b338406	0.0027391925
249	0xbcbf1057	-0.023323221
250	0x3e3187aa	0.17336908
251	0xbcb1ede6	-0.021719884
252	0xbd906977	-0.07051366
253	0xbd609d4f	-0.05483752
254	0xbbdf224a	-0.0068095075
255	0xb8d4bb6a	-0.00010143856

layer_list.conv2.att_src f4 [1, 1, 7]
0	0xbdac823e	-0.08423279
1	0xbbbad24c	-0.005701339
2	0xbdda27e6	-0.10652141
3	0xbdb275c2	-0.08713867
4	0x3daaa1df	0.08331656
5	0xbde96bb1	-0.11397494
6	0x3dc7c486	0.09754281

layer_list.conv2.att_dst f4 [1, 1, 7]
0	0xbe3e374d	-0.18575783
1	0x3dc57fc6	0.096435115
2	0xbe3ada72	-0.18247393
3	0x3c25ed42	0.010127367
4	0x3e5a24b9	0.21303071
5	0xbec20274	-0.37892497
6	0x3f205f79	0.6264568

layer_list.conv2.bias f4 [7]
0	0xbe5b3ec3	-0.2141066
1	0xbf2c3ef4	-0.6728356
2	0xbde9fcf3	-0.11425199
3	0x3f19d569	0.60091263
4	0x3def3c0c	0.11681375
5	0xbe965a6b	-0.29365858
6	0xbf110775	-0.56652004

layer_list.conv2.lin_src.weight f4 [7, 64]
0	0x3f9bc426	1.2169235
1	0x3f59ff8c	0.8515556
2	0xbf927387	-1.1441506
3	0xbf1bb75b	-0.60826653
4	0xbf7a8c5f	-0.9787044
5	0x3f8bad90	1.0912342
6	0x3f0cb499	0.5496307
7	0xbf7a1fa6	-0.9770454
8	0xbf421b4c	-0.758229
9	0xbfa3ce2f	-1.2797297
10	0xbf9148ca	-1.1350338
11	0xbf92d4e1	-1.1471215
12	0x3f7f5c00	0.99749756
13	0xbf292a75	-0.6608041
14	0x3f0f2516	0.55915964
15	0x3f1e67ec	0.6187732
16	0xbf829dc3	-1.0204395
17	0x3f83d2b1	1.0298673
18	0xbf71fee3	-0.9452955
19	0xbf8c0beb	-1.0941137
20	0x3f8321bd	1.0244671
21	0xbd9034b3	-0.070413016
22	0x3f94f8c6	1.163842
23	0xbf8d3856	-1.1032817
24	0xbe578e44	-0.21050364
25	0x3f8d1cb5	1.1024386
26	0xbf8ab738	-1.0837164
27	0xbf98dc4b	-1.1942228
28	0xbf66e44a	-0.9019209
29	0x3f979cc7	1.184472
30	0x3e077fd0	0.1323235
31	0xbf997a81	-1.199051
32	0xbf759240	-0.95926285
33	0x3ec21bec	0.37911928
34	0xbc9d1b09	-0.01917793
35	0xbe63564f	-0.22200893
36	0x3f8c1a82	1.094559
37	0x3f668a55	0.9005483
38	0xbf176c3e	-0.5914954
39	0xbf86ffe1	-1.0546838
40	0x3f420471	0.7578803
41	0x3f12da89	0.5736471
42	0x3fb73240	1.431221
43	0x3d143645	0.036184568
44	0xbf8577e6	-1.0427215
45	0xbf6f21e6	-0.934111
46	0xbf7fa3f6	-0.9985956
47	0xbf41abb1	-0.75652605
48	0x3f6e2fea	0.9304186
49	0x3f3950da	0.72388995
50	0x3f8729d9	1.0559646
51	0xbf661685	-0.8987811
52	0xbf2563fe	-0.646057
53	0x3ef642fc	0.4809798
54	0xbfa03b47	-1.251809
55	0xbf868b04	-1.0511174
56	0x3e76a7ab	0.24087398
57	0x3f915aaf	1.13558
58	0x3f30521b	0.68875283
59	0xbf685c91	-0.90766245
60	0xbf64066c	-0.890723
61	0x3a35653e	0.00069196883
62	0x3f7211e6	0.9455856
63	0x3f953e60	1.165966
64	0xbf8e55a1	-1.1119882
65	0x3f930fa8	1.1489153
66	0xbf8b7a89	-1.089677
67	0x3e5ac8bd	0.21365638
68	0x3f65e97a	0.8980938
69	0x3f5499b3	0.83047026
70	0x3f611925	0.8792899
71	0x3f938073	1.1523575
72	0x3fa4cf0a	1.2875683
73	0x3f486be8	0.7828965
74	0xbf38d475	-0.72199184
75	0x3f20896d	0.62709695
76	0xbf7129ba	-0.94204295
77	0x3f92b487	1.1461343
78	0x3f65ccf5	0.89765865
79	0xbf16c2f6	-0.58891237
80	0x3e5424eb	0.20717208
81	0xbfa0ffdd	-1.2578083
82	0xbf97a39b	-1.1846803
83	0x3f611789	0.87926537
84	0x3f143beb	0.5790393
85	0xbfaacc5e	-1.3343618
86	0xbf9f2d4a	-1.2435696
87	0xbf6b849c	-0.9199922
88	0x3ebe9145	0.37220207
89	0xbf0e5d16	-0.5561079
90	0x3eb045ac	0.34428155
91	0x3f87ac54	1.0599465
92	0x3f3a028d	0.7266014
93	0x3e844b57	0.2583873
94	0xbf535451	-0.8255053
95	0x3f9ab940	1.2087784
96	0x3ece6833	0.40313873
97	0x3f883447	1.0640954
98	0x3e95a124	0.29224503
99	0x3f59ce67	0.8508057
100	0x3f994068	1.197278
101	0xbf9a4113	-1.2051109
102	0x3e9f3094	0.3109175
103	0xbf8236df	-1.0172995
104	0xbf52a214	-0.8227856
105	0xbeceb778	-0.4037435
106	0xbf425866	-0.75916135
107	0x3f38ff09	0.7226415
108	0xbf79d7d9	-0.9759498
109	0xbf6f26be	-0.9341849
110	0x3f64c3c5	0.8936122
111	0x3f6ea985	0.93227416
112	0x3f6d5b99	0.9271789
113	0xbf977d09	-1.1835033
114	0x3f4df69b	0.80454415
115	0x3fa17afd	1.2615658
116	0x3f9e8e38	1.2387152
117	0x3f87b513	1.0602134
118	0x3f986b0a	1.1907666
119	0x3f70e58e	0.9410027
120	0xbf862574	-1.048018
121	0x3e124377	0.14283548
122	0xbf625ab1	-0.88419634
123	0x3f89b1fe	1.0757444
124	0xbf3aa5b8	-0.72909117
125	0x3f1963b4	0.5991776
126	0xbf8bc70d	-1.092012
127	0x3f6ca8c4	0.92445016
128	0x3f7a4809	0.97766167
129	0xbf9867b8	-1.1906652
130	0x3f3c853e	0.7364081
131	0x3f9cec69	1.2259647
132	0x3f70a288	0.93998003
133	0xbf9578af	-1.1677455
134	0x3f855370	1.0416088
135	0x3f84d350	1.0376987
136	0x3f8b78de	1.0896261
137	0xbf768dc3	-0.9631006
138	0xbe2ebf73	-0.1706522
139	0xbf8cad2e	-1.099035
140	0x3f61593a	0.88026774
141	0xbf2283ae	-0.6348218
142	0x3f65f016	0.8981947
143	0xbf5d6386	-0.86479986
144	0x3f832ee4	1.0248685
145	0xbf617925	-0.88075477
146	0x3f8baa06	1.0911262
147	0x3f7668d5	0.9625371
148	0x3f4f8b95	0.8107236
149	0xbf7eff18	-0.9960799
150	0x3f709435	0.93976146
151	0x3f498c84	0.78730035
152	0xbf3e1712	-0.7425395
153	0xbf884810	-1.0646992
154	0xbf74d2b2	-0.95633996
155	0xbf3d9193	-0.74050254
156	0xbdd6385a	-0.10459967
157	0x3f47e74e	0.7808732
158	0x3f84ffef	1.0390605
159	0x3f8557fc	1.0417476
160	0xbf51b7bb	-0.81920975
161	0x3f5e2a1e	0.86783016
162	0xbf6f7eb3	-0.935527
163	0x3f74ba7d	0.9559706
164	0x3f31726e	0.6931523
165	0xbf75de21	-0.96042067
166	0x3f458bf0	0.7716665
167	0x3f8b60a2	1.0888865
168	0xbf73f88e	-0.9530114
169	0xbf607b67	-0.876883
170	0x3f79cf8c	0.97582316
171	0x3f55a36c	0.83452487
172	0x3f24cb87	0.6437306
173	0xbf66c9a1	-0.9015141
174	0x3f81ea4e	1.0149629
175	0xbd7ddd2a	-0.061978497
176	0xbf701f3b	-0.93797654
177	0x3f401d59	0.7504478
178	0xbf5bcbf4	-0.8585808
179	0x3f94265c	1.1574206
180	0xbf6dbbe8	-0.9286485
181	0xbf499987	-0.7874989
182	0xbf6e20e9	-0.93018967
183	0x3f46e1f3	0.7768852
184	0x3f89f695	1.0778376
185	0xbf7a7eb4	-0.97849584
186	0xbf8a4eb8	-1.0805273
187	0x3f87fafd	1.062347
188	0x3f9a249a	1.204242
189	0x3d6257c4	0.05525948
190	0xbf42c737	-0.7608523
191	0xbf8e25f5	-1.1105334
192	0xbebce3dc	-0.36892593
193	0xbf41f3d6	-0.7576269
194	0x3f78ca69	0.97183853
195	0xbf8b445e	-1.0880239
196	0x3ebe52a3	0.37172422
197	0xbf811a80	-1.0086212
198	0x3f1977d9	0.599485
199	0x3f8c2dbb	1.0951456
200	0xbe980d1e	-0.29697508
201	0xbf83db73	-1.0301346
202	0x3f6eea63	0.93326396
203	0x3f3baa67	0.7330689
204	0xbf2075c4	-0.62679696
205	0x3f824057	1.0175885
206	0xbf60f4c4	-0.8787348
207	0x3f481d4c	0.78169703
208	0x3f877ef5	1.0585619
209	0x3f378562	0.716879
210	0xbc2b5d5b	-0.010459269
211	0xbf10a7bc	-0.5650594
212	0xbf837d2c	-1.0272574
213	0x3ede9f18	0.43480754
214	0xbc19a88e	-0.0093785655
215	0x3f967567	1.1754578
216	0xbf912353	-1.1338905
217	0xbf6c8eb3	-0.9240524
218	0x3f88cb38	1.0687017
219	0x3f626556	0.88435876
220	0xbf86db87	-1.0535744
221	0xbf994c59	-1.1976424
222	0x3eefc83f	0.46832463
223	0x3d1c15e5	0.038106818
224	0x3f89882b	1.074468
225	0xbdf23110	-0.11825764
226	0xbf912e95	-1.1342341
227	0x3ec6877b	0.38775238
228	0xbf5ea119	-0.86964566
229	0x3f697479	0.9119335
230	0xbf77f757	-0.96861786
231	0x3f83b22c	1.0288749
232	0x3f917722	1.1364481
233	0x3f20fd6d	0.628867
234	0xbf90e063	-1.1318477
235	0xbf7dc22f	-0.99124426
236	0x3f85e82d	1.046148
237	0x3f6a9397	0.91631454
238	0x3f5c5399	0.8606506
239	0xbf536349	-0.8257337
240	0xbf729d7d	-0.9477156
241	0xbf893afa	-1.0721123
242	0x3f6f7236	0.9353365
243	0xbf76b047	-0.9636273
244	0x3f75b27c	0.9597547
245	0xbe288a1f	-0.16458939
246	0x3f4418e8	0.76600504
247	0xbfac20f5	-1.3447558
248	0xbf5b6878	-0.8570628
249	0xbf85cb51	-1.0452672
250	0x3f493d63	0.78609294
251	0xbf24ddec	-0.64401126
252	0xbf500109	-0.8125158
253	0x3f831b21	1.0242654
254	0x3f5ead59	0.8698326
255	0x3f90b5bb	1.130546

layer_list.conv2.lin_dst.weight f4 [7, 64]
0	0x3f9bc426	1.2169235
1	0x3f59ff8c	0.8515556
2	0xbf927387	-1.1441506
3	0xbf1bb75b	-0.60826653
4	0xbf7a8c5f	-0.9787044
5	0x3f8bad90	1.0912342
6	0x3f0cb499	0.5496307
7	0xbf7a1fa6	-0.9770454
8	0xbf421b4c	-0.758229
9	0xbfa3ce2f	-1.2797297
10	0xbf9148ca	-1.1350338
11	0xbf92d4e1	-1.1471215
12	0x3f7f5c00	0.99749756
13	0xbf292a75	-0.6608041
14	0x3f0f2516	0.55915964
15	0x3f1e67ec	0.6187732
16	0xbf829dc3	-1.0204395
17	0x3f83d2b1	1.0298673
18	0xbf71fee3	-0.9452955
19	0xbf8c0beb	-1.0941137
20	0x3f8321bd	1.0244671
21	0xbd9034b3	-0.070413016
22	0x3f94f8c6	1.163842
23	0xbf8d3856	-1.1032817
24	0xbe578e44	-0.21050364
25	0x3f8d1cb5	1.1024386
26	0xbf8ab738	-1.0837164
27	0xbf98dc4b	-1.1942228
28	0xbf66e44a	-0.9019209
29	0x3f979cc7	1.184472
30	0x3e077fd0	0.1323235
31	0xbf997a81	-1.199051
32	0xbf759240	-0.95926285
33	0x3ec21bec	0.37911928
34	0xbc9d1b09	-0.01917793
35	0xbe63564f	-0.22200893
36	0x3f8c1a82	1.094559
37	0x3f668a55	0.9005483
38	0xbf176c3e	-0.5914954
39	0xbf86ffe1	-1.0546838
40	0x3f420471	0.7578803
41	0x3f12da89	0.5736471
42	0x3fb73240	1.431221
43	0x3d143645	0.036184568
44	0xbf8577e6	-1.0427215
45	0xbf6f21e6	-0.934111
46	0xbf7fa3f6	-0.9985956
47	0xbf41abb1	-0.75652605
48	0x3f6e2fea	0.9304186
49	0x3f3950da	0.72388995
50	0x3f8729d9	1.0559646
51	0xbf661685	-0.8987811
52	0xbf2563fe	-0.646057
53	0x3ef642fc	0.4809798
54	0xbfa03b47	-1.251809
55	0xbf868b04	-1.0511174
56	0x3e76a7ab	0.24087398
57	0x3f915aaf	1.13558
58	0x3f30521b	0.68875283
59	0xbf685c91	-0.90766245
60	0xbf64066c	-0.890723
61	0x3a35653e	0.00069196883
62	0x3f7211e6	0.9455856
63	0x3f953e60	1.165966
64	0xbf8e55a1	-1.1119882
65	0x3f930fa8	1.1489153
66	0xbf8b7a89	-1.089677
67	0x3e5ac8bd	0.21365638
68	0x3f65e97a	0.8980938
69	0x3f5499b3	0.83047026
70	0x3f611925	0.8792899
71	0x3f938073	1.1523575
72	0x3fa4cf0a	1.2875683
73	0x3f486be8	0.7828965
74	0xbf38d475	-0.72199184
75	0x3f20896d	0.62709695
76	0xbf7129ba	-0.94204295
77	0x3f92b487	1.1461343
78	0x3f65ccf5	0.89765865
79	0xbf16c2f6	-0.58891237
80	0x3e5424eb	0.20717208
81	0xbfa0ffdd	-1.2578083
82	0xbf97a39b	-1.1846803
83	0x3f611789	0.87926537
84	0x3f143beb	0.5790393
85	0xbfaacc5e	-1.3343618
86	0xbf9f2d4a	-1.2435696
87	0xbf6b849c	-0.9199922
88	0x3ebe9145	0.37220207
89	0xbf0e5d16	-0.5561079
90	0x3eb045ac	0.34428155
91	0x3f87ac54	1.0599465
92	0x3f3a028d	0.7266014
93	0x3e844b57	0.2583873
94	0xbf535451	-0.8255053
95	0x3f9ab940	1.2087784
96	0x3ece6833	0.40313873
97	0x3f883447	1.0640954
98	0x3e95a124	0.29224503
99	0x3f59ce67	0.8508057
100	0x3f994068	1.197278
101	0xbf9a4113	-1.2051109
102	0x3e9f3094	0.3109175
103	0xbf8236df	-1.0172995
104	0xbf52a214	-0.8227856
105	0xbeceb778	-0.4037435
106	0xbf425866	-0.75916135
107	0x3f38ff09	0.7226415
108	0xbf79d7d9	-0.9759498
109	0xbf6f26be	-0.9341849
110	0x3f64c3c5	0.8936122
111	0x3f6ea985	0.93227416
112	0x3f6d5b99	0.9271789
113	0xbf977d09	-1.1835033
114	0x3f4df69b	0.80454415
115	0x3fa17afd	1.2615658
116	0x3f9e8e38	1.2387152
117	0x3f87b513	1.0602134
118	0x3f986b0a	1.1907666
119	0x3f70e58e	0.9410027
120	0xbf862574	-1.048018
121	0x3e124377	0.14283548
122	0xbf625ab1	-0.88419634
123	0x3f89b1fe	1.0757444
124	0xbf3aa5b8	-0.72909117
125	0x3f1963b4	0.5991776
126	0xbf8bc70d	-1.092012
127	0x3f6ca8c4	0.92445016
128	0x3f7a4809	0.97766167
129	0xbf9867b8	-1.1906652
130	0x3f3c853e	0.7364081
131	0x3f9cec69	1.2259647
132	0x3f70a288	0.93998003
133	0xbf9578af	-1.1677455
134	0x3f855370	1.0416088
135	0x3f84d350	1.0376987
136	0x3f8b78de	1.0896261
137	0xbf768dc3	-0.9631006
138	0xbe2ebf73	-0.1706522
139	0xbf8cad2e	-1.099035
140	0x3f61593a	0.88026774
141	0xbf2283ae	-0.6348218
142	0x3f65f016	0.8981947
143	0xbf5d6386	-0.86479986
144	0x3f832ee4	1.0248685
145	0xbf617925	-0.88075477
146	0x3f8baa06	1.0911262
147	0x3f7668d5	0.9625371
148	0x3f4f8b95	0.8107236
149	0xbf7eff18	-0.9960799
150	0x3f709435	0.93976146
151	0x3f498c84	0.78730035
152	0xbf3e1712	-0.7425395
153	0xbf884810	-1.0646992
154	0xbf74d2b2	-0.95633996
155	0xbf3d9193	-0.74050254
156	0xbdd6385a	-0.10459967
157	0x3f47e74e	0.7808732
158	0x3f84ffef	1.0390605
159	0x3f8557fc	1.0417476
160	0xbf51b7bb	-0.81920975
161	0x3f5e2a1e	0.86783016
162	0xbf6f7eb3	-0.935527
163	0x3f74ba7d	0.9559706
164	0x3f31726e	0.6931523
165	0xbf75de21	-0.96042067
166	0x3f458bf0	0.7716665
167	0x3f8b60a2	1.0888865
168	0xbf73f88e	-0.9530114
169	0xbf607b67	-0.876883
170	0x3f79cf8c	0.97582316
171	0x3f55a36c	0.83452487
172	0x3f24cb87	0.6437306
173	0xbf66c9a1	-0.9015141
174	0x3f81ea4e	1.0149629
175	0xbd7ddd2a	-0.061978497
176	0xbf701f3b	-0.93797654
177	0x3f401d59	0.7504478
178	0xbf5bcbf4	-0.8585808
179	0x3f94265c	1.1574206
180	0xbf6dbbe8	-0.9286485
181	0xbf499987	-0.7874989
182	0xbf6e20e9	-0.93018967
183	0x3f46e1f3	0.7768852
184	0x3f89f695	1.0778376
185	0xbf7a7eb4	-0.97849584
186	0xbf8a4eb8	-1.0805273
187	0x3f87fafd	1.062347
188	0x3f9a249a	1.204242
189	0x3d6257c4	0.05525948
190	0xbf42c737	-0.7608523
191	0xbf8e25f5	-1.1105334
192	0xbebce3dc	-0.36892593
193	0xbf41f3d6	-0.7576269
194	0x3f78ca69	0.97183853
195	0xbf8b445e	-1.0880239
196	0x3ebe52a3	0.37172422
197	0xbf811a80	-1.0086212
198	0x3f1977d9	0.599485
199	0x3f8c2dbb	1.0951456
200	0xbe980d1e	-0.29697508
201	0xbf83db73	-1.0301346
202	0x3f6eea63	0.93326396
203	0x3f3baa67	0.7330689
204	0xbf2075c4	-0.62679696
205	0x3f824057	1.0175885
206	0xbf60f4c4	-0.8787348
207	0x3f481d4c	0.78169703
208	0x3f877ef5	1.0585619
209	0x3f378562	0.716879
210	0xbc2b5d5b	-0.010459269
211	0xbf10a7bc	-0.5650594
212	0xbf837d2c	-1.0272574
213	0x3ede9f18	0.43480754
214	0xbc19a88e	-0.0093785655
215	0x3f967567	1.1754578
216	0xbf912353	-1.1338905
217	0xbf6c8eb3	-0.9240524
218	0x3f88cb38	1.0687017
219	0x3f626556	0.88435876
220	0xbf86db87	-1.0535744
221	0xbf994c59	-1.1976424
222	0x3eefc83f	0.46832463
223	0x3d1c15e5	0.038106818
224	0x3f89882b	1.074468
225	0xbdf23110	-0.11825764
226	0xbf912e95	-1.1342341
227	0x3ec6877b	0.38775238
228	0xbf5ea119	-0.86964566
229	0x3f697479	0.9119335
230	0xbf77f757	-0.96861786
231	0x3f83b22c	1.0288749
232	0x3f917722	1.1364481
233	0x3f20fd6d	0.628867
234	0xbf90e063	-1.1318477
235	0xbf7dc22f	-0.99124426
236	0x3f85e82d	1.046148
237	0x3f6a9397	0.91631454
238	0x3f5c5399	0.8606506
239	0xbf536349	-0.8257337
240	0xbf729d7d	-0.9477156
241	0xbf893afa	-1.0721123
242	0x3f6f7236	0.9353365
243	0xbf76b047	-0.9636273
244	0x3f75b27c	0.9597547
245	0xbe288a1f	-0.16458939
246	0x3f4418e8	0.76600504
247	0xbfac20f5	-1.3447558
248	0xbf5b6878	-0.8570628
249	0xbf85cb51	-1.0452672
250	0x3f493d63	0.78609294
251	0xbf24ddec	-0.64401126
252	0xbf500109	-0.8125158
253	0x3f831b21	1.0242654
254	0x3f5ead59	0.8698326
255	0x3f90b5bb	1.130546
