vanilla_models/Cora/5_3f_85/split0/init4/GAT_dp0_5_5e_4_f1.pt (torch, 372919 bytes, 10 tensors)

layer_list.conv1.att_src f4 [1, 8, 8]
00000000: 6a2f 28bf 71d7 0ebd a942 b1be ba12 c33e
00000010: e194 5b3d 0779 01bd b7c5 bb3d 2a8b 4a3f
00000020: 913b 4bbe 7494 613c 0c6d 57be 06f6 dcbb
00000030: 5cc9 4c3e e558 a8be ac3d 80be e634 843e
00000040: dfe1 553f ff2c 263f 4594 6fbd 2852 0f3f
00000050: 088d 633f 0bac 97be f73c 21bf 56bb 6b3f
00000060: b18c 6e3e 58ab 573e e721 123e f5a4 e43c
00000070: 3835 b03e 2083 683d 57b4 9fbd 007e a1bd
00000080: fa28 963d f14e abbe a8de 523d d105 ab3c
00000090: 82dc 3a3e ceba 06be 0ac5 92be 0685 67bd
000000a0: 5e3e 063f 5df8 673f 205e 673e 200b 7bbf
000000b0: f4d8 113f 817a 353f e23d cbbe cc72 a9bb
000000c0: d71d 5d3f 9613 423e ab42 d9be 7820 463f
000000d0: ca5a 3ebf faab 273f 3b5c 81bf c5fc 6c3c
000000e0: bef5 803f 0cae 7c3f df08 2e3f 1ea6 763e
000000f0: d7fc 023f bb1f 05bd 001f 8ebf cef5 d4be
-0.6569735 -0.03487343 -0.3462117 0.38100225 0.05360878 -0.03160956 0.091685705 0.791186
-0.19846942 0.013768304 -0.21037692 -0.0067431955 0.19998688 -0.3288032 -0.25047052 0.25821608
0.83547777 0.6491241 -0.05849101 0.55984735 0.8888707 -0.29623446 -0.6298365 0.92082727
0.23295857 0.21061456 0.14270745 0.027910689 0.34415603 0.056765676 -0.07798069 -0.07885361
0.073320344 -0.33458665 0.051481873 0.020876797 0.1824818 -0.13157198 -0.28665954 -0.056523345
0.52438915 0.9061335 0.225945 -0.9806385 0.5697167 0.7089005 -0.3969565 -0.0051711556
0.86373657 0.18952784 -0.42433676 0.77393293 -0.74357283 0.6549679 -1.0106272 0.014464562
1.0074995 0.98703074 0.67982286 0.24086806 0.51167053 -0.032500964 -1.110321 -0.41593784

layer_list.conv1.att_dst f4 [1, 8, 8]
00000000: 0589 c2bd 91af 02bd 32ff fdbb 5a0a b33c
00000010: 094d 5abc 83f9 d53b bc8e 973b 1f65 303e
00000020: 13e0 b3bc 02b5 a3bd 672b b1bd 0f42 2a3d
00000030: aae2 ae3c 5a39 98bd 341c acbc 5b96 c43d
00000040: c007 183e a5e0 003e 3795 753b 30cb 333d
00000050: b758 be3d 26ef 0e3d 62c9 abbd 9d3e 2d3e
00000060: 41a3 aa3d 7116 4ebd 037c 283d bbde b73d
00000070: 515b a73d 1b83 173d 84b7 d4bd 250a 0ebd
00000080: 7400 e43c a2f4 3dbe f8c6 f73c 649b 923d
00000090: 860d 813d dfe0 75bc 8931 f8bd 27d9 74bc
000000a0: 5f92 163c 018e be3d 6bb9 4a3d 71e8 97be
000000b0: f9bd 10bc 4843 4d3e 0523 7c3d b60f 5d3c
000000c0: b3b2 313e cc4b 2d3e 70f0 023d a218 9a3e
000000d0: cfa7 bcbd eefb f03d a364 83be 41ef ea3d
000000e0: 930b 193e 87f7 423e 3499 b33d ab2f 5bbc
000000f0: f6bd 053e f26d f73c a3a2 65be d254 a2bd
-0.09498791 -0.031905714 -0.007751369 0.021855522 -0.013324031 0.0065299883 0.0046251696 0.17226075
-0.021957433 -0.07993509 -0.086508565 0.041566905 0.021348316 -0.07432814 -0.021009542 0.095989905
0.14846706 0.12585695 0.0037472972 0.043894947 0.09294265 0.03489604 -0.0838802 0.16918416
0.083319195 -0.05031437 0.04113389 0.08978029 0.08171714 0.036990266 -0.10386565 -0.034677643
0.027832247 -0.18550351 0.030246243 0.07158545 0.063014075 -0.015007227 -0.12118823 -0.014944351
0.009190171 0.09304429 0.049493235 -0.29669526 -0.0088343555 0.20045197 0.061556835 0.013492515
0.17353325 0.16923445 0.03196758 0.30096918 -0.092116944 0.11766802 -0.25662717 0.11471415
0.14945821 0.19039737 0.087694556 -0.013378064 0.13060746 0.030203793 -0.22425322 -0.079263344

layer_list.conv1.bias f4 [64]
00000000: 84ef 4a3d f8ad 8ebb 0bb4 cabc f1d7 f13b
00000010: c921 2f3d e0c9 d83c 6bc2 9cbc 92e4 68bc
00000020: 1cad 963c ccce ab3b 314e 8cbc e266 ca3c
00000030: 6fb8 6cbb a4ee e33c e4f9 e53c 065f 8fbc
00000040: 995f e03c 2003 91bc 6dde 443c 457c 6abb
00000050: ee21 033d f5e4 a53c a609 ef3c 91f6 4c3c
00000060: 83b7 f23c 6855 bb3c a0c3 0c3d 6ef7 c9bc
00000070: 9101 173c 4d12 a83a 48a4 083c d440 293c
00000080: e390 ce3b 5d92 fab6 87ba 973c 8f73 ae3c
00000090: 1414 ed3c 9802 6c3c 96e7 04bd cbad adbc
000000a0: c920 8ebb 8110 33bc 2614 ca3c 49c1 083d
000000b0: a439 ac3c 07a0 2fbc 54d9 92ba 0564 483c
000000c0: 051b d2bb 38c2 563d d9c7 3d3c 7508 053d
000000d0: fe4c 913c 9d4c f73a d21f 993c 928b dd3b
000000e0: 343f cdbb efc4 42bc d6aa 4d3b e287 d7bc
000000f0: 0eaa e03c d291 973b ee27 f5bc b009 223d
0.049544826 -0.004354235 -0.024744054 0.0073804785 0.04275683 0.026463449 -0.019135674 -0.014214652
0.018393092 0.005243158 -0.017127128 0.024707261 -0.0036120673 0.027823754 0.028073259 -0.017501365
0.027389335 -0.017701685 0.012015921 -0.0035779637 0.03201478 0.020250777 0.029179405 0.012509958
0.02962852 0.022867873 0.03436625 -0.024654116 0.009216682 0.0012822837 0.008339949 0.010330398
0.006303893 -7.4676195e-06 0.01852156 0.021295337 0.028940238 0.014404915 -0.03244742 -0.021201035
-0.0043374044 -0.010929228 0.02466781 0.033387456 0.021023579 -0.010719306 -0.0011203685 0.012230878
-0.0064119124 0.052431315 0.011583292 0.03247877 0.017736908 0.0018867437 0.01869193 0.006761023
-0.006263638 -0.011887773 0.0031382344 -0.026309911 0.027424838 0.0046255374 -0.029926267 0.03956002

layer_list.conv1.lin_src.weight f4 [64, 1433]
00000000: d319 feb9 54f4 283d 9347 9abc f546 06bd
00000010: eb27 aebe 330c f43b 0f69 f1bd 8b32 c4bc
00000020: 232f 5a3d 4d04 15bd 5c34 3c3d 4a59 7ebc
00000030: 7232 af3c 0615 853d 5dc5 d2bc 2dcf 2a3d
00000040: f205 9c3d 119d 50bd 3345 f03d 0e94 243f
00000050: d437 7b3b bad0 d0bc df1c dcbb 5f6f de3b
00000060: 1e52 1ebc bc56 3bbc f0f1 36be 16fb 8c3b
00000070: e340 483b ab6d 793c 1a4f 693d 733f bfbc
00000080: e3c0 f13b 8c4f 4b3c e2d6 eabc 5e80 bfbc
00000090: 6eb4 59bd 9adc a1bc 4d83 d93c 66d6 13bd
000000a0: 7cf3 43be 12f0 d3bc 3145 be3b 5c64 b93d
000000b0: 52cc 34bd 0cdb 92bd 5e0b 073c 3a37 c53d
000000c0: a521 393e afc8 16bc ca65 113e 4f96 c03e
000000d0: 0a5c afbe 4ba8 3e3d 3490 f33a 65d2 9bbc
000000e0: 6187 7abd 0aa7 89bc 28cd 423e 73ee 243b
000000f0: 4f60 b0bc 03bb a0be f95d 5d3d e0b9 223c
00000100: ea13 fabd d754 6d3e 54d0 563d c53e 213e
00000110: af44 583d 0de0 653d 6cfa 9cba 59b2 69bd
00000120: 36e9 783d 4235 f03d 7306 363d fcdf e83d
00000130: d01a a7bb f24a a33d eeaa 34bd 5859 983c
00000140: a92c dabb f647 94bd 2dc6 92bd a040 94bb
00000150: a5e6 95bc 96c7 0b3e 3bdc 243c d361 a23d
00000160: c64a 893e d44b 9abd 7cad a83c 199a 8abd
00000170: 43e6 723d daf4 53be a88b 513d 1c96 8a3d
00000180: 1fd1 09bd 1eb7 9b3c 32e2 1f3e 0882 38bd
00000190: e25e ae3d acb1 7b3b 5c6c 293d c59e 2b3d
000001a0: a7b8 673c f2ee 733d 444c 1bbc 79c2 143d
000001b0: 149d fc3c 2896 de3c 9bf7 59bc 4ab5 2abd
000001c0: 1de8 abbc 07c3 283c 30f8 9ebc 8749 d6bc
000001d0: 01f5 033b e3b4 6c3b 4c0c 20bd 9911 873b
000001e0: f740 263d 5d38 f2bc 54df 8b3d 9926 cebc
000001f0: 2c28 39bc 3bf8 783d bab6 ce3c 25d8 9ebc
00000200: 60e2 793d 4f13 163d b379 27bd b8c0 3d3e
00000210: 46e6 24bd 41e0 1b3d cafa 88bd 7754 a53e
00000220: e7ad 5e3e c00a 9cbd e3f6 f83b 4054 923d
00000230: d9aa b3be e512 6ebd 53d2 4e3d cb0e 5fbd
00000240: 6623 193d 8301 223d e8d7 2e3e 3221 ac3b
00000250: 10af da3b 682d 3b3e b511 b63d 84ea f6b9
00000260: a655 80bd cb6a 203c 3ab9 3bbb 149f 3e3d
00000270: 2fbe 843d 1630 2d3e da52 3d3d 60b6 87bc
00000280: e315 c63d 8800 fdbb 3a43 44bd a1d5 02bd
00000290: 05d1 81bc 6e2e 69bd 0cb3 823d bdb0 ec3c
000002a0: 9a54 093e 777d 9b3d 5afa 4cbd f2a4 063a
000002b0: cdd8 a13d 6ce6 30bd 5ae9 45bc 6dc0 a03d
000002c0: a7bb 7d3e c92a 9a3d fadb d03c 7f3c 273c
000002d0: ec21 01bb 1b15 113c 0409 003b ff2f 963c
000002e0: 3f46 3fbc 73c3 cb3c aaad c4bc 62bb d1be
000002f0: 2106 a23c 79c6 78bd f55f 6d3c 7915 4cbe
00000300: dbf2 013e bfc9 6cbc b912 623b 7c5d 30bd
00000310: e67e 37bd 3645 03bd d93e 8c37 d78b b7bc
00000320: ca69 643d 64c8 ad3b 3ba4 09be 34a7 9b3e
00000330: 1a88 3e3d 32ba 82be fcde 093d 3015 573e
00000340: ebf9 a23a b7bb 973b 0962 01bd 1ff0 97be
00000350: 42dd f7bb 2b03 28bd a88e 20bc 20e1 563d
00000360: 8df7 233b 3236 e33d ebfa febc 3ca2 1cba
00000370: 5abc 8339 6602 b93d d257 ca3d 1f56 833c
00000380: dbfb ec3d 15f0 2b3c 6be5 17bd 3273 f13b
00000390: dcc9 4bbc 9d59 24bd 615a d4bc 9708 6ebd
000003a0: 2a77 993d f922 93bd c509 49be 27be cc3c
000003b0: 94ba adbc c797 85bd d405 d63e a1d0 013d
000003c0: 0d6e 523d 13dd a63d ec51 fd39 7b32 843d
000003d0: 0e92 7a3d d647 463c 0ea6 233e c65b 71bd
000003e0: 302a bc3d 3ed5 4f3d 3f19 f0bd 4acb 35bc
000003f0: 6b01 d33c 9b9b 3fbc 0c41 41bd 7315 383d
-0.00048465896 0.041248634 -0.018832957 -0.032782514 -0.3401483 0.0074477433 -0.117876165 -0.023949882
0.05326761 -0.036381055 0.04594837 -0.015524218 0.021386359 0.064981505 -0.025728876 0.041701484
0.076183215 -0.05093104 0.11731949 0.64288414 0.0038332837 -0.025490154 -0.006717309 0.006788179
-0.009663133 -0.011434253 -0.1786573 0.0043023927 0.0030556254 0.015223901 0.056960203 -0.023345685
0.00737773 0.012409102 -0.028666917 -0.02337664 -0.053150587 -0.019758511 0.026551867 -0.03609314
-0.1913585 -0.02587131 0.005806588 0.09052345 -0.044140168 -0.07170686 0.008242456 0.09629674
0.1807924 -0.00920312 0.14198986 0.37614676 -0.34249908 0.046547215 0.0018582405 -0.019021222
-0.061164264 -0.016803283 0.19023573 0.002516654 -0.021530299 -0.3139268 0.054044697 0.009932011
-0.122108296 0.23176895 0.05244477 0.15746601 0.052799877 0.056121875 -0.0011976487 -0.05705485
0.060769282 0.11728908 0.044439744 0.11370847 -0.005099632 0.07973279 -0.044108324 0.01859729
-0.006658156 -0.07240288 -0.07166705 -0.0045243055 -0.018298456 0.13650355 0.010062273 0.07928815
0.2681486 -0.07533994 0.020590536 -0.06767673 0.059301626 -0.20698872 0.051158577 0.06766912
-0.0336467 0.019008216 0.1561363 -0.045045882 0.08514191 0.0038405461 0.041363105 0.04189946
0.014143146 0.059554048 -0.009478632 0.036318276 0.03083662 0.02717121 -0.013303663 -0.041676797
-0.020984704 0.010300404 -0.019405454 -0.026158107 0.0020135047 0.003611856 -0.039074227 0.004121971
0.0405893 -0.029567892 0.06829706 -0.02516489 -0.011301082 0.060783606 0.025233615 -0.019390175
0.061006904 0.036639508 -0.040887546 0.18530548 -0.04025867 0.038055662 -0.06688459 0.32291004
0.21746026 -0.07619238 0.0075977906 0.07144976 -0.35091284 -0.058123488 0.05049355 -0.054457467
0.037387274 0.039552223 0.17074549 0.0052529806 0.006673701 0.1827904 0.08890096 -0.00047095504
-0.06266336 0.009791086 -0.002864434 0.046538427 0.06481587 0.16912875 0.04622159 -0.016566455
0.09672143 -0.0077210106 -0.047915675 -0.031942014 -0.015846739 -0.056929044 0.06381807 0.02889287
0.13411179 0.0759229 -0.05004344 0.0005136273 0.079026796 -0.043188497 -0.012079561 0.07849202
0.24778615 0.07527692 0.025495518 0.0102072945 -0.0019704057 0.00885513 0.0019536624 0.018333433
-0.011674463 0.02487347 -0.02400859 -0.40963274 0.019778313 -0.060736153 0.01448821 -0.19930066
0.12690298 -0.014452397 0.0034496023 -0.043057904 -0.044798754 -0.032048427 1.6718566e-05 -0.022405548
0.05576495 0.0053034294 -0.13441555 0.30401003 0.046516515 -0.2553268 0.03365992 0.21004176
0.00124341 0.0046305317 -0.031587634 -0.29675385 -0.007564218 -0.041018646 -0.009799637 0.05246079
0.0025019378 0.11094321 -0.031125506 -0.00059751025 0.000251266 0.090336606 0.09880032 0.016032277
0.11571475 0.010494252 -0.037084024 0.0073684687 -0.012438264 -0.040124524 -0.025922002 -0.05811366
0.07493432 -0.07184405 -0.19632633 0.024993015 -0.021207131 -0.0652309 0.41801322 0.031693105
0.051374484 0.08147635 0.00048316957 0.06454941 0.061174445 0.012102088 0.15981314 -0.058925413
0.09187734 0.050740473 -0.11723565 -0.011095831 0.025757512 -0.011694814 -0.047181174 0.04494233

layer_list.conv1.lin_dst.weight f4 [64, 1433]
00000000: d319 feb9 54f4 283d 9347 9abc f546 06bd
00000010: eb27 aebe 330c f43b 0f69 f1bd 8b32 c4bc
00000020: 232f 5a3d 4d04 15bd 5c34 3c3d 4a59 7ebc
00000030: 7232 af3c 0615 853d 5dc5 d2bc 2dcf 2a3d
00000040: f205 9c3d 119d 50bd 3345 f03d 0e94 243f
00000050: d437 7b3b bad0 d0bc df1c dcbb 5f6f de3b
00000060: 1e52 1ebc bc56 3bbc f0f1 36be 16fb 8c3b
00000070: e340 483b ab6d 793c 1a4f 693d 733f bfbc
00000080: e3c0 f13b 8c4f 4b3c e2d6 eabc 5e80 bfbc
00000090: 6eb4 59bd 9adc a1bc 4d83 d93c 66d6 13bd
000000a0: 7cf3 43be 12f0 d3bc 3145 be3b 5c64 b93d
000000b0: 52cc 34bd 0cdb 92bd 5e0b 073c 3a37 c53d
000000c0: a521 393e afc8 16bc ca65 113e 4f96 c03e
000000d0: 0a5c afbe 4ba8 3e3d 3490 f33a 65d2 9bbc
000000e0: 6187 7abd 0aa7 89bc 28cd 423e 73ee 243b
000000f0: 4f60 b0bc 03bb a0be f95d 5d3d e0b9 223c
00000100: ea13 fabd d754 6d3e 54d0 563d c53e 213e
00000110: af44 583d 0de0 653d 6cfa 9cba 59b2 69bd
00000120: 36e9 783d 4235 f03d 7306 363d fcdf e83d
00000130: d01a a7bb f24a a33d eeaa 34bd 5859 983c
00000140: a92c dabb f647 94bd 2dc6 92bd a040 94bb
00000150: a5e6 95bc 96c7 0b3e 3bdc 243c d361 a23d
00000160: c64a 893e d44b 9abd 7cad a83c 199a 8abd
00000170: 43e6 723d daf4 53be a88b 513d 1c96 8a3d
00000180: 1fd1 09bd 1eb7 9b3c 32e2 1f3e 0882 38bd
00000190: e25e ae3d acb1 7b3b 5c6c 293d c59e 2b3d
000001a0: a7b8 673c f2ee 733d 444c 1bbc 79c2 143d
000001b0: 149d fc3c 2896 de3c 9bf7 59bc 4ab5 2abd
000001c0: 1de8 abbc 07c3 283c 30f8 9ebc 8749 d6bc
000001d0: 01f5 033b e3b4 6c3b 4c0c 20bd 9911 873b
000001e0: f740 263d 5d38 f2bc 54df 8b3d 9926 cebc
000001f0: 2c28 39bc 3bf8 783d bab6 ce3c 25d8 9ebc
00000200: 60e2 793d 4f13 163d b379 27bd b8c0 3d3e
00000210: 46e6 24bd 41e0 1b3d cafa 88bd 7754 a53e
00000220: e7ad 5e3e c00a 9cbd e3f6 f83b 4054 923d
00000230: d9aa b3be e512 6ebd 53d2 4e3d cb0e 5fbd
00000240: 6623 193d 8301 223d e8d7 2e3e 3221 ac3b
00000250: 10af da3b 682d 3b3e b511 b63d 84ea f6b9
00000260: a655 80bd cb6a 203c 3ab9 3bbb 149f 3e3d
00000270: 2fbe 843d 1630 2d3e da52 3d3d 60b6 87bc
00000280: e315 c63d 8800 fdbb 3a43 44bd a1d5 02bd
00000290: 05d1 81bc 6e2e 69bd 0cb3 823d bdb0 ec3c
000002a0: 9a54 093e 777d 9b3d 5afa 4cbd f2a4 063a
000002b0: cdd8 a13d 6ce6 30bd 5ae9 45bc 6dc0 a03d
000002c0: a7bb 7d3e c92a 9a3d fadb d03c 7f3c 273c
000002d0: ec21 01bb 1b15 113c 0409 003b ff2f 963c
000002e0: 3f46 3fbc 73c3 cb3c aaad c4bc 62bb d1be
000002f0: 2106 a23c 79c6 78bd f55f 6d3c 7915 4cbe
00000300: dbf2 013e bfc9 6cbc b912 623b 7c5d 30bd
00000310: e67e 37bd 3645 03bd d93e 8c37 d78b b7bc
00000320: ca69 643d 64c8 ad3b 3ba4 09be 34a7 9b3e
00000330: 1a88 3e3d 32ba 82be fcde 093d 3015 573e
00000340: ebf9 a23a b7bb 973b 0962 01bd 1ff0 97be
00000350: 42dd f7bb 2b03 28bd a88e 20bc 20e1 563d
00000360: 8df7 233b 3236 e33d ebfa febc 3ca2 1cba
00000370: 5abc 8339 6602 b93d d257 ca3d 1f56 833c
00000380: dbfb ec3d 15f0 2b3c 6be5 17bd 3273 f13b
00000390: dcc9 4bbc 9d59 24bd 615a d4bc 9708 6ebd
000003a0: 2a77 993d f922 93bd c509 49be 27be cc3c
000003b0: 94ba adbc c797 85bd d405 d63e a1d0 013d
000003c0: 0d6e 523d 13dd a63d ec51 fd39 7b32 843d
000003d0: 0e92 7a3d d647 463c 0ea6 233e c65b 71bd
000003e0: 302a bc3d 3ed5 4f3d 3f19 f0bd 4acb 35bc
000003f0: 6b01 d33c 9b9b 3fbc 0c41 41bd 7315 383d
-0.00048465896 0.041248634 -0.018832957 -0.032782514 -0.3401483 0.0074477433 -0.117876165 -0.023949882
0.05326761 -0.036381055 0.04594837 -0.015524218 0.021386359 0.064981505 -0.025728876 0.041701484
0.076183215 -0.05093104 0.11731949 0.64288414 0.0038332837 -0.025490154 -0.006717309 0.006788179
-0.009663133 -0.011434253 -0.1786573 0.0043023927 0.0030556254 0.015223901 0.056960203 -0.023345685
0.00737773 0.012409102 -0.028666917 -0.02337664 -0.053150587 -0.019758511 0.026551867 -0.03609314
-0.1913585 -0.02587131 0.005806588 0.09052345 -0.044140168 -0.07170686 0.008242456 0.09629674
0.1807924 -0.00920312 0.14198986 0.37614676 -0.34249908 0.046547215 0.0018582405 -0.019021222
-0.061164264 -0.016803283 0.19023573 0.002516654 -0.021530299 -0.3139268 0.054044697 0.009932011
-0.122108296 0.23176895 0.05244477 0.15746601 0.052799877 0.056121875 -0.0011976487 -0.05705485
0.060769282 0.11728908 0.044439744 0.11370847 -0.005099632 0.07973279 -0.044108324 0.01859729
-0.006658156 -0.07240288 -0.07166705 -0.0045243055 -0.018298456 0.13650355 0.010062273 0.07928815
0.2681486 -0.07533994 0.020590536 -0.06767673 0.059301626 -0.20698872 0.051158577 0.06766912
-0.0336467 0.019008216 0.1561363 -0.045045882 0.08514191 0.0038405461 0.041363105 0.04189946
0.014143146 0.059554048 -0.009478632 0.036318276 0.03083662 0.02717121 -0.013303663 -0.041676797
-0.020984704 0.010300404 -0.019405454 -0.026158107 0.0020135047 0.003611856 -0.039074227 0.004121971
0.0405893 -0.029567892 0.06829706 -0.02516489 -0.011301082 0.060783606 0.025233615 -0.019390175
0.061006904 0.036639508 -0.040887546 0.18530548 -0.04025867 0.038055662 -0.06688459 0.32291004
0.21746026 -0.07619238 0.0075977906 0.07144976 -0.35091284 -0.058123488 0.05049355 -0.054457467
0.037387274 0.039552223 0.17074549 0.0052529806 0.006673701 0.1827904 0.08890096 -0.00047095504
-0.06266336 0.009791086 -0.002864434 0.046538427 0.06481587 0.16912875 0.04622159 -0.016566455
0.09672143 -0.0077210106 -0.047915675 -0.031942014 -0.015846739 -0.056929044 0.06381807 0.02889287
0.13411179 0.0759229 -0.05004344 0.0005136273 0.079026796 -0.043188497 -0.012079561 0.07849202
0.24778615 0.07527692 0.025495518 0.0102072945 -0.0019704057 0.00885513 0.0019536624 0.018333433
-0.011674463 0.02487347 -0.02400859 -0.40963274 0.019778313 -0.060736153 0.01448821 -0.19930066
0.12690298 -0.014452397 0.0034496023 -0.043057904 -0.044798754 -0.032048427 1.6718566e-05 -0.022405548
0.05576495 0.0053034294 -0.13441555 0.30401003 0.046516515 -0.2553268 0.03365992 0.21004176
0.00124341 0.0046305317 -0.031587634 -0.29675385 -0.007564218 -0.041018646 -0.009799637 0.05246079
0.0025019378 0.11094321 -0.031125506 -0.00059751025 0.000251266 0.090336606 0.09880032 0.016032277
0.11571475 0.010494252 -0.037084024 0.0073684687 -0.012438264 -0.040124524 -0.025922002 -0.05811366
0.07493432 -0.07184405 -0.19632633 0.024993015 -0.021207131 -0.0652309 0.41801322 0.031693105
0.051374484 0.08147635 0.00048316957 0.06454941 0.061174445 0.012102088 0.15981314 -0.058925413
0.09187734 0.050740473 -0.11723565 -0.011095831 0.025757512 -0.011694814 -0.047181174 0.04494233

layer_list.conv2.att_src f4 [1, 1, 7]
00000000: bde1 58bd 37b1 03bd d963 92bd 96e0 4ebd
00000010: 886d 0c3d 5607 ca3d 7c7b de3c
-0.052949656 -0.032151427 -0.07147951 -0.05050715 0.034284145 0.098646805 0.027158491

layer_list.conv2.att_dst f4 [1, 1, 7]
00000000: b185 55be fd19 04bf 7d63 f03d f27a 863d
00000010: f671 523e 4c55 323f dc38 b13d
-0.2085178 -0.51602155 0.11737726 0.06566419 0.20551285 0.696614 0.08653423

layer_list.conv2.bias f4 [7]
00000000: a198 50be d6f3 2fbf 44da 57be 55a4 293f
00000010: dd55 f73d 73ef 86be d89e 0ebf
-0.20370723 -0.6873144 -0.21079355 0.66266376 0.12076924 -0.2635456 -0.55711126

layer_list.conv2.lin_src.weight f4 [7, 64]
00000000: ace5 93bf b9a6 6f3f 19f7 a13f 1737 3f3f
00000010: bf48 aebf 087a 2d3f a60c 72bf 9bfe 8d3f
00000020: 3955 9cbf 8e81 b23f c297 9e3f 7dc6 a8bf
00000030: e2b6 2b3f 084d 203e 4a0a 883f 5116 843f
00000040: a80c b7bf 73b3 4d3f 68d7 183d b2c3 a93f
00000050: 08ec 8b3f 44e5 7c3f 0279 493f 53bd 963f
00000060: e382 893f a2e0 92bf cb39 a53f faac 9d3f
00000070: eab9 1cbf 29cc 623f 1ceb 8fbf ccd9 4f3f
00000080: 0ca7 eb3c ad5b 503f 5770 83bf 04a4 513f
00000090: 7f04 7d3f 844a 7abf f8de a63f 4ad9 203f
000000a0: 77ba 6e3f 9e6d b1bf 6b67 a33f 81e6 9a3f
000000b0: e6c1 89bf 0c7a aebf 5ff8 b6bf 53a9 843f
000000c0: 9a52 a13f ab3c 82bf eb38 6e3f 56cb 823f
000000d0: 7e9d 083f 6f3d a53f c18b 4ebf b2c7 843f
000000e0: 5b8d 6dbe 2d40 adbf 1c3b 9ebf 6be7 a23f
000000f0: d50f 343e ae24 8f3f 2964 af3f 6b2f 513d
00000100: fd41 6bbf 5496 3e3f d68c f8bd d7d7 6abf
00000110: 6a79 91be 9a54 7a3f d94c abbf 2a63 a43f
00000120: 0727 803f 2719 803f 894b 683e 1e1c 2cbf
00000130: 1fca 383e ac0d b23f 1252 cbbf 7e03 9bbf
00000140: a98c 803f 7f19 ff3e e628 4ebf 223f 64bf
00000150: 7edf d03e ae40 86bf 2965 303d 04ec 813f
00000160: 4880 9cbf 1d49 023f 97e7 25be 9923 adbf
00000170: 42b2 75bf 8ccf 9fbf 6418 ab3f fbf8 973f
00000180: f937 9abf 1676 933f ce2d 9cbf ad32 a5bf
00000190: 1550 16bf 0bd0 a53f 1d37 a63f ac3a 863f
000001a0: 9ee7 883f 2101 b93f 07c0 6abf 8e95 bbbf
000001b0: 335e 2ebf 1ff8 223f 6a59 0a3f 81b4 a33f
000001c0: e371 a03e 3f68 763f 1443 743f f29f be3f
000001d0: a290 55bf d268 9ebf bc23 83bf d192 09bf
000001e0: 5dca 993f cd9f 5d3f 72fd cc3e 0006 a13f
000001f0: d466 9a3f d1d7 493f 5e01 95bf 9e07 493f
00000200: f502 44bf 10dc 94bf 1340 94bf 72f4 563f
00000210: f29e 8b3f 7b21 7cbf f833 903f ef61 993f
00000220: 1dd6 28bf 5752 04bf a542 99bf c3fa 6c3f
00000230: 2e14 893f 95d7 66bf f2d6 9fbf 69e2 753f
00000240: 8f6e 933f 3e29 8a3f 8858 9c3f db33 9c3f
00000250: 4c48 673f 5a1e 8abf 3359 a3bf 6753 313f
00000260: 6c77 9bbf 46ba 623f f4e3 73bf ebe0 87bf
00000270: d8b0 8fbf 2331 bf3e 79e4 553f dce3 9fbf
00000280: 3543 773f 2ad0 723f 1183 9a3f cefb 90bf
00000290: 14ec 75bf d72a 65bf 48aa 943f e93a 5f3f
000002a0: 8588 093c 4f34 8f3f 3e73 873f a99b 9fbf
000002b0: ae4c 953f a56e 993f ec86 a1bf da19 90bf
000002c0: f953 7a3f 6e87 913f 90a4 a4bf 6cee 803f
000002d0: c029 9ebf 0de6 933f 087f 82bf 9182 813f
000002e0: 8dce 0d3f 7591 693f e0a7 9f3f 8fc0 403e
000002f0: ca1d 6c3f 99c7 9cbf dfc3 7cbf b6ef 89bf
00000300: d330 9d3f 01bd 9bbf 8bde 59bf 4970 82bf
00000310: 6bdf 9e3f 3e5a 9b3f d9b7 8cbf 4b71 5bbf
00000320: bd72 973f 40de 62bf 4b8d 93bf 6c48 993f
00000330: 0a19 23bf 0ea6 9c3f 3bb1 343f f078 1dbf
00000340: 86f4 2b3f 517e 6b3f d058 6c3f 016c 023f
00000350: f313 94bf a7b5 823f 1476 40bd a9bc 8bbf
00000360: e03e 3f3f cec0 83bf 802f 49bf 1026 113f
00000370: 5449 92bf f8fb 063f aad9 02bf bbb4 8d3f
00000380: 5215 99bf 4e89 84bf 564d 853f 4c7f 9c3f
00000390: d489 513f 088f af3f a140 28bf fa72 8dbf
000003a0: 502d 9fbf f997 97bf af84 453f fddc 5bbf
000003b0: 99aa a0bf ec82 863f 7ed8 edbe 659d 0abf
000003c0: 2dd7 a0bf b23d 553f d43e 5a3f b72c b0bf
000003d0: 3298 723f 25c2 a2bf 6b20 ab3f 795b 5f3f
000003e0: 30d8 adbf b55a 9bbf 7f3e 8dbf f96e 60bf
000003f0: dc2c 563f 5c30 bdbf 80b7 963f 211d d43d
-1.1554465 0.93613774 1.2653533 0.74693435 -1.361595 0.6776433 -0.9455055 1.1093324
-1.2213508 1.3945787 1.2390063 -1.3185574 0.6707593 0.15654385 1.062814 1.031931
-1.4300737 0.8035194 0.037314802 1.3262846 1.0931406 0.9878733 0.7870027 1.1776527
1.0743068 -1.1474802 1.2908262 1.2318413 -0.6122118 0.88592774 -1.1243625 0.81191707
0.028766178 0.81389886 -1.0268658 0.81890893 0.98834985 -0.9776995 1.3036795 0.62831557
0.9325327 -1.3861578 1.2765936 1.2101594 -1.0762298 -1.3630996 -1.4294547 1.0364174
1.2603333 -1.0174764 0.930556 1.0218303 0.53365314 1.2909373 -0.80682 1.0373442
-0.23198454 -1.353521 -1.2361789 1.2726873 0.17584164 1.1183069 1.3702441 0.051070612
-0.91897565 0.7444813 -0.12136237 -0.91735595 -0.28412944 0.9778534 -1.3382827 1.2842762
1.001191 1.0007676 0.22685064 -0.67230403 0.18045853 1.3910422 -1.5884421 -1.2110441
1.0042926 0.4982414 -0.80531156 -0.89158833 0.4079551 -1.0488489 0.043065224 1.0150151
-1.2226648 0.5089281 -0.16201626 -1.3526489 -0.95975125 -1.2485213 1.3366818 1.1872858
-1.2048331 1.1520412 -1.2201478 -1.290609 -0.58715945 1.2954115 1.2985569 1.0486655
1.0695684 1.445347 -0.9169926 -1.4655015 -0.68112487 0.6365985 0.54042685 1.278946
0.3133689 0.96252817 0.95414853 1.4892561 -0.8342382 -1.2375739 -1.024528 -0.5373965
1.2014881 0.8657196 0.40037113 1.2579956 1.2062631 0.78844935 -1.1641042 0.7852725
-0.7656701 -1.1629658 -1.1582054 0.83966744 1.0907881 -0.9848859 1.126586 1.1983012
-0.6595171 -0.5168814 -1.1973463 0.9257013 1.0709283 -0.901727 -1.2487471 0.960486
1.1518115 1.0793836 1.2214518 1.2203325 0.9034469 -1.0790513 -1.2761596 0.69267887
-1.214582 0.8856548 -0.95269704 -1.0615515 -1.1225843 0.37342176 0.83551747 -1.2491412
0.96586925 0.94848883 1.2071248 -1.1326845 -0.9606335 -0.89518493 1.1614466 0.87199265
0.008394365 1.1187838 1.0582044 -1.2469379 1.1664026 1.1986891 -1.26193 -1.1257889
0.9778438 1.1369455 -1.286272 1.007276 -1.2356491 1.1554581 -1.0195017 1.0117971
0.55393296 0.91237575 1.2473106 0.18823455 0.92232955 -1.2248412 -0.98736376 -1.0776279
1.2280525 -1.2167054 -0.851052 -1.0190517 1.2411932 1.2136915 -1.0993606 -0.85719746
1.183189 -0.88620377 -1.1527494 1.1975226 -0.6371008 1.2238176 0.7058293 -0.6151266
0.6716999 0.9198962 0.9232302 0.5094605 -1.1568588 1.0211686 -0.046987608 -1.091695
0.74705315 -1.0293214 -0.78588104 0.56698704 -1.1428628 0.52728224 -0.5111338 1.107078
-1.1959631 -1.0354402 1.0414226 1.2226348 0.81850934 1.3715525 -0.65723616 -1.1050713
-1.2435703 -1.1843253 0.77155584 -0.85884076 -1.2552062 1.0508704 -0.46454233 -0.54146415
-1.2565666 0.83297265 0.8525212 -1.3763646 0.9476348 -1.2715498 1.3369268 0.8724895
-1.35816 -1.2137057 -1.1034697 -0.8766933 0.836622 -1.4780383 1.177475 0.103571184

layer_list.conv2.lin_dst.weight f4 [7, 64]
00000000: ace5 93bf b9a6 6f3f 19f7 a13f 1737 3f3f
00000010: bf48 aebf 087a 2d3f a60c 72bf 9bfe 8d3f
00000020: 3955 9cbf 8e81 b23f c297 9e3f 7dc6 a8bf
00000030: e2b6 2b3f 084d 203e 4a0a 883f 5116 843f
00000040: a80c b7bf 73b3 4d3f 68d7 183d b2c3 a93f
00000050: 08ec 8b3f 44e5 7c3f 0279 493f 53bd 963f
00000060: e382 893f a2e0 92bf cb39 a53f faac 9d3f
00000070: eab9 1cbf 29cc 623f 1ceb 8fbf ccd9 4f3f
00000080: 0ca7 eb3c ad5b 503f 5770 83bf 04a4 513f
00000090: 7f04 7d3f 844a 7abf f8de a63f 4ad9 203f
000000a0: 77ba 6e3f 9e6d b1bf 6b67 a33f 81e6 9a3f
000000b0: e6c1 89bf 0c7a aebf 5ff8 b6bf 53a9 843f
000000c0: 9a52 a13f ab3c 82bf eb38 6e3f 56cb 823f
000000d0: 7e9d 083f 6f3d a53f c18b 4ebf b2c7 843f
000000e0: 5b8d 6dbe 2d40 adbf 1c3b 9ebf 6be7 a23f
000000f0: d50f 343e ae24 8f3f 2964 af3f 6b2f 513d
00000100: fd41 6bbf 5496 3e3f d68c f8bd d7d7 6abf
00000110: 6a79 91be 9a54 7a3f d94c abbf 2a63 a43f
00000120: 0727 803f 2719 803f 894b 683e 1e1c 2cbf
00000130: 1fca 383e ac0d b23f 1252 cbbf 7e03 9bbf
00000140: a98c 803f 7f19 ff3e e628 4ebf 223f 64bf
00000150: 7edf d03e ae40 86bf 2965 303d 04ec 813f
00000160: 4880 9cbf 1d49 023f 97e7 25be 9923 adbf
00000170: 42b2 75bf 8ccf 9fbf 6418 ab3f fbf8 973f
00000180: f937 9abf 1676 933f ce2d 9cbf ad32 a5bf
00000190: 1550 16bf 0bd0 a53f 1d37 a63f ac3a 863f
000001a0: 9ee7 883f 2101 b93f 07c0 6abf 8e95 bbbf
000001b0: 335e 2ebf 1ff8 223f 6a59 0a3f 81b4 a33f
000001c0: e371 a03e 3f68 763f 1443 743f f29f be3f
000001d0: a290 55bf d268 9ebf bc23 83bf d192 09bf
000001e0: 5dca 993f cd9f 5d3f 72fd cc3e 0006 a13f
000001f0: d466 9a3f d1d7 493f 5e01 95bf 9e07 493f
00000200: f502 44bf 10dc 94bf 1340 94bf 72f4 563f
00000210: f29e 8b3f 7b21 7cbf f833 903f ef61 993f
00000220: 1dd6 28bf 5752 04bf a542 99bf c3fa 6c3f
00000230: 2e14 893f 95d7 66bf f2d6 9fbf 69e2 753f
00000240: 8f6e 933f 3e29 8a3f 8858 9c3f db33 9c3f
00000250: 4c48 673f 5a1e 8abf 3359 a3bf 6753 313f
00000260: 6c77 9bbf 46ba 623f f4e3 73bf ebe0 87bf
00000270: d8b0 8fbf 2331 bf3e 79e4 553f dce3 9fbf
00000280: 3543 773f 2ad0 723f 1183 9a3f cefb 90bf
00000290: 14ec 75bf d72a 65bf 48aa 943f e93a 5f3f
000002a0: 8588 093c 4f34 8f3f 3e73 873f a99b 9fbf
000002b0: ae4c 953f a56e 993f ec86 a1bf da19 90bf
000002c0: f953 7a3f 6e87 913f 90a4 a4bf 6cee 803f
000002d0: c029 9ebf 0de6 933f 087f 82bf 9182 813f
000002e0: 8dce 0d3f 7591 693f e0a7 9f3f 8fc0 403e
000002f0: ca1d 6c3f 99c7 9cbf dfc3 7cbf b6ef 89bf
00000300: d330 9d3f 01bd 9bbf 8bde 59bf 4970 82bf
00000310: 6bdf 9e3f 3e5a 9b3f d9b7 8cbf 4b71 5bbf
00000320: bd72 973f 40de 62bf 4b8d 93bf 6c48 993f
00000330: 0a19 23bf 0ea6 9c3f 3bb1 343f f078 1dbf
00000340: 86f4 2b3f 517e 6b3f d058 6c3f 016c 023f
00000350: f313 94bf a7b5 823f 1476 40bd a9bc 8bbf
00000360: e03e 3f3f cec0 83bf 802f 49bf 1026 113f
00000370: 5449 92bf f8fb 063f aad9 02bf bbb4 8d3f
00000380: 5215 99bf 4e89 84bf 564d 853f 4c7f 9c3f
00000390: d489 513f 088f af3f a140 28bf fa72 8dbf
000003a0: 502d 9fbf f997 97bf af84 453f fddc 5bbf
000003b0: 99aa a0bf ec82 863f 7ed8 edbe 659d 0abf
000003c0: 2dd7 a0bf b23d 553f d43e 5a3f b72c b0bf
000003d0: 3298 723f 25c2 a2bf 6b20 ab3f 795b 5f3f
000003e0: 30d8 adbf b55a 9bbf 7f3e 8dbf f96e 60bf
000003f0: dc2c 563f 5c30 bdbf 80b7 963f 211d d43d
-1.1554465 0.93613774 1.2653533 0.74693435 -1.361595 0.6776433 -0.9455055 1.1093324
-1.2213508 1.3945787 1.2390063 -1.3185574 0.6707593 0.15654385 1.062814 1.031931
-1.4300737 0.8035194 0.037314802 1.3262846 1.0931406 0.9878733 0.7870027 1.1776527
1.0743068 -1.1474802 1.2908262 1.2318413 -0.6122118 0.88592774 -1.1243625 0.81191707
0.028766178 0.81389886 -1.0268658 0.81890893 0.98834985 -0.9776995 1.3036795 0.62831557
0.9325327 -1.3861578 1.2765936 1.2101594 -1.0762298 -1.3630996 -1.4294547 1.0364174
1.2603333 -1.0174764 0.930556 1.0218303 0.53365314 1.2909373 -0.80682 1.0373442
-0.23198454 -1.353521 -1.2361789 1.2726873 0.17584164 1.1183069 1.3702441 0.051070612
-0.91897565 0.7444813 -0.12136237 -0.91735595 -0.28412944 0.9778534 -1.3382827 1.2842762
1.001191 1.0007676 0.22685064 -0.67230403 0.18045853 1.3910422 -1.5884421 -1.2110441
1.0042926 0.4982414 -0.80531156 -0.89158833 0.4079551 -1.0488489 0.043065224 1.0150151
-1.2226648 0.5089281 -0.16201626 -1.3526489 -0.95975125 -1.2485213 1.3366818 1.1872858
-1.2048331 1.1520412 -1.2201478 -1.290609 -0.58715945 1.2954115 1.2985569 1.0486655
1.0695684 1.445347 -0.9169926 -1.4655015 -0.68112487 0.6365985 0.54042685 1.278946
0.3133689 0.96252817 0.95414853 1.4892561 -0.8342382 -1.2375739 -1.024528 -0.5373965
1.2014881 0.8657196 0.40037113 1.2579956 1.2062631 0.78844935 -1.1641042 0.7852725
-0.7656701 -1.1629658 -1.1582054 0.83966744 1.0907881 -0.9848859 1.126586 1.1983012
-0.6595171 -0.5168814 -1.1973463 0.9257013 1.0709283 -0.901727 -1.2487471 0.960486
1.1518115 1.0793836 1.2214518 1.2203325 0.9034469 -1.0790513 -1.2761596 0.69267887
-1.214582 0.8856548 -0.95269704 -1.0615515 -1.1225843 0.37342176 0.83551747 -1.2491412
0.96586925 0.94848883 1.2071248 -1.1326845 -0.9606335 -0.89518493 1.1614466 0.87199265
0.008394365 1.1187838 1.0582044 -1.2469379 1.1664026 1.1986891 -1.26193 -1.1257889
0.9778438 1.1369455 -1.286272 1.007276 -1.2356491 1.1554581 -1.0195017 1.0117971
0.55393296 0.91237575 1.2473106 0.18823455 0.92232955 -1.2248412 -0.98736376 -1.0776279
1.2280525 -1.2167054 -0.851052 -1.0190517 1.2411932 1.2136915 -1.0993606 -0.85719746
1.183189 -0.88620377 -1.1527494 1.1975226 -0.6371008 1.2238176 0.7058293 -0.6151266
0.6716999 0.9198962 0.9232302 0.5094605 -1.1568588 1.0211686 -0.046987608 -1.091695
0.74705315 -1.0293214 -0.78588104 0.56698704 -1.1428628 0.52728224 -0.5111338 1.107078
-1.1959631 -1.0354402 1.0414226 1.2226348 0.81850934 1.3715525 -0.65723616 -1.1050713
-1.2435703 -1.1843253 0.77155584 -0.85884076 -1.2552062 1.0508704 -0.46454233 -0.54146415
-1.2565666 0.83297265 0.8525212 -1.3763646 0.9476348 -1.2715498 1.3369268 0.8724895
-1.35816 -1.2137057 -1.1034697 -0.8766933 0.836622 -1.4780383 1.177475 0.103571184
