vanilla_models/Cora/5_3f_85/split3/init0/GAT_dp0_5_5e_4_f1.pt (torch, 372919 bytes, 10 tensors)

layer_list.conv1.att_src f4 [1, 8, 8]
00000000: 8e3d bebe aea5 1c3d 393e 433f 19b5 d0be
00000010: 41ed 27bf ef13 e5be f665 49be 7fef 8abe
00000020: 3fc4 d5be b37e eb3e 80e2 7e3c b862 fa3d
00000030: 9fab 4b3e 2bf8 00bd 6ea9 09be ab32 e53d
00000040: 9ae9 eb3e 21ec 91be 159f 16be a982 d03e
00000050: 092a 093e cb0f a3be 6619 113f 76b6 19be
00000060: dbd7 0f3e 5f87 56be 93b3 23bf 2888 053f
00000070: 83ce 33bf 8dff cebd 8f2e bcbe e535 ce3e
00000080: 02a1 1cbf 1060 1abf 8335 32bd af7f f8bd
00000090: 12f0 92be ea5f ba3e aa93 403f c447 8abe
000000a0: 6253 913e 1f70 043f c57c 3fbf 24c7 253f
000000b0: 5445 0e3f 9fd7 5abe dae3 b6be f692 223f
000000c0: 730c b7be bd8b 20be ba10 633e e458 fabe
000000d0: 47b7 a43e 68b2 b5be d3b1 c5be 6f70 04be
000000e0: cb30 773e b3a6 57be 67d2 4fbd fcb3 e23e
000000f0: c0de 1cbf ca3f 973e c7f2 893e 492d 903e
-0.37156337 0.038243942 0.7626682 -0.40763167 -0.65596396 -0.4474177 -0.19667801 -0.27135846
-0.41751286 0.459951 0.0155569315 0.1222586 0.19889687 -0.03148667 -0.13443539 0.11191305
0.4607666 -0.28500465 -0.14709122 0.40724686 0.13394941 -0.31847987 0.5667938 -0.1501101
0.14047186 -0.20950077 -0.63945884 0.5216088 -0.70236987 -0.10107336 -0.3675427 0.40275493
-0.6118318 -0.6030283 -0.043508064 -0.12133729 -0.28698784 0.36401302 0.7522532 -0.27007878
0.2838393 0.51733583 -0.7479976 0.6475699 0.55574536 -0.21371315 -0.35720712 0.63505495
-0.35751686 -0.15678306 0.2217435 -0.48895943 0.3217108 -0.35487676 -0.38612232 -0.12933515
0.24139707 -0.21059684 -0.050737765 0.44277942 -0.6127739 0.29540855 0.26943037 0.2815955

layer_list.conv1.att_dst f4 [1, 8, 8]
00000000: daec 793c 4784 ee3c b186 0e3e b00a 20be
00000010: 3bec 3cbe 65f8 213c 317f 42bc 33a0 debd
00000020: c009 1dbe 9b75 173e e1ad 4ebb fe12 973d
00000030: 6658 92bc 11a5 09bd 6a19 43bd 7668 253d
00000040: fc15 893e 3561 fdbc ee7f 5dbd a22e 8b3e
00000050: dd4f dc3d eca4 69bd 46b1 673e b9b0 04bc
00000060: c22c 143c 5bc2 e2bd d214 67be 5c6c b63d
00000070: 52b0 3bbe a5cf e43d 5565 02be 3b8b 203d
00000080: f797 eabd d88f 28be c1f1 57bd ad9e 4dbd
00000090: a2e8 a9bd c3ac d83d d33c 103e 13ea 47bd
000000a0: 2671 963c 2007 033e 872c 49be d4bd 393e
000000b0: 13f6 463e 54f6 05bc 1b56 a7bd 33ed f83d
000000c0: 19ea cabc ddcd 393d f882 073e d54b e2bd
000000d0: 6826 ca3b eae4 63bd d560 2cbe 3b49 843c
000000e0: 912b 183d 71b0 8bbd a58f 29bb 1b31 253e
000000f0: 3362 53be bcc8 4c3c c47c 013d a788 af3d
0.015254224 0.02911581 0.13918568 -0.15629077 -0.1844949 0.009885882 -0.011871145 -0.10870399
-0.1533575 0.14790957 -0.0031536745 0.07376669 -0.017864417 -0.033604685 -0.04763166 0.040382825
0.26774585 -0.030930141 -0.05407708 0.27184016 0.1075742 -0.057042047 0.22626218 -0.008098775
0.009043874 -0.110722266 -0.22566536 0.08907387 -0.1832898 0.111724176 -0.12733968 0.03919528
-0.11454766 -0.16461122 -0.05272079 -0.050200153 -0.08296324 0.10579827 0.14085703 -0.048807215
0.0183645 0.12795687 -0.19645892 0.1813882 0.19429807 -0.008176405 -0.0817072 0.12154617
-0.02476983 0.045362342 0.13233554 -0.1104962 0.006169129 -0.05563823 -0.16833813 0.0161482
0.037150923 -0.06820763 -0.0025872972 0.16132013 -0.20642929 0.012499031 0.031613126 0.08570986

layer_list.conv1.bias f4 [64]
00000000: 5008 f43c 34bd d33c 7f92 19bc 44d4 45bc
00000010: 0612 55bb 9dfa 223d e57c 2f3d 674c 443d
00000020: 4992 db3c c148 9a3c f234 88bc 10d8 2f3d
00000030: 1666 3d3c 80fd 163c 296f f73b d709 b33c
00000040: baec ff3b 7c87 f23c f4c3 06bd 2c4c 66bc
00000050: 021a 03bc 71f4 63ba 6fa5 96bc 88b5 073d
00000060: 6116 c33c 76bc 843c 69b8 133d 1807 08bc
00000070: 79a6 5a3d 9ef4 39bb f8c6 743d 5b2c dabb
00000080: a6c4 2a3c bec9 febb c390 b03b 8cd7 a7bb
00000090: 8464 de3c e62f f33c d988 c83c 989e b33c
000000a0: 771b fe3c 5569 063c d62f e13c 50ce 5cbc
000000b0: 5f69 3e3c f107 0a3c 9acd 8dbc 167b ccbb
000000c0: fd9d ea3c ac73 a3bc 280b 2a3d 9aa8 023c
000000d0: 3968 123d c9fa dd3c a8a1 163d 082d eebc
000000e0: d7ab a33c 7c5b 413d 999c 253c e7a5 953c
000000f0: f71c b53c cb34 feb8 5b17 193c a1d9 823b
0.02978912 0.025847055 -0.009373306 -0.012074534 -0.0032511964 0.039789785 0.042843718 0.047924425
0.026803153 0.01883352 -0.016626809 0.042930663 0.011559984 0.009215713 0.007551093 0.021855278
0.0078102024 0.02960562 -0.03290172 -0.014056247 -0.008001806 -0.00086957874 -0.018389432 0.033132106
0.023814382 0.016203146 0.03606454 -0.0083024725 0.053381417 -0.0028374563 0.059760064 -0.0066581196
0.010422861 -0.0077755144 0.0053883507 -0.0051221307 0.027147539 0.029685926 0.024479317 0.02192621
0.031018956 0.008203824 0.02748863 -0.013476923 0.011621802 0.008424745 -0.017309953 -0.006240259
0.028639788 -0.019952618 0.041514546 0.007974768 0.035743926 0.027097123 0.03677526 -0.029074207
0.0199794 0.047206387 0.010108137 0.018267585 0.022108538 -0.00012121497 0.009343947 0.0039932285

layer_list.conv1.lin_src.weight f4 [64, 1433]
00000000: 2bb5 28bd e5aa b63c 156a 1e3e d3ca ba3d
00000010: 6750 a33d 2ea3 023d e23b 26bd 8f63 bf3b
00000020: 1c02 4bbd 9835 3a3d 54a3 ab3c 2874 783d
00000030: 6b52 bbbc dd07 a43d 6f0f 12bd 9ba0 3c3d
00000040: 6fb4 85bd 0249 99bc 36e7 22bd f34a 753e
00000050: b21d fcbb c26b 33bc 1d1b 433b b395 04bd
00000060: bbe2 1b3c b6b1 80bd 7ce6 0bbd 8508 6fbc
00000070: 6ce8 8cbd 5b20 693d 3d45 90bd 83bd 42bd
00000080: 3596 5c3c ac7a 7dbc b26b 223c c43c 0d3c
00000090: e262 dbbc d50c b5bc fed7 bebd 727d f63b
000000a0: 1886 263c ff07 07be 098b bc3b 82d2 eb3c
000000b0: cbf1 e63b 956b 3bbd 198d 7cbb 32b4 aabd
000000c0: c453 b93c 693b 793c 2427 10be 7e85 9dbe
000000d0: a25f cf3b 7ec6 793c 24e3 dd3c 05dc c93b
000000e0: 572c 803d 4941 903a cbf9 c2bd 272a 2ebd
000000f0: bc6f ceba d729 073e 1d18 433d d0d8 d93c
00000100: 8102 28bd 4e74 16be 2d51 933d 5ea3 563d
00000110: aeb0 a23c 440d 9dbd 5410 4bbc 02a7 693d
00000120: 3ea6 633d 5469 793d 97c6 5ebd 94e7 c03d
00000130: 8fa7 44bb 2839 283d 9300 a0bd dd7d b73b
00000140: 83cd 083d 510c 84bc cd20 d6bd 55c2 923c
00000150: 6e24 223d 09ad 373e 6129 0d3d beed 7fbc
00000160: 25dc b43d dd92 2dbd a3cb 373c 1586 10bd
00000170: 7079 adbc 4a9f 32be 55ac d6bd b1b9 90bd
00000180: c20b 4ebd cba4 2cbd 835b d73d ee3b 16be
00000190: 9782 04bd 0502 e5bb d37c b6bd 0c4c ae3d
000001a0: 243a 383d c97a 133c c597 b1bd 6aae 96bc
000001b0: 547e 74bc aee2 51bc b848 2f3c 0e7c e5bc
000001c0: 1d03 6abd 2c38 50b9 8fa4 d13b 74ad e7bc
000001d0: b187 3d3c 448a 2b3d 84a5 9a3c 2e5f 783c
000001e0: 2f7e 24bd 4d83 723c d203 96bd 0340 3a3d
000001f0: 08eb 233d 579f 2f3d 027d b7bd 96e8 fcbd
00000200: 8fe0 493e 880b e2bd 4ab2 483d e9f3 c73b
00000210: 7e53 cc3d b29f a43d d919 ccbc 36d1 82be
00000220: 098f 633d 817a 823c a87f b93b ab88 f5bc
00000230: 1682 02be fa3b 94b7 fd61 1cbc 6212 163e
00000240: 1179 1abd bac4 efbc e486 83bc 47d6 203d
00000250: db20 623c 9bee 52be 91f5 b93c 5f77 a6bd
00000260: 78e6 cd3c 0f3c f4bb d96e 953c 12e8 28bd
00000270: 6a40 953d 7157 de3d dbc5 a0ba fc97 dabc
00000280: d35c 983d 6a4a 613c 3632 59bd c045 8abc
00000290: 657d 3abb b326 46bc 97ad 2d3c 0c96 b93d
000002a0: c772 f1bc 71b7 dcba edbf 233c 144c 803d
000002b0: 0692 d8bc 3f54 20be d2a6 60bd e808 8cbc
000002c0: bdb4 643e e9a5 91bb f605 fabc b186 0e3e
000002d0: 70f9 4cbc f2d8 b9bc 7feb ed3b 2294 f53b
000002e0: c12a cc3c 0ff3 203d 7a31 8c3d bb54 25be
000002f0: 19e1 bebc 94fe cdbc 15cd 913c a950 f3bd
00000300: 710e 5bbd a981 a0bd 56f6 bfbc 81dc a13d
00000310: 1727 c1bd d50e b6bd a595 e4bc ab57 abbc
00000320: b408 68bd 9980 093c fcaf 82bb 7368 233e
00000330: b201 a43c d498 bc3d 0f0c fcbb 3822 51bb
00000340: fb06 033d 94d6 ecbb 1a56 68bb 1670 17be
00000350: 2db8 9ebd c7be bc3c 695d 7c3c 22bf 523b
00000360: fe93 623c 4ea1 2b3e beef 9c3d 7676 c13b
00000370: 8659 17bd e643 093d 3042 e03c 25b1 9dba
00000380: 0cce 97bc e6d7 423d b999 2d3d 2ac3 143d
00000390: 0981 7ebc 976e 043c d85e 503d 33a7 083d
000003a0: e42a 34bd 561e d6bc 3c7e 4abd 0d98 d43d
000003b0: 5f66 5238 5298 59bd cb05 403e f99d 1b3c
000003c0: 94b2 8d3d e182 19bb 1a3d 9bbd 4a51 9bbc
000003d0: fa1d ebbc c596 48bd 9a15 64bd 2182 a2bc
000003e0: 5fb7 0e3c be26 973c 7087 39be 278f d03b
000003f0: c155 92bc 6cd5 ce3a d6d8 91bb bb0c fd3a
-0.0411884 0.022298286 0.15470155 0.09120717 0.0797432 0.0318939 -0.040584452 0.0058407257
-0.04956256 0.045461267 0.020951904 0.06065765 -0.022866448 0.08009312 -0.03565925 0.046051603
-0.065285556 -0.01871157 -0.03977128 0.23954372 -0.0076939696 -0.010950984 0.00297708 -0.032369327
0.009514506 -0.06283896 -0.034155354 -0.014589434 -0.068802685 0.056915622 -0.07044456 -0.047544014
0.0134635465 -0.015471142 0.009913372 0.008620445 -0.02678055 -0.022100845 -0.09318541 0.0075222785
0.010163806 -0.13186644 0.005753879 0.028786901 0.007047867 -0.045756895 -0.003853625 -0.08335151
0.02262295 0.015211918 -0.14077431 -0.3076591 0.006328539 0.015245078 0.027085848 0.0061602616
0.06258457 0.0011005785 -0.095203005 -0.04252067 -0.0015749852 0.13199554 0.047630418 0.026592642
-0.041018013 -0.14692804 0.071932174 0.052401893 0.019859638 -0.07668546 -0.01239403 0.057044037
0.055578463 0.060891464 -0.05438861 0.0941917 -0.00300071 0.041070133 -0.078126095 0.005599721
0.033399116 -0.016119154 -0.10455475 0.01791493 0.039585523 0.17937101 0.03446329 -0.015620647
0.08831052 -0.042376388 0.011217984 -0.03528412 -0.02117607 -0.17443576 -0.104820885 -0.07066668
-0.050304182 -0.042149346 0.10515501 -0.14671299 -0.032351103 -0.006988766 -0.08910527 0.085105985
0.044977322 0.009001442 -0.08671526 -0.018393714 -0.014922697 -0.012810392 0.01069849 -0.028013255
-0.057131875 -0.00019857351 0.0063977907 -0.028280951 0.011567996 0.041879907 0.018877752 0.015159411
-0.0401594 0.014801812 -0.073249474 0.045471203 0.040019065 0.042876568 -0.0895939 -0.1234905
0.19714569 -0.11037356 0.048998155 0.0061020744 0.09976862 0.08038272 -0.024914669 -0.2555024
0.05555633 0.015927555 0.0056609698 -0.029972395 -0.12744936 -1.7670904e-05 -0.009544847 0.1465545
-0.037713114 -0.029268611 -0.016055532 0.03926685 0.013801779 -0.20598833 0.022700103 -0.08128237
0.02513431 -0.0074534486 0.018241333 -0.041236944 0.07287677 0.10856522 -0.0012265997 -0.0266838
0.0743958 0.013750652 -0.0530264 -0.016878963 -0.0028456089 -0.012094188 0.010600469 0.09061822
-0.029473675 -0.0016839338 0.009994489 0.06264511 -0.026436817 -0.15657137 -0.054846592 -0.01709409
0.22334571 -0.004444827 -0.03052042 0.13918568 -0.012510642 -0.022686455 0.0072607393 0.0074944654
0.02492273 0.0392943 0.068453744 -0.16145603 -0.023300694 -0.025145806 0.017797986 -0.11880619
-0.05348057 -0.07837231 -0.023432892 0.07903386 -0.09431284 -0.08889548 -0.027903387 -0.020915827
-0.056648925 0.0083924765 -0.003988264 0.15957813 0.02002034 0.09208837 -0.007691867 -0.0031911265
0.03198908 -0.007227728 -0.003545171 -0.14788851 -0.077499725 0.023040188 0.01540313 0.003215738
0.013829229 0.16760752 0.07662915 0.005904014 -0.03695061 0.03351202 0.02737531 -0.0012030943
-0.018530868 0.047569178 0.04238293 0.036318935 -0.015533694 0.008083007 0.0508717 0.03336258
-0.043986216 -0.026137512 -0.049436793 0.10380564 5.0163242e-05 -0.05312378 0.1875221 0.009498113
0.06918827 -0.0023423957 -0.075800136 -0.01895966 -0.028700817 -0.04897191 -0.055684663 -0.01983744
0.008710711 0.01845109 -0.18118072 0.0063647213 -0.017863156 0.0015780157 -0.0044508977 0.0019306162

layer_list.conv1.lin_dst.weight f4 [64, 1433]
00000000: 2bb5 28bd e5aa b63c 156a 1e3e d3ca ba3d
00000010: 6750 a33d 2ea3 023d e23b 26bd 8f63 bf3b
00000020: 1c02 4bbd 9835 3a3d 54a3 ab3c 2874 783d
00000030: 6b52 bbbc dd07 a43d 6f0f 12bd 9ba0 3c3d
00000040: 6fb4 85bd 0249 99bc 36e7 22bd f34a 753e
00000050: b21d fcbb c26b 33bc 1d1b 433b b395 04bd
00000060: bbe2 1b3c b6b1 80bd 7ce6 0bbd 8508 6fbc
00000070: 6ce8 8cbd 5b20 693d 3d45 90bd 83bd 42bd
00000080: 3596 5c3c ac7a 7dbc b26b 223c c43c 0d3c
00000090: e262 dbbc d50c b5bc fed7 bebd 727d f63b
000000a0: 1886 263c ff07 07be 098b bc3b 82d2 eb3c
000000b0: cbf1 e63b 956b 3bbd 198d 7cbb 32b4 aabd
000000c0: c453 b93c 693b 793c 2427 10be 7e85 9dbe
000000d0: a25f cf3b 7ec6 793c 24e3 dd3c 05dc c93b
000000e0: 572c 803d 4941 903a cbf9 c2bd 272a 2ebd
000000f0: bc6f ceba d729 073e 1d18 433d d0d8 d93c
00000100: 8102 28bd 4e74 16be 2d51 933d 5ea3 563d
00000110: aeb0 a23c 440d 9dbd 5410 4bbc 02a7 693d
00000120: 3ea6 633d 5469 793d 97c6 5ebd 94e7 c03d
00000130: 8fa7 44bb 2839 283d 9300 a0bd dd7d b73b
00000140: 83cd 083d 510c 84bc cd20 d6bd 55c2 923c
00000150: 6e24 223d 09ad 373e 6129 0d3d beed 7fbc
00000160: 25dc b43d dd92 2dbd a3cb 373c 1586 10bd
00000170: 7079 adbc 4a9f 32be 55ac d6bd b1b9 90bd
00000180: c20b 4ebd cba4 2cbd 835b d73d ee3b 16be
00000190: 9782 04bd 0502 e5bb d37c b6bd 0c4c ae3d
000001a0: 243a 383d c97a 133c c597 b1bd 6aae 96bc
000001b0: 547e 74bc aee2 51bc b848 2f3c 0e7c e5bc
000001c0: 1d03 6abd 2c38 50b9 8fa4 d13b 74ad e7bc
000001d0: b187 3d3c 448a 2b3d 84a5 9a3c 2e5f 783c
000001e0: 2f7e 24bd 4d83 723c d203 96bd 0340 3a3d
000001f0: 08eb 233d 579f 2f3d 027d b7bd 96e8 fcbd
00000200: 8fe0 493e 880b e2bd 4ab2 483d e9f3 c73b
00000210: 7e53 cc3d b29f a43d d919 ccbc 36d1 82be
00000220: 098f 633d 817a 823c a87f b93b ab88 f5bc
00000230: 1682 02be fa3b 94b7 fd61 1cbc 6212 163e
00000240: 1179 1abd bac4 efbc e486 83bc 47d6 203d
00000250: db20 623c 9bee 52be 91f5 b93c 5f77 a6bd
00000260: 78e6 cd3c 0f3c f4bb d96e 953c 12e8 28bd
00000270: 6a40 953d 7157 de3d dbc5 a0ba fc97 dabc
00000280: d35c 983d 6a4a 613c 3632 59bd c045 8abc
00000290: 657d 3abb b326 46bc 97ad 2d3c 0c96 b93d
000002a0: c772 f1bc 71b7 dcba edbf 233c 144c 803d
000002b0: 0692 d8bc 3f54 20be d2a6 60bd e808 8cbc
000002c0: bdb4 643e e9a5 91bb f605 fabc b186 0e3e
000002d0: 70f9 4cbc f2d8 b9bc 7feb ed3b 2294 f53b
000002e0: c12a cc3c 0ff3 203d 7a31 8c3d bb54 25be
000002f0: 19e1 bebc 94fe cdbc 15cd 913c a950 f3bd
00000300: 710e 5bbd a981 a0bd 56f6 bfbc 81dc a13d
00000310: 1727 c1bd d50e b6bd a595 e4bc ab57 abbc
00000320: b408 68bd 9980 093c fcaf 82bb 7368 233e
00000330: b201 a43c d498 bc3d 0f0c fcbb 3822 51bb
00000340: fb06 033d 94d6 ecbb 1a56 68bb 1670 17be
00000350: 2db8 9ebd c7be bc3c 695d 7c3c 22bf 523b
00000360: fe93 623c 4ea1 2b3e beef 9c3d 7676 c13b
00000370: 8659 17bd e643 093d 3042 e03c 25b1 9dba
00000380: 0cce 97bc e6d7 423d b999 2d3d 2ac3 143d
00000390: 0981 7ebc 976e 043c d85e 503d 33a7 083d
000003a0: e42a 34bd 561e d6bc 3c7e 4abd 0d98 d43d
000003b0: 5f66 5238 5298 59bd cb05 403e f99d 1b3c
000003c0: 94b2 8d3d e182 19bb 1a3d 9bbd 4a51 9bbc
000003d0: fa1d ebbc c596 48bd 9a15 64bd 2182 a2bc
000003e0: 5fb7 0e3c be26 973c 7087 39be 278f d03b
000003f0: c155 92bc 6cd5 ce3a d6d8 91bb bb0c fd3a
-0.0411884 0.022298286 0.15470155 0.09120717 0.0797432 0.0318939 -0.040584452 0.0058407257
-0.04956256 0.045461267 0.020951904 0.06065765 -0.022866448 0.08009312 -0.03565925 0.046051603
-0.065285556 -0.01871157 -0.03977128 0.23954372 -0.0076939696 -0.010950984 0.00297708 -0.032369327
0.009514506 -0.06283896 -0.034155354 -0.014589434 -0.068802685 0.056915622 -0.07044456 -0.047544014
0.0134635465 -0.015471142 0.009913372 0.008620445 -0.02678055 -0.022100845 -0.09318541 0.0075222785
0.010163806 -0.13186644 0.005753879 0.028786901 0.007047867 -0.045756895 -0.003853625 -0.08335151
0.02262295 0.015211918 -0.14077431 -0.3076591 0.006328539 0.015245078 0.027085848 0.0061602616
0.06258457 0.0011005785 -0.095203005 -0.04252067 -0.0015749852 0.13199554 0.047630418 0.026592642
-0.041018013 -0.14692804 0.071932174 0.052401893 0.019859638 -0.07668546 -0.01239403 0.057044037
0.055578463 0.060891464 -0.05438861 0.0941917 -0.00300071 0.041070133 -0.078126095 0.005599721
0.033399116 -0.016119154 -0.10455475 0.01791493 0.039585523 0.17937101 0.03446329 -0.015620647
0.08831052 -0.042376388 0.011217984 -0.03528412 -0.02117607 -0.17443576 -0.104820885 -0.07066668
-0.050304182 -0.042149346 0.10515501 -0.14671299 -0.032351103 -0.006988766 -0.08910527 0.085105985
0.044977322 0.009001442 -0.08671526 -0.018393714 -0.014922697 -0.012810392 0.01069849 -0.028013255
-0.057131875 -0.00019857351 0.0063977907 -0.028280951 0.011567996 0.041879907 0.018877752 0.015159411
-0.0401594 0.014801812 -0.073249474 0.045471203 0.040019065 0.042876568 -0.0895939 -0.1234905
0.19714569 -0.11037356 0.048998155 0.0061020744 0.09976862 0.08038272 -0.024914669 -0.2555024
0.05555633 0.015927555 0.0056609698 -0.029972395 -0.12744936 -1.7670904e-05 -0.009544847 0.1465545
-0.037713114 -0.029268611 -0.016055532 0.03926685 0.013801779 -0.20598833 0.022700103 -0.08128237
0.02513431 -0.0074534486 0.018241333 -0.041236944 0.07287677 0.10856522 -0.0012265997 -0.0266838
0.0743958 0.013750652 -0.0530264 -0.016878963 -0.0028456089 -0.012094188 0.010600469 0.09061822
-0.029473675 -0.0016839338 0.009994489 0.06264511 -0.026436817 -0.15657137 -0.054846592 -0.01709409
0.22334571 -0.004444827 -0.03052042 0.13918568 -0.012510642 -0.022686455 0.0072607393 0.0074944654
0.02492273 0.0392943 0.068453744 -0.16145603 -0.023300694 -0.025145806 0.017797986 -0.11880619
-0.05348057 -0.07837231 -0.023432892 0.07903386 -0.09431284 -0.08889548 -0.027903387 -0.020915827
-0.056648925 0.0083924765 -0.003988264 0.15957813 0.02002034 0.09208837 -0.007691867 -0.0031911265
0.03198908 -0.007227728 -0.003545171 -0.14788851 -0.077499725 0.023040188 0.01540313 0.003215738
0.013829229 0.16760752 0.07662915 0.005904014 -0.03695061 0.03351202 0.02737531 -0.0012030943
-0.018530868 0.047569178 0.04238293 0.036318935 -0.015533694 0.008083007 0.0508717 0.03336258
-0.043986216 -0.026137512 -0.049436793 0.10380564 5.0163242e-05 -0.05312378 0.1875221 0.009498113
0.06918827 -0.0023423957 -0.075800136 -0.01895966 -0.028700817 -0.04897191 -0.055684663 -0.01983744
0.008710711 0.01845109 -0.18118072 0.0063647213 -0.017863156 0.0015780157 -0.0044508977 0.0019306162

layer_list.conv2.att_src f4 [1, 1, 7]
00000000: a330 f23d 7c95 fcbc 6e9e 493e 61d9 1d3e
00000010: 4afb a83c 49b8 423e 35e3 503e
0.11825683 -0.030832998 0.19689342 0.15414955 0.020627636 0.19015612 0.20399173

layer_list.conv2.att_dst f4 [1, 1, 7]
00000000: 958f dcbd 215b 58be 47f3 c63e fea5 3e3c
00000010: 7108 14be 7a48 df3d 4834 193f
-0.107695736 -0.21128513 0.3885748 0.011636255 -0.14456345 0.10902496 0.598454

layer_list.conv2.bias f4 [7]
00000000: 2ebd 12be f9a4 f5be 271f d83d ed86 063f
00000010: 3920 eebd cec9 4fbe 389b f8be
-0.14329979 -0.47977427 0.10552817 0.5254963 -0.1162724 -0.20291826 -0.48555923

layer_list.conv2.lin_src.weight f4 [7, 64]
00000000: 0aa4 1c3f 1ce0 ecbd 2c0f 363f a6de 7abf
00000010: 3bce 8abf 7b45 0c3f 7ce8 75bf 3165 87bf
00000020: 3380 ebbe d01e 29bf a273 2abe 9889 59bf
00000030: 3874 27bf d1a9 6e3f 51c7 9a3f 2cf8 c2be
00000040: 651e 913f 6b5b 65bf 91cf 7bbf fefc 7f3f
00000050: 0c4f 13bf 4e45 4ebf af03 7e3f 32a2 323f
00000060: 01a5 673f b592 673f 7860 883f 213c 79bf
00000070: 44f7 1f3f dcce 91be 2f18 75bf 7d1f 35bf
00000080: 3329 753f 7432 85bf d244 943f 8982 7fbf
00000090: cab7 1dbf d299 66bf 6897 70bf 1e13 81bf
000000a0: cd6d 8f3f 5e73 44bf d4f4 3d3f fd63 1dbf
000000b0: 73e8 91bf 58f7 86bf 49d5 f8bd 3bb7 dfbe
000000c0: d8fd 79bf e095 763f aba9 823f a1a4 8abf
000000d0: ea41 4ebf b9a9 1f3f 8856 57bf 96ce 893f
000000e0: 63e8 6e3f 346a 3e3f 3900 88bf 119f 57bf
000000f0: 3522 8f3f 9a6c 73be acd8 ba3e 4b83 24bf
00000100: 7845 59bf b531 82bf 77c2 e2be 4b15 36bf
00000110: 7654 843e b981 5b3f 9887 913e 95d3 90be
00000120: be6c 8f3f b852 4fbf 606f 93be 0d04 57bf
00000130: bb01 943f e57f 88bc 3f9c 923e eeae 31bf
00000140: b081 6bbf a651 4abf abbe 373f ac7c eebe
00000150: dad8 1dbf e48b 0a3d 60d0 9abd 1dcd 5ebf
00000160: 2723 873f a01e e4be 500c 8cbf 6371 2dbf
00000170: 54ab 26bf 0e53 2a3f 8dd6 44bf 8759 883d
00000180: 530f 373f a71b 1e3e 2349 8ebf cbe0 89bf
00000190: d5e2 47bf 2204 963f 1668 703f c4ac 89bf
000001a0: 3d25 25bf 5cd6 923f f64a 89bf 3d51 683f
000001b0: 3158 b43e f1b7 a13f 74a3 95bf 5a0a 9a3f
000001c0: adb6 533f 3f8d 763f 5c05 4dbe df55 31bf
000001d0: 648f 863f a626 6cbe 1384 68bf bb55 1cbf
000001e0: de8a 8b3f f923 85bf d719 803f 6a4d d03e
000001f0: e1f2 99bf 233b ac3d 1f5b 62bf 049a f0be
00000200: 0d99 12be e728 45bf 713d 47bf fe5b 8b3f
00000210: 1e0c 7e3f dc3a 3a3f ef7e 70bf 7129 833f
00000220: c207 33bf 373c 513f 9849 713f d75d 5e3f
00000230: 206e 1e3f 421c 4a3f d110 82bf 50df 733f
00000240: 7bfe 8e3f 5659 7ebe 8e8a 3f3f 03d6 713f
00000250: 8062 753f a49b 513f ac06 3c3f e2a2 7bbf
00000260: 4690 7cbf b973 68bf 40c5 4ebf 8df0 5f3f
00000270: 1054 72bf 42f4 2f3f 608c 73bf c840 553f
00000280: e55e 74bf 8926 84bf c8fd 6c3f 7e27 5ebf
00000290: 7013 0b3f 3cd2 2a3f 2a97 663f b0cf 5abf
000002a0: 9ca3 5d3f 9910 5c3f 6f52 6bbf cbff 733f
000002b0: 4ae8 583f 2a3f 6ebf 0600 6e3f 8e3c 613f
000002c0: 8295 3c3f e070 5dbf e769 2b3f 2684 363f
000002d0: 23d5 32be 9176 69bf 32c9 25bf 67e5 19bf
000002e0: a5c3 673f 7e37 43bf 918d 38bf c932 6d3f
000002f0: dff3 35bf 84a5 623f 7790 753f 77e6 823f
00000300: 65df 473f aa6e 603f 3a5b 8cbf 24fc 5a3f
00000310: ea44 5f3f 12be 3a3f 899c 7c3f c208 183f
00000320: 883c 19bf 0922 1b3f 5765 31bf c0e8 8ebf
00000330: 8ab5 5cbf 83d6 7abf b23a 67bf 17df 2a3f
00000340: 7246 6abf 95da 843f 5906 b6be 2c96 0fbf
00000350: 5e60 7cbf 8661 463f 5c0a 8fbf aed7 5f3f
00000360: 4d65 8ebe 743d 343e 7505 673f e97c 66bf
00000370: c929 553f 86d9 903f 3023 8b3f 042c 84bf
00000380: 29e2 023f 4de5 813f 91c3 62bf 1e82 15bf
00000390: 8d6a 593f d22b 3ebf 7fcd 7bbf e076 5e3f
000003a0: 9188 293f c3ed 0dbf 8b0d 10bf 64f6 063f
000003b0: ca29 863f 2c1b 1bbf 508d 7bbf b96a 37bf
000003c0: a046 8e3f ee10 803f abf7 8dbe 4d4f 783f
000003d0: fc86 44bf 9596 7f3f 68ab 7b3f 004e 5fbf
000003e0: 4757 77bf 4c26 723f 466e 24be d15f 663f
000003f0: 37b0 6ebf 52e4 4bbf 62f5 39bf 492d 5a3f
0.61187804 -0.11566183 0.711169 -0.97995985 -1.0844187 0.5479352 -0.9605787 -1.0577756
-0.45996246 -0.6606264 -0.16645673 -0.84975576 -0.6541171 0.9322787 1.2092077 -0.38079965
1.1337401 -0.8959262 -0.98363596 0.9999541 -0.5754249 -0.805745 0.9922437 0.6977874
0.9048615 0.9045823 1.065444 -0.97357374 0.6248667 -0.28478134 -0.95740026 -0.7075117
0.9576599 -1.0406022 1.1583502 -0.99808556 -0.61608565 -0.9007846 -0.9398103 -1.0083959
1.1205384 -0.76738536 0.74201703 -0.61480695 -1.1399063 -1.0544233 -0.12150056 -0.4369448
-0.9765296 0.9632244 1.0208029 -1.0831491 -0.80569327 0.6236835 -0.8411641 1.076617
0.93323344 0.74380803 -1.0625068 -0.8422709 1.1182314 -0.23771897 0.36493433 -0.6426284
-0.84871626 -1.0171419 -0.4428899 -0.7112624 0.2584569 0.85744816 0.28423762 -0.28286424
1.120506 -0.80985594 -0.2879591 -0.83990556 1.1563028 -0.016662547 0.2863483 -0.69407547
-0.9199476 -0.79030836 0.7177531 -0.46579492 -0.61659014 0.033824816 -0.075592756 -0.8703173
1.0557603 -0.44554615 -1.0941257 -0.6775114 -0.65105176 0.6653298 -0.7688988 0.06657701
0.7150776 0.15440236 -1.111607 -1.0771726 -0.78080493 1.1720011 0.9390882 -1.0755849
-0.64509946 1.1471667 -1.0726001 0.9074896 0.35223535 1.263426 -1.1690507 1.2034409
0.82700616 0.96309274 -0.20021576 -0.69271654 1.0512509 -0.23061618 -0.9082653 -0.61068314
1.0901754 -1.0401603 1.0007886 0.40684062 -1.2027246 0.08409717 -0.8842029 -0.46992505
-0.14316197 -0.7701554 -0.7782813 1.0887449 0.9923724 0.7274606 -0.93943685 1.0247022
-0.6993371 0.81732506 0.9425292 0.8686194 0.6188679 0.7894937 -1.0161382 0.9526262
1.1171411 -0.24838766 0.7482079 0.9446718 0.95853424 0.81878114 0.7344768 -0.98295414
-0.98657644 -0.9080158 -0.8076973 0.87476426 -0.9465952 0.6873208 -0.9513607 0.83301973
-0.954573 -1.032426 0.9257474 -0.8677901 0.54326534 0.6672704 0.9007441 -0.85473156
0.86577773 0.85962826 -0.9192266 0.95312184 0.84729445 -0.9306513 0.92968786 0.87983024
0.7366563 -0.8650036 0.6695847 0.7129539 -0.17464118 -0.9119654 -0.64760125 -0.60115665
0.90532905 -0.7625655 -0.72091013 0.92655617 -0.7107524 0.88533807 0.9592356 1.0226582
0.7807525 0.8766886 -1.096534 0.85540986 0.8721453 0.72946274 0.98676354 0.59388363
-0.5985799 0.6059881 -0.6929526 -1.116478 -0.86214507 -0.9798357 -0.90323937 0.6674666
-0.9151374 1.0379206 -0.35551718 -0.5608852 -0.98584545 0.7749256 -1.1175036 0.87438476
-0.2781166 0.17601568 0.902427 -0.9003435 0.83266884 1.1316383 1.0870113 -1.0325933
0.51126343 1.0148102 -0.8857966 -0.5840167 0.8492821 -0.74285614 -0.9836044 0.8690014
0.6622401 -0.5544092 -0.56270665 0.5271971 1.0481503 -0.60588336 -0.982625 -0.7164722
1.1115303 1.0005167 -0.27728018 0.96996003 -0.7676847 0.99839145 0.9830842 -0.87228394
-0.9661755 0.94589686 -0.16057691 0.89989954 -0.9323763 -0.79645264 -0.7264005 0.8522535

layer_list.conv2.lin_dst.weight f4 [7, 64]
00000000: 0aa4 1c3f 1ce0 ecbd 2c0f 363f a6de 7abf
00000010: 3bce 8abf 7b45 0c3f 7ce8 75bf 3165 87bf
00000020: 3380 ebbe d01e 29bf a273 2abe 9889 59bf
00000030: 3874 27bf d1a9 6e3f 51c7 9a3f 2cf8 c2be
00000040: 651e 913f 6b5b 65bf 91cf 7bbf fefc 7f3f
00000050: 0c4f 13bf 4e45 4ebf af03 7e3f 32a2 323f
00000060: 01a5 673f b592 673f 7860 883f 213c 79bf
00000070: 44f7 1f3f dcce 91be 2f18 75bf 7d1f 35bf
00000080: 3329 753f 7432 85bf d244 943f 8982 7fbf
00000090: cab7 1dbf d299 66bf 6897 70bf 1e13 81bf
000000a0: cd6d 8f3f 5e73 44bf d4f4 3d3f fd63 1dbf
000000b0: 73e8 91bf 58f7 86bf 49d5 f8bd 3bb7 dfbe
000000c0: d8fd 79bf e095 763f aba9 823f a1a4 8abf
000000d0: ea41 4ebf b9a9 1f3f 8856 57bf 96ce 893f
000000e0: 63e8 6e3f 346a 3e3f 3900 88bf 119f 57bf
000000f0: 3522 8f3f 9a6c 73be acd8 ba3e 4b83 24bf
00000100: 7845 59bf b531 82bf 77c2 e2be 4b15 36bf
00000110: 7654 843e b981 5b3f 9887 913e 95d3 90be
00000120: be6c 8f3f b852 4fbf 606f 93be 0d04 57bf
00000130: bb01 943f e57f 88bc 3f9c 923e eeae 31bf
00000140: b081 6bbf a651 4abf abbe 373f ac7c eebe
00000150: dad8 1dbf e48b 0a3d 60d0 9abd 1dcd 5ebf
00000160: 2723 873f a01e e4be 500c 8cbf 6371 2dbf
00000170: 54ab 26bf 0e53 2a3f 8dd6 44bf 8759 883d
00000180: 530f 373f a71b 1e3e 2349 8ebf cbe0 89bf
00000190: d5e2 47bf 2204 963f 1668 703f c4ac 89bf
000001a0: 3d25 25bf 5cd6 923f f64a 89bf 3d51 683f
000001b0: 3158 b43e f1b7 a13f 74a3 95bf 5a0a 9a3f
000001c0: adb6 533f 3f8d 763f 5c05 4dbe df55 31bf
000001d0: 648f 863f a626 6cbe 1384 68bf bb55 1cbf
000001e0: de8a 8b3f f923 85bf d719 803f 6a4d d03e
000001f0: e1f2 99bf 233b ac3d 1f5b 62bf 049a f0be
00000200: 0d99 12be e728 45bf 713d 47bf fe5b 8b3f
00000210: 1e0c 7e3f dc3a 3a3f ef7e 70bf 7129 833f
00000220: c207 33bf 373c 513f 9849 713f d75d 5e3f
00000230: 206e 1e3f 421c 4a3f d110 82bf 50df 733f
00000240: 7bfe 8e3f 5659 7ebe 8e8a 3f3f 03d6 713f
00000250: 8062 753f a49b 513f ac06 3c3f e2a2 7bbf
00000260: 4690 7cbf b973 68bf 40c5 4ebf 8df0 5f3f
00000270: 1054 72bf 42f4 2f3f 608c 73bf c840 553f
00000280: e55e 74bf 8926 84bf c8fd 6c3f 7e27 5ebf
00000290: 7013 0b3f 3cd2 2a3f 2a97 663f b0cf 5abf
000002a0: 9ca3 5d3f 9910 5c3f 6f52 6bbf cbff 733f
000002b0: 4ae8 583f 2a3f 6ebf 0600 6e3f 8e3c 613f
000002c0: 8295 3c3f e070 5dbf e769 2b3f 2684 363f
000002d0: 23d5 32be 9176 69bf 32c9 25bf 67e5 19bf
000002e0: a5c3 673f 7e37 43bf 918d 38bf c932 6d3f
000002f0: dff3 35bf 84a5 623f 7790 753f 77e6 823f
00000300: 65df 473f aa6e 603f 3a5b 8cbf 24fc 5a3f
00000310: ea44 5f3f 12be 3a3f 899c 7c3f c208 183f
00000320: 883c 19bf 0922 1b3f 5765 31bf c0e8 8ebf
00000330: 8ab5 5cbf 83d6 7abf b23a 67bf 17df 2a3f
00000340: 7246 6abf 95da 843f 5906 b6be 2c96 0fbf
00000350: 5e60 7cbf 8661 463f 5c0a 8fbf aed7 5f3f
00000360: 4d65 8ebe 743d 343e 7505 673f e97c 66bf
00000370: c929 553f 86d9 903f 3023 8b3f 042c 84bf
00000380: 29e2 023f 4de5 813f 91c3 62bf 1e82 15bf
00000390: 8d6a 593f d22b 3ebf 7fcd 7bbf e076 5e3f
000003a0: 9188 293f c3ed 0dbf 8b0d 10bf 64f6 063f
000003b0: ca29 863f 2c1b 1bbf 508d 7bbf b96a 37bf
000003c0: a046 8e3f ee10 803f abf7 8dbe 4d4f 783f
000003d0: fc86 44bf 9596 7f3f 68ab 7b3f 004e 5fbf
000003e0: 4757 77bf 4c26 723f 466e 24be d15f 663f
000003f0: 37b0 6ebf 52e4 4bbf 62f5 39bf 492d 5a3f
0.61187804 -0.11566183 0.711169 -0.97995985 -1.0844187 0.5479352 -0.9605787 -1.0577756
-0.45996246 -0.6606264 -0.16645673 -0.84975576 -0.6541171 0.9322787 1.2092077 -0.38079965
1.1337401 -0.8959262 -0.98363596 0.9999541 -0.5754249 -0.805745 0.9922437 0.6977874
0.9048615 0.9045823 1.065444 -0.97357374 0.6248667 -0.28478134 -0.95740026 -0.7075117
0.9576599 -1.0406022 1.1583502 -0.99808556 -0.61608565 -0.9007846 -0.9398103 -1.0083959
1.1205384 -0.76738536 0.74201703 -0.61480695 -1.1399063 -1.0544233 -0.12150056 -0.4369448
-0.9765296 0.9632244 1.0208029 -1.0831491 -0.80569327 0.6236835 -0.8411641 1.076617
0.93323344 0.74380803 -1.0625068 -0.8422709 1.1182314 -0.23771897 0.36493433 -0.6426284
-0.84871626 -1.0171419 -0.4428899 -0.7112624 0.2584569 0.85744816 0.28423762 -0.28286424
1.120506 -0.80985594 -0.2879591 -0.83990556 1.1563028 -0.016662547 0.2863483 -0.69407547
-0.9199476 -0.79030836 0.7177531 -0.46579492 -0.61659014 0.033824816 -0.075592756 -0.8703173
1.0557603 -0.44554615 -1.0941257 -0.6775114 -0.65105176 0.6653298 -0.7688988 0.06657701
0.7150776 0.15440236 -1.111607 -1.0771726 -0.78080493 1.1720011 0.9390882 -1.0755849
-0.64509946 1.1471667 -1.0726001 0.9074896 0.35223535 1.263426 -1.1690507 1.2034409
0.82700616 0.96309274 -0.20021576 -0.69271654 1.0512509 -0.23061618 -0.9082653 -0.61068314
1.0901754 -1.0401603 1.0007886 0.40684062 -1.2027246 0.08409717 -0.8842029 -0.46992505
-0.14316197 -0.7701554 -0.7782813 1.0887449 0.9923724 0.7274606 -0.93943685 1.0247022
-0.6993371 0.81732506 0.9425292 0.8686194 0.6188679 0.7894937 -1.0161382 0.9526262
1.1171411 -0.24838766 0.7482079 0.9446718 0.95853424 0.81878114 0.7344768 -0.98295414
-0.98657644 -0.9080158 -0.8076973 0.87476426 -0.9465952 0.6873208 -0.9513607 0.83301973
-0.954573 -1.032426 0.9257474 -0.8677901 0.54326534 0.6672704 0.9007441 -0.85473156
0.86577773 0.85962826 -0.9192266 0.95312184 0.84729445 -0.9306513 0.92968786 0.87983024
0.7366563 -0.8650036 0.6695847 0.7129539 -0.17464118 -0.9119654 -0.64760125 -0.60115665
0.90532905 -0.7625655 -0.72091013 0.92655617 -0.7107524 0.88533807 0.9592356 1.0226582
0.7807525 0.8766886 -1.096534 0.85540986 0.8721453 0.72946274 0.98676354 0.59388363
-0.5985799 0.6059881 -0.6929526 -1.116478 -0.86214507 -0.9798357 -0.90323937 0.6674666
-0.9151374 1.0379206 -0.35551718 -0.5608852 -0.98584545 0.7749256 -1.1175036 0.87438476
-0.2781166 0.17601568 0.902427 -0.9003435 0.83266884 1.1316383 1.0870113 -1.0325933
0.51126343 1.0148102 -0.8857966 -0.5840167 0.8492821 -0.74285614 -0.9836044 0.8690014
0.6622401 -0.5544092 -0.56270665 0.5271971 1.0481503 -0.60588336 -0.982625 -0.7164722
1.1115303 1.0005167 -0.27728018 0.96996003 -0.7676847 0.99839145 0.9830842 -0.87228394
-0.9661755 0.94589686 -0.16057691 0.89989954 -0.9323763 -0.79645264 -0.7264005 0.8522535
