vanilla_models/Cora/5_3f_85/split3/init0/GAT_dp0_5_5e_4_f0.pt (torch, 372919 bytes, 10 tensors)

layer_list.conv1.att_src f4 [1, 8, 8]
0.045730017 -0.5646857 -0.11305944 -0.36051992 -0.21765397 0.10086976 -0.1900123 0.4708161
-0.3244133 0.52237976 0.4183846 0.15088905 -0.06291369 0.66686624 -0.47276336 0.18184039
0.47255445 -0.55701244 0.3189592 0.25511402 -0.48093745 -0.5049438 -0.50468814 -0.50558007
-0.9241656 0.84210026 0.4507617 0.99999875 1.3074949 -0.5617405 -0.22669722 0.764305
-0.15724395 -0.09101895 0.5119809 0.048952356 0.56746423 0.5666453 0.13024104 0.5314583
0.58588415 -0.1502022 -0.56462246 0.23314805 -0.03975789 -0.5276418 0.28549448 -0.46923527
0.3177518 0.452147 -0.44030237 0.38774598 -0.533399 0.43583134 -0.2688333 0.16021946
-0.23038316 -0.33906415 0.32048848 -0.3042256 -0.2475441 -0.7219619 0.7282842 0.54167897
00000000: 664f 3b3d 3e8f 10bf b58b e7bd 1196 b8be
00000010: afe0 5ebe ce94 ce3d 9692 42be cf0e f13e
00000020: 8019 a6be aeba 053f 8236 d63e a982 1a3e
00000030: e5d8 80bd bfb7 2a3f 0a0e f2be 5e34 3a3e
00000040: a8f2 f13e 5e98 0ebf 9f4e a33e 4e9e 823e
00000050: 6f3d f6be ff43 01bf 3e33 01bf b26d 01bf
00000060: 1e96 6cbf e293 573f 3dca e63e ebff 7f3f
00000070: fe5b a73f 3ace 0fbf 5123 68be 7ea9 433f
00000080: 8f04 21be 2568 babd 2e11 033f 4482 483d
00000090: 5645 113f ab0f 113f e85d 053e a70d 083f
000000a0: 81fc 153f 9bce 19be 198b 10bf 5dbe 6e3e
000000b0: 2bd9 22bd 8813 07bf 552c 923e 9b3f f0be
000000c0: 5db0 a23e d07f e73e 506f e1be a486 c63e
000000d0: d68c 08bf 4925 df3e 85a4 89be 9210 243e
000000e0: 90e9 6bbe d199 adbe 1117 a43e 75c3 9bbe
000000f0: 337c 7dbe 7fd2 38bf d570 3a3f 79ab 0a3f

layer_list.conv1.att_dst f4 [1, 8, 8]
-0.078824304 -0.22376557 -0.10949893 -0.08066974 0.04980053 0.05924654 -0.09855622 0.1029506
-0.1260178 0.18374537 0.15270779 -0.06745402 -0.104188405 0.23178291 -0.19242929 -0.071647495
-0.12569356 -0.12867907 -0.045797806 0.02948711 -0.14771177 -0.19086571 -0.26596278 -0.19058196
-0.30685937 0.25507766 0.19764656 0.3803255 0.4167823 -0.11219356 -0.06276213 0.17546
-0.09699969 -0.00046522636 0.13018677 -0.036314342 0.12868896 0.16866076 0.16550057 0.17027155
0.026761724 -0.083134264 -0.07123464 0.108975954 -0.0059428276 -0.18620645 0.029259507 -0.1804512
0.009647679 0.12313053 -0.1036828 0.060396206 -0.096736565 0.0536272 -0.05538341 0.11833481
-0.08331313 -0.055151623 0.10503756 0.053035136 -0.046029106 -0.19150938 0.055235628 0.18902543
00000000: a36e a1bd cd22 65be fa40 e0bd 2d36 a5bd
00000010: a4fb 4b3d 80ac 723d d8d7 c9bd c4d7 d23d
00000020: cf0a 01be bf27 3c3e 6e5f 1c3e 5525 8abd
00000030: bb60 d5bd 8058 6d3e 2f0c 45be ecbb 92bd
00000040: d0b5 00be 72c4 03be 7b96 3bbd f48e f13c
00000050: c141 17be 4d72 43be 462c 88be eb27 43be
00000060: ac1c 9dbe 8a99 823e dc63 4a3e 06ba c23e
00000070: 7d64 d53e bdc5 e5bd 6e89 80bd c9ab 333e
00000080: c6a7 c6bd a0e9 f3b9 ae4f 053e 59be 14bd
00000090: 0ac7 033e 68b5 2c3e fb78 293e aa5b 2e3e
000000a0: 673b db3c 4c42 aabd 78e3 91bd c92e df3d
000000b0: 0dbc c2bb e7ac 3ebe a2b1 ef3c 33c8 38be
000000c0: 4c11 1e3c dc2b fc3d a657 d4bd 0362 773d
000000d0: d21d c6bd 32a8 5b3d b7d9 62bd 8559 f23d
000000e0: 13a0 aabd abe6 61bd ef1d d73d 5f3b 593d
000000f0: 0489 3cbd 091b 44be c13e 623d e28f 413e

layer_list.conv1.bias f4 [64]
0.028755557 0.01695685 0.018701948 0.015491285 -0.0011970864 -9.37672e-05 0.00031211216 0.046827003
0.018953275 0.020784127 -0.0031000164 -0.002306259 0.010629429 0.021055982 0.0066033415 0.027426418
-0.023036228 0.013531518 -0.006174307 0.030110585 -0.0014612261 0.037750877 0.00075456715 -0.014128399
0.0021208443 0.009627841 0.0059178635 0.011563921 0.023948632 0.015616865 -0.023440883 -0.01848125
0.045831632 0.04224592 0.011816597 -0.013831383 0.008777132 0.0070690596 0.021998107 0.020090561
0.010899394 0.0032897678 0.031706426 0.010032279 -0.020459175 0.0034179292 0.0023040234 -0.0067082546
-0.0032952377 0.0014052673 0.010693197 -0.042390887 0.04380316 0.0012506804 -0.0024017345 0.026055207
-0.0209205 0.0056531727 0.0072576115 0.022156864 -0.017493496 0.041535787 0.00039635907 0.03296678
00000000: c690 eb3c 18e9 8a3c d434 993c 29cf 7d3c
00000010: 8ee7 9cba e2a4 c4b8 fca2 a339 accd 3f3d
00000020: e643 9b3c 7943 aa3c a529 4bbb 9b24 17bb
00000030: 0e27 2e3c 987d ac3c d860 d83b 5ead e03c
00000040: 79b6 bcbc 4db3 5d3c d751 cabb 79aa f63c
00000050: 9d86 bfba aaa0 1a3d 25ce 453a cd7a 67bc
00000060: ddfd 0a3b 18be 1d3c a3ea c13b 9a76 3d3c
00000070: ec2f c43c e1dd 7f3c 1807 c0bc fe65 97bc
00000080: f3b9 3b3d 0f0a 2d3d 669a 413c 069d 62bc
00000090: f6cd 0f3c 92a3 e73b 6035 b43c f694 a43c
000000a0: 5f93 323c 2599 573b 99de 013d 6e5e 243c
000000b0: 009a a7bc 56ff 5f3b 19ff 163b ebd0 dbbb
000000c0: eaf4 57bb f230 b83a 8532 2f3c 11a2 2dbd
000000d0: f16a 333d dfed a33a 6b66 1dbb bb71 d53c
000000e0: 7861 abbc 403e b93b 42d1 ed3b 5082 b53c
000000f0: 854e 8fbc 6e21 2a3d 6ace cf39 2d08 073d

layer_list.conv1.lin_src.weight f4 [64, 1433]
-0.0005918217 0.09346531 -0.042783383 -0.047696874 -0.34770966 0.025736237 0.0018942233 0.03088896
-0.13999625 0.05215547 0.035998993 0.022958253 -0.06910535 0.09415083 -0.058189105 0.012361861
-0.042470247 0.007942761 0.07201792 0.34957567 -0.021394882 0.017159486 -0.026066195 -0.012089795
-0.026680686 -0.2687819 -0.0014648191 -0.058129285 -0.013782269 0.037823837 -0.024406636 -0.027974937
-0.00013690372 -0.01945171 0.048311412 -0.031266674 -0.06277484 0.0017657427 0.18150012 0.15703882
-0.21503277 -0.09227527 0.085786566 -0.0021320747 -0.109957926 0.02778286 0.019660322 -0.003476345
0.04944942 -0.0125935385 -0.03410368 -0.2148054 -0.04103171 0.050298654 -0.17686398 0.060000543
-0.028681584 0.063660525 -0.118747205 -0.0128191095 -0.019990852 0.04961304 0.03620836 -0.019049743
0.008660763 -0.018599823 0.021860383 0.01244063 0.054325424 -0.03216604 -0.09119973 0.007956187
0.05828777 0.11427295 0.015005568 0.08935648 -0.009215775 0.07382727 -0.2259972 0.0144041795
0.06358695 -0.114341 -0.060383018 -0.08450913 0.0052614273 0.17814238 0.02942441 -0.13713495
0.07180024 -0.1674613 -0.022774417 -0.02505301 -0.0013985205 -0.28492004 0.017966837 -0.09129723
-0.030491177 -0.010087502 0.031497575 0.19828857 -0.023828551 -0.0048105456 -0.14044197 0.17740038
-0.07388072 -0.0022969397 0.04481845 -0.01807227 -0.04835438 0.015326588 0.04751232 0.017607963
-0.030944776 0.0009853328 0.036861528 0.015057961 0.0009345031 0.023257753 0.08024374 0.0069854977
0.0060511185 0.04610038 -0.22332807 0.038492724 0.03706516 -0.21955004 -0.0799575 -0.14122161
-0.042820953 -0.116746336 0.040058892 -0.05539183 0.12073982 0.0041345265 -0.093188055 -0.2661299
0.15845841 -0.020954488 -0.0060647135 -0.04237982 0.30610293 -0.0016216596 -0.03831081 0.12055131
-0.065283805 -0.007659043 0.062238242 -0.0013718724 0.021273652 -0.19907425 -0.024657508 -0.09465688
0.027514411 -0.15187901 0.08970913 0.024078729 0.035096787 0.019221243 -0.048207786 -0.037968956
0.095063806 -0.03571294 -0.0530905 0.03019501 0.0057273745 0.019563543 0.03615852 0.19585551
0.023884175 0.027394075 -0.026313156 0.10181842 -0.077018835 -0.13093264 -0.033912815 0.010539256
0.034307726 0.051740326 -0.026480252 -0.0334783 -0.026166674 -0.008396556 -0.051866215 -0.024382818
0.042955864 -0.026202748 0.03495209 -0.15739362 -0.005456899 0.019092515 0.016878687 -0.05803629
0.012836368 -0.066889994 -0.034437247 -0.09148528 0.003965859 -0.037988067 -0.018064847 0.019158838
-0.007356835 0.062269494 -0.10089969 0.09481687 0.08981802 -0.018116107 -0.0061634304 -0.05387809
0.03702983 0.018764554 0.011427139 -0.3080472 -0.031707447 0.016149716 0.023469895 -0.054819558
0.011771456 0.06826352 0.07810735 0.03925852 0.039581098 -0.042108454 -0.013854456 -0.0010772119
0.0031776845 -0.11253799 -0.022437572 0.0067297905 -0.2101243 0.011878195 -0.049834017 0.076846644
0.0063126 0.026739765 -0.32314745 -0.013593753 -0.02200129 0.07559775 0.026582554 0.007995794
0.0140283005 0.016111653 -0.030668609 0.09214124 0.007770711 -0.075199366 0.0010749544 0.031179432
-0.041050557 0.015488885 -0.09965821 -0.032187227 0.04005785 -0.00048910774 0.063318886 -0.05450684
00000000: 7b24 1bba be6a bf3d a13d 2fbd cc5d 43bd
00000010: 0007 b2be cdd4 d23c 9647 f83a d80a fd3c
00000020: 2d5b 0fbe f9a0 553d ae73 133d f212 bc3c
00000030: 1b87 8dbd 26d2 c03d b357 6ebd 6789 4a3c
00000040: 48f5 2dbd 5b22 023c 227e 933d 95fb b23e
00000050: 5244 afbc 0d92 8c3c c688 d5bc 4714 46bc
00000060: 7491 dabc c89d 89be 2cff bfba f918 6ebd
00000070: 07cf 61bc 2bed 1a3d 6df0 c7bc b22b e5bc
00000080: d08d 0fb9 3159 9fbc 30e2 453d 7c11 00bd
00000090: 1890 80bd 7e70 e73a 2bdb 393e c9ce 203e
000000a0: 8d31 5cbe d1fa bcbd deb0 af3d 47ba 0bbb
000000b0: 9f31 e1bd e198 e33c af0e a13c 64d3 63bb
000000c0: 7a8b 4a3d 2155 4ebc 4db0 0bbd f2f5 5bbe
000000d0: de10 28bd f605 4e3d d51b 35be 21c3 753d
000000e0: a4f5 eabc 7360 823d bc31 f3bd 3e07 52bc
000000f0: dbc3 a3bc 0b37 4b3d 384f 143d 350e 9cbc
00000100: dfe5 0d3c a85e 98bc 8c14 b33c c9d3 4b3c
00000110: 5684 5e3d 8ac0 03bd edc6 babd ab5a 023c
00000120: 28bf 6e3d f007 ea3d ead9 753c 8800 b73d
00000130: c3fd 16bc c032 973d cf6b 67be 82ff 6b3c
00000140: e039 823d 9d2b eabd 2f54 77bd 1f13 adbd
00000150: 0d68 ac3b f56a 363e 760b f13c 1b6d 0cbe
00000160: 010c 933d fa7a 2bbe 6a91 babc f83b cdbc
00000170: 904e b7ba 0ae1 91be 302f 933c 0bfa babd
00000180: a2c8 f9bc 0d46 25bc 9a03 013d 290c 4b3e
00000190: 1834 c3bc c8a1 9dbb 05d0 0fbe 72a8 353e
000001a0: c64e 97bd 4188 16bb 8d93 373d 4c0c 94bc
000001b0: 3e0f 46bd 5f1c 7b3c 479c 423d 933e 903c
000001c0: e67f fdbc 4826 813a 1dfc 163d abb5 763c
000001d0: 71f9 743a 0b87 be3c d456 a43d 9ae6 e43b
000001e0: 7648 c63b c1d3 3c3d 1db0 64be 8caa 1d3d
000001f0: a3d1 173d bad1 60be c2c0 a3bd 669c 10be
00000200: 0665 2fbd b418 efbd cb14 243d 8be2 62bd
00000210: 7046 f73d ec7a 873b 61d9 bebd 2e42 88be
00000220: ec42 223e bfa8 abbc 81ba c6bb 7696 2dbd
00000230: 86b9 9c3e de8d d4ba cceb 1cbd 9be3 f63d
00000240: 84b3 85bd b6f8 fabb 87ed 7e3d 66d0 b3ba
00000250: 1546 ae3c 1fda 4bbe 8bfe c9bc 77db c1bd
00000260: e765 e13c 2c86 1bbe 6cb9 b73d c140 c53c
00000270: a6c1 0f3d de75 9d3c 8775 45bd 5685 1bbd
00000280: d0b0 c23d bb47 12bd 6d75 59bd 875b f73c
00000290: b3ac bb3b b943 a03c f51a 143d 598e 483e
000002a0: bfa8 c33c 8a69 e03c b08e d7bc 2d86 d03d
000002b0: 0dbc 9dbd 3513 06be 2ae8 0abd d8ac 2c3c
000002c0: 4286 0c3d aaed 533d 1ded d8bc 8b20 09bd
000002d0: 7e5b d6bc b591 09bc ab71 54bd 7abe c7bc
000002e0: 7df2 2f3d 25a7 d6bc ec29 0f3d cb2b 21be
000002f0: c9cf b2bb e867 9c3c 2c45 8a3c 76b7 6dbd
00000300: a14f 523c 9ffd 88bd 120e 0dbd a25c bbbd
00000310: 09f4 813b 6099 1bbd bbfc 93bc fff2 9c3c
00000320: 9b11 f1bb 4c0e 7f3d 7fa4 cebd 592f c23d
00000330: 83f2 b73d 3b68 94bc 9af6 c9bb 46af 5cbd
00000340: 97ac 173d 1fb8 993c e538 3b3c 5db8 9dbe
00000350: abdf 01bd 694c 843c f043 c03c 798a 60bd
00000360: 11dd 403c bfcd 8b3d bff6 9f3d 8bcd 203d
00000370: ca1f 223d ea79 2cbd cdfd 62bc 3c31 8dba
00000380: b340 503b 517a e6bd 00cf b7bc 9385 dc3b
00000390: d32a 57be c39c 423c c11e 4cbd c661 9d3d
000003a0: edd9 ce3b 5a0d db3c 9573 a5be 55b8 5ebc
000003b0: 0d3c b4bc fed2 9a3d a8c3 d93c ca00 033c
000003c0: f5d6 653c 96fc 833c bc3c fbbc 8cb4 bc3d
000003d0: 73a1 fe3b 2002 9abd 7ce5 8c3a 026c ff3c
000003e0: a124 28bd 18c5 7d3c 9b19 ccbd c1d6 03bd
000003f0: b313 243d 7737 00ba 55ad 813d 9042 5fbd

layer_list.conv1.lin_dst.weight f4 [64, 1433]
-0.0005918217 0.09346531 -0.042783383 -0.047696874 -0.34770966 0.025736237 0.0018942233 0.03088896
-0.13999625 0.05215547 0.035998993 0.022958253 -0.06910535 0.09415083 -0.058189105 0.012361861
-0.042470247 0.007942761 0.07201792 0.34957567 -0.021394882 0.017159486 -0.026066195 -0.012089795
-0.026680686 -0.2687819 -0.0014648191 -0.058129285 -0.013782269 0.037823837 -0.024406636 -0.027974937
-0.00013690372 -0.01945171 0.048311412 -0.031266674 -0.06277484 0.0017657427 0.18150012 0.15703882
-0.21503277 -0.09227527 0.085786566 -0.0021320747 -0.109957926 0.02778286 0.019660322 -0.003476345
0.04944942 -0.0125935385 -0.03410368 -0.2148054 -0.04103171 0.050298654 -0.17686398 0.060000543
-0.028681584 0.063660525 -0.118747205 -0.0128191095 -0.019990852 0.04961304 0.03620836 -0.019049743
0.008660763 -0.018599823 0.021860383 0.01244063 0.054325424 -0.03216604 -0.09119973 0.007956187
0.05828777 0.11427295 0.015005568 0.08935648 -0.009215775 0.07382727 -0.2259972 0.0144041795
0.06358695 -0.114341 -0.060383018 -0.08450913 0.0052614273 0.17814238 0.02942441 -0.13713495
0.07180024 -0.1674613 -0.022774417 -0.02505301 -0.0013985205 -0.28492004 0.017966837 -0.09129723
-0.030491177 -0.010087502 0.031497575 0.19828857 -0.023828551 -0.0048105456 -0.14044197 0.17740038
-0.07388072 -0.0022969397 0.04481845 -0.01807227 -0.04835438 0.015326588 0.04751232 0.017607963
-0.030944776 0.0009853328 0.036861528 0.015057961 0.0009345031 0.023257753 0.08024374 0.0069854977
0.0060511185 0.04610038 -0.22332807 0.038492724 0.03706516 -0.21955004 -0.0799575 -0.14122161
-0.042820953 -0.116746336 0.040058892 -0.05539183 0.12073982 0.0041345265 -0.093188055 -0.2661299
0.15845841 -0.020954488 -0.0060647135 -0.04237982 0.30610293 -0.0016216596 -0.03831081 0.12055131
-0.065283805 -0.007659043 0.062238242 -0.0013718724 0.021273652 -0.19907425 -0.024657508 -0.09465688
0.027514411 -0.15187901 0.08970913 0.024078729 0.035096787 0.019221243 -0.048207786 -0.037968956
0.095063806 -0.03571294 -0.0530905 0.03019501 0.0057273745 0.019563543 0.03615852 0.19585551
0.023884175 0.027394075 -0.026313156 0.10181842 -0.077018835 -0.13093264 -0.033912815 0.010539256
0.034307726 0.051740326 -0.026480252 -0.0334783 -0.026166674 -0.008396556 -0.051866215 -0.024382818
0.042955864 -0.026202748 0.03495209 -0.15739362 -0.005456899 0.019092515 0.016878687 -0.05803629
0.012836368 -0.066889994 -0.034437247 -0.09148528 0.003965859 -0.037988067 -0.018064847 0.019158838
-0.007356835 0.062269494 -0.10089969 0.09481687 0.08981802 -0.018116107 -0.0061634304 -0.05387809
0.03702983 0.018764554 0.011427139 -0.3080472 -0.031707447 0.016149716 0.023469895 -0.054819558
0.011771456 0.06826352 0.07810735 0.03925852 0.039581098 -0.042108454 -0.013854456 -0.0010772119
0.0031776845 -0.11253799 -0.022437572 0.0067297905 -0.2101243 0.011878195 -0.049834017 0.076846644
0.0063126 0.026739765 -0.32314745 -0.013593753 -0.02200129 0.07559775 0.026582554 0.007995794
0.0140283005 0.016111653 -0.030668609 0.09214124 0.007770711 -0.075199366 0.0010749544 0.031179432
-0.041050557 0.015488885 -0.09965821 -0.032187227 0.04005785 -0.00048910774 0.063318886 -0.05450684
00000000: 7b24 1bba be6a bf3d a13d 2fbd cc5d 43bd
00000010: 0007 b2be cdd4 d23c 9647 f83a d80a fd3c
00000020: 2d5b 0fbe f9a0 553d ae73 133d f212 bc3c
00000030: 1b87 8dbd 26d2 c03d b357 6ebd 6789 4a3c
00000040: 48f5 2dbd 5b22 023c 227e 933d 95fb b23e
00000050: 5244 afbc 0d92 8c3c c688 d5bc 4714 46bc
00000060: 7491 dabc c89d 89be 2cff bfba f918 6ebd
00000070: 07cf 61bc 2bed 1a3d 6df0 c7bc b22b e5bc
00000080: d08d 0fb9 3159 9fbc 30e2 453d 7c11 00bd
00000090: 1890 80bd 7e70 e73a 2bdb 393e c9ce 203e
000000a0: 8d31 5cbe d1fa bcbd deb0 af3d 47ba 0bbb
000000b0: 9f31 e1bd e198 e33c af0e a13c 64d3 63bb
000000c0: 7a8b 4a3d 2155 4ebc 4db0 0bbd f2f5 5bbe
000000d0: de10 28bd f605 4e3d d51b 35be 21c3 753d
000000e0: a4f5 eabc 7360 823d bc31 f3bd 3e07 52bc
000000f0: dbc3 a3bc 0b37 4b3d 384f 143d 350e 9cbc
00000100: dfe5 0d3c a85e 98bc 8c14 b33c c9d3 4b3c
00000110: 5684 5e3d 8ac0 03bd edc6 babd ab5a 023c
00000120: 28bf 6e3d f007 ea3d ead9 753c 8800 b73d
00000130: c3fd 16bc c032 973d cf6b 67be 82ff 6b3c
00000140: e039 823d 9d2b eabd 2f54 77bd 1f13 adbd
00000150: 0d68 ac3b f56a 363e 760b f13c 1b6d 0cbe
00000160: 010c 933d fa7a 2bbe 6a91 babc f83b cdbc
00000170: 904e b7ba 0ae1 91be 302f 933c 0bfa babd
00000180: a2c8 f9bc 0d46 25bc 9a03 013d 290c 4b3e
00000190: 1834 c3bc c8a1 9dbb 05d0 0fbe 72a8 353e
000001a0: c64e 97bd 4188 16bb 8d93 373d 4c0c 94bc
000001b0: 3e0f 46bd 5f1c 7b3c 479c 423d 933e 903c
000001c0: e67f fdbc 4826 813a 1dfc 163d abb5 763c
000001d0: 71f9 743a 0b87 be3c d456 a43d 9ae6 e43b
000001e0: 7648 c63b c1d3 3c3d 1db0 64be 8caa 1d3d
000001f0: a3d1 173d bad1 60be c2c0 a3bd 669c 10be
00000200: 0665 2fbd b418 efbd cb14 243d 8be2 62bd
00000210: 7046 f73d ec7a 873b 61d9 bebd 2e42 88be
00000220: ec42 223e bfa8 abbc 81ba c6bb 7696 2dbd
00000230: 86b9 9c3e de8d d4ba cceb 1cbd 9be3 f63d
00000240: 84b3 85bd b6f8 fabb 87ed 7e3d 66d0 b3ba
00000250: 1546 ae3c 1fda 4bbe 8bfe c9bc 77db c1bd
00000260: e765 e13c 2c86 1bbe 6cb9 b73d c140 c53c
00000270: a6c1 0f3d de75 9d3c 8775 45bd 5685 1bbd
00000280: d0b0 c23d bb47 12bd 6d75 59bd 875b f73c
00000290: b3ac bb3b b943 a03c f51a 143d 598e 483e
000002a0: bfa8 c33c 8a69 e03c b08e d7bc 2d86 d03d
000002b0: 0dbc 9dbd 3513 06be 2ae8 0abd d8ac 2c3c
000002c0: 4286 0c3d aaed 533d 1ded d8bc 8b20 09bd
000002d0: 7e5b d6bc b591 09bc ab71 54bd 7abe c7bc
000002e0: 7df2 2f3d 25a7 d6bc ec29 0f3d cb2b 21be
000002f0: c9cf b2bb e867 9c3c 2c45 8a3c 76b7 6dbd
00000300: a14f 523c 9ffd 88bd 120e 0dbd a25c bbbd
00000310: 09f4 813b 6099 1bbd bbfc 93bc fff2 9c3c
00000320: 9b11 f1bb 4c0e 7f3d 7fa4 cebd 592f c23d
00000330: 83f2 b73d 3b68 94bc 9af6 c9bb 46af 5cbd
00000340: 97ac 173d 1fb8 993c e538 3b3c 5db8 9dbe
00000350: abdf 01bd 694c 843c f043 c03c 798a 60bd
00000360: 11dd 403c bfcd 8b3d bff6 9f3d 8bcd 203d
00000370: ca1f 223d ea79 2cbd cdfd 62bc 3c31 8dba
00000380: b340 503b 517a e6bd 00cf b7bc 9385 dc3b
00000390: d32a 57be c39c 423c c11e 4cbd c661 9d3d
000003a0: edd9 ce3b 5a0d db3c 9573 a5be 55b8 5ebc
000003b0: 0d3c b4bc fed2 9a3d a8c3 d93c ca00 033c
000003c0: f5d6 653c 96fc 833c bc3c fbbc 8cb4 bc3d
000003d0: 73a1 fe3b 2002 9abd 7ce5 8c3a 026c ff3c
000003e0: a124 28bd 18c5 7d3c 9b19 ccbd c1d6 03bd
000003f0: b313 243d 7737 00ba 55ad 813d 9042 5fbd

layer_list.conv2.att_src f4 [1, 1, 7]
0.061266594 0.11916969 -0.0029480099 0.04199347 0.10479398 0.011560169 -0.034776006
00000000: aef2 7a3d 3d0f f43d 6633 41bb 5801 2c3d
00000010: 3a9e d63d dd66 3d3c 4971 0ebd

layer_list.conv2.att_dst f4 [1, 1, 7]
0.013253652 0.41739812 0.57236195 0.019480295 -0.09953554 -0.23950435 -0.12699522
00000000: d825 593c 35b5 d53e 5086 123f 2495 9f3c
00000010: 4ad9 cbbd a140 75be 090b 02be

layer_list.conv2.bias f4 [7]
-0.18509455 -0.5129421 -0.10183131 0.6783338 -0.023418732 -0.27875432 -0.6700708
00000000: 6d89 3dbe 2c50 03bf ef8c d0bd 49a7 2d3f
00000010: a4d8 bfbc e3b8 8ebe c389 2bbf

layer_list.conv2.lin_src.weight f4 [7, 64]
0.1449073 0.9057523 -1.1362685 0.32382262 1.1355559 0.9941151 0.78132594 -0.9603375
0.9008559 -1.1182058 1.1976801 -0.28879246 0.62163365 1.0898435 0.54283506 -1.453801
-1.285211 1.4499011 -0.9733286 0.649611 0.5343653 -1.0515522 -0.80726236 0.640087
-1.5265579 1.4862704 0.057936426 1.1473098 1.7465543 -1.1539769 0.944983 1.3435827
1.4913737 -0.30773464 0.8720187 -0.953103 -0.82797456 -1.3653504 -0.94588625 -1.0846463
-1.3999796 -1.3734962 -0.059607048 1.1872016 -0.6371839 -1.1380666 0.92413306 -1.1995996
1.1762145 -0.17377904 -0.56768394 -1.1230855 -0.36863807 1.0905302 1.3207762 -0.5144607
-1.3858647 -0.81088823 0.42157093 1.5032829 1.240487 -1.2587171 -0.8248662 1.105892
0.19932014 -1.3307403 -0.6266047 1.0006014 0.7542977 -0.65565354 1.3433286 1.171105
1.2055492 0.23045772 -1.0989959 0.673847 0.38861904 -1.3067807 0.7395835 1.0232075
1.3715675 -0.24692741 1.3141441 -1.0353876 0.933381 1.0479251 1.330076 0.9358183
-1.1659147 -0.3758852 -0.70766807 -1.194944 -0.9545136 0.089716 0.8917669 -1.2814875
-0.88699806 -1.1736236 -1.6135771 -0.8752831 -0.9877174 0.96872795 -1.3065894 -1.1145413
1.0285339 1.0389935 -0.17161101 -0.22697778 1.0775638 -1.1980652 -1.4001894 -0.74314415
1.1402414 1.0771743 -1.0178093 0.46509507 -1.0678612 -0.4412942 0.6088533 1.3053707
-1.0424539 -0.7921756 1.2394453 -1.0827134 -1.309661 -0.2673545 1.178046 1.3377923
0.95140463 1.1238884 0.9629276 1.0046253 -1.0861951 -0.8646874 1.1395231 -1.0012053
-1.3439772 -0.9963271 -1.0858848 0.9013743 0.93979716 -1.0929289 0.62760025 1.0144489
1.0241946 -1.3615214 1.1581259 0.81824064 -1.2177734 -1.3139324 -1.3095577 -1.2483585
1.0959601 -1.1821727 0.9410426 0.96209884 1.052398 -0.959384 -1.0114312 -1.070675
-0.87653494 -0.78383857 0.9273281 1.11839 1.1092634 0.4318245 -1.0996382 1.2205809
1.0332711 -1.0876673 -1.1324518 -0.5065308 -1.186845 -1.1678457 0.35345054 -0.88873905
0.85450226 0.9720132 0.49821335 1.1376169 -0.8549919 0.9974825 -1.3338565 -1.0719432
1.3055522 0.98356795 0.5288474 -0.76409256 -1.1393429 -0.9662538 0.87849706 0.8858466
1.1574464 -1.0789543 -1.0058329 -1.2129402 -1.0326242 1.3386912 -1.1911684 1.2143712
-1.2130709 1.209898 0.81208503 1.2672367 1.0861704 0.839706 -1.3711935 -0.85461676
-0.6567007 -1.1136843 -0.85690194 -1.2244619 -0.8241614 -0.8998028 -1.0807008 -1.0155649
1.1323757 -1.1525803 0.3866367 -1.0415845 -1.4004344 1.0732297 1.0828279 -1.2639711
0.76866907 1.0180062 -1.371384 1.0459837 -1.2855659 -1.3058778 -0.29243982 -1.0957823
-1.1036975 -0.79808104 1.0722846 -1.1676764 -0.94143766 0.9714164 -1.2313273 1.155499
-1.0425647 -1.051547 1.2957219 -0.65006244 0.5490482 -0.9341038 0.7616717 -0.7640838
1.0524361 1.0522023 1.0214784 1.2639011 -0.89120317 1.1886766 -1.0098215 -0.7994854
00000000: 9462 143e 62df 673f 3f71 91bf 14cc a53e
00000010: e559 913f 547e 7e3f fa04 483f aed8 75bf
00000020: 7e9e 663f 5e21 8fbf 954d 993f 9bdc 93be
00000030: 6223 1f3f fe7f 8b3f 3df7 0a3f 2716 babf
00000040: cb81 a4bf 5c96 b93f 102c 79bf e84c 263f
00000050: 2acc 083f 4399 86bf bfa8 4ebf bedc 233f
00000060: 4066 c3bf 1c3e be3f bf4e 6d3d 0cdb 923f
00000070: 178f df3f 84b5 93bf 68ea 713f 85fa ab3f
00000080: 55e5 be3f 658f 9dbe 9e3c 5f3f 8ffe 73bf
00000090: 24f6 53bf cdc3 aebf 9a25 72bf b1d5 8abf
000000a0: 8832 b3bf b9ce afbf 8526 74bd 39f6 973f
000000b0: 7c1e 23bf 2bac 91bf fc93 6c3f 7b8c 99bf
000000c0: 328e 963f 22f3 31be bc53 11bf 44c1 8fbf
000000d0: 21be bcbe 7e96 8b3f 320f a93f b2b3 03bf
000000e0: 0464 b1bf 5f96 4fbf 25d8 d73e 936b c03f
000000f0: 47c8 9e3f a41d a1bf 6e2a 53bf de8d 8d3f
00000100: 941a 4c3e b355 aabf 2a69 20bf b513 803f
00000110: a719 413f e9d8 27bf 31f2 ab3f c5e6 953f
00000120: 704f 9a3f 1cfd 6b3e e6ab 8cbf 3d81 2c3f
00000130: 13f9 c63e 9744 a7bf 5855 3d3f 77f8 823f
00000140: 868f af3f 8ada 7cbe e035 a83f 9587 84bf
00000150: 0ff2 6e3f 6922 863f ee3f aa3f ca91 6f3f
00000160: b13c 95bf 0674 c0be bc29 35bf edf3 98bf
00000170: 015b 74bf 06bd b73d d64a 643f c807 a4bf
00000180: 4e12 63bf 4c39 96bf b289 cebf 8e12 60bf
00000190: 0cdb 7cbf 8efe 773f 523e a7bf 4aa9 8ebf
000001a0: 00a7 833f bdfd 843f ccba 2fbe dd6c 68be
000001b0: 9ced 893f 335a 99bf 6839 b3bf b23e 3ebf
000001c0: 6ef3 913f d9e0 893f 9347 82bf f120 ee3e
000001d0: adaf 88bf 50f1 e1be cfdd 1b3f 6316 a73f
000001e0: 216f 85bf 05cc 4abf 25a6 9e3f 5a96 8abf
000001f0: f9a2 a7bf b0e2 88be 36ca 963f c73c ab3f
00000200: 418f 733f 93db 8f3f 6c82 763f 9097 803f
00000210: 7108 8bbf 275c 5dbf e5db 913f 7f27 80bf
00000220: 7207 acbf 4b0f 7fbf 46fe 8abf 77c0 663f
00000230: 8c96 703f 18e5 8bbf 69aa 203f 76d9 813f
00000240: cf18 833f 5546 aebf 783d 943f 3878 513f
00000250: 00e0 9bbf f02e a8bf 969f a7bf 36ca 9fbf
00000260: 6c48 8c3f 6f51 97bf 2be8 703f 1c4c 763f
00000270: fab4 863f 319a 75bf 9476 81bf e10b 89bf
00000280: 9864 60bf a5a9 48bf 6065 6d3f 6727 8f3f
00000290: 58fc 8d3f 1a18 dd3e f2c0 8cbf ff3b 9c3f
000002a0: 3a42 843f af38 8bbf 2ef4 90bf 01ac 01bf
000002b0: 89ea 97bf f87b 95bf 78f7 b43e 6784 63bf
000002c0: a9c0 5a3f dbd5 783f d215 ff3e 6e9d 913f
000002d0: c0e0 5abf 035b 7f3f cfbb aabf 6f35 89bf
000002e0: 561c a73f 1ccb 7b3f 8b62 073f 929b 43bf
000002f0: fdd5 91bf 695c 77bf 2fe5 603f d8c6 623f
00000300: 3427 943f 2d1b 8abf 22bf 80bf a041 9bbf
00000310: 082d 84bf 3c5a ab3f 3578 98bf 8470 9b3f
00000320: e845 9bbf f0dd 9a3f cee4 4f3f d034 a23f
00000330: a207 8b3f f9f6 563f 4583 afbf 2ac8 5abf
00000340: 891d 28bf 358d 8ebf ed5d 5bbf 2bbb 9cbf
00000350: 3efc 52bf 7a59 66bf 6754 8abf 08fe 81bf
00000360: b0f1 903f c087 93bf 3ff5 c53e a452 85bf
00000370: 6f41 b3bf 975f 893f 1b9a 8a3f cec9 a1bf
00000380: 7fc7 443f 074e 823f 8389 afbf cbe2 853f
00000390: 6c8d a4bf 0127 a7bf acba 95be 9842 8cbf
000003a0: f645 8dbf 0a4f 4cbf 9f40 893f 6c76 95bf
000003b0: 0f02 71bf bfae 783f 229c 9dbf 64e7 933f
000003c0: c372 85bf 1899 86bf 37da a53f 7e6a 26bf
000003d0: 6c8e 0c3f 6d21 6fbf ebfc 423f ff9a 43bf
000003e0: 3ab6 863f 91ae 863f cebf 823f 83c7 a13f
000003f0: e425 64bf 8e26 983f d541 81bf 13ab 4cbf

layer_list.conv2.lin_dst.weight f4 [7, 64]
0.1449073 0.9057523 -1.1362685 0.32382262 1.1355559 0.9941151 0.78132594 -0.9603375
0.9008559 -1.1182058 1.1976801 -0.28879246 0.62163365 1.0898435 0.54283506 -1.453801
-1.285211 1.4499011 -0.9733286 0.649611 0.5343653 -1.0515522 -0.80726236 0.640087
-1.5265579 1.4862704 0.057936426 1.1473098 1.7465543 -1.1539769 0.944983 1.3435827
1.4913737 -0.30773464 0.8720187 -0.953103 -0.82797456 -1.3653504 -0.94588625 -1.0846463
-1.3999796 -1.3734962 -0.059607048 1.1872016 -0.6371839 -1.1380666 0.92413306 -1.1995996
1.1762145 -0.17377904 -0.56768394 -1.1230855 -0.36863807 1.0905302 1.3207762 -0.5144607
-1.3858647 -0.81088823 0.42157093 1.5032829 1.240487 -1.2587171 -0.8248662 1.105892
0.19932014 -1.3307403 -0.6266047 1.0006014 0.7542977 -0.65565354 1.3433286 1.171105
1.2055492 0.23045772 -1.0989959 0.673847 0.38861904 -1.3067807 0.7395835 1.0232075
1.3715675 -0.24692741 1.3141441 -1.0353876 0.933381 1.0479251 1.330076 0.9358183
-1.1659147 -0.3758852 -0.70766807 -1.194944 -0.9545136 0.089716 0.8917669 -1.2814875
-0.88699806 -1.1736236 -1.6135771 -0.8752831 -0.9877174 0.96872795 -1.3065894 -1.1145413
1.0285339 1.0389935 -0.17161101 -0.22697778 1.0775638 -1.1980652 -1.4001894 -0.74314415
1.1402414 1.0771743 -1.0178093 0.46509507 -1.0678612 -0.4412942 0.6088533 1.3053707
-1.0424539 -0.7921756 1.2394453 -1.0827134 -1.309661 -0.2673545 1.178046 1.3377923
0.95140463 1.1238884 0.9629276 1.0046253 -1.0861951 -0.8646874 1.1395231 -1.0012053
-1.3439772 -0.9963271 -1.0858848 0.9013743 0.93979716 -1.0929289 0.62760025 1.0144489
1.0241946 -1.3615214 1.1581259 0.81824064 -1.2177734 -1.3139324 -1.3095577 -1.2483585
1.0959601 -1.1821727 0.9410426 0.96209884 1.052398 -0.959384 -1.0114312 -1.070675
-0.87653494 -0.78383857 0.9273281 1.11839 1.1092634 0.4318245 -1.0996382 1.2205809
1.0332711 -1.0876673 -1.1324518 -0.5065308 -1.186845 -1.1678457 0.35345054 -0.88873905
0.85450226 0.9720132 0.49821335 1.1376169 -0.8549919 0.9974825 -1.3338565 -1.0719432
1.3055522 0.98356795 0.5288474 -0.76409256 -1.1393429 -0.9662538 0.87849706 0.8858466
1.1574464 -1.0789543 -1.0058329 -1.2129402 -1.0326242 1.3386912 -1.1911684 1.2143712
-1.2130709 1.209898 0.81208503 1.2672367 1.0861704 0.839706 -1.3711935 -0.85461676
-0.6567007 -1.1136843 -0.85690194 -1.2244619 -0.8241614 -0.8998028 -1.0807008 -1.0155649
1.1323757 -1.1525803 0.3866367 -1.0415845 -1.4004344 1.0732297 1.0828279 -1.2639711
0.76866907 1.0180062 -1.371384 1.0459837 -1.2855659 -1.3058778 -0.29243982 -1.0957823
-1.1036975 -0.79808104 1.0722846 -1.1676764 -0.94143766 0.9714164 -1.2313273 1.155499
-1.0425647 -1.051547 1.2957219 -0.65006244 0.5490482 -0.9341038 0.7616717 -0.7640838
1.0524361 1.0522023 1.0214784 1.2639011 -0.89120317 1.1886766 -1.0098215 -0.7994854
00000000: 9462 143e 62df 673f 3f71 91bf 14cc a53e
00000010: e559 913f 547e 7e3f fa04 483f aed8 75bf
00000020: 7e9e 663f 5e21 8fbf 954d 993f 9bdc 93be
00000030: 6223 1f3f fe7f 8b3f 3df7 0a3f 2716 babf
00000040: cb81 a4bf 5c96 b93f 102c 79bf e84c 263f
00000050: 2acc 083f 4399 86bf bfa8 4ebf bedc 233f
00000060: 4066 c3bf 1c3e be3f bf4e 6d3d 0cdb 923f
00000070: 178f df3f 84b5 93bf 68ea 713f 85fa ab3f
00000080: 55e5 be3f 658f 9dbe 9e3c 5f3f 8ffe 73bf
00000090: 24f6 53bf cdc3 aebf 9a25 72bf b1d5 8abf
000000a0: 8832 b3bf b9ce afbf 8526 74bd 39f6 973f
000000b0: 7c1e 23bf 2bac 91bf fc93 6c3f 7b8c 99bf
000000c0: 328e 963f 22f3 31be bc53 11bf 44c1 8fbf
000000d0: 21be bcbe 7e96 8b3f 320f a93f b2b3 03bf
000000e0: 0464 b1bf 5f96 4fbf 25d8 d73e 936b c03f
000000f0: 47c8 9e3f a41d a1bf 6e2a 53bf de8d 8d3f
00000100: 941a 4c3e b355 aabf 2a69 20bf b513 803f
00000110: a719 413f e9d8 27bf 31f2 ab3f c5e6 953f
00000120: 704f 9a3f 1cfd 6b3e e6ab 8cbf 3d81 2c3f
00000130: 13f9 c63e 9744 a7bf 5855 3d3f 77f8 823f
00000140: 868f af3f 8ada 7cbe e035 a83f 9587 84bf
00000150: 0ff2 6e3f 6922 863f ee3f aa3f ca91 6f3f
00000160: b13c 95bf 0674 c0be bc29 35bf edf3 98bf
00000170: 015b 74bf 06bd b73d d64a 643f c807 a4bf
00000180: 4e12 63bf 4c39 96bf b289 cebf 8e12 60bf
00000190: 0cdb 7cbf 8efe 773f 523e a7bf 4aa9 8ebf
000001a0: 00a7 833f bdfd 843f ccba 2fbe dd6c 68be
000001b0: 9ced 893f 335a 99bf 6839 b3bf b23e 3ebf
000001c0: 6ef3 913f d9e0 893f 9347 82bf f120 ee3e
000001d0: adaf 88bf 50f1 e1be cfdd 1b3f 6316 a73f
000001e0: 216f 85bf 05cc 4abf 25a6 9e3f 5a96 8abf
000001f0: f9a2 a7bf b0e2 88be 36ca 963f c73c ab3f
00000200: 418f 733f 93db 8f3f 6c82 763f 9097 803f
00000210: 7108 8bbf 275c 5dbf e5db 913f 7f27 80bf
00000220: 7207 acbf 4b0f 7fbf 46fe 8abf 77c0 663f
00000230: 8c96 703f 18e5 8bbf 69aa 203f 76d9 813f
00000240: cf18 833f 5546 aebf 783d 943f 3878 513f
00000250: 00e0 9bbf f02e a8bf 969f a7bf 36ca 9fbf
00000260: 6c48 8c3f 6f51 97bf 2be8 703f 1c4c 763f
00000270: fab4 863f 319a 75bf 9476 81bf e10b 89bf
00000280: 9864 60bf a5a9 48bf 6065 6d3f 6727 8f3f
00000290: 58fc 8d3f 1a18 dd3e f2c0 8cbf ff3b 9c3f
000002a0: 3a42 843f af38 8bbf 2ef4 90bf 01ac 01bf
000002b0: 89ea 97bf f87b 95bf 78f7 b43e 6784 63bf
000002c0: a9c0 5a3f dbd5 783f d215 ff3e 6e9d 913f
000002d0: c0e0 5abf 035b 7f3f cfbb aabf 6f35 89bf
000002e0: 561c a73f 1ccb 7b3f 8b62 073f 929b 43bf
000002f0: fdd5 91bf 695c 77bf 2fe5 603f d8c6 623f
00000300: 3427 943f 2d1b 8abf 22bf 80bf a041 9bbf
00000310: 082d 84bf 3c5a ab3f 3578 98bf 8470 9b3f
00000320: e845 9bbf f0dd 9a3f cee4 4f3f d034 a23f
00000330: a207 8b3f f9f6 563f 4583 afbf 2ac8 5abf
00000340: 891d 28bf 358d 8ebf ed5d 5bbf 2bbb 9cbf
00000350: 3efc 52bf 7a59 66bf 6754 8abf 08fe 81bf
00000360: b0f1 903f c087 93bf 3ff5 c53e a452 85bf
00000370: 6f41 b3bf 975f 893f 1b9a 8a3f cec9 a1bf
00000380: 7fc7 443f 074e 823f 8389 afbf cbe2 853f
00000390: 6c8d a4bf 0127 a7bf acba 95be 9842 8cbf
000003a0: f645 8dbf 0a4f 4cbf 9f40 893f 6c76 95bf
000003b0: 0f02 71bf bfae 783f 229c 9dbf 64e7 933f
000003c0: c372 85bf 1899 86bf 37da a53f 7e6a 26bf
000003d0: 6c8e 0c3f 6d21 6fbf ebfc 423f ff9a 43bf
000003e0: 3ab6 863f 91ae 863f cebf 823f 83c7 a13f
000003f0: e425 64bf 8e26 983f d541 81bf 13ab 4cbf
