vanilla_models/Cora/5_3f_85/split1/init1/GAT_dp0_5_5e_4_f1.pt (torch, 372919 bytes, 10 tensors)

layer_list.conv1.att_src f4 [1, 8, 8]
-0.32883236 0.19828416 0.21618882 0.35257852 0.20368259 0.20419152 -0.30196768 -0.26796678
0.59635043 -0.57452154 -0.88862735 -0.6506349 0.27970162 -0.66044766 -0.33696428 -0.01739543
-0.4710641 0.51856714 0.5183441 -0.23808351 -0.4131946 -0.09862384 0.112342186 0.49365246
0.48597956 -0.6066691 -0.280658 0.03506736 -0.2505556 -0.61863685 0.10359224 -0.19625908
-0.020553563 -0.54270774 0.08256359 -0.85184675 -0.23276816 0.625541 -0.31691396 -0.14920023
0.3587019 0.33877966 0.50684077 -0.3266197 -0.50667363 0.18475303 -0.46970096 -0.08252382
-0.5585877 0.36519316 -0.5177631 -0.66650337 0.7752744 0.46326867 0.23670301 0.17550969
0.45997316 0.032812245 -0.17073694 -0.033559967 -0.016022917 0.40460926 0.16330458 0.13163179
00000000: b75c a8be 010b 4b3e 9a60 5d3e 2c85 b43e
00000010: 2b92 503e 9517 513e 829b 9abe f132 89be
00000020: 6caa 183f d813 13bf 157d 63bf 0290 26bf
00000030: 0d35 8f3e 1913 29bf 9586 acbe dc80 8ebc
00000040: 502f f1be d1c0 043f 33b2 043f 2acc 73be
00000050: 3e8e d3be 4cfb c9bd a913 e63d 04c0 fc3e
00000060: 50d2 f83e ab4e 1bbf 68b2 8fbe cba2 0f3d
00000070: d348 80be fc5e 1ebf 2b28 d43d 24f8 48be
00000080: f25f a8bc e5ee 0abf 1917 a93d a112 5abf
00000090: c75a 6ebe 7423 203f 8c42 a2be f2c7 18be
000000a0: c7a7 b73e 8774 ad3e 51c0 013f b33a a7be
000000b0: 5db5 01bf e62f 3d3e a57c f0be 4002 a9bd
000000c0: 9aff 0ebf 99fa ba3e 1f8c 04bf f79f 2abf
000000d0: 6278 463f 8d31 ed3e 4662 723e d0b8 333e
000000e0: 9a81 eb3e 2266 063d aad5 2ebe 2d76 09bd
000000f0: 7e42 83bc f228 cf3e 5139 273e 7cca 063e

layer_list.conv1.att_dst f4 [1, 8, 8]
-0.053455353 0.21586473 0.15397207 0.14509237 0.20301194 0.08822014 0.015394089 0.0072043277
0.16848093 -0.04291764 -0.25204507 -0.07914968 -0.006468209 -0.12228258 -0.23109686 0.100298576
-0.24461167 -0.00012212041 0.16228195 -0.07287155 0.0006310272 -0.09803588 0.09245838 0.09572066
0.24730587 -0.21979176 -0.13555306 -0.021571072 -0.07402478 -0.17145358 -0.05675727 -0.04569777
0.03036694 -0.13112172 0.070630156 -0.19378676 0.05038936 0.2324001 0.045064192 0.0005240322
0.09865072 0.10105727 0.19571877 -0.07327184 -0.11125065 0.114028916 -0.121181786 -0.09525783
-0.14744559 -0.034206618 -0.048347 -0.23443928 0.15757185 0.03682315 0.090008065 0.037057735
0.08532696 0.02703738 -0.05753077 -0.006338697 -0.055517364 -0.0035099874 0.12929013 0.061069183
00000000: 00f4 5abd a50b 5d3e dbaa 1d3e 1893 143e
00000010: 5de2 4f3e c3ac b43d 7d37 7c3c 4812 ec3b
00000020: 4486 2c3e 68ca 2fbd 0d0c 81be 3a19 a2bd
00000030: 45f3 d3bb 4a6f fabd a8a4 6cbe 5769 cd3d
00000040: 7b7b 7abe 730d 00b9 3d2d 263e ae3d 95bd
00000050: 856b 253a 09c7 c8bd d25a bd3d 3209 c43d
00000060: c03d 7d3e 1711 61be 6cce 0abe d1b5 b0bc
00000070: 4e9a 97bd 8791 2fbe 507a 68bd 962d 3bbd
00000080: 17c4 f83c c644 06be 8ba6 903d 0970 46be
00000090: 1365 4e3d 4bfa 6d3e 3b95 383d 355f 093a
000000a0: 6409 ca3d 1df7 ce3d 806a 483e 8c0f 96bd
000000b0: 61d7 e3bd fe87 e93d 282e f8bd 8a16 c3bd
000000c0: fafb 16be 3d1c 0cbd 8107 46bd da10 70be
000000d0: 845a 213e dfd3 163d 2656 b83d dac9 173d
000000e0: e7bf ae3d 7f7d dd3c 62a5 6bbd d8b4 cfbb
000000f0: 2d66 63bd d107 66bb a264 043e ae23 7a3d

layer_list.conv1.bias f4 [64]
0.056971535 0.007986068 -0.018318094 -0.018361837 0.009982462 0.020647291 0.03588563 0.026088212
0.002336973 -0.0022709062 0.011705557 0.01602832 -0.008989421 0.033540256 0.024912357 -0.0010636707
-0.016529236 0.0021763842 0.021085722 0.014103266 0.018439567 0.013571119 -0.023494896 0.049065553
-0.025837516 -0.028858446 0.017192356 0.03032161 0.009670253 0.035474304 0.05692334 0.02452871
0.033207614 -0.029843582 0.019470606 0.051661503 0.05594455 -0.0035338427 0.025406737 0.053139083
0.02572648 -0.0012033029 -0.004830371 0.027554099 -0.022016825 0.035005707 0.021406539 0.0011493467
-0.0072844173 -0.020385936 -0.0102129895 0.0013610997 -0.0040998138 -0.007180292 -0.004932119 0.024689484
0.0043514255 -0.021357538 0.009074749 0.011490033 0.02401277 0.020759907 -0.0045142067 0.016703952
00000000: fc5a 693d ffd7 023c d40f 96bc 906b 96bc
00000010: 7b8d 233c 8224 a93c cffc 123d f2b6 d53c
00000020: e727 193b 7cd3 14bb aac8 3f3c d34d 833c
00000030: 5d48 13bc 8261 093d 0015 cc3c de6a 8bba
00000040: 5268 87bc aba1 0e3b f7bb ac3c 6311 673c
00000050: 930e 973c 6659 5e3c 5e78 c0bc f6f8 483d
00000060: 33a9 d3bc 8c68 ecbc fcd6 8c3c 0665 f83c
00000070: fb6f 1e3c 814d 113d 7328 693d 6ff0 c83c
00000080: b504 083d 877a f4bc d280 9f3c 039b 533d
00000090: 1d26 653d 0b98 67bb ca21 d03c 5ea8 593d
000000a0: 57c0 d23c 25b8 9dba 1748 9ebb 22b9 e13c
000000b0: a15c b4bc 2562 0f3d c45c af3c ada5 963a
000000c0: 1fb2 eebb 6800 a7bc 6254 27bc ed66 b23a
000000d0: bb57 86bb a848 ebbb 9d9d a1bb 9a41 ca3c
000000e0: 6796 8e3b 01f6 aebc 42ae 143c b140 3c3c
000000f0: 6eb6 c43c ae10 aa3c e9eb 93bb bad6 883c

layer_list.conv1.lin_src.weight f4 [64, 1433]
0.01908101 0.0037201203 -0.12744674 -0.088144556 0.53433394 0.10279045 -0.07715661 -0.04645996
0.09656045 -0.010665229 0.047903355 0.0027636033 0.075287566 0.09112746 -0.030353045 0.02167479
0.17943504 0.057580415 0.055661168 0.22320428 0.015410156 -0.022414537 0.041382287 0.009785641
0.022873355 0.20935442 0.04202501 0.03166802 0.014212538 -0.16960745 -0.0033064978 -0.0065932
-0.006033664 -0.008157682 0.037647963 0.022959465 0.06598243 0.017084673 -0.19916928 -0.061489083
0.19424951 -0.17139319 -0.039496303 0.0059871315 0.17351441 -0.051972695 0.021124793 -0.112507515
0.064396866 -0.14476788 0.06366033 0.16630197 -0.30141267 -0.15557463 0.045368057 -0.13761786
-0.3266927 0.0016845589 0.13624993 0.020867823 0.008984324 -0.2601511 0.08176037 -0.123659275
0.06660955 0.03609637 -0.04280481 0.043401886 0.071905985 -0.01077183 0.08635177 -0.0272331
0.08433472 0.11399167 0.028707247 0.02569391 -0.012591187 0.18375792 0.099865936 0.010973312
-0.022337325 0.11423499 0.10821821 0.02630787 0.009016414 0.14437465 0.022572849 0.13324325
0.13172764 0.09044696 0.028443348 -0.014866953 0.038452245 0.13578732 -0.06357629 0.020146364
0.05690747 0.092654966 -0.1122604 -0.44102788 0.06065929 0.0083765425 -0.11538474 0.10668972
-0.235348 0.014296214 0.039903514 0.0066186395 0.009164303 0.026821133 0.07447427 -0.07014063
0.106019296 -0.025806915 0.005989346 -0.008675313 -0.03486156 0.06645069 -0.13999936 0.021545086
-0.023576286 -0.07107752 -0.20057496 -0.012261476 0.03417639 0.08896185 -0.0038421066 0.01628005
0.12891977 0.030297533 -0.04378847 -0.01568187 -0.061592884 0.07200817 0.0009548249 0.18792656
0.117561266 0.015852168 0.027504075 0.032997627 -0.40998784 -0.006217 0.021529147 0.08813316
0.011801252 -0.0019186798 0.091135144 -0.040575687 -0.030994225 -0.13378371 0.049064066 -0.02295434
-0.0028302933 0.078487925 -0.06833381 0.12405078 0.0736827 0.19992904 -0.08836023 -0.04748728
0.074406125 -0.034859218 -0.031202339 -0.016070254 0.0033545906 0.012932944 -0.0042097894 -0.10554035
0.107592456 -0.0066049257 0.0050462675 0.011475202 0.027617954 0.009917258 -0.0030293178 0.020720279
0.12535046 0.012353642 0.008691937 0.09974437 -0.0017147785 0.027304085 0.033602543 0.019941334
-0.083675556 0.01428936 0.0011332936 0.024130633 0.039595366 0.016005427 -0.01087337 -0.016894475
0.12400976 0.044325486 -0.028814629 0.063357264 -0.08615611 -0.011924788 -0.006187316 -0.02095893
-0.023326494 -0.0027889016 0.18233807 0.11443685 0.02918683 0.07075831 0.011887547 0.038302325
0.051114827 -0.0022176323 -0.04322751 -0.21951051 0.030252138 -0.070951745 -0.01458633 -0.059806928
-0.026015649 0.013402458 0.021462588 -0.0065312865 -0.0053395517 0.03715198 0.008348492 -0.0052988986
0.095143594 -0.20041795 0.11044624 -0.17152277 -0.07106379 -0.038065385 0.0038255195 0.063824706
-0.0025292647 -0.046405647 -0.0032744235 -0.057192355 0.0750386 -0.2523709 0.44403017 0.11909349
0.07755191 -0.029266743 0.044474017 0.11524987 0.14455688 0.0016220467 -0.030379532 -0.17442155
0.044453114 0.01183245 -0.068343975 -0.11523974 -0.08807526 -0.09614441 -0.122134954 -0.10165592
00000000: c74f 9c3c 43cd 733b 6681 02be 2285 b4bd
00000010: 1cca 083f cd83 d23d 4904 9ebd cd4c 3ebd
00000020: 7cc1 c53d 36bd 2ebc 4f36 443d 921d 353b
00000030: 5e30 9a3d 09a1 ba3d f3a6 f8bc 548f b13c
00000040: d2bd 373e 71d9 6b3d f7fc 633d aa8f 643e
00000050: e17a 7c3c b19e b7bc 7980 293d f453 203c
00000060: e760 bb3c 0161 563e 6b22 2c3d 53b6 013d
00000070: b4db 683c 93ad 2dbe d4b1 58bb c50b d8bb
00000080: 0bb6 c5bb cca7 05bc c034 1a3d 7d15 bc3c
00000090: cc21 873d 28f5 8b3c 08f3 4bbe fadb 7bbd
000000a0: 58e9 463e b281 2fbe e0c6 21bd b32f c43b
000000b0: c3ad 313e 52e1 54bd e70d ad3c 576a e6bd
000000c0: 81e2 833d 083e 14be 5960 823d 104b 2a3e
000000d0: c352 9abe f54e 1fbe dbd3 393d b2eb 0cbe
000000e0: 4444 a7be 6bcc dc3a 1a85 0b3e fff2 aa3c
000000f0: fc32 133c 8632 85be fb71 a73d 1341 fdbd
00000100: 966a 883d cad9 133d 1954 2fbd 2dc6 313d
00000110: 7243 933d 547c 30bc 32d9 b03d f317 dfbc
00000120: afb7 ac3d 7774 e93d 762b eb3c 097c d23c
00000130: 444b 4ebc 092b 3c3e 8386 cc3d 68c9 333c
00000140: c4fc b6bc 09f4 e93d 82a1 dd3d 9a83 d73c
00000150: 95b9 133c f3d6 133e b2ea b83c eb70 083e
00000160: 9ce3 063e 413c b93d 0602 e93c 8594 73bc
00000170: 1a80 1d3d d50b 0b3e 4934 82bd fd09 a53c
00000180: cf17 693d e3c1 bd3d c8e8 e5bd 68ce e1be
00000190: e075 783d c43d 093c d64e ecbd 2480 da3d
000001a0: 11ff 70be ab3a 6a3c de71 233d 2ce1 d83b
000001b0: df25 163c feb7 db3c f785 983d e4a5 8fbd
000001c0: a520 d93d 0669 d3bc 4742 c43b e622 0ebc
000001d0: ffca 0ebd 4d17 883d fe5b 0fbe 527f b03c
000001e0: 0e23 c1bc 1791 91bd 8663 4dbe 5ce4 48bc
000001f0: 8bfc 0b3d a131 b63d dacb 7bbb bd5d 853c
00000200: 8b03 043e 8832 f83c 8a5b 33bd 4477 80bc
00000210: d248 7cbd 0579 933d 374d 7a3a d26f 403e
00000220: f6c3 f03d 68dc 813c 3a50 e13c 8528 073d
00000230: ede9 d1be fab7 cbbb e55d b03c 287f b43d
00000240: 0a5a 413c 367c fbba 10a5 ba3d b132 26bd
00000250: 9ae7 fdbc 99fe 08be 67f7 483d bd0a bcbc
00000260: 717c 39bb 47be a03d 99f2 8bbd 560e fe3d
00000270: f5e6 963d 33ba 4c3e 35f6 b4bd 0682 42bd
00000280: 3d62 983d 8ac8 0ebd 0c9c ffbc c4a5 83bc
00000290: b1d8 5b3b b3e4 533c 46f2 89bb 8a25 d8bd
000002a0: 6f59 dc3d 226e d8bb 295b a53b 7c02 3c3c
000002b0: 0c3f e23c ff7b 223c 8587 46bb 93bd a93c
000002c0: df5b 003e ee66 4a3c a068 0e3c c746 cc3d
000002d0: 6bc2 e0ba d1ac df3c d2a2 093d 025c a33c
000002e0: 175e abbd eb1d 6a3c 068b 943a 9bad c53c
000002f0: c02e 223d d01d 833c 3826 32bc 4866 8abc
00000300: d4f8 fd3d a48e 353d a80c ecbc 74c1 813d
00000310: 9d72 b0bd 3060 43bc f8be cabb 10b2 abbc
00000320: 3417 bfbc 01c6 36bb d5b6 3a3e de5d ea3d
00000330: 3819 ef3c bce9 903d fcc3 423c e6e2 1c3d
00000340: c85d 513d b255 11bb 540f 31bd 5dc7 60be
00000350: 55d3 f73c 264f 91bd 81fb 6ebc 1cf8 74bd
00000360: c51e d5bc fc95 5b3c 4fd2 af3c 6704 d6bb
00000370: 68f7 aebb ad2c 183d 1dc8 083c 62a2 adbb
00000380: a5da c23d 5d3a 4dbe a331 e23d aaa3 2fbe
00000390: e489 91bd 73ea 1bbd 91b5 7a3b 87b6 823d
000003a0: 05c2 25bb d913 3ebd b697 56bb 8842 6abd
000003b0: d6ad 993d c236 81be ec57 e33e 4ae7 f33d
000003c0: 89d3 9e3d cfc0 efbc 632a 363d 2008 ec3d
000003d0: b806 143e db9a d43a 7fde f8bc 909b 32be
000003e0: 7814 363d e4dc 413c edf7 8bbd d002 ecbd
000003f0: cd60 b4bd 5ce7 c4bd e421 fabd fb30 d0bd

layer_list.conv1.lin_dst.weight f4 [64, 1433]
0.01908101 0.0037201203 -0.12744674 -0.088144556 0.53433394 0.10279045 -0.07715661 -0.04645996
0.09656045 -0.010665229 0.047903355 0.0027636033 0.075287566 0.09112746 -0.030353045 0.02167479
0.17943504 0.057580415 0.055661168 0.22320428 0.015410156 -0.022414537 0.041382287 0.009785641
0.022873355 0.20935442 0.04202501 0.03166802 0.014212538 -0.16960745 -0.0033064978 -0.0065932
-0.006033664 -0.008157682 0.037647963 0.022959465 0.06598243 0.017084673 -0.19916928 -0.061489083
0.19424951 -0.17139319 -0.039496303 0.0059871315 0.17351441 -0.051972695 0.021124793 -0.112507515
0.064396866 -0.14476788 0.06366033 0.16630197 -0.30141267 -0.15557463 0.045368057 -0.13761786
-0.3266927 0.0016845589 0.13624993 0.020867823 0.008984324 -0.2601511 0.08176037 -0.123659275
0.06660955 0.03609637 -0.04280481 0.043401886 0.071905985 -0.01077183 0.08635177 -0.0272331
0.08433472 0.11399167 0.028707247 0.02569391 -0.012591187 0.18375792 0.099865936 0.010973312
-0.022337325 0.11423499 0.10821821 0.02630787 0.009016414 0.14437465 0.022572849 0.13324325
0.13172764 0.09044696 0.028443348 -0.014866953 0.038452245 0.13578732 -0.06357629 0.020146364
0.05690747 0.092654966 -0.1122604 -0.44102788 0.06065929 0.0083765425 -0.11538474 0.10668972
-0.235348 0.014296214 0.039903514 0.0066186395 0.009164303 0.026821133 0.07447427 -0.07014063
0.106019296 -0.025806915 0.005989346 -0.008675313 -0.03486156 0.06645069 -0.13999936 0.021545086
-0.023576286 -0.07107752 -0.20057496 -0.012261476 0.03417639 0.08896185 -0.0038421066 0.01628005
0.12891977 0.030297533 -0.04378847 -0.01568187 -0.061592884 0.07200817 0.0009548249 0.18792656
0.117561266 0.015852168 0.027504075 0.032997627 -0.40998784 -0.006217 0.021529147 0.08813316
0.011801252 -0.0019186798 0.091135144 -0.040575687 -0.030994225 -0.13378371 0.049064066 -0.02295434
-0.0028302933 0.078487925 -0.06833381 0.12405078 0.0736827 0.19992904 -0.08836023 -0.04748728
0.074406125 -0.034859218 -0.031202339 -0.016070254 0.0033545906 0.012932944 -0.0042097894 -0.10554035
0.107592456 -0.0066049257 0.0050462675 0.011475202 0.027617954 0.009917258 -0.0030293178 0.020720279
0.12535046 0.012353642 0.008691937 0.09974437 -0.0017147785 0.027304085 0.033602543 0.019941334
-0.083675556 0.01428936 0.0011332936 0.024130633 0.039595366 0.016005427 -0.01087337 -0.016894475
0.12400976 0.044325486 -0.028814629 0.063357264 -0.08615611 -0.011924788 -0.006187316 -0.02095893
-0.023326494 -0.0027889016 0.18233807 0.11443685 0.02918683 0.07075831 0.011887547 0.038302325
0.051114827 -0.0022176323 -0.04322751 -0.21951051 0.030252138 -0.070951745 -0.01458633 -0.059806928
-0.026015649 0.013402458 0.021462588 -0.0065312865 -0.0053395517 0.03715198 0.008348492 -0.0052988986
0.095143594 -0.20041795 0.11044624 -0.17152277 -0.07106379 -0.038065385 0.0038255195 0.063824706
-0.0025292647 -0.046405647 -0.0032744235 -0.057192355 0.0750386 -0.2523709 0.44403017 0.11909349
0.07755191 -0.029266743 0.044474017 0.11524987 0.14455688 0.0016220467 -0.030379532 -0.17442155
0.044453114 0.01183245 -0.068343975 -0.11523974 -0.08807526 -0.09614441 -0.122134954 -0.10165592
00000000: c74f 9c3c 43cd 733b 6681 02be 2285 b4bd
00000010: 1cca 083f cd83 d23d 4904 9ebd cd4c 3ebd
00000020: 7cc1 c53d 36bd 2ebc 4f36 443d 921d 353b
00000030: 5e30 9a3d 09a1 ba3d f3a6 f8bc 548f b13c
00000040: d2bd 373e 71d9 6b3d f7fc 633d aa8f 643e
00000050: e17a 7c3c b19e b7bc 7980 293d f453 203c
00000060: e760 bb3c 0161 563e 6b22 2c3d 53b6 013d
00000070: b4db 683c 93ad 2dbe d4b1 58bb c50b d8bb
00000080: 0bb6 c5bb cca7 05bc c034 1a3d 7d15 bc3c
00000090: cc21 873d 28f5 8b3c 08f3 4bbe fadb 7bbd
000000a0: 58e9 463e b281 2fbe e0c6 21bd b32f c43b
000000b0: c3ad 313e 52e1 54bd e70d ad3c 576a e6bd
000000c0: 81e2 833d 083e 14be 5960 823d 104b 2a3e
000000d0: c352 9abe f54e 1fbe dbd3 393d b2eb 0cbe
000000e0: 4444 a7be 6bcc dc3a 1a85 0b3e fff2 aa3c
000000f0: fc32 133c 8632 85be fb71 a73d 1341 fdbd
00000100: 966a 883d cad9 133d 1954 2fbd 2dc6 313d
00000110: 7243 933d 547c 30bc 32d9 b03d f317 dfbc
00000120: afb7 ac3d 7774 e93d 762b eb3c 097c d23c
00000130: 444b 4ebc 092b 3c3e 8386 cc3d 68c9 333c
00000140: c4fc b6bc 09f4 e93d 82a1 dd3d 9a83 d73c
00000150: 95b9 133c f3d6 133e b2ea b83c eb70 083e
00000160: 9ce3 063e 413c b93d 0602 e93c 8594 73bc
00000170: 1a80 1d3d d50b 0b3e 4934 82bd fd09 a53c
00000180: cf17 693d e3c1 bd3d c8e8 e5bd 68ce e1be
00000190: e075 783d c43d 093c d64e ecbd 2480 da3d
000001a0: 11ff 70be ab3a 6a3c de71 233d 2ce1 d83b
000001b0: df25 163c feb7 db3c f785 983d e4a5 8fbd
000001c0: a520 d93d 0669 d3bc 4742 c43b e622 0ebc
000001d0: ffca 0ebd 4d17 883d fe5b 0fbe 527f b03c
000001e0: 0e23 c1bc 1791 91bd 8663 4dbe 5ce4 48bc
000001f0: 8bfc 0b3d a131 b63d dacb 7bbb bd5d 853c
00000200: 8b03 043e 8832 f83c 8a5b 33bd 4477 80bc
00000210: d248 7cbd 0579 933d 374d 7a3a d26f 403e
00000220: f6c3 f03d 68dc 813c 3a50 e13c 8528 073d
00000230: ede9 d1be fab7 cbbb e55d b03c 287f b43d
00000240: 0a5a 413c 367c fbba 10a5 ba3d b132 26bd
00000250: 9ae7 fdbc 99fe 08be 67f7 483d bd0a bcbc
00000260: 717c 39bb 47be a03d 99f2 8bbd 560e fe3d
00000270: f5e6 963d 33ba 4c3e 35f6 b4bd 0682 42bd
00000280: 3d62 983d 8ac8 0ebd 0c9c ffbc c4a5 83bc
00000290: b1d8 5b3b b3e4 533c 46f2 89bb 8a25 d8bd
000002a0: 6f59 dc3d 226e d8bb 295b a53b 7c02 3c3c
000002b0: 0c3f e23c ff7b 223c 8587 46bb 93bd a93c
000002c0: df5b 003e ee66 4a3c a068 0e3c c746 cc3d
000002d0: 6bc2 e0ba d1ac df3c d2a2 093d 025c a33c
000002e0: 175e abbd eb1d 6a3c 068b 943a 9bad c53c
000002f0: c02e 223d d01d 833c 3826 32bc 4866 8abc
00000300: d4f8 fd3d a48e 353d a80c ecbc 74c1 813d
00000310: 9d72 b0bd 3060 43bc f8be cabb 10b2 abbc
00000320: 3417 bfbc 01c6 36bb d5b6 3a3e de5d ea3d
00000330: 3819 ef3c bce9 903d fcc3 423c e6e2 1c3d
00000340: c85d 513d b255 11bb 540f 31bd 5dc7 60be
00000350: 55d3 f73c 264f 91bd 81fb 6ebc 1cf8 74bd
00000360: c51e d5bc fc95 5b3c 4fd2 af3c 6704 d6bb
00000370: 68f7 aebb ad2c 183d 1dc8 083c 62a2 adbb
00000380: a5da c23d 5d3a 4dbe a331 e23d aaa3 2fbe
00000390: e489 91bd 73ea 1bbd 91b5 7a3b 87b6 823d
000003a0: 05c2 25bb d913 3ebd b697 56bb 8842 6abd
000003b0: d6ad 993d c236 81be ec57 e33e 4ae7 f33d
000003c0: 89d3 9e3d cfc0 efbc 632a 363d 2008 ec3d
000003d0: b806 143e db9a d43a 7fde f8bc 909b 32be
000003e0: 7814 363d e4dc 413c edf7 8bbd d002 ecbd
000003f0: cd60 b4bd 5ce7 c4bd e421 fabd fb30 d0bd

layer_list.conv2.att_src f4 [1, 1, 7]
0.16937849 -0.010898485 0.12668888 0.084860556 -0.03320757 0.27143353 -0.1054538
00000000: 8e71 2d3e 8f8f 32bc bbba 013e 5fcb ad3d
00000010: a904 08bd 56f9 8a3e 29f8 d7bd

layer_list.conv2.att_dst f4 [1, 1, 7]
-0.19169196 0.04159203 0.6081612 0.028174968 -0.17369509 -0.16595541 -0.010572155
00000000: e64a 44be 685c 2a3d 74b0 1b3f 31cf e63c
00000010: 20dd 31be 37f0 29be d536 2dbc

layer_list.conv2.bias f4 [7]
-0.20232639 -0.50624985 0.064916894 0.5789638 -0.060305998 -0.35122013 -0.5382353
00000000: a62e 4fbe 9799 01bf 26f3 843d f936 143f
00000010: 6c03 77bd 20d3 b3be cac9 09bf

layer_list.conv2.lin_src.weight f4 [7, 64]
-1.2813092 0.91610783 0.69544977 -0.22381067 1.1944392 0.89185655 -0.20154168 0.38672233
-1.0964198 0.8761907 1.0909408 0.8722793 0.6442361 1.1789675 1.0278732 1.0510553
-0.4506721 -1.0078853 -1.1398019 -1.2079939 0.33277163 1.0680732 1.1104894 0.1517409
1.0331905 1.1989585 -0.72458977 -1.0357829 -0.8758252 0.9996793 0.8195668 0.5095671
-1.1185833 1.3141624 1.1040004 1.1222727 0.88711405 -0.5876201 -1.1475177 -0.034083813
-1.310611 0.8007604 -0.9767589 0.78853834 0.9556269 -0.39851055 -1.0862817 1.1042248
0.85938036 -0.53695667 1.2297148 0.08432924 1.0253621 -0.5033277 -0.86648023 -0.7636534
0.00022175735 0.62840986 1.1995616 0.5416582 -1.0029526 -0.6769993 0.84906816 0.5573397
-1.0129477 1.3290455 0.6503222 1.0382236 -0.10959166 0.6304654 -1.1061513 0.8703523
1.1966075 -0.18099254 -1.0987946 0.29679787 -1.1247153 -1.1211574 -1.1087865 -1.0015893
0.7872458 -0.76840484 -0.6661935 -1.0522734 0.7944 0.47892964 -1.2448776 0.36688024
-1.0353413 0.11093578 1.1699814 0.2535803 -0.6002095 1.024459 -1.3206346 -1.0995086
1.2369317 0.73997706 1.040161 -0.9815764 -1.0684137 1.2791165 -1.0270852 0.37040454
0.9070149 0.35739213 1.2533991 -0.99681944 -0.52964807 0.52719027 -1.1203233 1.0812106
0.49172467 0.69549835 -0.0014191401 -0.9801492 -0.9368423 -0.14314473 0.58379877 1.2299776
-0.7176275 -0.7470754 -1.0147281 -1.1204654 -0.786847 -0.25729686 -1.3145018 1.2066773
-0.9350643 -1.1282729 -1.0322691 -1.0738906 -1.1507494 -1.0841084 -0.89665705 -1.0564557
0.8653245 0.75058967 -0.8888542 0.17057438 0.8671623 -0.5756691 -1.0047402 1.1093751
0.8919073 0.96531403 -0.7286941 0.9738785 -0.056846526 0.55280966 -0.6644402 -0.70017517
0.9889342 -0.88143045 -1.0418403 0.9829774 -0.92750776 -0.8404035 -1.0451646 1.0016196
-1.0119 -0.9235844 -0.8567936 -1.0771115 -0.8612718 0.86809635 -0.86268216 -0.9615693
0.75229 0.83587 0.8043597 -1.0589429 -0.96442425 0.5082142 -0.98867136 -1.0672369
-0.8850432 1.0126532 -1.0882262 -0.49310878 0.96575 0.84958184 1.1729667 -0.65148896
0.9548029 0.16977853 -0.897611 0.67047054 -0.7687798 -0.8693044 0.8036342 1.0062337
1.0920315 -0.052385382 -0.94830984 -1.1292018 -1.0475944 -1.1318601 0.9568825 0.65896535
-0.8382106 0.9745002 1.0441756 1.0181797 -0.97436243 0.873694 -0.59530985 -0.90154374
-0.93290305 0.7565587 0.89787424 -0.67398185 -0.98808056 -1.1762527 0.9939677 0.9599029
-1.1479926 1.0706263 0.17304817 0.6188697 0.98868954 0.8841332 0.9738772 1.036414
0.7710762 -1.1206744 0.95545393 -0.9159458 0.78757757 1.1735518 0.9106195 0.77520007
0.24128686 -0.9706873 -0.91037244 -0.8103907 1.0851644 0.78676426 1.034905 -0.2946396
-0.42309642 0.013491749 -0.79177654 0.9262633 -0.9882223 -0.88556486 -0.15897234 -1.0150273
0.6984611 -1.0347496 0.63958865 0.37832004 1.0587803 1.0490403 -1.2521313 -1.0925442
00000000: f101 a4bf 0b86 6a3f ff08 323f a02e 65be
00000010: 62e3 983f b650 643f f160 4ebe 7800 c63e
00000020: 7c57 8cbf 094e 603f f3a3 8b3f b24d 5f3f
00000030: a8ec 243f 68e8 963f 5991 833f fb88 863f
00000040: 7ebe e6be 6302 81bf 07e5 91bf 8b9f 9abf
00000050: 0b61 aa3e 9fb6 883f 8424 8e3f f761 1b3e
00000060: 963f 843f 7977 993f b77e 39bf 8994 84bf
00000070: 1536 60bf fcea 7f3f 21cf 513f fd72 023f
00000080: bd2d 8fbf 7936 a83f e34f 8d3f a2a6 8f3f
00000090: e819 633f 456e 16bf dce1 92bf 789b 0bbd
000000a0: 1ac2 a7bf a2fe 4c3f df0c 7abf a6dd 493f
000000b0: f7a3 743f 9309 ccbe 470b 8bbf 3d57 8d3f
000000c0: 5a00 5c3f fe75 09bf 4b67 9d3f cfb4 ac3d
000000d0: 113f 833f 16da 00bf a6d1 5dbf ca7e 43bf
000000e0: 8987 6839 78df 203f 3c8b 993f 1daa 0a3f
000000f0: c060 80bf d34f 2dbf 885c 593f d1ad 0e3f
00000100: 45a8 81bf 2a1e aa3f 847b 263f 83e4 843f
00000110: 9871 e0bd 2e66 213f 5e96 8dbf 69cf 5e3f
00000120: 6f2a 993f 1c56 39be 4da5 8cbf e4f5 973e
00000130: acf6 8fbf 1682 8fbf b7ec 8dbf 1434 80bf
00000140: f188 493f 2eb6 44bf a88b 2abf e5b0 86bf
00000150: cc5d 4b3f 4436 f53e 2658 9fbf bad7 bb3e
00000160: 1086 84bf 4c32 e33d f3c1 953f 47d5 813e
00000170: 54a7 19bf 7921 833f 8e0a a9bf b3bc 8cbf
00000180: c753 9e3f 236f 3d3f ff23 853f 9748 7bbf
00000190: c8c1 88bf 17ba a33f 8777 83bf aaa5 bd3e
000001a0: 2132 683f 1afc b63e 626f a03f 8f2f 7fbf
000001b0: 0497 07bf f1f5 063f c166 8fbf 1c65 8a3f
000001c0: 56c3 fb3e 2e0c 323f 7102 baba 0feb 7abf
000001d0: e6d4 6fbf 8894 12be d673 153f e86f 9d3f
000001e0: 70b6 37bf 5540 3fbf 9ce2 81bf 696b 8fbf
000001f0: ce6e 49bf 6abc 83be 9841 a8bf 6774 9a3f
00000200: 6060 6fbf 3f6b 90bf 6521 84bf 3f75 89bf
00000210: c24b 93bf 10c4 8abf 518b 65bf f139 87bf
00000220: e885 5d3f a526 403f f38b 63bf 0dab 2e3e
00000230: 59fe 5d3f 0d5f 13bf 549b 80bf 0100 8e3f
00000240: 0954 643f d21e 773f b28b 3abf 1a50 793f
00000250: e7d7 68bd ef84 0d3f c118 2abf ae3e 33bf
00000260: cb2a 7d3f 6da5 61bf 065b 85bf 68a4 7b3f
00000270: 2671 6dbf af24 57bf f4c7 85bf 1235 803f
00000280: f085 81bf 0770 6cbf d356 5bbf cade 89bf
00000290: 4f7c 5cbf 903b 5e3f bdd8 5cbf 6829 76bf
000002a0: 1496 403f 94fb 553f 84ea 4d3f 718b 87bf
000002b0: 82e4 76bf 531a 023f 9119 7dbf 389b 88bf
000002c0: 3192 62bf 9f9e 813f ff4a 8bbf c178 fcbe
000002d0: 643b 773f 327e 593f c623 963f fbc7 26bf
000002e0: f66d 743f 6cda 2d3e d6c9 65bf f5a3 2b3f
000002f0: c1ce 44bf bc8a 5ebf f9ba 4d3f 44cc 803f
00000300: b0c7 8b3f 0e92 56bd 6fc4 72bf af89 90bf
00000310: 9317 86bf cbe0 90bf 40f6 743f f4b1 283f
00000320: f894 56bf d878 793f 8ca7 853f b653 823f
00000330: d16f 79bf 69aa 5f3f 3a66 18bf 92cb 66bf
00000340: bcd2 6ebf d5ad 413f 16db 653f 138a 2cbf
00000350: d9f2 7cbf 738f 96bf ab74 7e3f 32bc 753f
00000360: 6cf1 92bf 480a 893f 8a33 313e 3f6e 1e3f
00000370: c21a 7d3f 8e56 623f 0450 793f 37a9 843f
00000380: 4065 453f 4272 8fbf a198 743f 6d7b 6abf
00000390: af9e 493f f236 963f 5c1e 693f 8373 463f
000003a0: e713 773e f77e 78bf 2b0e 69bf c475 4fbf
000003b0: abe6 8a3f 6269 493f c477 843f 00db 96be
000003c0: 18a0 d8be 7f0c 5d3c deb1 4abf 971f 6d3f
000003d0: 23fc 7cbf 61b4 62bf a5c9 22be 6aec 81bf
000003e0: 59ce 323f ad72 84bf 15bc 233f 2ab3 c13e
000003f0: 1d86 873f f446 863f d745 a0bf 7dd8 8bbf

layer_list.conv2.lin_dst.weight f4 [7, 64]
-1.2813092 0.91610783 0.69544977 -0.22381067 1.1944392 0.89185655 -0.20154168 0.38672233
-1.0964198 0.8761907 1.0909408 0.8722793 0.6442361 1.1789675 1.0278732 1.0510553
-0.4506721 -1.0078853 -1.1398019 -1.2079939 0.33277163 1.0680732 1.1104894 0.1517409
1.0331905 1.1989585 -0.72458977 -1.0357829 -0.8758252 0.9996793 0.8195668 0.5095671
-1.1185833 1.3141624 1.1040004 1.1222727 0.88711405 -0.5876201 -1.1475177 -0.034083813
-1.310611 0.8007604 -0.9767589 0.78853834 0.9556269 -0.39851055 -1.0862817 1.1042248
0.85938036 -0.53695667 1.2297148 0.08432924 1.0253621 -0.5033277 -0.86648023 -0.7636534
0.00022175735 0.62840986 1.1995616 0.5416582 -1.0029526 -0.6769993 0.84906816 0.5573397
-1.0129477 1.3290455 0.6503222 1.0382236 -0.10959166 0.6304654 -1.1061513 0.8703523
1.1966075 -0.18099254 -1.0987946 0.29679787 -1.1247153 -1.1211574 -1.1087865 -1.0015893
0.7872458 -0.76840484 -0.6661935 -1.0522734 0.7944 0.47892964 -1.2448776 0.36688024
-1.0353413 0.11093578 1.1699814 0.2535803 -0.6002095 1.024459 -1.3206346 -1.0995086
1.2369317 0.73997706 1.040161 -0.9815764 -1.0684137 1.2791165 -1.0270852 0.37040454
0.9070149 0.35739213 1.2533991 -0.99681944 -0.52964807 0.52719027 -1.1203233 1.0812106
0.49172467 0.69549835 -0.0014191401 -0.9801492 -0.9368423 -0.14314473 0.58379877 1.2299776
-0.7176275 -0.7470754 -1.0147281 -1.1204654 -0.786847 -0.25729686 -1.3145018 1.2066773
-0.9350643 -1.1282729 -1.0322691 -1.0738906 -1.1507494 -1.0841084 -0.89665705 -1.0564557
0.8653245 0.75058967 -0.8888542 0.17057438 0.8671623 -0.5756691 -1.0047402 1.1093751
0.8919073 0.96531403 -0.7286941 0.9738785 -0.056846526 0.55280966 -0.6644402 -0.70017517
0.9889342 -0.88143045 -1.0418403 0.9829774 -0.92750776 -0.8404035 -1.0451646 1.0016196
-1.0119 -0.9235844 -0.8567936 -1.0771115 -0.8612718 0.86809635 -0.86268216 -0.9615693
0.75229 0.83587 0.8043597 -1.0589429 -0.96442425 0.5082142 -0.98867136 -1.0672369
-0.8850432 1.0126532 -1.0882262 -0.49310878 0.96575 0.84958184 1.1729667 -0.65148896
0.9548029 0.16977853 -0.897611 0.67047054 -0.7687798 -0.8693044 0.8036342 1.0062337
1.0920315 -0.052385382 -0.94830984 -1.1292018 -1.0475944 -1.1318601 0.9568825 0.65896535
-0.8382106 0.9745002 1.0441756 1.0181797 -0.97436243 0.873694 -0.59530985 -0.90154374
-0.93290305 0.7565587 0.89787424 -0.67398185 -0.98808056 -1.1762527 0.9939677 0.9599029
-1.1479926 1.0706263 0.17304817 0.6188697 0.98868954 0.8841332 0.9738772 1.036414
0.7710762 -1.1206744 0.95545393 -0.9159458 0.78757757 1.1735518 0.9106195 0.77520007
0.24128686 -0.9706873 -0.91037244 -0.8103907 1.0851644 0.78676426 1.034905 -0.2946396
-0.42309642 0.013491749 -0.79177654 0.9262633 -0.9882223 -0.88556486 -0.15897234 -1.0150273
0.6984611 -1.0347496 0.63958865 0.37832004 1.0587803 1.0490403 -1.2521313 -1.0925442
00000000: f101 a4bf 0b86 6a3f ff08 323f a02e 65be
00000010: 62e3 983f b650 643f f160 4ebe 7800 c63e
00000020: 7c57 8cbf 094e 603f f3a3 8b3f b24d 5f3f
00000030: a8ec 243f 68e8 963f 5991 833f fb88 863f
00000040: 7ebe e6be 6302 81bf 07e5 91bf 8b9f 9abf
00000050: 0b61 aa3e 9fb6 883f 8424 8e3f f761 1b3e
00000060: 963f 843f 7977 993f b77e 39bf 8994 84bf
00000070: 1536 60bf fcea 7f3f 21cf 513f fd72 023f
00000080: bd2d 8fbf 7936 a83f e34f 8d3f a2a6 8f3f
00000090: e819 633f 456e 16bf dce1 92bf 789b 0bbd
000000a0: 1ac2 a7bf a2fe 4c3f df0c 7abf a6dd 493f
000000b0: f7a3 743f 9309 ccbe 470b 8bbf 3d57 8d3f
000000c0: 5a00 5c3f fe75 09bf 4b67 9d3f cfb4 ac3d
000000d0: 113f 833f 16da 00bf a6d1 5dbf ca7e 43bf
000000e0: 8987 6839 78df 203f 3c8b 993f 1daa 0a3f
000000f0: c060 80bf d34f 2dbf 885c 593f d1ad 0e3f
00000100: 45a8 81bf 2a1e aa3f 847b 263f 83e4 843f
00000110: 9871 e0bd 2e66 213f 5e96 8dbf 69cf 5e3f
00000120: 6f2a 993f 1c56 39be 4da5 8cbf e4f5 973e
00000130: acf6 8fbf 1682 8fbf b7ec 8dbf 1434 80bf
00000140: f188 493f 2eb6 44bf a88b 2abf e5b0 86bf
00000150: cc5d 4b3f 4436 f53e 2658 9fbf bad7 bb3e
00000160: 1086 84bf 4c32 e33d f3c1 953f 47d5 813e
00000170: 54a7 19bf 7921 833f 8e0a a9bf b3bc 8cbf
00000180: c753 9e3f 236f 3d3f ff23 853f 9748 7bbf
00000190: c8c1 88bf 17ba a33f 8777 83bf aaa5 bd3e
000001a0: 2132 683f 1afc b63e 626f a03f 8f2f 7fbf
000001b0: 0497 07bf f1f5 063f c166 8fbf 1c65 8a3f
000001c0: 56c3 fb3e 2e0c 323f 7102 baba 0feb 7abf
000001d0: e6d4 6fbf 8894 12be d673 153f e86f 9d3f
000001e0: 70b6 37bf 5540 3fbf 9ce2 81bf 696b 8fbf
000001f0: ce6e 49bf 6abc 83be 9841 a8bf 6774 9a3f
00000200: 6060 6fbf 3f6b 90bf 6521 84bf 3f75 89bf
00000210: c24b 93bf 10c4 8abf 518b 65bf f139 87bf
00000220: e885 5d3f a526 403f f38b 63bf 0dab 2e3e
00000230: 59fe 5d3f 0d5f 13bf 549b 80bf 0100 8e3f
00000240: 0954 643f d21e 773f b28b 3abf 1a50 793f
00000250: e7d7 68bd ef84 0d3f c118 2abf ae3e 33bf
00000260: cb2a 7d3f 6da5 61bf 065b 85bf 68a4 7b3f
00000270: 2671 6dbf af24 57bf f4c7 85bf 1235 803f
00000280: f085 81bf 0770 6cbf d356 5bbf cade 89bf
00000290: 4f7c 5cbf 903b 5e3f bdd8 5cbf 6829 76bf
000002a0: 1496 403f 94fb 553f 84ea 4d3f 718b 87bf
000002b0: 82e4 76bf 531a 023f 9119 7dbf 389b 88bf
000002c0: 3192 62bf 9f9e 813f ff4a 8bbf c178 fcbe
000002d0: 643b 773f 327e 593f c623 963f fbc7 26bf
000002e0: f66d 743f 6cda 2d3e d6c9 65bf f5a3 2b3f
000002f0: c1ce 44bf bc8a 5ebf f9ba 4d3f 44cc 803f
00000300: b0c7 8b3f 0e92 56bd 6fc4 72bf af89 90bf
00000310: 9317 86bf cbe0 90bf 40f6 743f f4b1 283f
00000320: f894 56bf d878 793f 8ca7 853f b653 823f
00000330: d16f 79bf 69aa 5f3f 3a66 18bf 92cb 66bf
00000340: bcd2 6ebf d5ad 413f 16db 653f 138a 2cbf
00000350: d9f2 7cbf 738f 96bf ab74 7e3f 32bc 753f
00000360: 6cf1 92bf 480a 893f 8a33 313e 3f6e 1e3f
00000370: c21a 7d3f 8e56 623f 0450 793f 37a9 843f
00000380: 4065 453f 4272 8fbf a198 743f 6d7b 6abf
00000390: af9e 493f f236 963f 5c1e 693f 8373 463f
000003a0: e713 773e f77e 78bf 2b0e 69bf c475 4fbf
000003b0: abe6 8a3f 6269 493f c477 843f 00db 96be
000003c0: 18a0 d8be 7f0c 5d3c deb1 4abf 971f 6d3f
000003d0: 23fc 7cbf 61b4 62bf a5c9 22be 6aec 81bf
000003e0: 59ce 323f ad72 84bf 15bc 233f 2ab3 c13e
000003f0: 1d86 873f f446 863f d745 a0bf 7dd8 8bbf
