vanilla_models/Cora/5_3f_85/split1/init1/GAT_dp0_5_5e_4_f2.pt (torch, 372919 bytes, 10 tensors)

layer_list.conv1.att_src f4 [1, 8, 8]
000000 22 08 c6 3e de cf 2e 3e b5 5f 40 3e 8a 0d 71 be
       0.3867808 0.17071483 0.1878651 -0.23540321
000010 f4 47 03 3f 65 68 32 3e ce 29 38 3f 23 fa 8d be
       0.51281667 0.17422636 0.7193879 -0.27729902
000020 60 25 8d 3d 91 4d 80 be 86 89 40 be 18 5b f5 3e
       0.06891894 -0.25059178 -0.18802461 0.47921062
000030 02 81 b6 bd d3 1a 36 3f c4 52 62 be 73 e8 5f 3e
       -0.08911325 0.7113468 -0.22101885 0.21866016
000040 14 54 a3 be 38 f6 f3 be b5 2b d4 be 33 48 87 3d
       -0.31900084 -0.47648787 -0.41439596 0.06605568
000050 3f 53 d5 3d 1c 69 06 3f 30 0e 1f be c7 9f 01 bf
       0.104162686 0.52504134 -0.15532756 -0.50634426
000060 62 89 eb 3b bb a2 80 3e 6a 4b d2 be fa ea 7d 3e
       0.007188008 0.25124153 -0.4107316 0.24796668
000070 95 2c a8 be e7 22 1c 3f 85 4b f7 be 14 84 27 3f
       -0.32846513 0.60990757 -0.48299804 0.6543591
000080 1f fb 3e 3c 5c b7 18 3f cc 9f 23 be ca 3b 38 3f
       0.011656552 0.59654784 -0.15978926 0.7196623
000090 4d 7f 84 be 42 33 f1 3e 2b 7b 23 3f c3 c7 14 3f
       -0.25878373 0.4710942 0.63859814 0.5811731
0000a0 8a 20 8e 3e 63 72 60 3e 7f 9c 80 bf 4b 36 6e bf
       0.277592 0.21918635 -1.0047759 -0.93051594
0000b0 64 1d 45 3e 47 6a 21 bf da 37 3d bf ef 7c 61 3f
       0.19249493 -0.6305279 -0.7391335 0.8808126
0000c0 63 b9 2a 3e a9 bb b3 3d dd 58 c3 be d5 6e 1f bf
       0.16672282 0.08776028 -0.38153735 -0.6227849
0000d0 b6 60 a9 3c 6b 85 b6 3e 4e be d6 bd fe ec 0a 3f
       0.020675998 0.35648665 -0.104855165 0.5426787
0000e0 ec 41 fc 3c 88 39 b9 bd 8f 42 a1 be a3 20 40 3f
       0.030793153 -0.09044176 -0.31496093 0.750498
0000f0 64 a2 03 3f e7 76 ae 3d 5d 98 39 3f 35 b0 36 3f
       0.51419663 0.085187726 0.7249811 0.7136262

layer_list.conv1.att_dst f4 [1, 8, 8]
000000 72 17 26 3e dd d7 91 ba b1 a6 bc 3c cd af a4 bd
       0.16219881 -0.0011126954 0.023028703 -0.08041344
000010 21 4a 53 3e c6 86 6d bd 12 41 dd 3d f1 25 9d bc
       0.20633747 -0.057989858 0.10803427 -0.019183131
000020 90 33 8a 3d b7 15 06 be 47 20 66 bd 2c 8d e0 3d
       0.06748116 -0.13094221 -0.056183126 0.109644264
000030 57 8b f3 3c 3a af 27 3e c8 81 00 be 10 86 0c 3e
       0.029729528 0.16375437 -0.12549508 0.13723016
000040 af 66 56 be 4e 56 6c 3c 69 0d 38 be b1 20 d5 3d
       -0.20937608 0.0144248735 -0.17973866 0.10406626
000050 b7 1f e3 3d 99 cf 50 3e 19 c8 e1 3b 2c 47 54 bd
       0.110900335 0.20391692 0.0068903086 -0.051825687
000060 f9 7c 02 3e ff 1d 2a 3d 45 38 ad bd 2b 0d 3c 3b
       0.12742986 0.041532513 -0.08457998 0.0028694372
000070 9b bb a7 bc cc 61 62 3e d3 8d ff bd 4f bd 88 3e
       -0.0204752 0.22107619 -0.12478223 0.2670693
000080 1e ed c3 3c 3c 12 23 3e 00 0e dc bd 21 17 81 3e
       0.023916777 0.15924925 -0.10744858 0.25212958
000090 e9 e4 3e bd ca 58 c7 3d 0e 3e 63 3e 58 4e 2f 3e
       -0.046605024 0.09733732 0.2219164 0.1711973
0000a0 8f 9a 2a 3e f0 2d ec 3c 5f b4 7d be ca bf 98 be
       0.16660522 0.028830498 -0.24775837 -0.29833823
0000b0 5e 0f d4 3d 24 6f 15 be dd 03 83 be 53 fc 85 3e
       0.103544936 -0.14593178 -0.25588885 0.2616907
0000c0 25 47 c5 3d 33 03 72 bd a2 a9 c9 bd db 64 43 be
       0.0963271 -0.059085082 -0.09846808 -0.19081442
0000d0 e9 cd 83 bb 59 d4 ce 3d 20 9a 03 be 3c 38 34 3e
       -0.004022349 0.10099096 -0.12851763 0.17599577
0000e0 a7 3d c7 bb e1 24 8c bc 47 e9 b5 bd 88 22 76 3e
       -0.0060803476 -0.017107429 -0.08882385 0.2403661
0000f0 dd 22 3c 3e 94 a8 9b 39 6b 7a 4c 3e f0 28 36 3e
       0.18372674 0.00029689504 0.19968574 0.17789054

layer_list.conv1.bias f4 [64]
000000 33 97 26 3d 74 2b e2 3b de 7a 96 3c 3e 94 9c 3c
       0.04067154 0.0069021527 0.018369135 0.019113656
000010 f5 62 da 3c 4b 65 fd 3c 04 cb e9 3c 00 c0 8d 3b
       0.026658515 0.03093209 0.028539188 0.0043258667
000020 a4 78 43 ba 15 e1 0a 3a 75 f0 31 3a e9 f2 a2 39
       -0.00074566365 0.0005297822 0.0006787845 0.0003108003
000030 db b6 38 bc bd 76 de 3a 68 8e 09 3d 51 58 81 bc
       -0.011274065 0.0016972643 0.033583075 -0.015789183
000040 ed ef b0 3b de 60 59 b9 62 d7 24 3c 8e be a2 3c
       0.005399695 -0.00020730819 0.010061117 0.019866254
000050 a7 50 bd 3c fa dd 9c bc 10 46 dd 3b c3 8d 07 3d
       0.023109747 -0.019148815 0.006752737 0.03309418
000060 a1 90 2a 3d 27 e3 8c bc b5 5c 6a 3d 45 6e 52 bc
       0.041641835 -0.017198158 0.05721732 -0.012843673
000070 99 6d de 3b 7d eb 93 3c 1b 1f 63 3b e2 d0 ac 3c
       0.0067879674 0.018056626 0.0034655991 0.021095697
000080 f9 52 6b 3c 3a ce 26 3d cd 29 c5 bb 3b 36 df bc
       0.014363044 0.040724017 -0.006016946 -0.027247539
000090 77 05 db 3c 15 85 a3 ba 7b 48 4c 3c df cd 18 3d
       0.026736004 -0.0012475575 0.012468453 0.03730571
0000a0 68 37 a0 3c 80 01 17 3d b1 05 c4 3c a8 77 b0 3c
       0.01955767 0.036866665 0.023928495 0.021541432
0000b0 4b af 34 3d b8 92 88 3c 9a cb 07 3d 89 66 0e 3c
       0.044112485 0.016671523 0.033153154 0.0086914385
0000c0 1e d1 fa ba dc 20 6a ba ce c1 a8 3c e6 5f 90 3c
       -0.0019135808 -0.0008931288 0.020600226 0.017623853
0000d0 35 96 b5 3a 46 11 d6 3c 6b e1 07 3d ec 56 0b 3c
       0.0013853969 0.026131283 0.03317396 0.0085046105
0000e0 48 92 39 3d 30 36 12 3d a8 b3 08 3b 4a 1c 93 3c
       0.04530552 0.03569621 0.0020859037 0.017957825
0000f0 fb 6b f6 bb 38 df 29 3c 7b 05 42 bb 19 4e 8e 3c
       -0.0075201965 0.010368161 -0.0029605317 0.017371224

layer_list.conv1.lin_src.weight f4 [64, 1433]
000000 2b c7 1a 3d 0b 16 5e 3d 89 c8 a7 3d db 90 9f bd
       0.037787598 0.05422024 0.08192546 -0.07791301
000010 9c 67 b0 3e d6 65 bf bc 7c 34 2d be cb 35 a5 3d
       0.34454048 -0.023363989 -0.16914552 0.08066901
000020 4c b6 8a 3d 14 95 c6 3b ee c0 6b 3d 24 15 c3 bc
       0.067730516 0.006060252 0.05755704 -0.023813792
000030 1b 7f f6 bd ef 7b b8 3d 15 d7 11 3d 18 e1 fd ba
       -0.12035962 0.090080135 0.03560551 -0.0019369451
000040 1b 54 65 3d d9 4c bb 3b cd cb 29 3b 74 66 b2 3e
       0.055988412 0.005715948 0.0025908828 0.3484379
000050 ab b5 16 3b 4c ea d3 3c 4d f1 4d 3b e0 9f c1 3b
       0.0022996466 0.025868557 0.0031424344 0.005908951
000060 69 7a ef bc bb ca 19 3d a2 f3 ae bd c1 f6 10 bd
       -0.029233174 0.037546854 -0.08542563 -0.035391573
000070 a7 92 14 3d 7d 7a 2d be f4 90 45 bd 46 f0 22 bc
       0.03627267 -0.16941257 -0.04823394 -0.009944981
000080 7f e2 41 bc a3 34 14 3b f3 62 59 3d 71 42 a0 3d
       -0.011833786 0.0022614382 0.05307288 0.07825173
000090 c6 bb 61 3d c0 ba 15 bd 12 1c 5f 3e ff 7f 1f 3e
       0.055110715 -0.03655505 0.21788052 0.1557617
0000a0 bc 28 ee 3d 5c 9d 64 3d 12 c1 ee bc 51 18 1f bc
       0.11628863 0.055814132 -0.029144797 -0.009710387
0000b0 5c 83 81 3d 0b bd 0e 3d 81 d9 4c bd 08 2a 99 3d
       0.06323883 0.034848254 -0.050012115 0.0747872
0000c0 d9 76 95 3d 61 8d c5 bd 3d 84 92 bd 6e d5 88 3e
       0.07298059 -0.096461065 -0.07154129 0.26725334
0000d0 26 53 2a be e9 78 f2 3b 3a 32 95 bc 8a ec d4 bc
       -0.16633281 0.0073996675 -0.018212426 -0.025991697
0000e0 e9 9c 7f be 01 15 b6 bc a0 c1 4f 3e 51 e6 f1 3c
       -0.249622 -0.022226812 0.20288706 0.029528769
0000f0 bb 2c f9 3b 11 32 f2 3b 04 d9 98 bd a8 b3 d2 bd
       0.0076042092 0.0073912223 -0.074632674 -0.10288173
000100 d9 6b be bc ad 48 ec 3d 60 dd b3 bb cd 87 71 3e
       -0.023244785 0.11537299 -0.0054890364 0.2358696
000110 d1 ef 15 3c 2f 13 03 3d d7 36 0c be 3e 10 18 3c
       0.009151415 0.032000717 -0.13692795 0.009281216
000120 c4 4f 18 3b 0c f8 6b 3d d5 e3 9a bd 90 04 79 3d
       0.0023240903 0.057609603 -0.07562987 0.060795367
000130 1e 20 2d ba fb 8c 0d bd c6 25 30 3e 69 22 9c bc
       -0.0006604212 -0.034558278 0.1720191 -0.019059377
000140 7e 92 2f 3d 8f 63 f8 3c 8f 95 f9 3d 56 cb 28 bd
       0.042864315 0.03032091 0.12186729 -0.04120954
000150 62 d1 38 3b 3e df d9 3d 99 f6 7c 3d c1 be f6 3d
       0.0028200974 0.10638283 0.06175861 0.12048102
000160 71 21 49 bd f4 fd 58 bd 87 91 d1 3c 38 75 37 bd
       -0.049104158 -0.052976564 0.025582088 -0.044789523
000170 c5 63 e2 bd 9c f8 24 3e 57 a2 5a 3a 1e 05 0e 3d
       -0.11054186 0.16110462 0.00083402306 0.03467285
000180 fd a7 02 bc 74 23 ce 3d d4 2a 2a bd 23 ef 0c be
       -0.007974622 0.10065356 -0.04154475 -0.13763098
000190 5d 64 d0 3d 44 0a 98 ba 85 ab 1e bd 95 cb 7a bd
       0.10175393 -0.0011599739 -0.038737793 -0.061229307
0001a0 0c 9f 2a be b2 b1 20 ba 59 92 14 bc 92 29 c2 3b
       -0.16662234 -0.0006129994 -0.009068095 0.0059253657
0001b0 a2 ce 56 bd 34 da c6 bc e5 65 34 bd c6 6b 54 3d
       -0.052443154 -0.02427397 -0.044042487 0.051860593
0001c0 9b 80 29 bd 27 d0 9f ba 8d c7 c8 bc aa 46 4a bc
       -0.041382413 -0.0012192772 -0.024509216 -0.012345949
0001d0 1e a6 09 bd 1d 7c 11 3c a1 30 37 be 34 fd d3 3d
       -0.033605687 0.008879689 -0.17889644 0.10351029
0001e0 59 54 f1 bc d6 a3 1f be 19 14 e0 bd 1b fd 25 bd
       -0.029459165 -0.15589842 -0.10941333 -0.040524583
0001f0 bc 8a a2 3c cc 54 3d 3d 9f 5f 39 be 0f 4d d6 3d
       0.019841544 0.046223447 -0.18102883 0.104639165
000200 20 d6 89 3d 43 14 13 3d 2b d4 98 bd b9 4a 07 bd
       0.06730294 0.035907995 -0.07462343 -0.033030245
000210 e9 33 57 be 47 01 21 bd f5 79 b9 3b 0c 0d d0 bc
       -0.21015896 -0.03930786 0.0056602904 -0.025396846
000220 92 c3 a7 3c 28 56 83 bd 90 d6 51 bd b7 8b 6e bd
       0.020478997 -0.064129174 -0.051230013 -0.05823871
000230 d0 fc 57 be 64 40 87 bd ed 54 d1 bc 75 8b 8b bc
       -0.21092534 -0.066040784 -0.025553191 -0.017034272
000240 2e 36 01 be 46 bb 3a 3d 86 b5 20 3e 40 69 bf bd
       -0.12618324 0.045588754 0.15694246 -0.09346247
000250 a6 1d 77 bc 2b b5 db 3d 8f 3f 28 3c d2 ae 16 3e
       -0.015082752 0.107279144 0.01026906 0.14715126
000260 7a d7 8a 3d 8a a1 9b 3d 3c a3 2b bd 5c 94 1e bc
       0.0677938 0.075991705 -0.04190372 -0.009678926
000270 a9 93 45 bd e7 74 b7 3c 06 09 89 bd 43 33 e5 bc
       -0.048236523 0.02239461 -0.06691174 -0.027978545
000280 79 a3 64 3c b0 d0 47 bc 58 18 24 3c 40 44 cc bd
       0.013954991 -0.012195751 0.01001557 -0.09973955
000290 5c 84 29 bd 29 6c 27 bd c5 4c 48 3e b4 79 31 3c
       -0.041385993 -0.040874634 0.19560535 0.010832239
0002a0 79 85 69 3e b9 1e 13 3e 93 2a f4 bc e4 4b 05 3d
       0.22804822 0.14367189 -0.029805457 0.032543078
0002b0 2d 7b 25 bd ec eb 04 3e e7 9a 17 3c 3a 45 b9 3d
       -0.040400673 0.12980622 0.00925324 0.09046407
0002c0 9a 8d dc 3d ac 8b 62 bc d9 1f b1 3b de 79 f8 bd
       0.10769196 -0.013827246 0.005405408 -0.12132619
0002d0 ef ae b3 3a 68 ec b0 bb d9 a0 78 bc d5 dc d6 3c
       0.001370875 -0.0053992756 -0.015175068 0.026228348
0002e0 27 8e 06 be fe 58 36 bc db c7 b7 bc d5 ee 57 3d
       -0.13140164 -0.011129616 -0.022434166 0.052718002
0002f0 2f 82 02 bc 86 05 93 bc 45 f6 a6 bc de f8 cc bd
       -0.0079656085 -0.01794697 -0.020381102 -0.10008405
000300 0e 50 f3 bd 95 69 77 3d 8d 34 fb bd 4d 7d 9f 3d
       -0.118805036 0.060403425 -0.12265883 0.07787571
000310 c3 a3 53 3e 4c 59 ac 3d e9 6d 45 3d d7 64 04 3e
       0.20667939 0.084154695 0.04820052 0.12929092
000320 a9 35 10 be 7b b6 dd bb 0d dc 7d 3c 62 74 ee 3d
       -0.1408297 -0.006766138 0.015494359 0.11643292
000330 19 f8 ef 3d 82 54 a6 be 77 fc e1 3c 91 99 71 3d
       0.11717243 -0.3248635 0.027586205 0.058984343
000340 86 f1 57 bd 62 fc 8a 3c 54 d1 8a 3d 35 21 37 be
       -0.05272057 0.016966049 0.067782074 -0.17883761
000350 fa 7c 46 3c c7 a0 b9 bd ff a2 be 3c c4 25 82 3d
       0.012114758 -0.09063869 0.023271082 0.063548595
000360 db 4a 9f 3d 54 e0 04 bd 32 96 2b 3d f4 2c a5 bc
       0.077779494 -0.0324405 0.041891284 -0.020163037
000370 1c 81 1e bd a6 dc f1 3d 5e e6 95 bd 3c 32 28 ba
       -0.038697347 0.118096635 -0.0731933 -0.0006416177
000380 21 49 bf bc 5d 98 48 3d 61 2c 49 3d fe 83 1d 3d
       -0.0233503 0.04897343 0.04911459 0.038455956
000390 63 62 20 3e c6 c9 92 bd 70 d0 e6 bc 63 e6 05 3e
       0.15662532 -0.071673915 -0.028175563 0.13076167
0003a0 28 5b 5e bd 4d 18 09 bd 67 ed 02 be 01 b0 c7 bd
       -0.054286152 -0.03347044 -0.12785874 -0.09750367
0003b0 48 31 14 be d8 1c 8a bd f0 32 87 3e 5d 27 4c 3a
       -0.14471924 -0.06743783 0.2640605 0.0007787848
0003c0 fe 6d 96 3c a7 bb a0 39 95 3a 94 bb 3d 31 09 bd
       0.018362995 0.0003065739 -0.004523585 -0.033494223
0003d0 0e d7 3f 3e e3 43 80 bc ea 0d 8b 3d c2 fc 1a be
       0.1873438 -0.01565737 0.06789763 -0.15135482
0003e0 ba af f1 3c 20 71 0c bc d8 2c 08 be 40 ff f3 bb
       0.029502738 -0.008571893 -0.13298357 -0.0074461997
0003f0 ad d6 39 3c a4 a7 26 3d 3f 80 ca 3d 20 6d bc bc
       0.011342687 0.04068722 0.09887742 -0.023001254

layer_list.conv1.lin_dst.weight f4 [64, 1433]
000000 2b c7 1a 3d 0b 16 5e 3d 89 c8 a7 3d db 90 9f bd
       0.037787598 0.05422024 0.08192546 -0.07791301
000010 9c 67 b0 3e d6 65 bf bc 7c 34 2d be cb 35 a5 3d
       0.34454048 -0.023363989 -0.16914552 0.08066901
000020 4c b6 8a 3d 14 95 c6 3b ee c0 6b 3d 24 15 c3 bc
       0.067730516 0.006060252 0.05755704 -0.023813792
000030 1b 7f f6 bd ef 7b b8 3d 15 d7 11 3d 18 e1 fd ba
       -0.12035962 0.090080135 0.03560551 -0.0019369451
000040 1b 54 65 3d d9 4c bb 3b cd cb 29 3b 74 66 b2 3e
       0.055988412 0.005715948 0.0025908828 0.3484379
000050 ab b5 16 3b 4c ea d3 3c 4d f1 4d 3b e0 9f c1 3b
       0.0022996466 0.025868557 0.0031424344 0.005908951
000060 69 7a ef bc bb ca 19 3d a2 f3 ae bd c1 f6 10 bd
       -0.029233174 0.037546854 -0.08542563 -0.035391573
000070 a7 92 14 3d 7d 7a 2d be f4 90 45 bd 46 f0 22 bc
       0.03627267 -0.16941257 -0.04823394 -0.009944981
000080 7f e2 41 bc a3 34 14 3b f3 62 59 3d 71 42 a0 3d
       -0.011833786 0.0022614382 0.05307288 0.07825173
000090 c6 bb 61 3d c0 ba 15 bd 12 1c 5f 3e ff 7f 1f 3e
       0.055110715 -0.03655505 0.21788052 0.1557617
0000a0 bc 28 ee 3d 5c 9d 64 3d 12 c1 ee bc 51 18 1f bc
       0.11628863 0.055814132 -0.029144797 -0.009710387
0000b0 5c 83 81 3d 0b bd 0e 3d 81 d9 4c bd 08 2a 99 3d
       0.06323883 0.034848254 -0.050012115 0.0747872
0000c0 d9 76 95 3d 61 8d c5 bd 3d 84 92 bd 6e d5 88 3e
       0.07298059 -0.096461065 -0.07154129 0.26725334
0000d0 26 53 2a be e9 78 f2 3b 3a 32 95 bc 8a ec d4 bc
       -0.16633281 0.0073996675 -0.018212426 -0.025991697
0000e0 e9 9c 7f be 01 15 b6 bc a0 c1 4f 3e 51 e6 f1 3c
       -0.249622 -0.022226812 0.20288706 0.029528769
0000f0 bb 2c f9 3b 11 32 f2 3b 04 d9 98 bd a8 b3 d2 bd
       0.0076042092 0.0073912223 -0.074632674 -0.10288173
000100 d9 6b be bc ad 48 ec 3d 60 dd b3 bb cd 87 71 3e
       -0.023244785 0.11537299 -0.0054890364 0.2358696
000110 d1 ef 15 3c 2f 13 03 3d d7 36 0c be 3e 10 18 3c
       0.009151415 0.032000717 -0.13692795 0.009281216
000120 c4 4f 18 3b 0c f8 6b 3d d5 e3 9a bd 90 04 79 3d
       0.0023240903 0.057609603 -0.07562987 0.060795367
000130 1e 20 2d ba fb 8c 0d bd c6 25 30 3e 69 22 9c bc
       -0.0006604212 -0.034558278 0.1720191 -0.019059377
000140 7e 92 2f 3d 8f 63 f8 3c 8f 95 f9 3d 56 cb 28 bd
       0.042864315 0.03032091 0.12186729 -0.04120954
000150 62 d1 38 3b 3e df d9 3d 99 f6 7c 3d c1 be f6 3d
       0.0028200974 0.10638283 0.06175861 0.12048102
000160 71 21 49 bd f4 fd 58 bd 87 91 d1 3c 38 75 37 bd
       -0.049104158 -0.052976564 0.025582088 -0.044789523
000170 c5 63 e2 bd 9c f8 24 3e 57 a2 5a 3a 1e 05 0e 3d
       -0.11054186 0.16110462 0.00083402306 0.03467285
000180 fd a7 02 bc 74 23 ce 3d d4 2a 2a bd 23 ef 0c be
       -0.007974622 0.10065356 -0.04154475 -0.13763098
000190 5d 64 d0 3d 44 0a 98 ba 85 ab 1e bd 95 cb 7a bd
       0.10175393 -0.0011599739 -0.038737793 -0.061229307
0001a0 0c 9f 2a be b2 b1 20 ba 59 92 14 bc 92 29 c2 3b
       -0.16662234 -0.0006129994 -0.009068095 0.0059253657
0001b0 a2 ce 56 bd 34 da c6 bc e5 65 34 bd c6 6b 54 3d
       -0.052443154 -0.02427397 -0.044042487 0.051860593
0001c0 9b 80 29 bd 27 d0 9f ba 8d c7 c8 bc aa 46 4a bc
       -0.041382413 -0.0012192772 -0.024509216 -0.012345949
0001d0 1e a6 09 bd 1d 7c 11 3c a1 30 37 be 34 fd d3 3d
       -0.033605687 0.008879689 -0.17889644 0.10351029
0001e0 59 54 f1 bc d6 a3 1f be 19 14 e0 bd 1b fd 25 bd
       -0.029459165 -0.15589842 -0.10941333 -0.040524583
0001f0 bc 8a a2 3c cc 54 3d 3d 9f 5f 39 be 0f 4d d6 3d
       0.019841544 0.046223447 -0.18102883 0.104639165
000200 20 d6 89 3d 43 14 13 3d 2b d4 98 bd b9 4a 07 bd
       0.06730294 0.035907995 -0.07462343 -0.033030245
000210 e9 33 57 be 47 01 21 bd f5 79 b9 3b 0c 0d d0 bc
       -0.21015896 -0.03930786 0.0056602904 -0.025396846
000220 92 c3 a7 3c 28 56 83 bd 90 d6 51 bd b7 8b 6e bd
       0.020478997 -0.064129174 -0.051230013 -0.05823871
000230 d0 fc 57 be 64 40 87 bd ed 54 d1 bc 75 8b 8b bc
       -0.21092534 -0.066040784 -0.025553191 -0.017034272
000240 2e 36 01 be 46 bb 3a 3d 86 b5 20 3e 40 69 bf bd
       -0.12618324 0.045588754 0.15694246 -0.09346247
000250 a6 1d 77 bc 2b b5 db 3d 8f 3f 28 3c d2 ae 16 3e
       -0.015082752 0.107279144 0.01026906 0.14715126
000260 7a d7 8a 3d 8a a1 9b 3d 3c a3 2b bd 5c 94 1e bc
       0.0677938 0.075991705 -0.04190372 -0.009678926
000270 a9 93 45 bd e7 74 b7 3c 06 09 89 bd 43 33 e5 bc
       -0.048236523 0.02239461 -0.06691174 -0.027978545
000280 79 a3 64 3c b0 d0 47 bc 58 18 24 3c 40 44 cc bd
       0.013954991 -0.012195751 0.01001557 -0.09973955
000290 5c 84 29 bd 29 6c 27 bd c5 4c 48 3e b4 79 31 3c
       -0.041385993 -0.040874634 0.19560535 0.010832239
0002a0 79 85 69 3e b9 1e 13 3e 93 2a f4 bc e4 4b 05 3d
       0.22804822 0.14367189 -0.029805457 0.032543078
0002b0 2d 7b 25 bd ec eb 04 3e e7 9a 17 3c 3a 45 b9 3d
       -0.040400673 0.12980622 0.00925324 0.09046407
0002c0 9a 8d dc 3d ac 8b 62 bc d9 1f b1 3b de 79 f8 bd
       0.10769196 -0.013827246 0.005405408 -0.12132619
0002d0 ef ae b3 3a 68 ec b0 bb d9 a0 78 bc d5 dc d6 3c
       0.001370875 -0.0053992756 -0.015175068 0.026228348
0002e0 27 8e 06 be fe 58 36 bc db c7 b7 bc d5 ee 57 3d
       -0.13140164 -0.011129616 -0.022434166 0.052718002
0002f0 2f 82 02 bc 86 05 93 bc 45 f6 a6 bc de f8 cc bd
       -0.0079656085 -0.01794697 -0.020381102 -0.10008405
000300 0e 50 f3 bd 95 69 77 3d 8d 34 fb bd 4d 7d 9f 3d
       -0.118805036 0.060403425 -0.12265883 0.07787571
000310 c3 a3 53 3e 4c 59 ac 3d e9 6d 45 3d d7 64 04 3e
       0.20667939 0.084154695 0.04820052 0.12929092
000320 a9 35 10 be 7b b6 dd bb 0d dc 7d 3c 62 74 ee 3d
       -0.1408297 -0.006766138 0.015494359 0.11643292
000330 19 f8 ef 3d 82 54 a6 be 77 fc e1 3c 91 99 71 3d
       0.11717243 -0.3248635 0.027586205 0.058984343
000340 86 f1 57 bd 62 fc 8a 3c 54 d1 8a 3d 35 21 37 be
       -0.05272057 0.016966049 0.067782074 -0.17883761
000350 fa 7c 46 3c c7 a0 b9 bd ff a2 be 3c c4 25 82 3d
       0.012114758 -0.09063869 0.023271082 0.063548595
000360 db 4a 9f 3d 54 e0 04 bd 32 96 2b 3d f4 2c a5 bc
       0.077779494 -0.0324405 0.041891284 -0.020163037
000370 1c 81 1e bd a6 dc f1 3d 5e e6 95 bd 3c 32 28 ba
       -0.038697347 0.118096635 -0.0731933 -0.0006416177
000380 21 49 bf bc 5d 98 48 3d 61 2c 49 3d fe 83 1d 3d
       -0.0233503 0.04897343 0.04911459 0.038455956
000390 63 62 20 3e c6 c9 92 bd 70 d0 e6 bc 63 e6 05 3e
       0.15662532 -0.071673915 -0.028175563 0.13076167
0003a0 28 5b 5e bd 4d 18 09 bd 67 ed 02 be 01 b0 c7 bd
       -0.054286152 -0.03347044 -0.12785874 -0.09750367
0003b0 48 31 14 be d8 1c 8a bd f0 32 87 3e 5d 27 4c 3a
       -0.14471924 -0.06743783 0.2640605 0.0007787848
0003c0 fe 6d 96 3c a7 bb a0 39 95 3a 94 bb 3d 31 09 bd
       0.018362995 0.0003065739 -0.004523585 -0.033494223
0003d0 0e d7 3f 3e e3 43 80 bc ea 0d 8b 3d c2 fc 1a be
       0.1873438 -0.01565737 0.06789763 -0.15135482
0003e0 ba af f1 3c 20 71 0c bc d8 2c 08 be 40 ff f3 bb
       0.029502738 -0.008571893 -0.13298357 -0.0074461997
0003f0 ad d6 39 3c a4 a7 26 3d 3f 80 ca 3d 20 6d bc bc
       0.011342687 0.04068722 0.09887742 -0.023001254

layer_list.conv2.att_src f4 [1, 1, 7]
000000 46 b9 13 bd ce fc 51 3d e7 48 3f bc 06 d3 ea ba
       -0.036065362 0.051266484 -0.011675096 -0.0017915673
000010 71 3b 62 bd 0c ac e0 3d f0 5a 1d 3d
       -0.05523247 0.10970315 0.038416803

layer_list.conv2.att_dst f4 [1, 1, 7]
000000 9e 5e f8 bd ec e9 b2 3e 37 97 b1 3e 7f a8 3c be
       -0.12127422 0.34944093 0.3468568 -0.18423651
000010 55 7e 66 be 86 0f d6 bc 69 7b 13 3f
       -0.2250913 -0.026130449 0.57610184

layer_list.conv2.bias f4 [7]
000000 dc c5 49 be ab a4 10 bf a0 46 ee bc 58 a3 27 3f
       -0.19704384 -0.56501263 -0.029086411 0.6548362
000010 e8 b2 33 bd d6 2e 9a be fc b3 21 bf
       -0.04387179 -0.30113858 -0.6316526

layer_list.conv2.lin_src.weight f4 [7, 64]
000000 c5 33 bd bf 33 38 ae 3f 67 9c 15 bf c6 cf 5b 3f
       -1.4781424 1.3610901 -0.58441776 0.8586391
000010 ae 41 93 bf cd 2d 93 3d 1d d4 6e 3e 5a bd 95 3f
       -1.1504419 0.0718647 0.23323102 1.169841
000020 f0 94 73 3f 39 0e c1 bf 8b 1f 2a 3f 16 9b ba 3f
       0.95149136 -1.5082465 0.6645438 1.4578578
000030 5f bd 81 3f d1 37 24 bf 8e a9 45 3f af 43 dd 3d
       1.0135916 -0.6414767 0.77211845 0.10803925
000040 6b 95 5a 3f bb 40 72 3f 2d 5a 03 3f 1c 38 18 3f
       0.85384244 0.9463002 0.5130947 0.59460616
000050 92 a7 61 3f d6 9e b0 3e 12 b2 8e 3f 7c 22 33 3f
       0.88146317 0.34496182 1.1148093 0.69974494
000060 0f 64 9b bf 45 07 62 bf e5 53 97 3f cf 75 a0 bf
       -1.213991 -0.8829234 1.1822478 -1.2535952
000070 42 2d fe be 8a d1 86 bf ad d0 97 3f da 4f 75 bf
       -0.49643904 -1.0532696 1.1860558 -0.9582497
000080 b4 36 2e 3f 41 87 85 bf f1 17 83 bf ca 8b 39 bf
       0.6805222 -1.0431901 -1.0241681 -0.72478926
000090 65 25 21 3f 70 ec 4e bf 0f a4 a6 bf e0 42 8c bf
       0.62947685 -0.80829525 -1.3018817 -1.0957909
0000a0 1e e4 91 3f c4 2b 78 3f 7b 68 8e bf 60 a2 8b bf
       1.1397741 0.9694178 -1.1125635 -1.0908928
0000b0 d8 02 9a 3f ad 65 ce bf ea 90 98 bf 0e e7 80 3f
       1.2032118 -1.6124779 -1.1919224 1.0070512
0000c0 5b 3a 85 bf 10 5c 94 bf 8a 9d 8f 3f 56 6f a8 3f
       -1.0408434 -1.1590595 1.1219952 1.3158977
0000d0 55 08 8e bf a0 6c 14 be 4a 3c 97 3e 4d b9 a8 bf
       -1.1096293 -0.14494562 0.29538184 -1.3181549
0000e0 d2 68 99 3f 83 ed 5f bf 32 37 a1 bf d4 f1 9a 3f
       1.1985114 -0.8747179 -1.2594969 1.210505
0000f0 df b7 9c 3f 88 06 99 bf da 01 cc 3f be 1e ae 3f
       1.2243613 -1.1955118 1.5938065 1.3603132
000100 08 f1 a0 3f 7d de be 3e d4 aa ab 3f 9b cb 4f bf
       1.2573557 0.3727912 1.3411508 -0.8117005
000110 97 e7 a0 bf 7f f2 95 bf d0 fd ac bf cd f9 55 bf
       -1.2570676 -1.1714629 -1.3514957 -0.8358429
000120 ed 8e db 3e a9 0f a0 3f 89 7f 9a 3f 79 9f 73 3d
       0.4288248 1.2504779 1.2070171 0.059478257
000130 27 78 7d be 2e 3b 53 bf d6 33 a6 3f ee 7c c8 bf
       -0.24752866 -0.82512176 1.2984569 -1.5663126
000140 18 96 78 bf 57 07 7f bf 3b 99 95 bf a6 ad 66 3f
       -0.97104025 -0.99620575 -1.1687387 0.90108716
000150 c8 d8 0b bf 9c e6 c9 3f db e8 bb 3f 23 9b 94 bf
       -0.54627657 1.5773501 1.4680437 -1.1609844
000160 d6 20 c1 bf bc ae cd 3f 17 84 9f 3f bf ea 89 bf
       -1.5088146 1.606895 1.2462186 -1.0774764
000170 8d df b4 3f cb 0c 9f be 98 16 ad bf 9a ed 58 bf
       1.4130722 -0.31064448 -1.352252 -0.8473755
000180 27 df 42 3f af bc 88 3f 2d 10 7f bf a0 ae d6 3f
       0.76121753 1.0682582 -0.9963406 1.6772041
000190 a8 b1 e6 3e ba 19 9e bf ab a0 d3 3f d0 76 8b 3e
       0.45057416 -1.2351601 1.6533407 0.27239084
0001a0 8d c5 84 bf c8 e8 b0 bf 4e 9d b5 bf 32 69 66 3f
       -1.0372788 -1.3821039 -1.418863 0.90004265
0001b0 45 93 7d bf 04 68 b1 3f 02 f3 fd 3d ac e2 75 bf
       -0.9905284 1.3859868 0.12399866 -0.96049
0001c0 a9 89 8e bf c0 c8 52 bf e1 e0 03 3f 1c 41 bc bf
       -1.113576 -0.8233757 0.5151501 -1.470737
0001d0 ff 77 bd 3f 07 27 bb 3e 1a 8b 7a bf f7 be da be
       1.4802245 0.36553213 -0.978685 -0.4272382
0001e0 c6 c7 ab bf 6f 7d 83 bf 87 69 62 3f 16 3a a3 3f
       -1.3420341 -1.0272654 0.8844227 1.2752101
0001f0 cb d5 a3 bd 05 e1 f0 3d 7a 3e 70 bf 89 67 da be
       -0.07999762 0.11761669 -0.9384533 -0.42657116
000200 79 88 8b bf ff 43 73 bf c1 5a 84 bf 1a a9 69 bf
       -1.0901023 -0.9502563 -1.0340196 -0.91273654
000210 e9 b5 90 bf a5 aa cb be f2 cb 72 bf 18 91 94 3f
       -1.1305515 -0.3977863 -0.94842446 1.1606779
000220 a4 e9 9d bf c8 70 8f 3f f6 cc 91 bf f5 fb 99 3f
       -1.2336926 1.1206293 -1.1390674 1.2030016
000230 05 a3 3e 3f 77 3a 8e 3f bc 44 88 3f 01 80 79 3f
       0.744675 1.1111592 1.0645976 0.97460943
000240 b3 c3 5f 3f 88 42 6a bf 33 f2 8b 3f 4c 87 81 bf
       0.8740799 -0.9150777 1.0933288 -1.0119414
000250 46 85 a2 bf cc 2e 95 bf 25 c5 84 3f a2 9b 0b bf
       -1.2696922 -1.1654906 1.0372664 -0.5453435
000260 fb 5a 8f bf d6 79 96 3f ee 36 a0 bf 78 0b 81 3f
       -1.119964 1.1755931 -1.2516763 1.0081625
000270 39 04 92 bf 2f 87 a7 3f 1b 85 98 bf bd 69 98 3f
       -1.1407539 1.308813 -1.191562 1.1907269
000280 7e cf 74 bf 07 56 77 3f 7c 21 a2 3f 4c 0c 85 3f
       -0.9562911 0.9661564 1.2666469 1.0394378
000290 42 8a 85 bf 3d 32 89 3f 9e 18 8a 3f 39 8e 6e 3f
       -1.0432818 1.0718457 1.0788763 0.93185765
0002a0 f2 60 83 3f a2 09 97 bf d7 e4 9c bf 6e 52 9c bf
       1.026396 -1.1799815 -1.2257336 -1.2212656
0002b0 d5 f2 8f bf 6b 07 86 3f a9 35 77 bf cc 35 3c 3f
       -1.1245981 1.0471014 -0.96566254 0.7351959
0002c0 e6 e4 94 3f 44 3a 37 be 13 15 99 bf ff d4 92 bf
       1.1632354 -0.1789332 -1.1959556 -1.1471251
0002d0 4e ea 8d bf 64 de 5d 3f 1f 20 87 bf 1b 2c 8c 3f
       -1.1087129 0.86667466 -1.0556678 1.095096
0002e0 a1 bc 99 bf fe ab 35 bf 74 fe 8c 3f fd 76 59 3f
       -1.201069 -0.70965564 1.1015153 0.84947187
0002f0 34 60 86 bf 28 d9 0b 3f f9 89 9e 3f aa f1 14 3f
       -1.0498109 0.5462823 1.2385856 0.5818125
000300 19 54 52 3f 7f 04 a0 bf 9b 03 a0 bf 61 e8 40 bf
       0.8215957 -1.2501372 -1.25011 -0.7535458
000310 0d 9e db 3e fc 6e 6d 3f 95 76 6a 3f 20 2d 97 bf
       0.4289402 0.92747474 0.9158719 -1.1810646
000320 af 8d 96 3f a3 1b 22 bf aa 1e 86 bf 19 95 b5 bf
       1.1761988 -0.6332342 -1.0478108 -1.4186126
000330 2d 93 5c bf 20 fb 43 3f d8 33 6a bf e4 df 93 3f
       -0.8616207 0.7655506 -0.9148536 1.1552701
000340 8a 69 06 3f f1 8a 6b bf 79 3a 86 bf d8 22 5f 3f
       0.5250479 -0.9200888 -1.0486594 0.8716254
000350 58 65 98 bf 93 4e 87 bf 5c 45 86 bf 43 47 89 3f
       -1.1905928 -1.0570854 -1.0489917 1.0724872
000360 dd 69 b2 3f 3d 4c 96 bf 72 b4 32 3f 74 31 95 bf
       1.3938557 -1.1742016 0.6980659 -1.1655717
000370 1d e2 29 3f d8 94 8b 3f 2c 14 9b bf 82 ce 4a 3f
       0.66360646 1.0904799 -1.2115531 0.79221356
000380 83 12 45 bf 0e 92 08 bf 47 1f 9e 3f 70 30 ab bf
       -0.7698137 -0.5334786 1.2353295 -1.3374157
000390 ac 7b 80 3f 7d a3 a6 bf 91 96 25 bf 57 02 a0 bf
       1.0037742 -1.3018643 -0.6468287 -1.2500714
0003a0 c5 85 9d bf 5f 8e b5 3e f0 0e a4 3f 16 67 40 3f
       -1.2306448 0.35460183 1.2817059 0.75157297
0003b0 b3 df 89 3f 6e 98 a9 3f d6 c3 90 bd 8b 9e 96 bf
       1.0771393 1.3249643 -0.07068603 -1.1767133
0003c0 2f 8d 77 3f 72 cd 99 3f 04 14 67 bf ad 8c d3 be
       0.96699804 1.2015822 -0.90264916 -0.41318265
0003d0 27 91 51 bf 50 5a 59 3f c3 6b 85 bf d1 6c a3 3f
       -0.8186211 0.8490343 -1.0423511 1.2767583
0003e0 d8 8b 84 3e 2a 9b 8c 3f a6 57 a1 bf 41 2d 57 3f
       0.25887942 1.0984852 -1.2604873 0.84053427
0003f0 b3 d8 a5 3f bd ec 97 3f 7d a1 3b bf 08 57 63 3f
       1.2956756 1.1869122 -0.73293287 0.88804674

layer_list.conv2.lin_dst.weight f4 [7, 64]
000000 c5 33 bd bf 33 38 ae 3f 67 9c 15 bf c6 cf 5b 3f
       -1.4781424 1.3610901 -0.58441776 0.8586391
000010 ae 41 93 bf cd 2d 93 3d 1d d4 6e 3e 5a bd 95 3f
       -1.1504419 0.0718647 0.23323102 1.169841
000020 f0 94 73 3f 39 0e c1 bf 8b 1f 2a 3f 16 9b ba 3f
       0.95149136 -1.5082465 0.6645438 1.4578578
000030 5f bd 81 3f d1 37 24 bf 8e a9 45 3f af 43 dd 3d
       1.0135916 -0.6414767 0.77211845 0.10803925
000040 6b 95 5a 3f bb 40 72 3f 2d 5a 03 3f 1c 38 18 3f
       0.85384244 0.9463002 0.5130947 0.59460616
000050 92 a7 61 3f d6 9e b0 3e 12 b2 8e 3f 7c 22 33 3f
       0.88146317 0.34496182 1.1148093 0.69974494
000060 0f 64 9b bf 45 07 62 bf e5 53 97 3f cf 75 a0 bf
       -1.213991 -0.8829234 1.1822478 -1.2535952
000070 42 2d fe be 8a d1 86 bf ad d0 97 3f da 4f 75 bf
       -0.49643904 -1.0532696 1.1860558 -0.9582497
000080 b4 36 2e 3f 41 87 85 bf f1 17 83 bf ca 8b 39 bf
       0.6805222 -1.0431901 -1.0241681 -0.72478926
000090 65 25 21 3f 70 ec 4e bf 0f a4 a6 bf e0 42 8c bf
       0.62947685 -0.80829525 -1.3018817 -1.0957909
0000a0 1e e4 91 3f c4 2b 78 3f 7b 68 8e bf 60 a2 8b bf
       1.1397741 0.9694178 -1.1125635 -1.0908928
0000b0 d8 02 9a 3f ad 65 ce bf ea 90 98 bf 0e e7 80 3f
       1.2032118 -1.6124779 -1.1919224 1.0070512
0000c0 5b 3a 85 bf 10 5c 94 bf 8a 9d 8f 3f 56 6f a8 3f
       -1.0408434 -1.1590595 1.1219952 1.3158977
0000d0 55 08 8e bf a0 6c 14 be 4a 3c 97 3e 4d b9 a8 bf
       -1.1096293 -0.14494562 0.29538184 -1.3181549
0000e0 d2 68 99 3f 83 ed 5f bf 32 37 a1 bf d4 f1 9a 3f
       1.1985114 -0.8747179 -1.2594969 1.210505
0000f0 df b7 9c 3f 88 06 99 bf da 01 cc 3f be 1e ae 3f
       1.2243613 -1.1955118 1.5938065 1.3603132
000100 08 f1 a0 3f 7d de be 3e d4 aa ab 3f 9b cb 4f bf
       1.2573557 0.3727912 1.3411508 -0.8117005
000110 97 e7 a0 bf 7f f2 95 bf d0 fd ac bf cd f9 55 bf
       -1.2570676 -1.1714629 -1.3514957 -0.8358429
000120 ed 8e db 3e a9 0f a0 3f 89 7f 9a 3f 79 9f 73 3d
       0.4288248 1.2504779 1.2070171 0.059478257
000130 27 78 7d be 2e 3b 53 bf d6 33 a6 3f ee 7c c8 bf
       -0.24752866 -0.82512176 1.2984569 -1.5663126
000140 18 96 78 bf 57 07 7f bf 3b 99 95 bf a6 ad 66 3f
       -0.97104025 -0.99620575 -1.1687387 0.90108716
000150 c8 d8 0b bf 9c e6 c9 3f db e8 bb 3f 23 9b 94 bf
       -0.54627657 1.5773501 1.4680437 -1.1609844
000160 d6 20 c1 bf bc ae cd 3f 17 84 9f 3f bf ea 89 bf
       -1.5088146 1.606895 1.2462186 -1.0774764
000170 8d df b4 3f cb 0c 9f be 98 16 ad bf 9a ed 58 bf
       1.4130722 -0.31064448 -1.352252 -0.8473755
000180 27 df 42 3f af bc 88 3f 2d 10 7f bf a0 ae d6 3f
       0.76121753 1.0682582 -0.9963406 1.6772041
000190 a8 b1 e6 3e ba 19 9e bf ab a0 d3 3f d0 76 8b 3e
       0.45057416 -1.2351601 1.6533407 0.27239084
0001a0 8d c5 84 bf c8 e8 b0 bf 4e 9d b5 bf 32 69 66 3f
       -1.0372788 -1.3821039 -1.418863 0.90004265
0001b0 45 93 7d bf 04 68 b1 3f 02 f3 fd 3d ac e2 75 bf
       -0.9905284 1.3859868 0.12399866 -0.96049
0001c0 a9 89 8e bf c0 c8 52 bf e1 e0 03 3f 1c 41 bc bf
       -1.113576 -0.8233757 0.5151501 -1.470737
0001d0 ff 77 bd 3f 07 27 bb 3e 1a 8b 7a bf f7 be da be
       1.4802245 0.36553213 -0.978685 -0.4272382
0001e0 c6 c7 ab bf 6f 7d 83 bf 87 69 62 3f 16 3a a3 3f
       -1.3420341 -1.0272654 0.8844227 1.2752101
0001f0 cb d5 a3 bd 05 e1 f0 3d 7a 3e 70 bf 89 67 da be
       -0.07999762 0.11761669 -0.9384533 -0.42657116
000200 79 88 8b bf ff 43 73 bf c1 5a 84 bf 1a a9 69 bf
       -1.0901023 -0.9502563 -1.0340196 -0.91273654
000210 e9 b5 90 bf a5 aa cb be f2 cb 72 bf 18 91 94 3f
       -1.1305515 -0.3977863 -0.94842446 1.1606779
000220 a4 e9 9d bf c8 70 8f 3f f6 cc 91 bf f5 fb 99 3f
       -1.2336926 1.1206293 -1.1390674 1.2030016
000230 05 a3 3e 3f 77 3a 8e 3f bc 44 88 3f 01 80 79 3f
       0.744675 1.1111592 1.0645976 0.97460943
000240 b3 c3 5f 3f 88 42 6a bf 33 f2 8b 3f 4c 87 81 bf
       0.8740799 -0.9150777 1.0933288 -1.0119414
000250 46 85 a2 bf cc 2e 95 bf 25 c5 84 3f a2 9b 0b bf
       -1.2696922 -1.1654906 1.0372664 -0.5453435
000260 fb 5a 8f bf d6 79 96 3f ee 36 a0 bf 78 0b 81 3f
       -1.119964 1.1755931 -1.2516763 1.0081625
000270 39 04 92 bf 2f 87 a7 3f 1b 85 98 bf bd 69 98 3f
       -1.1407539 1.308813 -1.191562 1.1907269
000280 7e cf 74 bf 07 56 77 3f 7c 21 a2 3f 4c 0c 85 3f
       -0.9562911 0.9661564 1.2666469 1.0394378
000290 42 8a 85 bf 3d 32 89 3f 9e 18 8a 3f 39 8e 6e 3f
       -1.0432818 1.0718457 1.0788763 0.93185765
0002a0 f2 60 83 3f a2 09 97 bf d7 e4 9c bf 6e 52 9c bf
       1.026396 -1.1799815 -1.2257336 -1.2212656
0002b0 d5 f2 8f bf 6b 07 86 3f a9 35 77 bf cc 35 3c 3f
       -1.1245981 1.0471014 -0.96566254 0.7351959
0002c0 e6 e4 94 3f 44 3a 37 be 13 15 99 bf ff d4 92 bf
       1.1632354 -0.1789332 -1.1959556 -1.1471251
0002d0 4e ea 8d bf 64 de 5d 3f 1f 20 87 bf 1b 2c 8c 3f
       -1.1087129 0.86667466 -1.0556678 1.095096
0002e0 a1 bc 99 bf fe ab 35 bf 74 fe 8c 3f fd 76 59 3f
       -1.201069 -0.70965564 1.1015153 0.84947187
0002f0 34 60 86 bf 28 d9 0b 3f f9 89 9e 3f aa f1 14 3f
       -1.0498109 0.5462823 1.2385856 0.5818125
000300 19 54 52 3f 7f 04 a0 bf 9b 03 a0 bf 61 e8 40 bf
       0.8215957 -1.2501372 -1.25011 -0.7535458
000310 0d 9e db 3e fc 6e 6d 3f 95 76 6a 3f 20 2d 97 bf
       0.4289402 0.92747474 0.9158719 -1.1810646
000320 af 8d 96 3f a3 1b 22 bf aa 1e 86 bf 19 95 b5 bf
       1.1761988 -0.6332342 -1.0478108 -1.4186126
000330 2d 93 5c bf 20 fb 43 3f d8 33 6a bf e4 df 93 3f
       -0.8616207 0.7655506 -0.9148536 1.1552701
000340 8a 69 06 3f f1 8a 6b bf 79 3a 86 bf d8 22 5f 3f
       0.5250479 -0.9200888 -1.0486594 0.8716254
000350 58 65 98 bf 93 4e 87 bf 5c 45 86 bf 43 47 89 3f
       -1.1905928 -1.0570854 -1.0489917 1.0724872
000360 dd 69 b2 3f 3d 4c 96 bf 72 b4 32 3f 74 31 95 bf
       1.3938557 -1.1742016 0.6980659 -1.1655717
000370 1d e2 29 3f d8 94 8b 3f 2c 14 9b bf 82 ce 4a 3f
       0.66360646 1.0904799 -1.2115531 0.79221356
000380 83 12 45 bf 0e 92 08 bf 47 1f 9e 3f 70 30 ab bf
       -0.7698137 -0.5334786 1.2353295 -1.3374157
000390 ac 7b 80 3f 7d a3 a6 bf 91 96 25 bf 57 02 a0 bf
       1.0037742 -1.3018643 -0.6468287 -1.2500714
0003a0 c5 85 9d bf 5f 8e b5 3e f0 0e a4 3f 16 67 40 3f
       -1.2306448 0.35460183 1.2817059 0.75157297
0003b0 b3 df 89 3f 6e 98 a9 3f d6 c3 90 bd 8b 9e 96 bf
       1.0771393 1.3249643 -0.07068603 -1.1767133
0003c0 2f 8d 77 3f 72 cd 99 3f 04 14 67 bf ad 8c d3 be
       0.96699804 1.2015822 -0.90264916 -0.41318265
0003d0 27 91 51 bf 50 5a 59 3f c3 6b 85 bf d1 6c a3 3f
       -0.8186211 0.8490343 -1.0423511 1.2767583
0003e0 d8 8b 84 3e 2a 9b 8c 3f a6 57 a1 bf 41 2d 57 3f
       0.25887942 1.0984852 -1.2604873 0.84053427
0003f0 b3 d8 a5 3f bd ec 97 3f 7d a1 3b bf 08 57 63 3f
       1.2956756 1.1869122 -0.73293287 0.88804674
