vanilla_models/Cora/5_3f_85/split2/init0/GAT_dp0_5_5e_4_f0.pt (torch, 372919 bytes, 10 tensors)

layer_list.conv1.att_src f4 [1, 8, 8]
0.6799309 -0.71317476 -0.32789928 -0.3689359 0.51822037 -0.083137505 0.61099964 -0.63632566
0.5333158 0.7841941 0.5585827 -0.7366922 -0.15027682 0.5534304 -0.65402997 0.5315998
0.064203724 0.3133368 -0.71097565 -0.30376187 0.6645335 -0.3217312 -0.71588486 -0.28922325
-0.4177812 -0.824902 0.5837887 -1.0835243 0.07075199 0.014727769 -0.41266832 -0.23762575
-0.8178287 -0.3364511 -0.27169186 0.30921936 -0.30729353 0.7497496 0.024873959 -0.111358896
0.196436 -0.06020394 0.3708672 -0.5750715 -0.2279137 0.10827574 0.48356587 -0.1606356
0.8810617 0.5856789 0.30217308 -0.5812571 0.19599082 0.4836888 -0.21160837 -0.22015382
-0.89263546 0.14769937 -0.57888407 -0.60513645 -0.029388804 0.8238426 0.6323163 -0.6085371
00000000: f40f 2e3f 9f92 36bf 6ae2 a7be 2be5 bcbe
00000010: 17aa 043f ff43 aabd 796a 1c3f 3de6 22bf
00000020: 6287 083f f2c0 483f 47ff 0e3f dc97 3cbf
00000030: 2be2 19be 9dad 0d3f 826e 27bf ed16 083f
00000040: 3e7d 833d ae6d a03e 8002 36bf ad86 9bbe
00000050: de1e 2a3f f4b9 a4be 3b44 37bf 1215 94be
00000060: 6be7 d5be c72c 53bf 2d73 153f edb0 8abf
00000070: 6be6 903d be4c 713c 4349 d3be 2a54 73be
00000080: 395d 51bf 5243 acbe 321b 8bbe 0052 9e3e
00000090: 9455 9dbe 97ef 3f3f 79c4 cb3c 2210 e4bd
000000a0: 8526 493e 6898 76bd 4ee2 bd3e e337 13bf
000000b0: 3562 69be acbf dd3d f295 f73e a97d 24be
000000c0: 428d 613f 0def 153f 6eb6 9a3e 44cd 14bf
000000d0: d1b1 483e 0fa6 f73e ddaf 58be 0170 61be
000000e0: c283 64bf 813e 173e bf31 14bf 39ea 1abf
000000f0: cac0 f0bc 59e7 523f 7bdf 213f 16c9 1bbf

layer_list.conv1.att_dst f4 [1, 8, 8]
0.14179023 -0.23695272 -0.10607461 -0.08369764 0.14388177 -0.040377807 0.24510129 -0.18478501
0.09905952 0.2106069 0.1835808 -0.20986083 0.026300969 0.22861733 -0.22007522 0.20605993
0.21168914 0.072503276 0.0337146 0.047143515 0.15108508 -0.0039494336 -0.15507117 0.07496602
-0.16525236 -0.081665605 0.12657377 -0.22206469 -0.09208315 -0.039732486 -0.0015477684 -0.0444996
-0.2126424 -0.0049541774 -0.034927044 0.17889714 -0.13425905 0.15791202 -0.007790139 -0.120401375
0.09176461 -0.027253248 0.085836425 -0.15827785 -0.035447855 0.022385117 0.11588824 -0.05597453
0.23610534 0.20028025 0.15197828 -0.09466559 0.112025484 0.15558887 0.025821341 -0.026369305
-0.23888877 -0.14259037 -0.01048563 -0.21064278 -0.026222022 0.19365391 0.1223002 -0.17249891
00000000: 7531 113e bca3 72be a53d d9bd ab69 abbd
00000010: be55 133e 3363 25bd d5fb 7a3e 4838 3dbe
00000020: b8df ca3d 56a9 573e 9bfc 3b3e c2e5 56be
00000030: 2175 d73c a91a 6a3e 665b 61be 6001 533e
00000040: 0ac5 583e 997c 943d 5218 0a3d 8f19 413d
00000050: 0cb6 1a3e 406a 81bb faca 1ebe c987 993d
00000060: ea37 29be 4c40 a7bd 8e9c 013e ed64 63be
00000070: 1796 bcbd 88be 22bd 7dde caba 3645 36bd
00000080: eebe 59be a756 a2bb a90f 0fbd d030 373e
00000090: 347b 09be b0b3 213e 6c44 ffbb ff94 f6bd
000000a0: 15ef bb3d 3442 dfbc 02cb af3d 9713 22be
000000b0: c531 11bd fe60 b73c d056 ed3d 8c45 65bd
000000c0: 99c5 713e 4416 4d3e 32a0 1b3e 08e0 c1bd
000000d0: 9e6d e53d b052 1f3e 4787 d33c 7104 d8bc
000000e0: 429f 74be 3603 12be ebcb 2bbc beb2 57be
000000f0: 91cf d6bc 364d 463e 8778 fa3d 8ea3 30be

layer_list.conv1.bias f4 [64]
0.0088016605 0.006412419 0.030116932 -0.00026536902 0.016159179 -0.0059427004 0.0015338045 0.0011424513
0.0013041939 0.00052544934 0.012841081 -0.0016692753 0.026943576 -0.004500641 0.011450995 0.007220013
-0.007027283 0.0064058667 0.014098378 0.0138843 0.014380701 0.04760297 0.04317354 0.011719995
0.0015067811 0.0045377016 -0.021594124 -0.01785322 -0.00981335 0.023091072 0.029183464 0.0052869255
-0.011129685 0.013953223 0.017679557 -0.0283884 0.008750117 0.031154891 0.021952787 -0.0064210333
-0.0019876838 0.043450538 0.016560163 -0.005472715 -0.0065576537 -0.011229957 0.036899637 0.00032680845
-0.007527564 0.0005882082 -0.031663075 0.022127245 0.021457333 -0.0058820806 0.01830842 0.022656629
0.03928693 0.016911454 0.0005226969 -0.019611504 -0.01863233 0.0015054456 0.0019082973 0.00871812
00000000: d734 103c 451f d23b c9b7 f63c 3a21 8bb9
00000010: 4160 843c fcba c2bb f009 c93a 4ebe 953a
00000020: 7cf1 aa3a 4fbe 093a 6663 523c 96cb daba
00000030: c6b8 dc3c 1d7a 93bb f49c 3b3c dc95 ec3b
00000040: 1f45 e6bb 4ee8 d13b e2fc 663c fa7a 633c
00000050: 089d 6b3c 55fb 423d bdd6 303d 3905 403c
00000060: 2f7f c53a 00b1 943b 29e6 b0bc eb40 92bc
00000070: 2cc8 20bc 7d29 bd3c 2912 ef3c f23d ad3b
00000080: 4859 36bc 0f9c 643c b8d4 903c ca8e e8bc
00000090: a75c 0f3c 8b38 ff3c 55d6 b33c 8867 d2bb
000000a0: cd43 02bb 31f9 313d 2ea9 873c 7654 b3bb
000000b0: 96e1 d6bb dbfd 37bc 1324 173d 7d57 ab39
000000c0: c9a9 f6bb fc31 1a3a 24b1 01bd 3244 b53c
000000d0: 4ac7 af3c 78be c0bb 8afb 953c 659a b93c
000000e0: 55eb 203d e489 8a3c 9805 093a 4ea8 a0bc
000000f0: d4a2 98bc 5f52 c53a d51f fa3a 72d6 0e3c

layer_list.conv1.lin_src.weight f4 [64, 1433]
0.1364407 -0.100127086 -0.12642716 -0.048176922 0.05662682 -0.015830066 0.024042783 -0.04311919
-0.0007625144 0.06779306 0.0076003685 -0.003267828 -0.024197737 -0.07698528 -0.007739999 0.03740959
0.005942785 0.002557041 0.027427964 -0.33847788 0.010757726 -0.004593318 -0.02659945 0.026973257
0.008514442 0.115641505 0.02361398 0.085870124 -0.0579043 -0.0057589887 0.12465919 -0.001504352
-0.04068761 0.01258742 -0.011611853 0.019679718 -0.04145711 0.01973224 -0.07486037 -0.041518386
-0.08086528 0.18059245 -0.030093243 0.003675833 0.08610104 0.13186736 -0.04360983 0.07421007
0.0038347107 0.07619174 0.055853922 0.3325086 0.15110597 -0.027355395 0.09663717 0.06632944
0.07547236 -0.00057033356 0.31743824 -0.038438108 0.005053572 -0.098629065 -0.022322053 0.07367688
-0.07710719 -0.05395175 -0.012109997 -0.06817007 -0.047870524 0.04490154 0.055070054 0.00055870326
-0.088150315 -0.09500178 0.042535774 -0.0950195 0.14366847 0.0047737616 0.13997096 0.009002614
-0.025357217 -0.014571689 0.025672674 -0.054765604 -0.0041928072 -0.20114335 -0.16167025 -0.010229151
-0.12934838 0.09946148 0.013072747 0.1335915 0.0035342067 -0.013127054 0.07235782 0.050179668
-0.03397215 0.08555375 -0.02474938 -0.3391271 0.04849332 -0.0006366719 0.10562863 -0.037394598
0.066219285 0.024589093 0.09423825 0.026137462 0.063043125 -0.032395102 -0.07659404 -0.04739915
0.008679049 -0.0012029698 -0.07911184 0.023478227 -0.0009790965 0.022320922 -0.08457022 0.011122803
0.017372442 0.07419903 0.3086937 -0.07827358 -0.012352445 -0.0635373 0.29028082 0.18444051
0.108432844 0.120307274 0.022177221 0.18305114 -0.20481147 0.18715668 -0.019555585 0.31674382
-0.115923 0.070202775 -0.0268277 0.023466716 -0.081217855 -0.05776605 0.00043102598 -0.08488156
0.043356635 0.04472703 -0.16907553 0.018520225 0.005878937 0.19209535 0.08952478 0.096316315
-0.04421859 -0.16900036 -0.04288315 -0.009578019 -0.025080198 -0.123313785 0.0046969024 -0.012445258
-0.05421943 0.037271414 0.12913659 9.034133e-05 0.017422957 0.00399996 -0.0138469 -0.08481338
0.060379628 -0.010423493 0.032791138 -0.026839389 0.099271856 0.17399997 0.029549282 -0.08302064
0.1306435 0.03358948 0.02281308 0.014748703 0.0054820185 0.008996996 -0.05941369 0.044748273
0.020793486 0.020443162 0.052154116 -0.10951084 0.009663794 -0.030537453 0.0067060958 -0.064754754
-0.16162395 0.14823538 0.0059425393 -0.012031575 -0.05762925 0.037279546 -0.005934528 -0.006651139
0.19344008 -0.09763194 -0.043853384 -0.12269859 -0.059232045 0.2753538 0.011574691 -0.17107888
-0.068147294 -0.01245315 -0.01847118 0.022956103 -0.04995629 0.050831262 -0.0034091193 0.12627836
-0.045090333 -0.08487981 -0.036620215 -0.006695672 0.0025893867 -0.007960232 -0.04938817 -0.05740329
-0.03036153 0.03388173 -0.059947968 -0.058756955 0.14053412 -0.033959057 -0.021583617 0.027220687
-0.023484122 0.1304146 -0.091667175 -0.047195055 -0.018359944 -0.052326806 -0.065302834 0.0011935044
-0.13529953 0.045026314 -0.007865484 -0.032921802 -0.061296307 0.07033977 0.09010298 0.0891746
-0.008746955 -0.11862532 0.15169005 -0.02114759 -0.102532364 -0.009201079 -0.075924076 -0.05605831
00000000: 1cb7 0b3e 6e0f cdbd 1f76 01be 2a55 45bd
00000010: 86f1 673d 0eae 81bc 5ff5 c43c bf9d 30bd
00000020: 7ae3 47ba 16d7 8a3d 830c f93b 0e29 56bb
00000030: 553a c6bc 75aa 9dbd d19f fdbb cc3a 193d
00000040: b2bb c23b 0794 273b 9cb0 e03c f94c adbe
00000050: 2c41 303c 8b83 96bb 17e7 d9bc 05f7 dc3c
00000060: 2880 0b3c 74d5 ec3d 1b72 c13c addc af3d
00000070: 0f2d 6dbd e6b5 bcbb 514d ff3d ad2d c5ba
00000080: 0da8 26bd 773b 4e3c a43f 3ebc 5c37 a13c
00000090: eece 29bd 82a5 a13c 6550 99bd 2f0f 2abd
000000a0: b29c a5bd 3aed 383e 1b86 f6bc 3fe6 703b
000000b0: be55 b03d 3d08 073e 39a0 32bd 73fb 973d
000000c0: c54f 7b3b 6a0a 9c3d 15c7 643d 913e aa3e
000000d0: 86bb 1a3e 6c18 e0bc b5e9 c53d bbd7 873d
000000e0: 4191 9a3d 7082 15ba 4487 a23e 4771 1dbd
000000f0: 6f98 a53b 09fe c9bd bddc b6bc e7e3 963d
00000100: 60ea 9dbd 83fc 5cbd 0269 46bc c09c 8bbd
00000110: e213 44bd adea 373d 2391 613d f175 123a
00000120: 2788 b4bd 4b90 c2bd fe39 2e3d 9599 c2bd
00000130: d41d 133e 376d 9c3b 8c54 0f3e b37f 133c
00000140: f0b9 cfbc 18be 6ebc 804f d23c e651 60bd
00000150: d163 89bb 86f8 4dbe e38c 25be 2b98 27bc
00000160: e773 04be 76b2 cb3d 132f 563c 36cc 083e
00000170: 269e 673b db12 57bc 5630 943d 3289 4d3d
00000180: 6226 0bbd ce36 af3d 36bf cabc 11a2 adbe
00000190: eea0 463d 54e6 26ba d353 d83d 142b 19bd
000001a0: fa9d 873d 116f c93c fcff c03d 3b1e d63c
000001b0: c11c 813d bab0 04bd 56dd 9cbd 9c25 42bd
000001c0: 9232 0e3c f8ac 9dba 6305 a2bd 6955 c03c
000001d0: 0755 80ba 5eda b63c 2733 adbd 6b3c 363c
000001e0: a750 8e3c a9f5 973d 1a0d 9e3e e64d a0bd
000001f0: e961 4abc d81f 82bd b09f 943e f9dd 3c3e
00000200: 0a12 de3d a963 f63d 01ad b53c c271 3b3e
00000210: 19ba 51be 00a6 3f3e 0933 a0bc 3f2c a23e
00000220: 0a69 edbd 79c6 8f3d c4c5 dbbc 453d c03c
00000230: 8c55 a6bd 189c 6cbd 54fb e139 62d6 adbd
00000240: ba96 313d b133 373d 2322 2dbe bab7 973c
00000250: 19a4 c03b a5b4 443e c558 b73d 7d41 c53d
00000260: 8d1e 35bd 6e0e 2dbe 3ea6 2fbd 20ed 1cbc
00000270: fd74 cdbc f08b fcbd 79e8 993b 32e7 4bbc
00000280: 3115 5ebd e9a9 183d 623c 043e a275 bd38
00000290: 97ba 8e3c 1912 833b 1cde 62bc a3b2 adbd
000002a0: a150 773d 4cc7 2abc 0050 063d 47de dbbc
000002b0: 0b4f cb3d 0c2d 323e 5611 f23c ba06 aabd
000002c0: 69c7 053e 1f95 093d 7fe2 ba3c 8ba4 713c
000002d0: 81a2 b33b 2368 133c c55b 73bd f749 373d
000002e0: 1a57 aa3c 6b78 a73c 8e9f 553d 3847 e0bd
000002f0: e454 1e3c ae29 fabc cfbe db3b 249e 84bd
00000300: c080 25be 04cb 173e a2b9 c23b 1520 45bc
00000310: a60c 6cbd 70b2 183d 6e76 c2bb ccf1 d9bb
00000320: 2815 463e 41f3 c7bd 9b9f 33bd 6649 fbbd
00000330: 4d9d 72bd 2cfb 8c3e c6a3 3d3c 4d2f 2fbe
00000340: cf90 8bbd 4c08 4cbc df50 97bc 700e bc3c
00000350: f79e 4cbd 7134 503d 886b 5fbb 1d4f 013e
00000360: a4b0 38bd 77d5 adbd 14ff 15bd 5e67 dbbb
00000370: b3b2 293b a26b 02bc 404b 4abd b61f 6bbd
00000380: beb8 f8bc 92c7 0a3d 008c 75bd 22ab 70bd
00000390: 2de8 0f3e a718 0bbd 20d0 b0bc ebfd de3c
000003a0: c661 c0bc 688b 053e 00bc bbbd 9a4f 41bd
000003b0: 9867 96bc a254 56bd 7ebd 85bd 5d6f 9c3a
000003c0: f68b 0abe 836d 383d 3bde 00bc 03d9 06bd
000003d0: d611 7bbd 4c0e 903d e987 b83d 2ca1 b63d
000003e0: 634f 0fbc d5f1 f2bd a354 1b3e b63d adbc
000003f0: 7dfc d1bd 1fc0 16bc 157e 9bbd 669d 65bd

layer_list.conv1.lin_dst.weight f4 [64, 1433]
0.1364407 -0.100127086 -0.12642716 -0.048176922 0.05662682 -0.015830066 0.024042783 -0.04311919
-0.0007625144 0.06779306 0.0076003685 -0.003267828 -0.024197737 -0.07698528 -0.007739999 0.03740959
0.005942785 0.002557041 0.027427964 -0.33847788 0.010757726 -0.004593318 -0.02659945 0.026973257
0.008514442 0.115641505 0.02361398 0.085870124 -0.0579043 -0.0057589887 0.12465919 -0.001504352
-0.04068761 0.01258742 -0.011611853 0.019679718 -0.04145711 0.01973224 -0.07486037 -0.041518386
-0.08086528 0.18059245 -0.030093243 0.003675833 0.08610104 0.13186736 -0.04360983 0.07421007
0.0038347107 0.07619174 0.055853922 0.3325086 0.15110597 -0.027355395 0.09663717 0.06632944
0.07547236 -0.00057033356 0.31743824 -0.038438108 0.005053572 -0.098629065 -0.022322053 0.07367688
-0.07710719 -0.05395175 -0.012109997 -0.06817007 -0.047870524 0.04490154 0.055070054 0.00055870326
-0.088150315 -0.09500178 0.042535774 -0.0950195 0.14366847 0.0047737616 0.13997096 0.009002614
-0.025357217 -0.014571689 0.025672674 -0.054765604 -0.0041928072 -0.20114335 -0.16167025 -0.010229151
-0.12934838 0.09946148 0.013072747 0.1335915 0.0035342067 -0.013127054 0.07235782 0.050179668
-0.03397215 0.08555375 -0.02474938 -0.3391271 0.04849332 -0.0006366719 0.10562863 -0.037394598
0.066219285 0.024589093 0.09423825 0.026137462 0.063043125 -0.032395102 -0.07659404 -0.04739915
0.008679049 -0.0012029698 -0.07911184 0.023478227 -0.0009790965 0.022320922 -0.08457022 0.011122803
0.017372442 0.07419903 0.3086937 -0.07827358 -0.012352445 -0.0635373 0.29028082 0.18444051
0.108432844 0.120307274 0.022177221 0.18305114 -0.20481147 0.18715668 -0.019555585 0.31674382
-0.115923 0.070202775 -0.0268277 0.023466716 -0.081217855 -0.05776605 0.00043102598 -0.08488156
0.043356635 0.04472703 -0.16907553 0.018520225 0.005878937 0.19209535 0.08952478 0.096316315
-0.04421859 -0.16900036 -0.04288315 -0.009578019 -0.025080198 -0.123313785 0.0046969024 -0.012445258
-0.05421943 0.037271414 0.12913659 9.034133e-05 0.017422957 0.00399996 -0.0138469 -0.08481338
0.060379628 -0.010423493 0.032791138 -0.026839389 0.099271856 0.17399997 0.029549282 -0.08302064
0.1306435 0.03358948 0.02281308 0.014748703 0.0054820185 0.008996996 -0.05941369 0.044748273
0.020793486 0.020443162 0.052154116 -0.10951084 0.009663794 -0.030537453 0.0067060958 -0.064754754
-0.16162395 0.14823538 0.0059425393 -0.012031575 -0.05762925 0.037279546 -0.005934528 -0.006651139
0.19344008 -0.09763194 -0.043853384 -0.12269859 -0.059232045 0.2753538 0.011574691 -0.17107888
-0.068147294 -0.01245315 -0.01847118 0.022956103 -0.04995629 0.050831262 -0.0034091193 0.12627836
-0.045090333 -0.08487981 -0.036620215 -0.006695672 0.0025893867 -0.007960232 -0.04938817 -0.05740329
-0.03036153 0.03388173 -0.059947968 -0.058756955 0.14053412 -0.033959057 -0.021583617 0.027220687
-0.023484122 0.1304146 -0.091667175 -0.047195055 -0.018359944 -0.052326806 -0.065302834 0.0011935044
-0.13529953 0.045026314 -0.007865484 -0.032921802 -0.061296307 0.07033977 0.09010298 0.0891746
-0.008746955 -0.11862532 0.15169005 -0.02114759 -0.102532364 -0.009201079 -0.075924076 -0.05605831
00000000: 1cb7 0b3e 6e0f cdbd 1f76 01be 2a55 45bd
00000010: 86f1 673d 0eae 81bc 5ff5 c43c bf9d 30bd
00000020: 7ae3 47ba 16d7 8a3d 830c f93b 0e29 56bb
00000030: 553a c6bc 75aa 9dbd d19f fdbb cc3a 193d
00000040: b2bb c23b 0794 273b 9cb0 e03c f94c adbe
00000050: 2c41 303c 8b83 96bb 17e7 d9bc 05f7 dc3c
00000060: 2880 0b3c 74d5 ec3d 1b72 c13c addc af3d
00000070: 0f2d 6dbd e6b5 bcbb 514d ff3d ad2d c5ba
00000080: 0da8 26bd 773b 4e3c a43f 3ebc 5c37 a13c
00000090: eece 29bd 82a5 a13c 6550 99bd 2f0f 2abd
000000a0: b29c a5bd 3aed 383e 1b86 f6bc 3fe6 703b
000000b0: be55 b03d 3d08 073e 39a0 32bd 73fb 973d
000000c0: c54f 7b3b 6a0a 9c3d 15c7 643d 913e aa3e
000000d0: 86bb 1a3e 6c18 e0bc b5e9 c53d bbd7 873d
000000e0: 4191 9a3d 7082 15ba 4487 a23e 4771 1dbd
000000f0: 6f98 a53b 09fe c9bd bddc b6bc e7e3 963d
00000100: 60ea 9dbd 83fc 5cbd 0269 46bc c09c 8bbd
00000110: e213 44bd adea 373d 2391 613d f175 123a
00000120: 2788 b4bd 4b90 c2bd fe39 2e3d 9599 c2bd
00000130: d41d 133e 376d 9c3b 8c54 0f3e b37f 133c
00000140: f0b9 cfbc 18be 6ebc 804f d23c e651 60bd
00000150: d163 89bb 86f8 4dbe e38c 25be 2b98 27bc
00000160: e773 04be 76b2 cb3d 132f 563c 36cc 083e
00000170: 269e 673b db12 57bc 5630 943d 3289 4d3d
00000180: 6226 0bbd ce36 af3d 36bf cabc 11a2 adbe
00000190: eea0 463d 54e6 26ba d353 d83d 142b 19bd
000001a0: fa9d 873d 116f c93c fcff c03d 3b1e d63c
000001b0: c11c 813d bab0 04bd 56dd 9cbd 9c25 42bd
000001c0: 9232 0e3c f8ac 9dba 6305 a2bd 6955 c03c
000001d0: 0755 80ba 5eda b63c 2733 adbd 6b3c 363c
000001e0: a750 8e3c a9f5 973d 1a0d 9e3e e64d a0bd
000001f0: e961 4abc d81f 82bd b09f 943e f9dd 3c3e
00000200: 0a12 de3d a963 f63d 01ad b53c c271 3b3e
00000210: 19ba 51be 00a6 3f3e 0933 a0bc 3f2c a23e
00000220: 0a69 edbd 79c6 8f3d c4c5 dbbc 453d c03c
00000230: 8c55 a6bd 189c 6cbd 54fb e139 62d6 adbd
00000240: ba96 313d b133 373d 2322 2dbe bab7 973c
00000250: 19a4 c03b a5b4 443e c558 b73d 7d41 c53d
00000260: 8d1e 35bd 6e0e 2dbe 3ea6 2fbd 20ed 1cbc
00000270: fd74 cdbc f08b fcbd 79e8 993b 32e7 4bbc
00000280: 3115 5ebd e9a9 183d 623c 043e a275 bd38
00000290: 97ba 8e3c 1912 833b 1cde 62bc a3b2 adbd
000002a0: a150 773d 4cc7 2abc 0050 063d 47de dbbc
000002b0: 0b4f cb3d 0c2d 323e 5611 f23c ba06 aabd
000002c0: 69c7 053e 1f95 093d 7fe2 ba3c 8ba4 713c
000002d0: 81a2 b33b 2368 133c c55b 73bd f749 373d
000002e0: 1a57 aa3c 6b78 a73c 8e9f 553d 3847 e0bd
000002f0: e454 1e3c ae29 fabc cfbe db3b 249e 84bd
00000300: c080 25be 04cb 173e a2b9 c23b 1520 45bc
00000310: a60c 6cbd 70b2 183d 6e76 c2bb ccf1 d9bb
00000320: 2815 463e 41f3 c7bd 9b9f 33bd 6649 fbbd
00000330: 4d9d 72bd 2cfb 8c3e c6a3 3d3c 4d2f 2fbe
00000340: cf90 8bbd 4c08 4cbc df50 97bc 700e bc3c
00000350: f79e 4cbd 7134 503d 886b 5fbb 1d4f 013e
00000360: a4b0 38bd 77d5 adbd 14ff 15bd 5e67 dbbb
00000370: b3b2 293b a26b 02bc 404b 4abd b61f 6bbd
00000380: beb8 f8bc 92c7 0a3d 008c 75bd 22ab 70bd
00000390: 2de8 0f3e a718 0bbd 20d0 b0bc ebfd de3c
000003a0: c661 c0bc 688b 053e 00bc bbbd 9a4f 41bd
000003b0: 9867 96bc a254 56bd 7ebd 85bd 5d6f 9c3a
000003c0: f68b 0abe 836d 383d 3bde 00bc 03d9 06bd
000003d0: d611 7bbd 4c0e 903d e987 b83d 2ca1 b63d
000003e0: 634f 0fbc d5f1 f2bd a354 1b3e b63d adbc
000003f0: 7dfc d1bd 1fc0 16bc 157e 9bbd 669d 65bd

layer_list.conv2.att_src f4 [1, 1, 7]
-0.08663455 -0.016261099 -0.12559041 -0.038984694 -0.0057286653 -0.068736166 -0.010721418
00000000: 746d b1bd ff35 85bc c69a 00be 6aae 1fbd
00000010: 87b7 bbbb 8cc5 8cbd e3a8 2fbc

layer_list.conv2.att_dst f4 [1, 1, 7]
-0.3059574 0.32172665 -0.40535828 0.1383734 -0.3540548 0.034290623 -0.28480268
00000000: 73a6 9cbe 5bb9 a43e 1f8b cfbe c2b1 0d3e
00000010: ac46 b5be 5374 0c3d a8d1 91be

layer_list.conv2.bias f4 [7]
-0.19623332 -0.638366 -0.11612049 0.77440244 0.10855207 -0.30808085 -0.7975939
00000000: 63f1 48be f46b 23bf 94d0 edbd 3d3f 463f
00000010: 8c50 de3d c6bc 9dbe 1d2f 4cbf

layer_list.conv2.lin_src.weight f4 [7, 64]
1.3005686 -0.9673883 -0.3369475 -0.6829166 1.1316521 1.2394705 1.1421639 -1.5647812
-1.4379575 -1.2031322 -1.0392606 1.0628434 1.1226143 1.2025788 0.5749584 1.4455361
-1.2429595 -1.2267878 0.5015363 -1.4841584 0.62018824 -1.3204042 1.3731182 0.5802077
1.3976243 -1.5930799 -0.69213545 0.39486292 -1.4662668 1.0087882 1.0364101 -1.4968216
1.4491854 0.4139264 1.3494142 -0.5056732 -1.3763055 -1.4926693 -1.4267821 1.4546548
0.4932839 -1.1294805 1.1860644 -0.7206974 -1.2361306 1.1315521 0.6280907 -1.0049
1.3887374 -1.454645 0.63019633 -0.7046816 1.1679451 1.3283508 -1.2930236 0.25516683
0.77922934 0.990526 1.1965686 -0.46440545 1.1784226 1.2977147 -1.3830606 1.0946664
-0.7728895 -0.9070896 -1.059515 -1.4909394 -0.2838041 1.1356226 0.9160793 -0.7710149
0.26405728 0.08468111 -1.2730632 -0.11867905 -1.0123059 -1.1938548 1.0608982 -1.3390696
1.2005358 1.3272825 -1.4036356 0.8587359 1.4115969 0.61469 -1.0117215 1.281813
-1.2909467 -1.2916937 -0.81730473 -1.4544423 1.132188 -1.4011048 -0.3418792 0.7205557
-1.4452796 -0.84150016 -1.4272543 1.2085658 -0.082815595 1.5267156 0.5507548 0.59268105
-1.0850316 -1.1923187 -1.3632662 1.3216068 1.481791 0.17696492 -1.2716283 0.39521584
1.4364654 1.5229398 -1.0108399 -1.1283755 1.0271517 1.2070998 1.3020527 0.7877621
1.033835 0.047643095 -0.01919481 -0.4831871 0.82774323 -1.3021226 0.03920162 -1.3747182
-1.1007783 1.0565733 1.1070224 -1.2870729 -1.1311514 1.0653834 -0.9762016 0.43756208
1.2693652 1.3100641 1.0673081 -1.2552861 -1.3304913 1.341111 -1.2898602 1.0152375
-0.82972527 -0.0770416 -1.4077363 -1.3759022 0.71293527 -1.3485359 -1.2748631 -1.2097628
0.05216768 -1.2990019 1.2520214 -1.3877515 0.93057805 0.4521251 -1.3487583 -0.40749314
1.0551486 0.82043314 -0.8659066 1.1024985 1.1016608 -1.2548491 1.4757408 -0.78164965
0.569132 -1.1017232 -1.2853657 1.2429291 -0.20127018 1.0230609 0.89682305 1.0522708
1.3988848 1.0859041 0.4135068 1.0802997 -1.1971661 -1.1873829 -1.0946681 -1.1963214
-1.2021606 1.1308177 -1.3226261 -0.83645177 0.8737832 1.2149086 1.2565484 -1.1667383
-1.3466628 1.0170276 1.0818901 1.4105414 -1.3453645 0.23456575 -1.5361902 0.84057033
-1.4949571 -1.0069264 0.9622901 -0.7879185 1.3870361 -1.637591 -1.107219 0.30951566
-0.57625663 1.2157773 -0.9770943 1.3999698 -1.1010045 0.95277643 1.2403506 -1.0581331
-1.4347416 1.2096424 1.3302157 -1.3348061 -1.5214689 0.060017124 0.8471597 -0.6342412
-1.2802887 1.225815 0.15413536 1.1042585 -1.0630022 0.7396146 -1.3377173 -1.1042595
-1.3265811 1.2763504 1.1599358 1.4124154 -0.9277262 -1.230675 -1.1540521 1.0640802
-1.480857 -1.4036807 -1.4503189 1.4605782 0.38652956 -1.2987818 1.3221402 1.0292667
1.1353819 1.2082982 -0.41065174 1.2666464 -1.3489048 -1.3343905 -1.304482 1.2200363
00000000: 0879 a63f c2a6 77bf 6284 acbe 9fd3 2ebf
00000010: fad9 903f f8a6 9e3f 6d32 923f c04a c8bf
00000020: fe0e b8bf 3c00 9abf 7e06 85bf 410b 883f
00000030: d3b1 8f3f 1aee 993f 7930 133f 5407 b93f
00000040: 4c19 9fbf 6207 9dbf af64 003f e7f8 bdbf
00000050: a8c4 1e3f 0103 a9bf 56c2 af3f 7e88 143f
00000060: 5ae5 b23f 0bea cbbf ca2f 31bf 792b ca3e
00000070: a1ae bbbf f91f 813f 16a9 843f da97 bfbf
00000080: e87e b93f 29ee d33e 9bb9 ac3f cd73 01bf
00000090: c72a b0bf ca0f bfbf cca0 b6bf 2132 ba3f
000000a0: b58f fc3e d192 90bf f5d0 973f a07f 38bf
000000b0: 8739 9ebf b3d6 903f 8dca 203f 90a0 80bf
000000c0: 26c2 b13f cf31 babf 8c54 213f 0366 34bf
000000d0: 3a7f 953f 6607 aa3f cc81 a5bf 3aa5 823e
000000e0: 937b 473f 1d93 7d3f 2929 993f 8dc6 edbe
000000f0: 8dd6 963f 841b a63f 2108 b1bf 071e 8c3f
00000100: 16dc 45bf 0637 68bf 309e 87bf 1ad7 bebf
00000110: c54e 91be 155c 913f 2c84 6a3f 3c61 45bf
00000120: 8432 873e 4a6d ad3d bcf3 a2bf 000e f3bd
00000130: 3d93 81bf 3cd0 98bf 83cb 873f a266 abbf
00000140: 28ab 993f 65e4 a93f 55aa b3bf 1ed6 5b3f
00000150: 35af b43f 535c 1d3f 1780 81bf 7312 a43f
00000160: be3d a5bf 3856 a5bf e23a 51bf 2a2b babf
00000170: 89eb 903f 6757 b3bf ca0a afbe 5776 383f
00000180: ecfe b8bf 8e6c 57bf 45b0 b6bf 49b2 9a3f
00000190: 399b a9bd 6b6b c33f 44fe 0c3f f2b9 173f
000001a0: 51e2 8abf e69d 98bf 827f aebf 692a a93f
000001b0: 54ab bd3f 4b36 353e b7c4 a2bf bb59 ca3e
000001c0: 19de b73f b1ef c23f 3463 81bf 9c6e 90bf
000001d0: b579 833f 3f82 9a3f aaa9 a63f c7aa 493f
000001e0: b554 843f 6825 433d 6f3e 9dbc 4d64 f7be
000001f0: fbe6 533f f4ab a6bf e191 203d c4f6 afbf
00000200: 4ee6 8cbf cb3d 873f e9b2 8d3f cebe a4bf
00000210: 92c9 90bf 7c5e 883f 59e8 79bf 2308 e03e
00000220: 8f7a a23f 2eb0 a73f 8d9d 883f 37ad a0bf
00000230: 8a4d aabf 86a9 ab3f 241a a5bf 4df3 813f
00000240: e068 54bf fdc7 9dbd b430 b4bf 901d b0bf
00000250: ed82 363f d39c acbf b72e a3bf 82d9 9abf
00000260: c7ad 553d b245 a6bf 3d42 a03f d7a1 b1bf
00000270: 5d3a 6e3f f17c e73e 1da4 acbf f1a2 d0be
00000280: 1c0f 873f e807 523f 0eac 5dbf ac1e 8d3f
00000290: 3903 8d3f e59e a0bf 13e5 bc3f 311a 48bf
000002a0: a2b2 113f 4405 8dbf dd86 a4bf 4d18 9f3f
000002b0: c519 4ebe a9f3 823f 3296 653f cfb0 863f
000002c0: a80e b33f e8fe 8a3f 2ab7 d33e 4347 8a3f
000002d0: bd3c 99bf 2afc 97bf 161e 8cbf 0f21 99bf
000002e0: 66e0 99bf a2be 903f d04b a9bf b421 56bf
000002f0: 41b0 5f3f 2082 9b3f 94d6 a03f ae57 95bf
00000300: 725f acbf f62d 823f 607b 8a3f 9f8c b43f
00000310: e734 acbf 0132 703e e1a1 c4bf 9e2f 573f
00000320: c15a bfbf f7e2 80bf a558 763f 07b5 49bf
00000330: 668a b13f 959c d1bf 5ab9 8dbf d678 9e3e
00000340: 8e85 13bf 979e 9b3f da22 7abf 3632 b33f
00000350: b7ed 8cbf 28e9 733f cfc3 9e3f e870 87bf
00000360: 9da5 b7bf 90d5 9a3f 8244 aa3f edda aabf
00000370: 7ebf c2bf 84d4 753d 75df 583f a25d 22bf
00000380: 80e0 a3bf 82e7 9c3f a9d5 1d3e 5858 8d3f
00000390: 7510 88bf 6257 3d3f 523a abbf 6058 8dbf
000003a0: 69cd a9bf 735f a33f c778 943f 07ca b43f
000003b0: 777f 6dbf c286 9dbf fbb7 93bf c833 883f
000003c0: b98c bdbf cfab b3bf 0da4 b9bf 3af4 ba3f
000003d0: 34e7 c53e 7b3e a6bf e43b a93f 03bf 833f
000003e0: 3254 913f 84a9 9a3f f240 d2be 7821 a23f
000003f0: eaa8 acbf 4fcd aabf 44f9 a6bf 262a 9c3f

layer_list.conv2.lin_dst.weight f4 [7, 64]
1.3005686 -0.9673883 -0.3369475 -0.6829166 1.1316521 1.2394705 1.1421639 -1.5647812
-1.4379575 -1.2031322 -1.0392606 1.0628434 1.1226143 1.2025788 0.5749584 1.4455361
-1.2429595 -1.2267878 0.5015363 -1.4841584 0.62018824 -1.3204042 1.3731182 0.5802077
1.3976243 -1.5930799 -0.69213545 0.39486292 -1.4662668 1.0087882 1.0364101 -1.4968216
1.4491854 0.4139264 1.3494142 -0.5056732 -1.3763055 -1.4926693 -1.4267821 1.4546548
0.4932839 -1.1294805 1.1860644 -0.7206974 -1.2361306 1.1315521 0.6280907 -1.0049
1.3887374 -1.454645 0.63019633 -0.7046816 1.1679451 1.3283508 -1.2930236 0.25516683
0.77922934 0.990526 1.1965686 -0.46440545 1.1784226 1.2977147 -1.3830606 1.0946664
-0.7728895 -0.9070896 -1.059515 -1.4909394 -0.2838041 1.1356226 0.9160793 -0.7710149
0.26405728 0.08468111 -1.2730632 -0.11867905 -1.0123059 -1.1938548 1.0608982 -1.3390696
1.2005358 1.3272825 -1.4036356 0.8587359 1.4115969 0.61469 -1.0117215 1.281813
-1.2909467 -1.2916937 -0.81730473 -1.4544423 1.132188 -1.4011048 -0.3418792 0.7205557
-1.4452796 -0.84150016 -1.4272543 1.2085658 -0.082815595 1.5267156 0.5507548 0.59268105
-1.0850316 -1.1923187 -1.3632662 1.3216068 1.481791 0.17696492 -1.2716283 0.39521584
1.4364654 1.5229398 -1.0108399 -1.1283755 1.0271517 1.2070998 1.3020527 0.7877621
1.033835 0.047643095 -0.01919481 -0.4831871 0.82774323 -1.3021226 0.03920162 -1.3747182
-1.1007783 1.0565733 1.1070224 -1.2870729 -1.1311514 1.0653834 -0.9762016 0.43756208
1.2693652 1.3100641 1.0673081 -1.2552861 -1.3304913 1.341111 -1.2898602 1.0152375
-0.82972527 -0.0770416 -1.4077363 -1.3759022 0.71293527 -1.3485359 -1.2748631 -1.2097628
0.05216768 -1.2990019 1.2520214 -1.3877515 0.93057805 0.4521251 -1.3487583 -0.40749314
1.0551486 0.82043314 -0.8659066 1.1024985 1.1016608 -1.2548491 1.4757408 -0.78164965
0.569132 -1.1017232 -1.2853657 1.2429291 -0.20127018 1.0230609 0.89682305 1.0522708
1.3988848 1.0859041 0.4135068 1.0802997 -1.1971661 -1.1873829 -1.0946681 -1.1963214
-1.2021606 1.1308177 -1.3226261 -0.83645177 0.8737832 1.2149086 1.2565484 -1.1667383
-1.3466628 1.0170276 1.0818901 1.4105414 -1.3453645 0.23456575 -1.5361902 0.84057033
-1.4949571 -1.0069264 0.9622901 -0.7879185 1.3870361 -1.637591 -1.107219 0.30951566
-0.57625663 1.2157773 -0.9770943 1.3999698 -1.1010045 0.95277643 1.2403506 -1.0581331
-1.4347416 1.2096424 1.3302157 -1.3348061 -1.5214689 0.060017124 0.8471597 -0.6342412
-1.2802887 1.225815 0.15413536 1.1042585 -1.0630022 0.7396146 -1.3377173 -1.1042595
-1.3265811 1.2763504 1.1599358 1.4124154 -0.9277262 -1.230675 -1.1540521 1.0640802
-1.480857 -1.4036807 -1.4503189 1.4605782 0.38652956 -1.2987818 1.3221402 1.0292667
1.1353819 1.2082982 -0.41065174 1.2666464 -1.3489048 -1.3343905 -1.304482 1.2200363
00000000: 0879 a63f c2a6 77bf 6284 acbe 9fd3 2ebf
00000010: fad9 903f f8a6 9e3f 6d32 923f c04a c8bf
00000020: fe0e b8bf 3c00 9abf 7e06 85bf 410b 883f
00000030: d3b1 8f3f 1aee 993f 7930 133f 5407 b93f
00000040: 4c19 9fbf 6207 9dbf af64 003f e7f8 bdbf
00000050: a8c4 1e3f 0103 a9bf 56c2 af3f 7e88 143f
00000060: 5ae5 b23f 0bea cbbf ca2f 31bf 792b ca3e
00000070: a1ae bbbf f91f 813f 16a9 843f da97 bfbf
00000080: e87e b93f 29ee d33e 9bb9 ac3f cd73 01bf
00000090: c72a b0bf ca0f bfbf cca0 b6bf 2132 ba3f
000000a0: b58f fc3e d192 90bf f5d0 973f a07f 38bf
000000b0: 8739 9ebf b3d6 903f 8dca 203f 90a0 80bf
000000c0: 26c2 b13f cf31 babf 8c54 213f 0366 34bf
000000d0: 3a7f 953f 6607 aa3f cc81 a5bf 3aa5 823e
000000e0: 937b 473f 1d93 7d3f 2929 993f 8dc6 edbe
000000f0: 8dd6 963f 841b a63f 2108 b1bf 071e 8c3f
00000100: 16dc 45bf 0637 68bf 309e 87bf 1ad7 bebf
00000110: c54e 91be 155c 913f 2c84 6a3f 3c61 45bf
00000120: 8432 873e 4a6d ad3d bcf3 a2bf 000e f3bd
00000130: 3d93 81bf 3cd0 98bf 83cb 873f a266 abbf
00000140: 28ab 993f 65e4 a93f 55aa b3bf 1ed6 5b3f
00000150: 35af b43f 535c 1d3f 1780 81bf 7312 a43f
00000160: be3d a5bf 3856 a5bf e23a 51bf 2a2b babf
00000170: 89eb 903f 6757 b3bf ca0a afbe 5776 383f
00000180: ecfe b8bf 8e6c 57bf 45b0 b6bf 49b2 9a3f
00000190: 399b a9bd 6b6b c33f 44fe 0c3f f2b9 173f
000001a0: 51e2 8abf e69d 98bf 827f aebf 692a a93f
000001b0: 54ab bd3f 4b36 353e b7c4 a2bf bb59 ca3e
000001c0: 19de b73f b1ef c23f 3463 81bf 9c6e 90bf
000001d0: b579 833f 3f82 9a3f aaa9 a63f c7aa 493f
000001e0: b554 843f 6825 433d 6f3e 9dbc 4d64 f7be
000001f0: fbe6 533f f4ab a6bf e191 203d c4f6 afbf
00000200: 4ee6 8cbf cb3d 873f e9b2 8d3f cebe a4bf
00000210: 92c9 90bf 7c5e 883f 59e8 79bf 2308 e03e
00000220: 8f7a a23f 2eb0 a73f 8d9d 883f 37ad a0bf
00000230: 8a4d aabf 86a9 ab3f 241a a5bf 4df3 813f
00000240: e068 54bf fdc7 9dbd b430 b4bf 901d b0bf
00000250: ed82 363f d39c acbf b72e a3bf 82d9 9abf
00000260: c7ad 553d b245 a6bf 3d42 a03f d7a1 b1bf
00000270: 5d3a 6e3f f17c e73e 1da4 acbf f1a2 d0be
00000280: 1c0f 873f e807 523f 0eac 5dbf ac1e 8d3f
00000290: 3903 8d3f e59e a0bf 13e5 bc3f 311a 48bf
000002a0: a2b2 113f 4405 8dbf dd86 a4bf 4d18 9f3f
000002b0: c519 4ebe a9f3 823f 3296 653f cfb0 863f
000002c0: a80e b33f e8fe 8a3f 2ab7 d33e 4347 8a3f
000002d0: bd3c 99bf 2afc 97bf 161e 8cbf 0f21 99bf
000002e0: 66e0 99bf a2be 903f d04b a9bf b421 56bf
000002f0: 41b0 5f3f 2082 9b3f 94d6 a03f ae57 95bf
00000300: 725f acbf f62d 823f 607b 8a3f 9f8c b43f
00000310: e734 acbf 0132 703e e1a1 c4bf 9e2f 573f
00000320: c15a bfbf f7e2 80bf a558 763f 07b5 49bf
00000330: 668a b13f 959c d1bf 5ab9 8dbf d678 9e3e
00000340: 8e85 13bf 979e 9b3f da22 7abf 3632 b33f
00000350: b7ed 8cbf 28e9 733f cfc3 9e3f e870 87bf
00000360: 9da5 b7bf 90d5 9a3f 8244 aa3f edda aabf
00000370: 7ebf c2bf 84d4 753d 75df 583f a25d 22bf
00000380: 80e0 a3bf 82e7 9c3f a9d5 1d3e 5858 8d3f
00000390: 7510 88bf 6257 3d3f 523a abbf 6058 8dbf
000003a0: 69cd a9bf 735f a33f c778 943f 07ca b43f
000003b0: 777f 6dbf c286 9dbf fbb7 93bf c833 883f
000003c0: b98c bdbf cfab b3bf 0da4 b9bf 3af4 ba3f
000003d0: 34e7 c53e 7b3e a6bf e43b a93f 03bf 833f
000003e0: 3254 913f 84a9 9a3f f240 d2be 7821 a23f
000003f0: eaa8 acbf 4fcd aabf 44f9 a6bf 262a 9c3f
