vanilla_models/Cora/5_3f_85/split2/init0/GAT_dp0_5_5e_4_f2.pt (torch, 372919 bytes, 10 tensors)

layer_list.conv1.att_src f4 [1, 8, 8]
0	0xbeec0cda	-0.46103555
1	0x3df08714	0.11744514
2	0xbf221a47	-0.63321346
3	0x3e870df2	0.26377827
4	0x3ee2f837	0.44329998
5	0xbf430b37	-0.7618899
6	0xbdcff4dc	-0.10154125
7	0x3f23a15e	0.639181
8	0x3f1d8989	0.61537987
9	0x3f771852	0.96521485
10	0xbf036f54	-0.5134175
11	0x3e8404a6	0.25784796
12	0x3f817fa1	1.0117074
13	0xbef02d33	-0.46909484
14	0x3e869923	0.2628871
15	0x3f69c6e1	0.9131909
16	0x3f1126e6	0.5669998
17	0x3d47619e	0.04867708
18	0x3f2d0d62	0.67598546
19	0xbf0cd612	-0.55014145
20	0xbf620b8b	-0.88298863
21	0x3f188d98	0.59591055
22	0xbead0348	-0.33791566
23	0xbe23e00e	-0.16003439
24	0x3f31d885	0.6947101
25	0xbcf1150e	-0.029428985
26	0xbef45975	-0.477245
27	0x3f3b1c66	0.7309021
28	0xbed34b5a	-0.41268426
29	0x3f4b867f	0.795021
30	0xbeebcbb7	-0.4605386
31	0x3d57eb87	0.05271485
32	0x3e1871df	0.14887188
33	0x3f6986ce	0.9122132
34	0xbe7bda92	-0.24595097
35	0x3ebaedd0	0.36509562
36	0x3f355dca	0.70846236
37	0x3e91c78e	0.2847256
38	0xbe82a956	-0.25519818
39	0x3f2bf08d	0.67163926
40	0x3eae2230	0.34010458
41	0xbea1296c	-0.31476915
42	0xbf0316fe	-0.5120696
43	0xbee2c2bc	-0.44289196
44	0xbedac366	-0.42727202
45	0xbe59404f	-0.21215938
46	0xbe0d3461	-0.13789512
47	0x3ebeb348	0.37246156
48	0x3e811b89	0.2521632
49	0xbf64d880	-0.8939285
50	0xbf44c484	-0.7686236
51	0xbe54f88c	-0.20797938
52	0xbf2b8de3	-0.67013377
53	0xbe0def90	-0.13860917
54	0x3f2d272c	0.67637897
55	0x3f376deb	0.71652097
56	0x3f42e51a	0.7613083
57	0x3f22846e	0.6348332
58	0x3d0d7f2b	0.034545105
59	0x3f331099	0.699472
60	0x3f50c9b8	0.815578
61	0x3e540542	0.2070513
62	0x3edde3d4	0.43337882
63	0x3de1d011	0.11026014

layer_list.conv1.att_dst f4 [1, 8, 8]
0	0xbe539dce	-0.20665666
1	0xbd34633a	-0.044039942
2	0xbe19ff06	-0.1503869
3	0xbd89e8d7	-0.06733864
4	0x3db14861	0.08656383
5	0xbe406653	-0.18789034
6	0xbd9abe00	-0.07555771
7	0x3e1bcc75	0.15214713
8	0xbd2e55bd	-0.042562235
9	0x3ea40046	0.3203146
10	0xbe1a80b8	-0.15088165
11	0x3dac12d8	0.08402032
12	0x3e645043	0.22296242
13	0xbde7bce3	-0.11315324
14	0xbce7c5c6	-0.028292548
15	0x3e20c8aa	0.15701547
16	0x3cbffb58	0.02343528
17	0xbda44900	-0.08021736
18	0x3e278b34	0.16361696
19	0xbd9a88b4	-0.07545605
20	0xbe586064	-0.2113052
21	0x3e70edfe	0.23528287
22	0xbc8958df	-0.01676601
23	0xbd8ecad6	-0.06972282
24	0x3e4df85e	0.20114276
25	0xbdc22c0c	-0.094810575
26	0xbe0bdb6d	-0.13657923
27	0x3e7953bd	0.2434835
28	0xbe16cff2	-0.14727762
29	0x3e9734de	0.29532522
30	0xbe237b5e	-0.1596503
31	0x3d9c411e	0.076296076
32	0x3bee7ef8	0.0072783194
33	0x3e52cb54	0.20585376
34	0x3ca4f90f	0.020138292
35	0x3cdd856d	0.027041161
36	0x3e09ece4	0.13469273
37	0x3e1fcf43	0.15606408
38	0xbe2c7e42	-0.16845039
39	0x3df8deac	0.12151846
40	0x3d1e7641	0.038686994
41	0xbe200694	-0.1562751
42	0xbdcd4183	-0.10022261
43	0xbdb64c80	-0.0890131
44	0xbd7507ba	-0.05982182
45	0xbe1788f2	-0.14798334
46	0xbe02ba99	-0.12766494
47	0x3e4129e3	0.18863635
48	0xbcd695b9	-0.02619444
49	0xbe87e79b	-0.26543888
50	0xbe099ee9	-0.13439526
51	0x3de55fbf	0.11199903
52	0xbdcfa33b	-0.101385556
53	0xbc3b2e9b	-0.011424686
54	0x3db24e1e	0.08706306
55	0x3e1d3fe3	0.15356402
56	0x3d8ca343	0.06867077
57	0x3e0b07ea	0.13577238
58	0xbd13d3a5	-0.03609051
59	0x3d60bb53	0.054866146
60	0x3e363b3d	0.17796035
61	0xbd9f246b	-0.07770618
62	0x3db04dc0	0.0860858
63	0xbe68fd0d	-0.22752781

layer_list.conv1.bias f4 [64]
0	0xbc07dbf7	-0.00829219
1	0x3c1fa288	0.00974334
2	0x3c4e832f	0.012604519
3	0xbc8d2901	-0.017231466
4	0x3d0861e4	0.03329648
5	0x3c7824fe	0.015145538
6	0x3bc7fe01	0.0061032777
7	0x3cc71f67	0.024306966
8	0x3b1d836e	0.0024034637
9	0xbc464c3f	-0.012103139
10	0x3d173e70	0.03692478
11	0xbbbd3a3d	-0.005774765
12	0xbc56bb17	-0.013106129
13	0x3cbbcdaf	0.022925226
14	0x3ba3286f	0.0049791853
15	0xbb95b149	-0.004568253
16	0xbadd4181	-0.0016880484
17	0x3c81304a	0.015770096
18	0x3cb1cc80	0.021703959
19	0x3cb3483d	0.021885032
20	0x3d3b8c78	0.04578826
21	0xbc1dc723	-0.009629997
22	0x3d3468c5	0.04404523
23	0xba4a974a	-0.00077282323
24	0x3ca4e998	0.020130917
25	0xbbc4f243	-0.006010325
26	0xbcdbe838	-0.026844129
27	0xbcb37752	-0.021907482
28	0x3a67005e	0.00088120054
29	0x3cc8c04f	0.024505762
30	0xbbe529d6	-0.0069935126
31	0x3b885131	0.0041600694
32	0x3bd41c7d	0.0064731226
33	0x3afaa8a3	0.0019123744
34	0x3cdf1a4f	0.027234225
35	0x3c8c4967	0.017124845
36	0x3bfb2233	0.007663989
37	0x3d43d77e	0.04781293
38	0x3c7b19fb	0.015326018
39	0x3c1ad8a1	0.009451062
40	0x3d0ab59d	0.033864606
41	0x3d0246f0	0.031805933
42	0xbcf47ff4	-0.029846169
43	0x3ca3fdc7	0.020018471
44	0xbcae6055	-0.021286169
45	0xbab0348d	-0.0013443396
46	0xbceef44e	-0.029169228
47	0x3885e5b3	6.384719e-05
48	0x3bfdd55b	0.007746381
49	0xbd127764	-0.03575839
50	0xbc0cf526	-0.00860337
51	0x3cb2731a	0.0217834
52	0xbb013563	-0.001971566
53	0x3d2a7553	0.041615795
54	0xbd176ca6	-0.03696885
55	0xbcd59e41	-0.026076438
56	0xbcfddb2a	-0.030988295
57	0xbcc565a5	-0.02409632
58	0x3b98e281	0.0046656732
59	0xbba5e598	-0.00506277
60	0x3c59c041	0.013290466
61	0x3c639ab3	0.013891864
62	0x3ca3fee7	0.020019008
63	0x3c80806a	0.015686233

layer_list.conv1.lin_src.weight f4 [64, 1433]
0	0x3d7bf8ea	0.06151668
1	0xbc20640f	-0.009789481
2	0xbcef0b83	-0.029180294
3	0xbd9b7d26	-0.075922295
4	0x3ea5479d	0.322812
5	0x3cf0da7f	0.029401062
6	0xbde07410	-0.10959637
7	0x3da20a04	0.079120666
8	0xbc8f396f	-0.017483441
9	0x3cede1d5	0.02903835
10	0xbc08be7d	-0.008346197
11	0x39f662b4	0.00046994316
12	0xbd8c57ae	-0.06852661
13	0xbd9dab2d	-0.07698665
14	0x3dadabc5	0.08480028
15	0xbc7feba5	-0.015620147
16	0xbdcddb77	-0.10051625
17	0xbc8b3571	-0.016993256
18	0xbd8e0860	-0.06935191
19	0xbf0bcbf7	-0.546081
20	0xba1ffbc8	-0.0006102887
21	0x3cf3bf77	0.029754383
22	0xbc506165	-0.012718533
23	0xbd749f17	-0.059722032
24	0x3d87a77a	0.066237405
25	0x3df69ed8	0.12042016
26	0x3e127c31	0.14305188
27	0xbcfe232b	-0.031022629
28	0x3d64227f	0.05569696
29	0x3d645599	0.055745695
30	0x3e0582e6	0.13038215
31	0xbc61f952	-0.013792353
32	0xbc167393	-0.0091828285
33	0x3c13ae95	0.009013792
34	0xbc4bf9c4	-0.0124496855
35	0xbc1fbca6	-0.009749567
36	0xbc6093b6	-0.013707092
37	0x3be4b3be	0.0069794348
38	0xbd7994c6	-0.060932897
39	0xbe072814	-0.13198882
40	0x3e3055c9	0.17220224
41	0x3bcc66d8	0.006237846
42	0xbc91e49c	-0.017809205
43	0xbceb7ee7	-0.028747035
44	0xbbf526d4	-0.0074814353
45	0x3d6f39f8	0.058404893
46	0xbbd985af	-0.006638251
47	0x3df4c21a	0.119510844
48	0x3d9def94	0.077117115
49	0x3d3f3b0e	0.04668718
50	0x3d919e33	0.07110252
51	0xbe95bb64	-0.2924453
52	0xbc18638b	-0.009301077
53	0xbd6427a4	-0.055701867
54	0xbcf5346b	-0.029932221
55	0x3d0ef1e8	0.03489867
56	0x3d439819	0.047752474
57	0x3ccf9829	0.02534111
58	0xbe004778	-0.12527263
59	0xbd3f7839	-0.046745513
60	0x3cec61f9	0.02885531
61	0xbe4a97cd	-0.1978447
62	0xbdaac0d6	-0.08337562
63	0x3cecfd9d	0.028929526
64	0xbdad8578	-0.08472723
65	0x3e2def33	0.16985779
66	0xbcbc2b70	-0.022969931
67	0xbd911958	-0.07084912
68	0x3d204f37	0.039138045
69	0xbd6951a9	-0.056962643
70	0x3d1f1581	0.038838867
71	0xbd611b30	-0.05495757
72	0xbb2e1a99	-0.0026566146
73	0xbd2f86df	-0.042853232
74	0x3db2f22c	0.08737597
75	0xbd29a4ba	-0.04141686
76	0x3dc974c5	0.09836725
77	0xbe084cae	-0.13310501
78	0x3df163a3	0.11786582
79	0xbcde92f4	-0.027169682
80	0xbe1b17a5	-0.15145738
81	0x3dd7f5f0	0.10544956
82	0x3ce9aa0f	0.028523473
83	0x3b001586	0.001954408
84	0xbb5ca4fe	-0.003366768
85	0xbdcc9e72	-0.099911585
86	0x3c4841f3	0.012222755
87	0x37eace4c	2.7991038e-05
88	0xbdde8151	-0.10864509
89	0xbd2eef80	-0.042708874
90	0xbca632c8	-0.020287886
91	0x3d4e347b	0.050343018
92	0xbb8eef61	-0.0043620323
93	0x3ec8341b	0.39102253
94	0x3d545c52	0.051845856
95	0xbce72b13	-0.028218782
96	0x3caa1473	0.020761704
97	0x3df51041	0.11965991
98	0x3d5e6cc5	0.05430295
99	0xbbbf0957	-0.005829971
100	0xbdb691d1	-0.08914531
101	0xbb929da1	-0.0044743572
102	0xbd9e2f0d	-0.07723818
103	0xbe1eced8	-0.15508592
104	0xbc2e599a	-0.01064148
105	0x3bf215bb	0.0073878444
106	0x3d3dc0c8	0.04632643
107	0xbd3a5923	-0.045495164
108	0x3df6c276	0.12048809
109	0xbd5575cd	-0.052114297
110	0x3c495b09	0.012289771
111	0x3c41d0fe	0.011829613
112	0xbd08cfb6	-0.033401214
113	0x3b1c39ce	0.0023838165
114	0xbd920014	-0.07128921
115	0xbd01697b	-0.031594735
116	0xba6744f4	-0.00088222255
117	0xbc049eda	-0.008094514
118	0xbdd50b13	-0.10402503
119	0x3ca76bad	0.020437086
120	0xbccc1c27	-0.024915768
121	0x3d266c0f	0.040630396
122	0x3d2752b7	0.040850367
123	0x3d7d335b	0.061816555
124	0xbbbc9eef	-0.005756251
125	0x3e90396e	0.28168815
126	0x3da53715	0.08067147
127	0x3d774c76	0.060375653
128	0x3c0d2a93	0.0086161075
129	0xbd70debd	-0.05880617
130	0xbe4661f3	-0.19373302
131	0xbd0f66b4	-0.035010055
132	0x3c871ca5	0.016493151
133	0x3da6a78e	0.08137427
134	0xbcae57c6	-0.021282088
135	0xbd50557e	-0.05086278
136	0xbcabe65f	-0.020983873
137	0xbb057f0a	-0.002036991
138	0xbbd43325	-0.0064758235
139	0x3bdf06a9	0.006806214
140	0xbe56f4ed	-0.2099187
141	0xbd0275db	-0.031850677
142	0x3d810ef9	0.06301684
143	0xbd738673	-0.059454393
144	0xbcddeb17	-0.027089639
145	0xbd86e913	-0.06587424
146	0xbe83cd9b	-0.25742802
147	0xbca581cd	-0.020203495
148	0xbcb815ec	-0.02247139
149	0xbdf05adb	-0.11736079
150	0x3cdf4e55	0.027259031
151	0xbd630970	-0.055428922
152	0xbc8580ea	-0.016296823
153	0xbd3a6c9b	-0.04551373
154	0xbdc41a29	-0.09575302
155	0x3d43d388	0.047809154
156	0xbc9b595e	-0.018963512
157	0xbd9ae085	-0.07562355
158	0xbd551e22	-0.05203069
159	0xbc8cfffc	-0.017211907
160	0xbcb88ed7	-0.022529049
161	0x3d10c8d2	0.035347767
162	0xbe1052a6	-0.14094028
163	0xbcc37f0e	-0.023864295
164	0xbcfff9c6	-0.031247031
165	0x3c798004	0.015228275
166	0x3ac33b1e	0.0014894938
167	0xbdfebf00	-0.12438774
168	0x3e224c20	0.15849352
169	0x3ce1ef57	0.027579946
170	0x3d018b0a	0.03162674
171	0xbd84afbe	-0.06478833
172	0xbd34f14d	-0.044175435
173	0x3e2a7322	0.16645482
174	0x3cecc122	0.028900687
175	0xbd57bca4	-0.052670136
176	0xbe1d3394	-0.15351707
177	0x3d91baef	0.07115733
178	0x3d4d4acc	0.05012016
179	0x3e13d87d	0.14438052
180	0xbbf51806	-0.0074796705
181	0xbcdfe8fe	-0.027332779
182	0x3b113e08	0.0022162218
183	0xb72bf9dc	-1.0250569e-05
184	0x3c512d61	0.012767167
185	0xbc8da236	-0.017289262
186	0x3dc75e7c	0.09734818
187	0x3e0558c5	0.13022144
188	0x3d2cb10f	0.042161044
189	0xbd48dda5	-0.0490395
190	0x3c2afeb0	0.010436699
191	0x3d354333	0.04425354
192	0xbde5eb0e	-0.11226474
193	0x3d090360	0.033450484
194	0xbb999f38	-0.00468817
195	0xbd720054	-0.059082344
196	0x3bab41d9	0.0052263555
197	0x3b3cf4e5	0.0028832492
198	0xbd5d6967	-0.054055598
199	0xbbfc3373	-0.007696563
200	0x3ded1cdf	0.11577772
201	0xbd269197	-0.04066619
202	0x3baed63c	0.0053355973
203	0xbdf464bd	-0.11933277
204	0xbddacc91	-0.10683549
205	0x3e554392	0.20826557
206	0xbc81d1f7	-0.01584719
207	0xbe35a702	-0.1773949
208	0xbd8cdfdb	-0.068786345
209	0xbbc8da39	-0.00612953
210	0x3b049392	0.002022956
211	0x3e414262	0.1887298
212	0xbdbfa0f0	-0.09356868
213	0xbcc60a97	-0.024174972
214	0x3d960d4d	0.07326756
215	0x3ce8964a	0.028391976
216	0xbd08b67b	-0.033377152
217	0xbd9d1cdd	-0.07671521
218	0xbc11727a	-0.008877391
219	0xbb8ac91f	-0.0042354013
220	0xbc750ede	-0.014957158
221	0x3c61b6d4	0.0137765
222	0xbd8de459	-0.069283195
223	0xbc9a84bb	-0.018862119
224	0xbd022043	-0.03176905
225	0xbe764711	-0.24050547
226	0xbd5862cc	-0.052828595
227	0xbcd72b09	-0.026265638
228	0xbded304c	-0.115814775
229	0xbb30408c	-0.0026893942
230	0xbd18d1fc	-0.03730963
231	0xbb12ca65	-0.0022398469
232	0xbb75ea41	-0.003752366
233	0x3e13e7b1	0.14443852
234	0x3e15bfb6	0.14623913
235	0xbcbfcf78	-0.023414358
236	0x3d0fa30c	0.035067603
237	0x3e1c6d67	0.15276109
238	0xbe848eb4	-0.25890124
239	0xbcbc3508	-0.022974506
240	0xbd63df82	-0.055633076
241	0xbbaa8ae2	-0.0052045444
242	0xbb9e5a08	-0.00483251
243	0xba241ce5	-0.0006260409
244	0x3d87f0a7	0.06637698
245	0x3d53895d	0.05164467
246	0xbd213131	-0.039353553
247	0x3e2b82c9	0.1674911
248	0x3d143559	0.03618369
249	0x3cab8671	0.02093813
250	0x3ca5fbed	0.02026173
251	0xbc468b84	-0.012118224
252	0xbd18082c	-0.03711717
253	0xbca2e6af	-0.01988539
254	0xbd6aec8b	-0.05735449
255	0x3cf5128d	0.029916072

layer_list.conv1.lin_dst.weight f4 [64, 1433]
0	0x3d7bf8ea	0.06151668
1	0xbc20640f	-0.009789481
2	0xbcef0b83	-0.029180294
3	0xbd9b7d26	-0.075922295
4	0x3ea5479d	0.322812
5	0x3cf0da7f	0.029401062
6	0xbde07410	-0.10959637
7	0x3da20a04	0.079120666
8	0xbc8f396f	-0.017483441
9	0x3cede1d5	0.02903835
10	0xbc08be7d	-0.008346197
11	0x39f662b4	0.00046994316
12	0xbd8c57ae	-0.06852661
13	0xbd9dab2d	-0.07698665
14	0x3dadabc5	0.08480028
15	0xbc7feba5	-0.015620147
16	0xbdcddb77	-0.10051625
17	0xbc8b3571	-0.016993256
18	0xbd8e0860	-0.06935191
19	0xbf0bcbf7	-0.546081
20	0xba1ffbc8	-0.0006102887
21	0x3cf3bf77	0.029754383
22	0xbc506165	-0.012718533
23	0xbd749f17	-0.059722032
24	0x3d87a77a	0.066237405
25	0x3df69ed8	0.12042016
26	0x3e127c31	0.14305188
27	0xbcfe232b	-0.031022629
28	0x3d64227f	0.05569696
29	0x3d645599	0.055745695
30	0x3e0582e6	0.13038215
31	0xbc61f952	-0.013792353
32	0xbc167393	-0.0091828285
33	0x3c13ae95	0.009013792
34	0xbc4bf9c4	-0.0124496855
35	0xbc1fbca6	-0.009749567
36	0xbc6093b6	-0.013707092
37	0x3be4b3be	0.0069794348
38	0xbd7994c6	-0.060932897
39	0xbe072814	-0.13198882
40	0x3e3055c9	0.17220224
41	0x3bcc66d8	0.006237846
42	0xbc91e49c	-0.017809205
43	0xbceb7ee7	-0.028747035
44	0xbbf526d4	-0.0074814353
45	0x3d6f39f8	0.058404893
46	0xbbd985af	-0.006638251
47	0x3df4c21a	0.119510844
48	0x3d9def94	0.077117115
49	0x3d3f3b0e	0.04668718
50	0x3d919e33	0.07110252
51	0xbe95bb64	-0.2924453
52	0xbc18638b	-0.009301077
53	0xbd6427a4	-0.055701867
54	0xbcf5346b	-0.029932221
55	0x3d0ef1e8	0.03489867
56	0x3d439819	0.047752474
57	0x3ccf9829	0.02534111
58	0xbe004778	-0.12527263
59	0xbd3f7839	-0.046745513
60	0x3cec61f9	0.02885531
61	0xbe4a97cd	-0.1978447
62	0xbdaac0d6	-0.08337562
63	0x3cecfd9d	0.028929526
64	0xbdad8578	-0.08472723
65	0x3e2def33	0.16985779
66	0xbcbc2b70	-0.022969931
67	0xbd911958	-0.07084912
68	0x3d204f37	0.039138045
69	0xbd6951a9	-0.056962643
70	0x3d1f1581	0.038838867
71	0xbd611b30	-0.05495757
72	0xbb2e1a99	-0.0026566146
73	0xbd2f86df	-0.042853232
74	0x3db2f22c	0.08737597
75	0xbd29a4ba	-0.04141686
76	0x3dc974c5	0.09836725
77	0xbe084cae	-0.13310501
78	0x3df163a3	0.11786582
79	0xbcde92f4	-0.027169682
80	0xbe1b17a5	-0.15145738
81	0x3dd7f5f0	0.10544956
82	0x3ce9aa0f	0.028523473
83	0x3b001586	0.001954408
84	0xbb5ca4fe	-0.003366768
85	0xbdcc9e72	-0.099911585
86	0x3c4841f3	0.012222755
87	0x37eace4c	2.7991038e-05
88	0xbdde8151	-0.10864509
89	0xbd2eef80	-0.042708874
90	0xbca632c8	-0.020287886
91	0x3d4e347b	0.050343018
92	0xbb8eef61	-0.0043620323
93	0x3ec8341b	0.39102253
94	0x3d545c52	0.051845856
95	0xbce72b13	-0.028218782
96	0x3caa1473	0.020761704
97	0x3df51041	0.11965991
98	0x3d5e6cc5	0.05430295
99	0xbbbf0957	-0.005829971
100	0xbdb691d1	-0.08914531
101	0xbb929da1	-0.0044743572
102	0xbd9e2f0d	-0.07723818
103	0xbe1eced8	-0.15508592
104	0xbc2e599a	-0.01064148
105	0x3bf215bb	0.0073878444
106	0x3d3dc0c8	0.04632643
107	0xbd3a5923	-0.045495164
108	0x3df6c276	0.12048809
109	0xbd5575cd	-0.052114297
110	0x3c495b09	0.012289771
111	0x3c41d0fe	0.011829613
112	0xbd08cfb6	-0.033401214
113	0x3b1c39ce	0.0023838165
114	0xbd920014	-0.07128921
115	0xbd01697b	-0.031594735
116	0xba6744f4	-0.00088222255
117	0xbc049eda	-0.008094514
118	0xbdd50b13	-0.10402503
119	0x3ca76bad	0.020437086
120	0xbccc1c27	-0.024915768
121	0x3d266c0f	0.040630396
122	0x3d2752b7	0.040850367
123	0x3d7d335b	0.061816555
124	0xbbbc9eef	-0.005756251
125	0x3e90396e	0.28168815
126	0x3da53715	0.08067147
127	0x3d774c76	0.060375653
128	0x3c0d2a93	0.0086161075
129	0xbd70debd	-0.05880617
130	0xbe4661f3	-0.19373302
131	0xbd0f66b4	-0.035010055
132	0x3c871ca5	0.016493151
133	0x3da6a78e	0.08137427
134	0xbcae57c6	-0.021282088
135	0xbd50557e	-0.05086278
136	0xbcabe65f	-0.020983873
137	0xbb057f0a	-0.002036991
138	0xbbd43325	-0.0064758235
139	0x3bdf06a9	0.006806214
140	0xbe56f4ed	-0.2099187
141	0xbd0275db	-0.031850677
142	0x3d810ef9	0.06301684
143	0xbd738673	-0.059454393
144	0xbcddeb17	-0.027089639
145	0xbd86e913	-0.06587424
146	0xbe83cd9b	-0.25742802
147	0xbca581cd	-0.020203495
148	0xbcb815ec	-0.02247139
149	0xbdf05adb	-0.11736079
150	0x3cdf4e55	0.027259031
151	0xbd630970	-0.055428922
152	0xbc8580ea	-0.016296823
153	0xbd3a6c9b	-0.04551373
154	0xbdc41a29	-0.09575302
155	0x3d43d388	0.047809154
156	0xbc9b595e	-0.018963512
157	0xbd9ae085	-0.07562355
158	0xbd551e22	-0.05203069
159	0xbc8cfffc	-0.017211907
160	0xbcb88ed7	-0.022529049
161	0x3d10c8d2	0.035347767
162	0xbe1052a6	-0.14094028
163	0xbcc37f0e	-0.023864295
164	0xbcfff9c6	-0.031247031
165	0x3c798004	0.015228275
166	0x3ac33b1e	0.0014894938
167	0xbdfebf00	-0.12438774
168	0x3e224c20	0.15849352
169	0x3ce1ef57	0.027579946
170	0x3d018b0a	0.03162674
171	0xbd84afbe	-0.06478833
172	0xbd34f14d	-0.044175435
173	0x3e2a7322	0.16645482
174	0x3cecc122	0.028900687
175	0xbd57bca4	-0.052670136
176	0xbe1d3394	-0.15351707
177	0x3d91baef	0.07115733
178	0x3d4d4acc	0.05012016
179	0x3e13d87d	0.14438052
180	0xbbf51806	-0.0074796705
181	0xbcdfe8fe	-0.027332779
182	0x3b113e08	0.0022162218
183	0xb72bf9dc	-1.0250569e-05
184	0x3c512d61	0.012767167
185	0xbc8da236	-0.017289262
186	0x3dc75e7c	0.09734818
187	0x3e0558c5	0.13022144
188	0x3d2cb10f	0.042161044
189	0xbd48dda5	-0.0490395
190	0x3c2afeb0	0.010436699
191	0x3d354333	0.04425354
192	0xbde5eb0e	-0.11226474
193	0x3d090360	0.033450484
194	0xbb999f38	-0.00468817
195	0xbd720054	-0.059082344
196	0x3bab41d9	0.0052263555
197	0x3b3cf4e5	0.0028832492
198	0xbd5d6967	-0.054055598
199	0xbbfc3373	-0.007696563
200	0x3ded1cdf	0.11577772
201	0xbd269197	-0.04066619
202	0x3baed63c	0.0053355973
203	0xbdf464bd	-0.11933277
204	0xbddacc91	-0.10683549
205	0x3e554392	0.20826557
206	0xbc81d1f7	-0.01584719
207	0xbe35a702	-0.1773949
208	0xbd8cdfdb	-0.068786345
209	0xbbc8da39	-0.00612953
210	0x3b049392	0.002022956
211	0x3e414262	0.1887298
212	0xbdbfa0f0	-0.09356868
213	0xbcc60a97	-0.024174972
214	0x3d960d4d	0.07326756
215	0x3ce8964a	0.028391976
216	0xbd08b67b	-0.033377152
217	0xbd9d1cdd	-0.07671521
218	0xbc11727a	-0.008877391
219	0xbb8ac91f	-0.0042354013
220	0xbc750ede	-0.014957158
221	0x3c61b6d4	0.0137765
222	0xbd8de459	-0.069283195
223	0xbc9a84bb	-0.018862119
224	0xbd022043	-0.03176905
225	0xbe764711	-0.24050547
226	0xbd5862cc	-0.052828595
227	0xbcd72b09	-0.026265638
228	0xbded304c	-0.115814775
229	0xbb30408c	-0.0026893942
230	0xbd18d1fc	-0.03730963
231	0xbb12ca65	-0.0022398469
232	0xbb75ea41	-0.003752366
233	0x3e13e7b1	0.14443852
234	0x3e15bfb6	0.14623913
235	0xbcbfcf78	-0.023414358
236	0x3d0fa30c	0.035067603
237	0x3e1c6d67	0.15276109
238	0xbe848eb4	-0.25890124
239	0xbcbc3508	-0.022974506
240	0xbd63df82	-0.055633076
241	0xbbaa8ae2	-0.0052045444
242	0xbb9e5a08	-0.00483251
243	0xba241ce5	-0.0006260409
244	0x3d87f0a7	0.06637698
245	0x3d53895d	0.05164467
246	0xbd213131	-0.039353553
247	0x3e2b82c9	0.1674911
248	0x3d143559	0.03618369
249	0x3cab8671	0.02093813
250	0x3ca5fbed	0.02026173
251	0xbc468b84	-0.012118224
252	0xbd18082c	-0.03711717
253	0xbca2e6af	-0.01988539
254	0xbd6aec8b	-0.05735449
255	0x3cf5128d	0.029916072

layer_list.conv2.att_src f4 [1, 1, 7]
0	0xbb3d6c6c	-0.0028903736
1	0x3ddc26a3	0.10749557
2	0xbda4facc	-0.08055648
3	0x3c4e48c6	0.012590593
4	0x3dc6e558	0.097117126
5	0x3d386757	0.045020428
6	0x3d87aa04	0.06624225

layer_list.conv2.att_dst f4 [1, 1, 7]
0	0xbeb1c09d	-0.34717265
1	0xbd7b4db4	-0.0613534
2	0x3f24acd3	0.6432621
3	0xbed4e0ab	-0.41577658
4	0xbe381c48	-0.17979538
5	0xbec59a94	-0.38594496
6	0x3dae0b52	0.08498253

layer_list.conv2.bias f4 [7]
0	0xbe2f772d	-0.17135306
1	0xbf0a9d24	-0.5414603
2	0xbdddce99	-0.10830421
3	0x3f248b64	0.64275193
4	0xbce61155	-0.028084436
5	0xbe7bf225	-0.2460409
6	0xbf300697	-0.68760055

layer_list.conv2.lin_src.weight f4 [7, 64]
0	0x3f3effb4	0.7460892
1	0x3f98d7a1	1.1940805
2	0x3f39613e	0.72414005
3	0xbf0bb5c0	-0.54574203
4	0x3f8daddb	1.1068681
5	0x3f6ee028	0.93310785
6	0x3f352ba5	0.7076972
7	0x3f77d4f4	0.96809316
8	0xbfa7b519	-1.3102142
9	0x3fa6eba3	1.3040661
10	0xbf95d96a	-1.1706975
11	0x3fa45ecf	1.2841433
12	0xbf2f6ab9	-0.6852222
13	0xbf984cb4	-1.1898408
14	0xbf37bfe2	-0.71777165
15	0xbfa6a8b8	-1.3020239
16	0x3f5529c7	0.8326687
17	0x3fa4deca	1.288049
18	0xbfc29cce	-1.5204103
19	0x3f60e66e	0.8785161
20	0x3f9ffe35	1.2499453
21	0xbf9ba48e	-1.2159593
22	0xbe9cae7d	-0.30601874
23	0x3fa52d09	1.2904369
24	0xbf7ce15a	-0.9878136
25	0x3f9b4077	1.2129048
26	0x3f97cede	1.1860006
27	0xbf973d41	-1.1815568
28	0x3e60bb0f	0.21946357
29	0xbf8bb0a7	-1.0913285
30	0xbf660702	-0.89854443
31	0x3f52dfdd	0.8237284
32	0xbece21f3	-0.40260276
33	0x3fa42ac0	1.2825546
34	0xbf496819	-0.78674465
35	0xbcc71aa7	-0.024304701
36	0x3f9e70ce	1.2378175
37	0x3f9ad5d3	1.2096504
38	0xbf9f0edf	-1.2426413
39	0x3f9df0fb	1.2339166
40	0x3f8b1d03	1.0868229
41	0x3f82baae	1.021322
42	0xbf6dc27e	-0.92874897
43	0xbf5e37df	-0.86804
44	0x3fb67dd3	1.4257149
45	0xbf40d949	-0.7533155
46	0xbf6ee453	-0.93317145
47	0xbf94e405	-1.1632086
48	0xbf9ef7e8	-1.2419405
49	0x3f8eda37	1.1160344
50	0x3f4b316f	0.79372305
51	0xbfb534cc	-1.4156737
52	0x3f9f88e6	1.2463653
53	0xbfbb9908	-1.4656076
54	0xbf677568	-0.9041352
55	0xbf68796e	-0.90810287
56	0xbf6f79e8	-0.9354539
57	0x3f837a48	1.0271692
58	0x3ee38f33	0.4444519
59	0xbf6b59b8	-0.91933775
60	0x3fa094b7	1.2545384
61	0x3f9367b6	1.1516025
62	0x3f99e691	1.2023488
63	0xbfaf6092	-1.3701346
64	0x3f0a880d	0.54113847
65	0x3f67977a	0.9046551
66	0xbe0bac6d	-0.13639994
67	0x3fb29514	1.3951745
68	0xbf92fee4	-1.1484036
69	0x3f7e9f5e	0.99461925
70	0xbf68c119	-0.90919644
71	0xbf97aad4	-1.1849008
72	0x3f6ae76a	0.9175936
73	0x3fb7ce6f	1.4359874
74	0xbed9ff9c	-0.42577827
75	0xbf7088de	-0.9395884
76	0x3f815be9	1.0106174
77	0x3fb13c79	1.384658
78	0xbf3296f9	-0.69761616
79	0x3f8a2916	1.0793788
80	0x3f26d427	0.6516747
81	0x3f8745e0	1.0568199
82	0x3f0f9610	0.5608835
83	0xbfacfc7a	-1.351455
84	0xbf62ce43	-0.8859598
85	0x3f96cd31	1.178137
86	0x3f6ed75b	0.93297356
87	0xbcd3c1dc	-0.025849275
88	0xbf4e1dd6	-0.80514276
89	0x3f927d2a	1.1444447
90	0x3e03e839	0.12881555
91	0xbebe32b4	-0.37148058
92	0x3f8fb3fc	1.1226802
93	0xbf72f0b7	-0.9489855
94	0x3fa5c54f	1.2950839
95	0xbf938ad9	-1.1526748
96	0x3e08d718	0.13363302
97	0xbf8e9324	-1.1138654
98	0xbf533b3b	-0.82512254
99	0xbe0b1bf1	-0.13584878
100	0xbf9e78ec	-1.2380652
101	0xbf946d58	-1.1595869
102	0x3f66f64f	0.9021959
103	0xbf51a6af	-0.81894964
104	0xbf6928a8	-0.9107766
105	0xbf8f3ca8	-1.1190386
106	0xbf4d6961	-0.8023892
107	0xbf22136d	-0.6331089
108	0x3d6e6c2b	0.058208626
109	0xbdedda43	-0.11613896
110	0x3faa13d3	1.32873
111	0x3e88d2ce	0.2672333
112	0x3f83dae6	1.0301178
113	0x3fa63b19	1.2986785
114	0x3f895bea	1.0731175
115	0xbfadac0e	-1.3568132
116	0xbf75f8b9	-0.96082646
117	0x3fa2d51f	1.2721289
118	0x3f924a6e	1.1428964
119	0xbeb35b21	-0.35030463
120	0x3fb2a04c	1.3955169
121	0x3f0a5952	0.5404254
122	0xbfa7225d	-1.3057362
123	0x3f84a149	1.036172
124	0x3fb03edd	1.3769184
125	0xbf87e4ee	-1.0616739
126	0xbe80f3e3	-0.2518607
127	0xbf918c3e	-1.1370924
128	0xbf8cd02a	-1.1001027
129	0xbf9b4583	-1.2130588
130	0x3f2bd0ab	0.6711528
131	0xbf3c01de	-0.7344035
132	0xbf8cbb98	-1.0994749
133	0x3f8ef13f	1.1167372
134	0xbf581318	-0.84404135
135	0xbf80fdea	-1.0077488
136	0x3f8008ff	1.0002745
137	0x3ec187f2	0.3779903
138	0xbf0e6f1e	-0.556383
139	0xbf926b0e	-1.143892
140	0x3f864761	1.0490533
141	0xbf8d8a5f	-1.1057853
142	0xbf861e3f	-1.047798
143	0xbd86cdb9	-0.06582207
144	0x3f133b6e	0.5751256
145	0x3f68423e	0.9072608
146	0x3f4ef05a	0.808355
147	0x3e453366	0.19257888
148	0xbf98bed8	-1.1933241
149	0x3f51de2e	0.81979644
150	0xbf80e2bb	-1.0069193
151	0x3f6e4322	0.93071187
152	0x3f70fdf8	0.94137526
153	0x3f6b805f	0.91992754
154	0xbf66a320	-0.9009266
155	0x3f990844	1.1955647
156	0xbf8e3775	-1.1110674
157	0x3f95d04f	1.1704196
158	0xbf4a1f18	-0.78953695
159	0x3f56da5c	0.8392694
160	0xbf8ff3d3	-1.1246284
161	0xbf997ae2	-1.1990626
162	0x3f89a705	1.0754095
163	0xbfa64ff1	-1.2993146
164	0x3f7dce7b	0.9914319
165	0xbf729888	-0.94763994
166	0x3f9221f2	1.1416609
167	0xbee92f8f	-0.45544097
168	0xbf89c82c	-1.0764213
169	0xbf7ae26e	-0.98001754
170	0x3f8b378e	1.0876329
171	0x3f943e34	1.1581483
172	0x3f8b9758	1.0905561
173	0x3f411a69	0.75430924
174	0xbf6a92a8	-0.9163003
175	0x3f130dd8	0.57443
176	0x3f9e624e	1.237375
177	0xbf939b98	-1.1531858
178	0xbf8a5d80	-1.0809784
179	0xbf7c9835	-0.9866975
180	0xbf79b748	-0.9754529
181	0xbf93c644	-1.1544881
182	0x3f995d26	1.1981552
183	0x3fa0643d	1.253059
184	0x3f96d1e5	1.1782805
185	0x3f8b7a6a	1.0896733
186	0x3f61f7bc	0.8826864
187	0x3f804ea1	1.0023996
188	0x3f539e3c	0.8266332
189	0x3f9e3f9b	1.2363161
190	0x3f82b99c	1.0212893
191	0x3fa0ccf2	1.2562544
192	0xbf75e136	-0.9604677
193	0x3f7693bc	0.96319175
194	0xbf9011b9	-1.1255409
195	0xbee1bf9a	-0.44091493
196	0x3ed84ee6	0.42247695
197	0xbfa96a3e	-1.3235548
198	0xbf9b943d	-1.2154614
199	0x3f8bfd4e	1.0936677
200	0xbf83a3b2	-1.0284331
201	0xbfad0a78	-1.351882
202	0x3f87d72f	1.0612544
203	0xbf97b3ea	-1.185178
204	0xbf8aefea	-1.0854466
205	0x3f988fb7	1.1918858
206	0xbf766519	-0.9624801
207	0xbf711db4	-0.9418595
208	0xbf85c7e2	-1.0451624
209	0x3e59456b	0.21217887
210	0x3f57d63c	0.8431127
211	0x3f79b670	0.97544
212	0x3f557c72	0.83393013
213	0xbf595424	-0.84894013
214	0x3f3bc617	0.73349136
215	0xbf98c8f2	-1.1936324
216	0x3f096124	0.5366385
217	0xbfaadb0a	-1.3348095
218	0xbeb6c4df	-0.35697076
219	0x3f5a3ee0	0.8525219
220	0xbf5c3b9f	-0.86028475
221	0x3f8d9a5f	1.1062735
222	0xbe987fd4	-0.29785025
223	0xbf9134f0	-1.134428
224	0x3f94e59b	1.163257
225	0xbf9e8422	-1.2384074
226	0x3f633968	0.8875947
227	0x3f4af492	0.79279435
228	0xbf9cf8d4	-1.2263436
229	0x3f610f8c	0.8791435
230	0xbf551e9e	-0.83249843
231	0xbf771922	-0.96522725
232	0x3f255973	0.64589614
233	0xbf9fe460	-1.249157
234	0xbf8f8790	-1.1213245
235	0xbf920210	-1.140688
236	0xbf8705ee	-1.0548685
237	0xbf9986bd	-1.1994244
238	0xbf7f71c2	-0.99782956
239	0x3f765d9f	0.96236604
240	0xbfad744c	-1.3551116
241	0xbf805ed1	-1.0028936
242	0xbf4495b7	-0.76790947
243	0x3f67c186	0.9052967
244	0xbf7899b9	-0.9710956
245	0x3f4d433a	0.80180705
246	0xbf43e52a	-0.7652155
247	0x3f1b94b1	0.6077376
248	0xbf546ddd	-0.8298014
249	0xbf63ed41	-0.89033896
250	0x3ea113fd	0.31460562
251	0x3f919b96	1.1375606
252	0xbf856c11	-1.0423604
253	0xbfb097f6	-1.3796375
254	0x3f36094d	0.7110794
255	0xbfa467ca	-1.2844174

layer_list.conv2.lin_dst.weight f4 [7, 64]
0	0x3f3effb4	0.7460892
1	0x3f98d7a1	1.1940805
2	0x3f39613e	0.72414005
3	0xbf0bb5c0	-0.54574203
4	0x3f8daddb	1.1068681
5	0x3f6ee028	0.93310785
6	0x3f352ba5	0.7076972
7	0x3f77d4f4	0.96809316
8	0xbfa7b519	-1.3102142
9	0x3fa6eba3	1.3040661
10	0xbf95d96a	-1.1706975
11	0x3fa45ecf	1.2841433
12	0xbf2f6ab9	-0.6852222
13	0xbf984cb4	-1.1898408
14	0xbf37bfe2	-0.71777165
15	0xbfa6a8b8	-1.3020239
16	0x3f5529c7	0.8326687
17	0x3fa4deca	1.288049
18	0xbfc29cce	-1.5204103
19	0x3f60e66e	0.8785161
20	0x3f9ffe35	1.2499453
21	0xbf9ba48e	-1.2159593
22	0xbe9cae7d	-0.30601874
23	0x3fa52d09	1.2904369
24	0xbf7ce15a	-0.9878136
25	0x3f9b4077	1.2129048
26	0x3f97cede	1.1860006
27	0xbf973d41	-1.1815568
28	0x3e60bb0f	0.21946357
29	0xbf8bb0a7	-1.0913285
30	0xbf660702	-0.89854443
31	0x3f52dfdd	0.8237284
32	0xbece21f3	-0.40260276
33	0x3fa42ac0	1.2825546
34	0xbf496819	-0.78674465
35	0xbcc71aa7	-0.024304701
36	0x3f9e70ce	1.2378175
37	0x3f9ad5d3	1.2096504
38	0xbf9f0edf	-1.2426413
39	0x3f9df0fb	1.2339166
40	0x3f8b1d03	1.0868229
41	0x3f82baae	1.021322
42	0xbf6dc27e	-0.92874897
43	0xbf5e37df	-0.86804
44	0x3fb67dd3	1.4257149
45	0xbf40d949	-0.7533155
46	0xbf6ee453	-0.93317145
47	0xbf94e405	-1.1632086
48	0xbf9ef7e8	-1.2419405
49	0x3f8eda37	1.1160344
50	0x3f4b316f	0.79372305
51	0xbfb534cc	-1.4156737
52	0x3f9f88e6	1.2463653
53	0xbfbb9908	-1.4656076
54	0xbf677568	-0.9041352
55	0xbf68796e	-0.90810287
56	0xbf6f79e8	-0.9354539
57	0x3f837a48	1.0271692
58	0x3ee38f33	0.4444519
59	0xbf6b59b8	-0.91933775
60	0x3fa094b7	1.2545384
61	0x3f9367b6	1.1516025
62	0x3f99e691	1.2023488
63	0xbfaf6092	-1.3701346
64	0x3f0a880d	0.54113847
65	0x3f67977a	0.9046551
66	0xbe0bac6d	-0.13639994
67	0x3fb29514	1.3951745
68	0xbf92fee4	-1.1484036
69	0x3f7e9f5e	0.99461925
70	0xbf68c119	-0.90919644
71	0xbf97aad4	-1.1849008
72	0x3f6ae76a	0.9175936
73	0x3fb7ce6f	1.4359874
74	0xbed9ff9c	-0.42577827
75	0xbf7088de	-0.9395884
76	0x3f815be9	1.0106174
77	0x3fb13c79	1.384658
78	0xbf3296f9	-0.69761616
79	0x3f8a2916	1.0793788
80	0x3f26d427	0.6516747
81	0x3f8745e0	1.0568199
82	0x3f0f9610	0.5608835
83	0xbfacfc7a	-1.351455
84	0xbf62ce43	-0.8859598
85	0x3f96cd31	1.178137
86	0x3f6ed75b	0.93297356
87	0xbcd3c1dc	-0.025849275
88	0xbf4e1dd6	-0.80514276
89	0x3f927d2a	1.1444447
90	0x3e03e839	0.12881555
91	0xbebe32b4	-0.37148058
92	0x3f8fb3fc	1.1226802
93	0xbf72f0b7	-0.9489855
94	0x3fa5c54f	1.2950839
95	0xbf938ad9	-1.1526748
96	0x3e08d718	0.13363302
97	0xbf8e9324	-1.1138654
98	0xbf533b3b	-0.82512254
99	0xbe0b1bf1	-0.13584878
100	0xbf9e78ec	-1.2380652
101	0xbf946d58	-1.1595869
102	0x3f66f64f	0.9021959
103	0xbf51a6af	-0.81894964
104	0xbf6928a8	-0.9107766
105	0xbf8f3ca8	-1.1190386
106	0xbf4d6961	-0.8023892
107	0xbf22136d	-0.6331089
108	0x3d6e6c2b	0.058208626
109	0xbdedda43	-0.11613896
110	0x3faa13d3	1.32873
111	0x3e88d2ce	0.2672333
112	0x3f83dae6	1.0301178
113	0x3fa63b19	1.2986785
114	0x3f895bea	1.0731175
115	0xbfadac0e	-1.3568132
116	0xbf75f8b9	-0.96082646
117	0x3fa2d51f	1.2721289
118	0x3f924a6e	1.1428964
119	0xbeb35b21	-0.35030463
120	0x3fb2a04c	1.3955169
121	0x3f0a5952	0.5404254
122	0xbfa7225d	-1.3057362
123	0x3f84a149	1.036172
124	0x3fb03edd	1.3769184
125	0xbf87e4ee	-1.0616739
126	0xbe80f3e3	-0.2518607
127	0xbf918c3e	-1.1370924
128	0xbf8cd02a	-1.1001027
129	0xbf9b4583	-1.2130588
130	0x3f2bd0ab	0.6711528
131	0xbf3c01de	-0.7344035
132	0xbf8cbb98	-1.0994749
133	0x3f8ef13f	1.1167372
134	0xbf581318	-0.84404135
135	0xbf80fdea	-1.0077488
136	0x3f8008ff	1.0002745
137	0x3ec187f2	0.3779903
138	0xbf0e6f1e	-0.556383
139	0xbf926b0e	-1.143892
140	0x3f864761	1.0490533
141	0xbf8d8a5f	-1.1057853
142	0xbf861e3f	-1.047798
143	0xbd86cdb9	-0.06582207
144	0x3f133b6e	0.5751256
145	0x3f68423e	0.9072608
146	0x3f4ef05a	0.808355
147	0x3e453366	0.19257888
148	0xbf98bed8	-1.1933241
149	0x3f51de2e	0.81979644
150	0xbf80e2bb	-1.0069193
151	0x3f6e4322	0.93071187
152	0x3f70fdf8	0.94137526
153	0x3f6b805f	0.91992754
154	0xbf66a320	-0.9009266
155	0x3f990844	1.1955647
156	0xbf8e3775	-1.1110674
157	0x3f95d04f	1.1704196
158	0xbf4a1f18	-0.78953695
159	0x3f56da5c	0.8392694
160	0xbf8ff3d3	-1.1246284
161	0xbf997ae2	-1.1990626
162	0x3f89a705	1.0754095
163	0xbfa64ff1	-1.2993146
164	0x3f7dce7b	0.9914319
165	0xbf729888	-0.94763994
166	0x3f9221f2	1.1416609
167	0xbee92f8f	-0.45544097
168	0xbf89c82c	-1.0764213
169	0xbf7ae26e	-0.98001754
170	0x3f8b378e	1.0876329
171	0x3f943e34	1.1581483
172	0x3f8b9758	1.0905561
173	0x3f411a69	0.75430924
174	0xbf6a92a8	-0.9163003
175	0x3f130dd8	0.57443
176	0x3f9e624e	1.237375
177	0xbf939b98	-1.1531858
178	0xbf8a5d80	-1.0809784
179	0xbf7c9835	-0.9866975
180	0xbf79b748	-0.9754529
181	0xbf93c644	-1.1544881
182	0x3f995d26	1.1981552
183	0x3fa0643d	1.253059
184	0x3f96d1e5	1.1782805
185	0x3f8b7a6a	1.0896733
186	0x3f61f7bc	0.8826864
187	0x3f804ea1	1.0023996
188	0x3f539e3c	0.8266332
189	0x3f9e3f9b	1.2363161
190	0x3f82b99c	1.0212893
191	0x3fa0ccf2	1.2562544
192	0xbf75e136	-0.9604677
193	0x3f7693bc	0.96319175
194	0xbf9011b9	-1.1255409
195	0xbee1bf9a	-0.44091493
196	0x3ed84ee6	0.42247695
197	0xbfa96a3e	-1.3235548
198	0xbf9b943d	-1.2154614
199	0x3f8bfd4e	1.0936677
200	0xbf83a3b2	-1.0284331
201	0xbfad0a78	-1.351882
202	0x3f87d72f	1.0612544
203	0xbf97b3ea	-1.185178
204	0xbf8aefea	-1.0854466
205	0x3f988fb7	1.1918858
206	0xbf766519	-0.9624801
207	0xbf711db4	-0.9418595
208	0xbf85c7e2	-1.0451624
209	0x3e59456b	0.21217887
210	0x3f57d63c	0.8431127
211	0x3f79b670	0.97544
212	0x3f557c72	0.83393013
213	0xbf595424	-0.84894013
214	0x3f3bc617	0.73349136
215	0xbf98c8f2	-1.1936324
216	0x3f096124	0.5366385
217	0xbfaadb0a	-1.3348095
218	0xbeb6c4df	-0.35697076
219	0x3f5a3ee0	0.8525219
220	0xbf5c3b9f	-0.86028475
221	0x3f8d9a5f	1.1062735
222	0xbe987fd4	-0.29785025
223	0xbf9134f0	-1.134428
224	0x3f94e59b	1.163257
225	0xbf9e8422	-1.2384074
226	0x3f633968	0.8875947
227	0x3f4af492	0.79279435
228	0xbf9cf8d4	-1.2263436
229	0x3f610f8c	0.8791435
230	0xbf551e9e	-0.83249843
231	0xbf771922	-0.96522725
232	0x3f255973	0.64589614
233	0xbf9fe460	-1.249157
234	0xbf8f8790	-1.1213245
235	0xbf920210	-1.140688
236	0xbf8705ee	-1.0548685
237	0xbf9986bd	-1.1994244
238	0xbf7f71c2	-0.99782956
239	0x3f765d9f	0.96236604
240	0xbfad744c	-1.3551116
241	0xbf805ed1	-1.0028936
242	0xbf4495b7	-0.76790947
243	0x3f67c186	0.9052967
244	0xbf7899b9	-0.9710956
245	0x3f4d433a	0.80180705
246	0xbf43e52a	-0.7652155
247	0x3f1b94b1	0.6077376
248	0xbf546ddd	-0.8298014
249	0xbf63ed41	-0.89033896
250	0x3ea113fd	0.31460562
251	0x3f919b96	1.1375606
252	0xbf856c11	-1.0423604
253	0xbfb097f6	-1.3796375
254	0x3f36094d	0.7110794
255	0xbfa467ca	-1.2844174
