vanilla_models/Cora/5_3f_85/split2/init0/GAT_dp0_5_5e_4_f1.pt (torch, 372919 bytes, 10 tensors)

layer_list.conv1.att_src f4 [1, 8, 8]
0.4566261 0.11957142 -0.25486952 -0.6775144 -0.5876487 -0.16072357 -0.2881998 -0.3833416
0.1962099 0.21865267 0.17234574 -0.04183099 0.43759593 -0.5602301 -0.21407664 -0.57679087
-0.01161568 -0.05442399 -0.39719522 -0.3678881 -0.15417692 0.40110195 -3.2334225e-05 0.50591683
-0.6936243 -0.050323978 0.68354213 -0.28533992 -0.9228167 0.5492917 -0.8978392 -0.5774451
0.5419479 -0.10546702 0.6088648 -0.39634573 0.47752216 -0.38259166 -0.6700583 -0.50532997
-0.40717158 0.038758527 0.20489414 -0.26715764 -0.28604677 0.040731303 -0.23748778 0.17749177
-0.6034239 -0.3402998 -0.24927314 -0.38485003 -0.35758966 -0.5920413 -0.7019889 -0.4440078
0.7876732 0.7434399 0.018076131 0.74303967 0.40293217 0.42713848 -0.2780264 -0.7261363
00000000: e5ca e93e dce1 f43d 427e 82be 9571 2dbf
00000010: 2570 16bf b894 24be ed8e 93be 5a45 c4be
00000020: 3feb 483e 7ce6 5f3e 677b 303e f956 2bbd
00000030: 930c e03e 3d6b 0fbf e836 5bbe 91a8 13bf
00000040: b14f 3ebc b1eb 5ebd 2c5d cbbe d45b bcbe
00000050: 8ee0 1dbe 3c5d cd3e 9c9e 07b8 c483 013f
00000060: 5d91 31bf 8420 4ebd 9efc 2e3f 1318 92be
00000070: b73d 6cbf 619e 0c3f cad8 65bf 71d3 13bf
00000080: 19bd 0a3f 18ff d7bd 90de 1b3f d4ed cabe
00000090: c97d f43e 0ee3 c3be f188 2bbf 4e5d 01bf
000000a0: cb78 d0be 43c1 1e3d c5cf 513e e3c8 88be
000000b0: b974 92be ded5 263d ff2f 73be 67c0 353e
000000c0: fd79 1abf c63b aebe 7541 7fbe 100b c5be
000000d0: fe15 b7be 0590 17bf 8bb5 33bf fe54 e3be
000000e0: f3a4 493f 1452 3e3f 6514 943c d937 3e3f
000000f0: 204d ce3e e5b1 da3e 7a59 8ebe 12e4 39bf

layer_list.conv1.att_dst f4 [1, 8, 8]
-0.018203491 0.07021577 0.0017729215 -0.17294425 -0.11074373 0.0024977145 -0.1274458 -0.12318726
0.042381074 0.016109036 -0.10337856 -0.10082743 0.15883021 -0.16606449 -0.11869909 -0.21438879
-0.038664646 0.033095766 -0.094566174 -0.1274425 -0.06939278 0.1356064 -0.047945444 0.12846819
-0.057465658 0.023211088 0.16625595 -0.075309016 -0.20933864 0.03436575 -0.063662745 0.0058851833
0.22047578 -0.09355191 0.15171668 -0.06904356 0.036282666 -0.12512775 -0.21564512 -0.103651024
-0.19826898 -0.05418955 0.030701425 -0.13338642 -0.018652909 0.1901327 -0.09792181 -0.057133757
-0.15489407 -0.09955441 -0.08878083 -0.10502809 -0.20548339 -0.14987278 -0.17309129 -0.11100159
0.21739925 0.1947991 0.032451056 0.13086195 0.09618692 -0.06882475 0.03132466 -0.17811868
00000000: 7d1f 95bc 49cd 8f3d 6061 e83a 4c18 31be
00000010: 9ccd e2bd b2b0 233b 2781 02be 9a49 fcbd
00000020: c797 2d3d 19f7 833c 23b8 d3bd 9d7e cebd
00000030: 63a4 223e cf0c 2abe 8218 f3bd bc88 5bbe
00000040: d25e 1ebd 6d8f 073d e9ab c1bd 4980 02be
00000050: cd1d 8ebd 67dc 0a3e 7162 44bd 2a8d 033e
00000060: 1c61 6bbd 2e25 be3c 003f 2a3e 9d3b 9abd
00000070: de5c 56be 1ac3 0c3d 9d61 82bd 7fd8 c03b
00000080: 67c4 613e 2598 bfbd 9e5b 1b3e b666 8dbd
00000090: 229d 143d 7d21 00be 13d2 5cbe fd46 d4bd
000000a0: 0607 4bbe ddf5 5dbd 8e81 fb3c 7396 08be
000000b0: fccd 98bc 26b2 423e 3b8b c8bd 1605 6abd
000000c0: 8d9c 1ebe 2fe3 cbbd b9d2 b5bd f818 d7bd
000000d0: 3d6a 52be 4078 19be d83e 31be cd54 e3bd
000000e0: e99d 5e3e 6a79 473e 66eb 043d ad00 063e
000000f0: a6fd c43d fef3 8cbd 494e 003d be64 36be

layer_list.conv1.bias f4 [64]
-0.0050300667 0.016086992 0.026831487 -0.007341099 0.06542941 0.038730726 0.052335598 0.0073699034
0.011131057 -0.0024310076 0.02669907 0.014137684 -0.0029871732 0.014230715 0.0379424 -0.026586024
0.010868414 0.016973786 0.007018663 -0.016752146 0.020278756 -0.0016386975 0.016371435 -0.0015106403
0.023726607 0.03924358 -0.011267794 -0.0024257104 0.014320685 0.027616791 -0.010588584 0.046427626
0.023729296 -0.0032382752 0.012944454 -0.013196051 0.017942846 0.02931358 0.0032434417 0.03502329
-0.008635594 0.01193633 -0.014774225 0.010782917 0.009365808 0.018127857 0.04035256 0.0421099
0.035334 0.04276375 0.04635498 0.028694412 0.05464264 0.03687644 0.019747447 0.040391903
-0.01526855 0.028834186 0.033865247 -0.010307364 0.014915253 0.013974291 0.037528742 0.026482822
00000000: 42d3 a4bb dec8 833c b5cd db3c 9a8d f0bb
00000010: dbff 853d 1ca4 1e3d da5d 563d 3b7f f13b
00000020: 095f 363c 8a51 1fbb 02b8 da3c bfa1 673c
00000030: 73c4 43bb f227 693c 7d69 1b3d efca d9bc
00000040: 6f11 323c 9c0c 8b3c d0fc e53b cc3b 89bc
00000050: a21f a63c 90c9 d6ba 631d 863c ad00 c6ba
00000060: 4d5e c23c e0bd 203d 8e9c 38bc abf8 1ebb
00000070: 4ea1 6a3c 9c3c e23c bd7b 2dbc e52a 3e3d
00000080: f163 c23c 3e39 54bb fa14 543c 4034 58bc
00000090: e0fc 923c 0823 f03c ec8f 543b 9574 0f3d
000000a0: 4e7c 0dbc 9990 433c 970f 72bc d5aa 303c
000000b0: 0c73 193c df80 943c ba48 253d 6e7b 2c3d
000000c0: 62ba 103d 0b29 2f3d b8de 3d3d 8b10 eb3c
000000d0: f6d0 5f3d c00b 173d 66c5 a13c fb71 253d
000000e0: f128 7abc ac35 ec3c 49b6 0a3d 38e0 28bc
000000f0: 1b5f 743c 6df4 643c bdb7 193d 81f2 d83c

layer_list.conv1.lin_src.weight f4 [64, 1433]
0.0078314375 -0.061601188 -0.14851709 0.10295446 -0.16778705 0.009339889 -0.010191841 0.11055696
0.07302672 -0.029960277 0.0094382875 0.032824595 0.019977447 0.026835058 0.04873565 -0.037451763
0.06472915 -0.008124579 -0.016817207 -0.27933523 0.029045783 0.011217117 -0.004257831 -0.05465571
-0.011503769 -0.13886072 0.03097815 0.037189938 -0.00949563 -0.064906806 0.18568338 -0.027021125
0.012520517 0.018031476 0.025245406 0.029453833 0.024640707 0.0119105475 0.30095944 0.1166941
-0.14932469 0.12425832 -0.00343681 -0.01044299 0.067247726 0.05727456 -0.033161588 0.041620046
0.045707587 -0.016084962 0.056277014 0.34105283 0.12932937 -0.02563193 -0.019952528 0.05932742
0.086636186 -0.050141905 0.28542495 -0.05067632 -0.005748482 -0.039190073 0.027392292 0.01525048
0.020521445 -0.0011891462 0.03756293 -0.056845255 -0.022864567 0.091100425 -0.064720474 -0.002003368
-0.048489437 -0.059362072 0.09821019 -0.055077467 0.094553486 0.03341725 0.06511741 -0.05347078
0.011295229 0.014691758 0.07077599 -0.11030593 -0.012851329 -0.14654261 0.027062602 -0.019040642
-0.08145193 -0.03245804 -0.010872131 0.01942213 0.06329619 0.04029469 -0.011430072 0.049982827
-0.02764245 0.0008683546 -0.09582544 0.043577887 0.03691171 -0.012528057 0.06950963 0.092716925
-0.01972996 0.010436147 0.05670661 0.062241532 0.06671628 -0.039772432 -0.059400637 0.03874717
-0.020778922 -0.028957894 -0.03908585 0.04347619 0.0015561122 -0.028513862 -0.09707014 0.0064849677
-0.0011365454 0.005684025 -0.0015520733 -0.06000646 0.022425834 0.029319517 0.115536556 0.08186752
-0.06564516 0.08741577 -0.005189422 0.116249196 -0.05514641 0.0024096698 0.03217415 0.28915024
-0.0644593 0.039311714 -0.019602217 0.07448061 0.022908716 -0.03344275 -0.0011764534 -0.09473531
0.01711382 0.12438467 -0.10913218 0.018332131 -0.00262041 0.28939903 -0.100361384 0.018567013
0.034523148 -0.044973537 -0.07593265 -0.054972734 -0.020437269 -0.06813003 -0.024365813 -0.036307424
-0.08961555 -0.05592023 0.094592206 -0.007833207 -0.007926563 -0.026083104 -0.016327979 -0.059548207
0.075613976 -0.005604878 -0.012447183 0.1884746 0.10395898 0.05668381 0.07722091 -0.039942365
-0.08193912 -0.01407385 0.034369677 -0.21070103 0.0057088993 -0.011283966 0.019163873 0.061843436
-0.008281116 -0.055549324 -0.046885367 0.00863682 -0.018448107 -0.026608884 0.0055576423 0.048686557
-0.12912507 0.0003129453 0.118669264 -0.0840671 -0.079083756 0.004575364 0.018750235 0.0016325152
0.09127159 -0.0352515 -0.06148821 -0.1447306 -0.018635891 -0.22398123 0.07938098 0.04826658
-0.09100151 0.049935848 -0.05869463 0.11688282 0.027410759 -0.053022128 0.022727178 -0.010699414
0.0306896 -0.056885086 -0.081178606 -0.010978887 -0.030561367 0.012031889 0.021719549 -0.009421218
-0.074870065 -0.016112741 -0.13463652 -0.043278217 0.08926947 0.01135394 -0.0065349545 -0.16853493
-0.018909758 -0.04888284 -0.16924265 -0.015750196 -0.013161868 0.13792013 -0.014551169 -0.0038062397
0.0032633191 0.15133673 -0.030620523 -0.038893707 -0.12850393 -0.0047237556 0.18869175 -0.049649086
-0.0422456 0.006615423 0.030584982 0.05701302 -0.040856857 0.071031116 0.16042806 -0.047490712
00000000: 6e4f 003c 8751 7cbd dd14 18be cad9 d23d
00000010: 5ed0 2bbe 5506 193c aefb 26bc b06b e23d
00000020: 088f 953d 416f f5bc 0ca3 1a3c 1573 063d
00000030: bea7 a33c 32d5 db3c 089f 473d 0567 19bd
00000040: b790 843d f41c 05bc 3dc4 89bc 0705 8fbe
00000050: 6cf1 ed3c 00c8 373c 4685 8bbb aade 5fbd
00000060: 4e7a 3cbc 8131 0ebe e4c5 fd3c 7a54 183d
00000070: 8f93 1bbc dced 84bd c923 3e3e 685b ddbc
00000080: db22 4d3c bfb6 933c 74cf ce3c 2a49 f13c
00000090: 4fdb c93c 7524 433c 5b17 9a3e 51fd ee3d
000000a0: 92e8 18be 257b fe3d 1b3c 61bb 1319 2bbc
000000b0: 2db9 893d bb98 6a3d 72d4 07bd c879 2a3d
000000c0: e137 3b3d 9cc4 83bc ba82 663d 7a9e ae3e
000000d0: eb6e 043e 0efa d1bc 7c73 a3bc 4f01 733d
000000e0: 506e b13d 9961 4dbd 3823 923e f991 4fbd
000000f0: c35d bcbb c585 20bd cd65 e03c 26dd 793c
00000100: 971c a83c 20dd 9bba 96db 193d 92d6 68bd
00000110: 794e bbbc dc92 ba3d 2b8c 84bd f04a 03bb
00000120: dc9c 46bd a525 73bd 6d22 c93d e998 61bd
00000130: 42a5 c13d 87e0 083d 475c 853d 2d04 5bbd
00000140: a00f 393c b3b5 703c 01f3 903d 13e8 e1bd
00000150: 618e 52bc 440f 16be 64b2 dd3c 1ffb 9bbc
00000160: 45d0 a6bd b9f2 04bd 0621 32bc 291b 9f3c
00000170: 6fa1 813d 0b0c 253d 3245 3bbc cbba 4c3d
00000180: 6b72 e2bc 4aa2 633a 2140 c4bd ba7e 323d
00000190: bc30 173d 7b42 4dbc 115b 8e3d 5fe2 bd3d
000001a0: baa0 a1bc 60fc 2a3c 3145 683d faf0 7e3d
000001b0: 8ca2 883d 6be8 22bd 154e 73bd 5ab5 1e3d
000001c0: 8f38 aabc 1b39 edbc 7c18 20bd 1714 323d
000001d0: 76f6 cb3a e795 e9bc b6cc c6bd da7f d43b
000001e0: 23f8 94ba 0f41 ba3b f06e cbba 55c9 75bd
000001f0: 62b6 b73c 7c2f f03c 6e9e ec3d 29aa a73d
00000200: f870 86bd 0a07 b33d 070c aabb 0f14 ee3d
00000210: 34e1 61bd 8deb 1d3b 0bc9 033d 800b 943e
00000220: 3d03 84bd 5205 213d d494 a0bc 4a89 983d
00000230: 0fab bb3c 44fb 08bd 3a33 9aba 9604 c2bd
00000240: 4832 8c3c 64bd fe3d b180 dfbd 442d 963c
00000250: 2fbb 2bbb 1c2c 943e 458a cdbd d919 983c
00000260: 2568 0d3d 2c36 38bd 9482 9bbd 172b 61bd
00000270: 0f6c a7bc c287 8bbd d09a c7bc 18b7 14bd
00000280: 5c88 b7bd 9c0c 65bd 8fb9 c13d da56 00bc
00000290: 6ade 01bc 3cac d5bc 41c2 85bc d2e8 73bd
000002a0: 80db 9a3d 20a9 b7bb 45ef 4bbc 7cff 403e
000002b0: 72e8 d43d 482d 683d ff25 9e3d 9b9a 23bd
000002c0: b3cf a7bd 0196 66bc 38c7 0c3d 03c2 57be
000002d0: b811 bb3b 62e0 38bc 8efd 9c3c 8b4f 7d3d
000002e0: 85ad 07bc b087 63bd df0a 40bd 7381 0d3c
000002f0: 7c20 97bc e0fa d9bc e21c b63b 8e6b 473d
00000300: 5d39 04be cf12 a439 df08 f33d 5f2b acbd
00000310: aaf6 a1bd efec 953b 189a 993c 1ffa d53a
00000320: 99ec ba3d e063 10bd 10db 7bbd 4234 14be
00000330: 4caa 98bc 565b 65be 7f92 a23d 2db3 453d
00000340: 005f babd 8889 4c3d c869 70bd 4360 ef3d
00000350: 878c e03c bb2d 59bd 592e ba3c 984c 2fbc
00000360: c268 fb3c 5600 69bd f840 a6bd cae0 33bc
00000370: d55b fabc 6621 453c 32ed b13c 745b 1abc
00000380: 7a55 99bd defe 83bc 28de 09be 8044 31bd
00000390: e9d2 b63d e005 3a3c 2c23 d6bb 6c94 2cbe
000003a0: a3e8 9abc 5f39 48bd f24d 2dbe 8e06 81bc
000003b0: e0a4 57bc ef3a 0d3e 0768 6ebc 1b72 79bb
000003c0: 69dd 553b 04f8 1a3e e4d7 fabc 024f 1fbd
000003d0: 8996 03be bcc9 9abb 6938 413e d75c 4bbd
000003e0: b909 2dbd 31c6 d83b 5b8d fa3c 7c86 693d
000003f0: 8559 27bd c378 913d 4147 243e 9f85 42bd

layer_list.conv1.lin_dst.weight f4 [64, 1433]
0.0078314375 -0.061601188 -0.14851709 0.10295446 -0.16778705 0.009339889 -0.010191841 0.11055696
0.07302672 -0.029960277 0.0094382875 0.032824595 0.019977447 0.026835058 0.04873565 -0.037451763
0.06472915 -0.008124579 -0.016817207 -0.27933523 0.029045783 0.011217117 -0.004257831 -0.05465571
-0.011503769 -0.13886072 0.03097815 0.037189938 -0.00949563 -0.064906806 0.18568338 -0.027021125
0.012520517 0.018031476 0.025245406 0.029453833 0.024640707 0.0119105475 0.30095944 0.1166941
-0.14932469 0.12425832 -0.00343681 -0.01044299 0.067247726 0.05727456 -0.033161588 0.041620046
0.045707587 -0.016084962 0.056277014 0.34105283 0.12932937 -0.02563193 -0.019952528 0.05932742
0.086636186 -0.050141905 0.28542495 -0.05067632 -0.005748482 -0.039190073 0.027392292 0.01525048
0.020521445 -0.0011891462 0.03756293 -0.056845255 -0.022864567 0.091100425 -0.064720474 -0.002003368
-0.048489437 -0.059362072 0.09821019 -0.055077467 0.094553486 0.03341725 0.06511741 -0.05347078
0.011295229 0.014691758 0.07077599 -0.11030593 -0.012851329 -0.14654261 0.027062602 -0.019040642
-0.08145193 -0.03245804 -0.010872131 0.01942213 0.06329619 0.04029469 -0.011430072 0.049982827
-0.02764245 0.0008683546 -0.09582544 0.043577887 0.03691171 -0.012528057 0.06950963 0.092716925
-0.01972996 0.010436147 0.05670661 0.062241532 0.06671628 -0.039772432 -0.059400637 0.03874717
-0.020778922 -0.028957894 -0.03908585 0.04347619 0.0015561122 -0.028513862 -0.09707014 0.0064849677
-0.0011365454 0.005684025 -0.0015520733 -0.06000646 0.022425834 0.029319517 0.115536556 0.08186752
-0.06564516 0.08741577 -0.005189422 0.116249196 -0.05514641 0.0024096698 0.03217415 0.28915024
-0.0644593 0.039311714 -0.019602217 0.07448061 0.022908716 -0.03344275 -0.0011764534 -0.09473531
0.01711382 0.12438467 -0.10913218 0.018332131 -0.00262041 0.28939903 -0.100361384 0.018567013
0.034523148 -0.044973537 -0.07593265 -0.054972734 -0.020437269 -0.06813003 -0.024365813 -0.036307424
-0.08961555 -0.05592023 0.094592206 -0.007833207 -0.007926563 -0.026083104 -0.016327979 -0.059548207
0.075613976 -0.005604878 -0.012447183 0.1884746 0.10395898 0.05668381 0.07722091 -0.039942365
-0.08193912 -0.01407385 0.034369677 -0.21070103 0.0057088993 -0.011283966 0.019163873 0.061843436
-0.008281116 -0.055549324 -0.046885367 0.00863682 -0.018448107 -0.026608884 0.0055576423 0.048686557
-0.12912507 0.0003129453 0.118669264 -0.0840671 -0.079083756 0.004575364 0.018750235 0.0016325152
0.09127159 -0.0352515 -0.06148821 -0.1447306 -0.018635891 -0.22398123 0.07938098 0.04826658
-0.09100151 0.049935848 -0.05869463 0.11688282 0.027410759 -0.053022128 0.022727178 -0.010699414
0.0306896 -0.056885086 -0.081178606 -0.010978887 -0.030561367 0.012031889 0.021719549 -0.009421218
-0.074870065 -0.016112741 -0.13463652 -0.043278217 0.08926947 0.01135394 -0.0065349545 -0.16853493
-0.018909758 -0.04888284 -0.16924265 -0.015750196 -0.013161868 0.13792013 -0.014551169 -0.0038062397
0.0032633191 0.15133673 -0.030620523 -0.038893707 -0.12850393 -0.0047237556 0.18869175 -0.049649086
-0.0422456 0.006615423 0.030584982 0.05701302 -0.040856857 0.071031116 0.16042806 -0.047490712
00000000: 6e4f 003c 8751 7cbd dd14 18be cad9 d23d
00000010: 5ed0 2bbe 5506 193c aefb 26bc b06b e23d
00000020: 088f 953d 416f f5bc 0ca3 1a3c 1573 063d
00000030: bea7 a33c 32d5 db3c 089f 473d 0567 19bd
00000040: b790 843d f41c 05bc 3dc4 89bc 0705 8fbe
00000050: 6cf1 ed3c 00c8 373c 4685 8bbb aade 5fbd
00000060: 4e7a 3cbc 8131 0ebe e4c5 fd3c 7a54 183d
00000070: 8f93 1bbc dced 84bd c923 3e3e 685b ddbc
00000080: db22 4d3c bfb6 933c 74cf ce3c 2a49 f13c
00000090: 4fdb c93c 7524 433c 5b17 9a3e 51fd ee3d
000000a0: 92e8 18be 257b fe3d 1b3c 61bb 1319 2bbc
000000b0: 2db9 893d bb98 6a3d 72d4 07bd c879 2a3d
000000c0: e137 3b3d 9cc4 83bc ba82 663d 7a9e ae3e
000000d0: eb6e 043e 0efa d1bc 7c73 a3bc 4f01 733d
000000e0: 506e b13d 9961 4dbd 3823 923e f991 4fbd
000000f0: c35d bcbb c585 20bd cd65 e03c 26dd 793c
00000100: 971c a83c 20dd 9bba 96db 193d 92d6 68bd
00000110: 794e bbbc dc92 ba3d 2b8c 84bd f04a 03bb
00000120: dc9c 46bd a525 73bd 6d22 c93d e998 61bd
00000130: 42a5 c13d 87e0 083d 475c 853d 2d04 5bbd
00000140: a00f 393c b3b5 703c 01f3 903d 13e8 e1bd
00000150: 618e 52bc 440f 16be 64b2 dd3c 1ffb 9bbc
00000160: 45d0 a6bd b9f2 04bd 0621 32bc 291b 9f3c
00000170: 6fa1 813d 0b0c 253d 3245 3bbc cbba 4c3d
00000180: 6b72 e2bc 4aa2 633a 2140 c4bd ba7e 323d
00000190: bc30 173d 7b42 4dbc 115b 8e3d 5fe2 bd3d
000001a0: baa0 a1bc 60fc 2a3c 3145 683d faf0 7e3d
000001b0: 8ca2 883d 6be8 22bd 154e 73bd 5ab5 1e3d
000001c0: 8f38 aabc 1b39 edbc 7c18 20bd 1714 323d
000001d0: 76f6 cb3a e795 e9bc b6cc c6bd da7f d43b
000001e0: 23f8 94ba 0f41 ba3b f06e cbba 55c9 75bd
000001f0: 62b6 b73c 7c2f f03c 6e9e ec3d 29aa a73d
00000200: f870 86bd 0a07 b33d 070c aabb 0f14 ee3d
00000210: 34e1 61bd 8deb 1d3b 0bc9 033d 800b 943e
00000220: 3d03 84bd 5205 213d d494 a0bc 4a89 983d
00000230: 0fab bb3c 44fb 08bd 3a33 9aba 9604 c2bd
00000240: 4832 8c3c 64bd fe3d b180 dfbd 442d 963c
00000250: 2fbb 2bbb 1c2c 943e 458a cdbd d919 983c
00000260: 2568 0d3d 2c36 38bd 9482 9bbd 172b 61bd
00000270: 0f6c a7bc c287 8bbd d09a c7bc 18b7 14bd
00000280: 5c88 b7bd 9c0c 65bd 8fb9 c13d da56 00bc
00000290: 6ade 01bc 3cac d5bc 41c2 85bc d2e8 73bd
000002a0: 80db 9a3d 20a9 b7bb 45ef 4bbc 7cff 403e
000002b0: 72e8 d43d 482d 683d ff25 9e3d 9b9a 23bd
000002c0: b3cf a7bd 0196 66bc 38c7 0c3d 03c2 57be
000002d0: b811 bb3b 62e0 38bc 8efd 9c3c 8b4f 7d3d
000002e0: 85ad 07bc b087 63bd df0a 40bd 7381 0d3c
000002f0: 7c20 97bc e0fa d9bc e21c b63b 8e6b 473d
00000300: 5d39 04be cf12 a439 df08 f33d 5f2b acbd
00000310: aaf6 a1bd efec 953b 189a 993c 1ffa d53a
00000320: 99ec ba3d e063 10bd 10db 7bbd 4234 14be
00000330: 4caa 98bc 565b 65be 7f92 a23d 2db3 453d
00000340: 005f babd 8889 4c3d c869 70bd 4360 ef3d
00000350: 878c e03c bb2d 59bd 592e ba3c 984c 2fbc
00000360: c268 fb3c 5600 69bd f840 a6bd cae0 33bc
00000370: d55b fabc 6621 453c 32ed b13c 745b 1abc
00000380: 7a55 99bd defe 83bc 28de 09be 8044 31bd
00000390: e9d2 b63d e005 3a3c 2c23 d6bb 6c94 2cbe
000003a0: a3e8 9abc 5f39 48bd f24d 2dbe 8e06 81bc
000003b0: e0a4 57bc ef3a 0d3e 0768 6ebc 1b72 79bb
000003c0: 69dd 553b 04f8 1a3e e4d7 fabc 024f 1fbd
000003d0: 8996 03be bcc9 9abb 6938 413e d75c 4bbd
000003e0: b909 2dbd 31c6 d83b 5b8d fa3c 7c86 693d
000003f0: 8559 27bd c378 913d 4147 243e 9f85 42bd

layer_list.conv2.att_src f4 [1, 1, 7]
0.12235701 -0.15305796 -0.033843286 -0.117582865 -0.008499853 -0.118920915 -0.16671419
00000000: 5096 fa3d 3abb 1cbe 429f 0abd 49cf f0bd
00000010: f842 0bbc cf8c f3bd 20b7 2abe

layer_list.conv2.att_dst f4 [1, 1, 7]
0.5121354 -0.11679605 0.36125362 -0.049997617 0.45157307 -0.102585874 -0.0073662275
00000000: 4e1b 033f c432 efbd 3cf6 b83e 4dca 4cbd
00000010: 9634 e73e 8b18 d2bd 6560 f1bb

layer_list.conv2.bias f4 [7]
-0.08995864 -0.6369761 -0.08584826 0.65591234 0.090334184 -0.3705988 -0.6081989
00000000: 3c3c b8bd de10 23bf 36d1 afbd dfe9 273f
00000010: 2101 b93d 20bf bdbe ecb2 1bbf

layer_list.conv2.lin_src.weight f4 [7, 64]
-0.17622137 -0.88433844 -0.92203504 0.8623449 0.42033276 -1.3260999 0.582869 1.1273316
0.92082626 -0.46163163 -0.6038612 -1.0738188 -0.7312385 1.145005 0.22518526 1.2547115
1.1190426 0.4033115 -0.27556574 1.1550162 -1.1642516 -0.7443402 1.0162492 -1.0462501
0.6731274 -0.98169017 -0.90421075 0.858614 0.86455005 -0.7186151 -0.5821921 -0.5761278
-0.9896401 1.0806854 -1.0137349 1.0272827 -1.0139045 -0.51693165 1.0968713 -0.1891136
1.2360215 0.75043136 -0.16989176 0.71400553 1.1572993 0.95427555 -0.6935997 -1.1466446
-1.1498971 0.23017658 -0.22621362 -1.0344472 1.2062162 -0.4627127 0.53088874 -0.86082274
0.49654475 0.27985927 -1.1073699 0.14751415 -1.1648233 -0.26761037 0.97183573 0.0025866828
1.1350516 1.2334197 -0.046023335 -1.205361 -1.0205727 -1.2044903 -0.24725765 -1.1520872
-0.96785855 -0.80253637 0.67812943 1.1339753 -0.5797213 1.1294842 0.55392784 1.389208
0.71112984 1.0908922 0.5007266 -1.1239276 -0.4505995 -0.98795116 0.49119094 0.72962976
-1.0853059 -0.69147056 1.2302574 -1.1451069 -0.9662688 0.9515965 -0.080404006 -0.91662866
0.6583526 0.20268288 -0.72064245 0.71014553 1.0293238 -0.17060155 -0.7875401 -0.47793365
1.2049196 0.22733238 -0.85146195 -0.0041848184 0.20434968 -0.82113236 1.082405 0.7929576
-1.0073715 -0.9394966 0.7101117 -1.0422077 -1.096717 -0.84718513 -0.8093615 -0.00515406
1.0987649 0.4926996 -0.61739975 -0.3301903 1.1207442 -0.95316815 -1.013524 -0.87258154
-0.5412586 -1.1809515 -1.0174452 -1.0296574 -0.7964793 1.0797228 -0.9490355 -0.8567561
0.58624715 1.093054 1.0102775 0.86901313 1.0972087 -1.2527333 -0.73952377 -0.977367
0.80922455 -0.96173245 -0.90230006 -1.1131365 -0.34986764 0.8271077 0.98056 0.9680639
-0.9054877 1.097309 0.8244874 0.57648015 -1.0018203 0.6699179 -0.8650496 -0.62174755
1.0128094 0.6734761 0.91051215 -1.0600059 1.0935069 -0.54832774 -0.84582204 -1.1373609
-1.0439277 1.020731 1.0764382 0.15627141 -1.0482891 -1.0114977 -1.0768913 0.9963716
-0.05046135 -0.73710483 -1.1700146 0.0011073347 -1.0415154 -1.000227 -0.94786507 -0.20307228
0.71016693 0.5679071 -0.6424127 0.76610696 0.69883937 0.8077588 -0.96807945 -0.76646876
-0.9886104 0.86320186 1.1360487 -0.90658855 0.85769117 -1.1255592 -0.9845482 0.7471896
0.17802726 0.6182329 0.3448443 -1.0890199 -1.0155756 0.7483431 1.0564057 -1.0253781
-0.9748938 0.70580983 -0.9571139 -1.0350707 -0.26581287 0.8408133 -1.0294341 1.1413071
-0.90699595 0.576075 -1.0936066 -0.2632562 1.0324339 1.002952 1.0405868 0.5711688
1.0105587 -0.83303916 0.8971748 -0.849782 -1.0852621 -0.8420501 -0.7876739 0.2788786
-0.9975268 0.64484763 0.98914564 0.2878073 -0.92946285 0.87215954 1.1058985 -0.0039599007
0.94414777 0.7917581 1.0642372 1.1931932 0.93662786 0.80711365 0.9171632 1.0304613
-1.001193 -1.0861489 -0.53476137 -1.0599271 0.21468888 0.65957105 -1.1660535 0.9463162
00000000: 6073 34be 0164 62bf 7d0a 6cbf a3c2 5c3f
00000010: db35 d73e a4bd a9bf e736 153f 674c 903f
00000020: 45bb 6b3f fb5a ecbe a696 1abf e572 89bf
00000030: 7232 3bbf 868f 923f f796 663e 639a a03f
00000040: ca3c 8f3f d87e ce3e f416 8dbe 92d7 933f
00000050: 3206 95bf 148d 3ebf 7414 823f 86eb 85bf
00000060: 1452 2c3f 0c50 7bbf 5b7a 67bf 21ce 5b3f
00000070: 2753 5d3f 29f7 37bf 8b0a 15bf 1d7d 13bf
00000080: 0e59 7dbf e653 8a3f 11c2 81bf 007e 833f
00000090: 9fc7 81bf a255 04bf 4766 8c3f ffa6 41be
000000a0: f435 9e3f 451c 403f 1bf8 2dbe 11c9 363f
000000b0: 6222 943f 674b 743f c08f 31bf 40c5 92bf
000000c0: d42f 93bf 69b3 6b3e 8ba4 67be c468 84bf
000000d0: 4b65 9a3f aee8 ecbe 53e8 073f e15e 5cbf
000000e0: 1d3b fe3e b749 8f3e 4cbe 8dbf f30d 173e
000000f0: ee18 95bf 3a04 89be 3aca 783f 5685 293b
00000100: 5f49 913f b2e0 9d3f f782 3cbd 4549 9abf
00000110: 20a2 82bf bd2c 9abf 1c31 7dbe 9877 93bf
00000120: 94c5 77bf 0673 4dbf e499 2d3f 1a26 913f
00000130: 9d68 14bf f092 903f 37ce 0d3f 91d1 b13f
00000140: 9b0c 363f 5ba2 8b3f 9e2f 003f dcdc 8fbf
00000150: fab4 e6be 5eea 7cbf 617d fb3e 04c9 3a3f
00000160: 4eeb 8abf 3704 31bf 1379 9d3f dd92 92bf
00000170: 645d 77bf d49b 733f dbaa a4bd 2da8 6abf
00000180: cc89 283f 1a8c 4f3e 067c 38bf 19cc 353f
00000190: e2c0 833f 2cb2 2ebe 3a9c 49bf b8b3 f4be
000001a0: ce3a 9a3f d2c9 683e 69f9 59bf cd20 89bb
000001b0: 0b41 513e bb35 52bf 3f8c 8a3f 45ff 4a3f
000001c0: 8df1 80bf d982 70bf e1c9 353f 1067 85bf
000001d0: 3961 8cbf 20e1 58bf 5132 4fbf 64e3 a8bb
000001e0: 54a4 8c3f 1f43 fc3e e90d 1ebf b40e a9be
000001f0: 8c74 8f3f d402 74bf 28bb 81bf 8161 5fbf
00000200: ec8f 0abf 6b29 97bf a53b 82bf d0cb 83bf
00000210: 11e6 4bbf 5b34 8a3f fef3 72bf 5e54 5bbf
00000220: 4b14 163f 32e9 8b3f c650 813f a577 5e3f
00000230: 5671 8c3f 9159 a0bf 6e51 3dbf b934 7abf
00000240: 5729 4f3f 1934 76bf 23fd 66bf 427b 8ebf
00000250: da21 b3be 55bd 533f fb05 7b3f 09d3 773f
00000260: 0bce 67bf 9f74 8c3f 9b11 533f 3494 133f
00000270: a63b 80bf bd7f 2b3f e473 5dbf d92a 1fbf
00000280: bda3 813f ee68 2c3f 5317 693f 46ae 87bf
00000290: 09f8 8b3f 355f 0cbf cb87 58bf 0b95 91bf
000002a0: 6c9f 85bf 50a7 823f bac8 893f 9d05 203e
000002b0: 562e 86bf c278 81bf 93d7 89bf 3612 7f3f
000002c0: 8fb0 4ebd e7b2 3cbf 0ac3 95bf fd23 913a
000002d0: 6050 85bf 7007 80bf 49a7 72bf 2ef2 4fbe
000002e0: 80cd 353f 5c62 113f 2975 24bf 961f 443f
000002f0: 23e7 323f 48c9 4e3f 0ed4 77bf 4c37 44bf
00000300: 9215 7dbf ccfa 5c3f 0b6a 913f 3016 68bf
00000310: a691 5b3f 5312 90bf 5a0b 7cbf d147 3f3f
00000320: c74c 363e 8344 1e3f 6f8f b03e 0165 8bbf
00000330: 62fe 81bf 6a93 3f3f 4d38 873f 973f 83bf
00000340: a492 79bf f4af 343f 6b05 75bf 327d 84bf
00000350: a018 88be 8a3f 573f 7fc4 83bf 5a16 923f
00000360: e330 68bf a779 133f 4dfb 8bbf 84c9 86be
00000370: cb26 843f bb60 803f f331 853f 1e38 123f
00000380: fd59 813f 0e42 55bf 3fad 653f 508b 59bf
00000390: dee9 8abf 9890 57bf ffa4 49bf 2dc9 8e3e
000003a0: eb5d 7fbf bc14 253f a638 7d3f 7a5b 933e
000003b0: 47f1 6dbf d945 5f3f 158e 8d3f 0ec2 81bb
000003c0: abb3 713f a9b0 4a3f ed38 883f 8eba 983f
000003d0: d8c6 6f3f 009f 4e3f 35cb 6a3f 28e6 833f
000003e0: 1827 80bf ed06 8bbf 1fe6 08bf b1ab 87bf
000003f0: 67d7 5b3e a6d9 283f 3e41 95bf c741 723f

layer_list.conv2.lin_dst.weight f4 [7, 64]
-0.17622137 -0.88433844 -0.92203504 0.8623449 0.42033276 -1.3260999 0.582869 1.1273316
0.92082626 -0.46163163 -0.6038612 -1.0738188 -0.7312385 1.145005 0.22518526 1.2547115
1.1190426 0.4033115 -0.27556574 1.1550162 -1.1642516 -0.7443402 1.0162492 -1.0462501
0.6731274 -0.98169017 -0.90421075 0.858614 0.86455005 -0.7186151 -0.5821921 -0.5761278
-0.9896401 1.0806854 -1.0137349 1.0272827 -1.0139045 -0.51693165 1.0968713 -0.1891136
1.2360215 0.75043136 -0.16989176 0.71400553 1.1572993 0.95427555 -0.6935997 -1.1466446
-1.1498971 0.23017658 -0.22621362 -1.0344472 1.2062162 -0.4627127 0.53088874 -0.86082274
0.49654475 0.27985927 -1.1073699 0.14751415 -1.1648233 -0.26761037 0.97183573 0.0025866828
1.1350516 1.2334197 -0.046023335 -1.205361 -1.0205727 -1.2044903 -0.24725765 -1.1520872
-0.96785855 -0.80253637 0.67812943 1.1339753 -0.5797213 1.1294842 0.55392784 1.389208
0.71112984 1.0908922 0.5007266 -1.1239276 -0.4505995 -0.98795116 0.49119094 0.72962976
-1.0853059 -0.69147056 1.2302574 -1.1451069 -0.9662688 0.9515965 -0.080404006 -0.91662866
0.6583526 0.20268288 -0.72064245 0.71014553 1.0293238 -0.17060155 -0.7875401 -0.47793365
1.2049196 0.22733238 -0.85146195 -0.0041848184 0.20434968 -0.82113236 1.082405 0.7929576
-1.0073715 -0.9394966 0.7101117 -1.0422077 -1.096717 -0.84718513 -0.8093615 -0.00515406
1.0987649 0.4926996 -0.61739975 -0.3301903 1.1207442 -0.95316815 -1.013524 -0.87258154
-0.5412586 -1.1809515 -1.0174452 -1.0296574 -0.7964793 1.0797228 -0.9490355 -0.8567561
0.58624715 1.093054 1.0102775 0.86901313 1.0972087 -1.2527333 -0.73952377 -0.977367
0.80922455 -0.96173245 -0.90230006 -1.1131365 -0.34986764 0.8271077 0.98056 0.9680639
-0.9054877 1.097309 0.8244874 0.57648015 -1.0018203 0.6699179 -0.8650496 -0.62174755
1.0128094 0.6734761 0.91051215 -1.0600059 1.0935069 -0.54832774 -0.84582204 -1.1373609
-1.0439277 1.020731 1.0764382 0.15627141 -1.0482891 -1.0114977 -1.0768913 0.9963716
-0.05046135 -0.73710483 -1.1700146 0.0011073347 -1.0415154 -1.000227 -0.94786507 -0.20307228
0.71016693 0.5679071 -0.6424127 0.76610696 0.69883937 0.8077588 -0.96807945 -0.76646876
-0.9886104 0.86320186 1.1360487 -0.90658855 0.85769117 -1.1255592 -0.9845482 0.7471896
0.17802726 0.6182329 0.3448443 -1.0890199 -1.0155756 0.7483431 1.0564057 -1.0253781
-0.9748938 0.70580983 -0.9571139 -1.0350707 -0.26581287 0.8408133 -1.0294341 1.1413071
-0.90699595 0.576075 -1.0936066 -0.2632562 1.0324339 1.002952 1.0405868 0.5711688
1.0105587 -0.83303916 0.8971748 -0.849782 -1.0852621 -0.8420501 -0.7876739 0.2788786
-0.9975268 0.64484763 0.98914564 0.2878073 -0.92946285 0.87215954 1.1058985 -0.0039599007
0.94414777 0.7917581 1.0642372 1.1931932 0.93662786 0.80711365 0.9171632 1.0304613
-1.001193 -1.0861489 -0.53476137 -1.0599271 0.21468888 0.65957105 -1.1660535 0.9463162
00000000: 6073 34be 0164 62bf 7d0a 6cbf a3c2 5c3f
00000010: db35 d73e a4bd a9bf e736 153f 674c 903f
00000020: 45bb 6b3f fb5a ecbe a696 1abf e572 89bf
00000030: 7232 3bbf 868f 923f f796 663e 639a a03f
00000040: ca3c 8f3f d87e ce3e f416 8dbe 92d7 933f
00000050: 3206 95bf 148d 3ebf 7414 823f 86eb 85bf
00000060: 1452 2c3f 0c50 7bbf 5b7a 67bf 21ce 5b3f
00000070: 2753 5d3f 29f7 37bf 8b0a 15bf 1d7d 13bf
00000080: 0e59 7dbf e653 8a3f 11c2 81bf 007e 833f
00000090: 9fc7 81bf a255 04bf 4766 8c3f ffa6 41be
000000a0: f435 9e3f 451c 403f 1bf8 2dbe 11c9 363f
000000b0: 6222 943f 674b 743f c08f 31bf 40c5 92bf
000000c0: d42f 93bf 69b3 6b3e 8ba4 67be c468 84bf
000000d0: 4b65 9a3f aee8 ecbe 53e8 073f e15e 5cbf
000000e0: 1d3b fe3e b749 8f3e 4cbe 8dbf f30d 173e
000000f0: ee18 95bf 3a04 89be 3aca 783f 5685 293b
00000100: 5f49 913f b2e0 9d3f f782 3cbd 4549 9abf
00000110: 20a2 82bf bd2c 9abf 1c31 7dbe 9877 93bf
00000120: 94c5 77bf 0673 4dbf e499 2d3f 1a26 913f
00000130: 9d68 14bf f092 903f 37ce 0d3f 91d1 b13f
00000140: 9b0c 363f 5ba2 8b3f 9e2f 003f dcdc 8fbf
00000150: fab4 e6be 5eea 7cbf 617d fb3e 04c9 3a3f
00000160: 4eeb 8abf 3704 31bf 1379 9d3f dd92 92bf
00000170: 645d 77bf d49b 733f dbaa a4bd 2da8 6abf
00000180: cc89 283f 1a8c 4f3e 067c 38bf 19cc 353f
00000190: e2c0 833f 2cb2 2ebe 3a9c 49bf b8b3 f4be
000001a0: ce3a 9a3f d2c9 683e 69f9 59bf cd20 89bb
000001b0: 0b41 513e bb35 52bf 3f8c 8a3f 45ff 4a3f
000001c0: 8df1 80bf d982 70bf e1c9 353f 1067 85bf
000001d0: 3961 8cbf 20e1 58bf 5132 4fbf 64e3 a8bb
000001e0: 54a4 8c3f 1f43 fc3e e90d 1ebf b40e a9be
000001f0: 8c74 8f3f d402 74bf 28bb 81bf 8161 5fbf
00000200: ec8f 0abf 6b29 97bf a53b 82bf d0cb 83bf
00000210: 11e6 4bbf 5b34 8a3f fef3 72bf 5e54 5bbf
00000220: 4b14 163f 32e9 8b3f c650 813f a577 5e3f
00000230: 5671 8c3f 9159 a0bf 6e51 3dbf b934 7abf
00000240: 5729 4f3f 1934 76bf 23fd 66bf 427b 8ebf
00000250: da21 b3be 55bd 533f fb05 7b3f 09d3 773f
00000260: 0bce 67bf 9f74 8c3f 9b11 533f 3494 133f
00000270: a63b 80bf bd7f 2b3f e473 5dbf d92a 1fbf
00000280: bda3 813f ee68 2c3f 5317 693f 46ae 87bf
00000290: 09f8 8b3f 355f 0cbf cb87 58bf 0b95 91bf
000002a0: 6c9f 85bf 50a7 823f bac8 893f 9d05 203e
000002b0: 562e 86bf c278 81bf 93d7 89bf 3612 7f3f
000002c0: 8fb0 4ebd e7b2 3cbf 0ac3 95bf fd23 913a
000002d0: 6050 85bf 7007 80bf 49a7 72bf 2ef2 4fbe
000002e0: 80cd 353f 5c62 113f 2975 24bf 961f 443f
000002f0: 23e7 323f 48c9 4e3f 0ed4 77bf 4c37 44bf
00000300: 9215 7dbf ccfa 5c3f 0b6a 913f 3016 68bf
00000310: a691 5b3f 5312 90bf 5a0b 7cbf d147 3f3f
00000320: c74c 363e 8344 1e3f 6f8f b03e 0165 8bbf
00000330: 62fe 81bf 6a93 3f3f 4d38 873f 973f 83bf
00000340: a492 79bf f4af 343f 6b05 75bf 327d 84bf
00000350: a018 88be 8a3f 573f 7fc4 83bf 5a16 923f
00000360: e330 68bf a779 133f 4dfb 8bbf 84c9 86be
00000370: cb26 843f bb60 803f f331 853f 1e38 123f
00000380: fd59 813f 0e42 55bf 3fad 653f 508b 59bf
00000390: dee9 8abf 9890 57bf ffa4 49bf 2dc9 8e3e
000003a0: eb5d 7fbf bc14 253f a638 7d3f 7a5b 933e
000003b0: 47f1 6dbf d945 5f3f 158e 8d3f 0ec2 81bb
000003c0: abb3 713f a9b0 4a3f ed38 883f 8eba 983f
000003d0: d8c6 6f3f 009f 4e3f 35cb 6a3f 28e6 833f
000003e0: 1827 80bf ed06 8bbf 1fe6 08bf b1ab 87bf
000003f0: 67d7 5b3e a6d9 283f 3e41 95bf c741 723f
