vanilla_models/Cora/5_3f_85/split1/init4/GAT_dp0_5_5e_4_f2.pt (torch, 372919 bytes, 10 tensors)

layer_list.conv1.att_src f4 [1, 8, 8]
0	0xbb48d3c1	-0.0030643793
1	0x3f13c28f	0.5771875
2	0xbee385a5	-0.444379
3	0xbe6a74b0	-0.22896075
4	0x3ea1f579	0.31632593
5	0x3d34f193	0.044175696
6	0x3f07fad0	0.53117085
7	0xbe1b98ef	-0.15195058
8	0xbdff380c	-0.12461862
9	0xbe8320e8	-0.25611043
10	0xbedd9de7	-0.43284532
11	0xbf1a5f38	-0.6030154
12	0x3f1784f3	0.5918724
13	0x3f072763	0.52794474
14	0xbedfb637	-0.43693706
15	0x3e89b485	0.26895538
16	0x3f186b0d	0.59538347
17	0xbf091b70	-0.5355749
18	0x3e76a757	0.24087273
19	0xbebcd0c4	-0.36878026
20	0x3e815dcf	0.25266883
21	0x3d630370	0.0554232
22	0x3f6fde84	0.93698907
23	0x3e5d5716	0.21615252
24	0x3e657382	0.22407344
25	0xbe16944d	-0.1470501
26	0x3c7e5430	0.015523002
27	0xbe4208b8	-0.18948638
28	0x3ef0bdce	0.4701981
29	0xbe84a74c	-0.25908887
30	0x3ed20371	0.4101825
31	0x3f19a6fb	0.60020417
32	0x3e8b119d	0.27161875
33	0x3ef3ad53	0.47593173
34	0x3e3127dd	0.17300363
35	0xbef8af3b	-0.4857119
36	0x3f000f3b	0.5002324
37	0x3e977542	0.29581648
38	0xbd8ca930	-0.068682075
39	0xbe79599f	-0.24350594
40	0x3eabdfb8	0.3356912
41	0xbefcd9d9	-0.49384955
42	0x3e4cdbe5	0.20005758
43	0x3ef26263	0.47340688
44	0xbc0ae11e	-0.008476524
45	0x3db2657a	0.08710761
46	0xbe17c625	-0.1482168
47	0x3dff5966	0.12468223
48	0x3f0e137a	0.5549847
49	0x3eb8f76b	0.36126265
50	0x3f35a9a7	0.70961994
51	0x3f04a209	0.51809746
52	0x3e91e59e	0.28495497
53	0x3e9415af	0.28922793
54	0xbe20aa62	-0.15689996
55	0x3e4df2d1	0.20112158
56	0x3e47e58b	0.19521157
57	0x3f511579	0.8167339
58	0xbf29237d	-0.66069776
59	0xbefed451	-0.4977136
60	0x3d5df92b	0.054192703
61	0x3f234c26	0.6378807
62	0xbeb40eee	-0.3516764
63	0x3f564236	0.8369478

layer_list.conv1.att_dst f4 [1, 8, 8]
0	0x3d938596	0.07203214
1	0x3df51deb	0.11968597
2	0xbddf977a	-0.10917564
3	0x3aad1485	0.0013204968
4	0x3d4d1257	0.05006632
5	0xbe0fd505	-0.14046104
6	0x3e77f68a	0.24215141
7	0x3de3bda5	0.11120156
8	0xbcda278a	-0.026630182
9	0x3dcf4ab0	0.101216674
10	0xbde2dd80	-0.11077404
11	0xbe76656f	-0.24062131
12	0x3d802db8	0.0625872
13	0x3e4203bd	0.18946739
14	0xbe475043	-0.19464211
15	0xbd64f4a6	-0.055897377
16	0x3def30c6	0.11679225
17	0xbe08c3d6	-0.13355955
18	0x3d99dbe5	0.07512645
19	0xbd8afbf4	-0.067863375
20	0xbc58e5e1	-0.013238401
21	0xbd6bdc34	-0.05758305
22	0x3e4a0507	0.1972848
23	0x3d0baa13	0.034097742
24	0xbcb86a76	-0.022511702
25	0xbd4e97b1	-0.050437633
26	0xbd9b477b	-0.07581993
27	0xbd3eb001	-0.04655457
28	0x3e3140d5	0.17309888
29	0xbdd94aae	-0.10609947
30	0x3d7c7542	0.061635263
31	0x3e2774bf	0.16353129
32	0xbe18e3f1	-0.14930703
33	0x3e4ea465	0.20179899
34	0x3e2f4951	0.17117812
35	0xbe30846c	-0.17238015
36	0x3e385992	0.18002918
37	0x3ca8c13a	0.02059995
38	0xbe7e9f2c	-0.24865407
39	0x3d721ef5	0.059111554
40	0x3d88f2da	0.06686945
41	0xbe2db06e	-0.16961834
42	0x3c66842e	0.0140696
43	0x3de0c38c	0.109747976
44	0x3c14e817	0.009088538
45	0xbc6fd62c	-0.014638465
46	0x3d48ec53	0.0490535
47	0xbc26e2e4	-0.010185931
48	0x3e1511a2	0.14557508
49	0x3d911f6f	0.070860736
50	0x3e1b3bfb	0.151596
51	0x3e0c3420	0.13691759
52	0x3ce930a7	0.028465582
53	0x3c2c6b49	0.010523626
54	0xbdb05248	-0.08609444
55	0x3e19d143	0.15021233
56	0x3da99fc8	0.08282429
57	0x3e75def3	0.2401083
58	0x3d8d4411	0.06897748
59	0xbe13f7a3	-0.14449935
60	0x3d727cf4	0.059201196
61	0x3df7da35	0.121021666
62	0xbd3d08f1	-0.046151105
63	0x3e8fde83	0.2809945

layer_list.conv1.bias f4 [64]
0	0x3cc63795	0.024196425
1	0x3c093d61	0.00837645
2	0xbbdc480c	-0.006722456
3	0xbc3ff238	-0.011715464
4	0x3cc18bf4	0.023626305
5	0xbc5e2b1f	-0.013560086
6	0x3b37c42c	0.0028040512
7	0x3c4a2a01	0.012339116
8	0x3c88daa3	0.016705817
9	0x3ccb6f56	0.024833363
10	0x3d1231fb	0.035692196
11	0x3c28957b	0.010289545
12	0x3cb1e4ce	0.021715548
13	0x3b8895b0	0.0041682348
14	0x3b80844e	0.003922022
15	0xbc30de99	-0.010795259
16	0xbbc382c0	-0.0059665143
17	0x3ccb0e25	0.024787018
18	0x3cba7404	0.022760399
19	0x3bf96012	0.0076103294
20	0x3c7983d3	0.015229183
21	0x3cbb727a	0.022881735
22	0x3ac0829f	0.0014687366
23	0x3c0f6def	0.008754238
24	0x3bb8f510	0.005644448
25	0x3b833f52	0.004005351
26	0x3bfcc849	0.0077143055
27	0xbbfeceba	-0.0077761086
28	0xbc2ff968	-0.010740615
29	0x3cfa45cc	0.03055086
30	0x3d706035	0.0586855
31	0xbc306d82	-0.010768296
32	0x3bb42489	0.0054975194
33	0xbb32cc8b	-0.0027282562
34	0x3d13d759	0.036094043
35	0xba96b87b	-0.0011499071
36	0x3c431a12	0.011908071
37	0x3cf50c64	0.029913135
38	0x3ba594db	0.0050531453
39	0x3d6b8932	0.057503887
40	0x3c719322	0.014744552
41	0x3c1e180b	0.009649287
42	0x3bf9294e	0.007603801
43	0x3c79fae4	0.015257571
44	0x3ce94e96	0.028479856
45	0x3d1de7ac	0.038551018
46	0x3d0a34ea	0.03374187
47	0xbc83ac31	-0.016073318
48	0x3ccb6e04	0.024832733
49	0xbc124c17	-0.008929274
50	0xbba96e14	-0.005170593
51	0xbbf099f2	-0.0073425705
52	0xba3ed62f	-0.00072798406
53	0x3cca071d	0.024661595
54	0x39bea8fc	0.00036365527
55	0x3b9d9974	0.004809553
56	0x3b56f6d1	0.0032800923
57	0x3c07673e	0.008264361
58	0xbad60ebd	-0.0016331297
59	0xbc6f6579	-0.014611595
60	0x3c9d57f9	0.019206988
61	0xb9afb154	-0.0003351072
62	0x3d3864b2	0.045017906
63	0x3c3c6836	0.011499455

layer_list.conv1.lin_src.weight f4 [64, 1433]
0	0xbdaee928	-0.08540565
1	0xbc1e0c9c	-0.009646561
2	0xbd9798e9	-0.07402212
3	0xbe2714d4	-0.16316539
4	0xbed7fc51	-0.4218469
5	0x3dc91fba	0.098205045
6	0xbcf376e7	-0.029719783
7	0xbc3e17a2	-0.011602314
8	0xbcaa12c4	-0.020760901
9	0xbc402057	-0.01172646
10	0x3ccd331c	0.025048785
11	0xbb05e86f	-0.002043273
12	0x3dbf8d75	0.09353153
13	0x3e303ee0	0.17211485
14	0xbd163681	-0.036673073
15	0xbcd9c91a	-0.02658515
16	0xbde53e7b	-0.11193558
17	0x39dbdb9c	0.00041934557
18	0xbd3b1394	-0.045672968
19	0x3e0751b7	0.13214765
20	0x3bb562f1	0.0055354764
21	0x3d38a52c	0.045079395
22	0x3c1a5fc6	0.009422248
23	0x3d24b891	0.04021508
24	0x3dd51aac	0.10405478
25	0xbe407906	-0.18796167
26	0xbe86ea61	-0.26350692
27	0xbdff96bf	-0.124799244
28	0xbc8c5109	-0.017128484
29	0xbd34e0f4	-0.044159845
30	0x3e05d785	0.13070495
31	0xbbedfe43	-0.0072629764
32	0x3ca466f7	0.020068629
33	0x3b9fd636	0.004877831
34	0x3e502917	0.20328175
35	0xbce35352	-0.027749691
36	0xbc06378d	-0.008191955
37	0x3cd1e6a3	0.025622671
38	0xbe4e411b	-0.20142023
39	0x3e125deb	0.1429364
40	0xbe8f62be	-0.28005022
41	0xbe388901	-0.18021013
42	0x3d220896	0.03955897
43	0xba7df4f2	-0.0009687684
44	0xbddee927	-0.10884314
45	0xbdf94dfb	-0.12173077
46	0x3d1bda64	0.03805007
47	0xbdba8bb0	-0.091086745
48	0x3daac8df	0.08339094
49	0xbcb56a30	-0.02214536
50	0x3e07860c	0.13234729
51	0xbea29b59	-0.31759146
52	0x3e5e01b5	0.21680339
53	0x3c0a9172	0.008457528
54	0x3c8c1ad4	0.017102636
55	0xbdabc7c8	-0.083877146
56	0xbd0ccdc2	-0.034375913
57	0x3c1bd0bb	0.009510214
58	0xbd448000	-0.047973633
59	0xbdf6311b	-0.12021085
60	0xbce13fa8	-0.027496174
61	0xbebac633	-0.3647934
62	0x3da2153c	0.079142064
63	0x3c5d8038	0.013519339
64	0xbd9f9d7e	-0.07793711
65	0x3e0c3fef	0.13696264
66	0x3bf861a9	0.0075800014
67	0x3e3eb206	0.18622598
68	0x3d11929c	0.03554021
69	0xbc835c4a	-0.016035218
70	0x3e005709	0.12533201
71	0xbd543df4	-0.051816896
72	0x3ce495f1	0.027903529
73	0x3d7548ed	0.059884
74	0x3b7e22f5	0.003877816
75	0x3dc9d6b5	0.09855405
76	0xbb0868d3	-0.0020814433
77	0xbdb80cc3	-0.08986809
78	0xbe5c4d0e	-0.21513769
79	0x3c9be560	0.019030273
80	0xbd23a038	-0.03994772
81	0x3e4e39ff	0.20139311
82	0xbe3ce44f	-0.18446468
83	0x3e418f09	0.1890222
84	0x3d4055ad	0.046956707
85	0x3e337673	0.17525654
86	0x3debdb0f	0.115163915
87	0xbd694d69	-0.05695859
88	0x3dedf0ab	0.116181694
89	0x3cd19580	0.025583982
90	0x3daa1469	0.08304674
91	0xbcaa7410	-0.020807296
92	0xbceecf12	-0.029151473
93	0xbe1faa90	-0.15592408
94	0xbb9bc0df	-0.0047532166
95	0xbb234475	-0.002491263
96	0x3a9c5aab	0.0011928877
97	0xbdd48a66	-0.1037796
98	0xbe1159ae	-0.14194366
99	0xbe009dea	-0.1256024
100	0xbc33ae0e	-0.010966791
101	0x38a7639b	7.9817335e-05
102	0xbc5f9921	-0.013647349
103	0x3e255e8c	0.16149348
104	0x3d829ab2	0.06377162
105	0x3e04a2b6	0.12952694
106	0x3dcc4930	0.09974897
107	0x3dc1fe85	0.09472374
108	0x3d973d30	0.073847175
109	0x3cbce767	0.02305956
110	0x3beb848b	0.007187431
111	0xbd3f31d4	-0.04667838
112	0x3e22bb7d	0.15891834
113	0xb7b27aa9	-2.1276372e-05
114	0xbcf73694	-0.030177392
115	0xbcd2ccbc	-0.02573239
116	0xbd410ccb	-0.04713134
117	0x3d5862bb	0.05282853
118	0xbdea959b	-0.11454316
119	0x3c95d82b	0.018291553
120	0x3d87d0f6	0.06631653
121	0x3c2f22a5	0.010689412
122	0xbd44e2cf	-0.048067864
123	0x3d8fe2b2	0.070256606
124	0x3cd4f72c	0.025996767
125	0xbdd10130	-0.102053046
126	0x3d821b0e	0.063528165
127	0xbd984a61	-0.07436062
128	0x3ed684f5	0.41898313
129	0xbde0e699	-0.10981483
130	0x3d02fd5d	0.031979907
131	0xbdcd216b	-0.100161396
132	0x3e586a15	0.21134217
133	0xbc51395e	-0.012770025
134	0xbc586acd	-0.013209057
135	0x3c65a59f	0.014016538
136	0x3e89d843	0.26922807
137	0x3d4f58c9	0.05062178
138	0xbcedbc7a	-0.029020537
139	0x3dd3b941	0.10338069
140	0xbeb5726e	-0.35438865
141	0xbd7f664e	-0.062353425
142	0x3dae36c6	0.08506541
143	0x3d013af7	0.031550374
144	0xbc52fcad	-0.012877625
145	0xbdcabcf6	-0.09899323
146	0xbc40e5aa	-0.011773506
147	0x3d009b46	0.03139808
148	0xbbc1e77d	-0.005917488
149	0xbe1f20f0	-0.15539908
150	0x3e048f86	0.12945375
151	0xbe1f879b	-0.15579073
152	0x3d2626f2	0.040564485
153	0xbd402c4c	-0.046917245
154	0xbdac7446	-0.08420615
155	0x3d1e1e3d	0.038603056
156	0x3dd9d861	0.10636974
157	0x3e18196c	0.14853448
158	0xbdb9f58c	-0.090800375
159	0xbd28ff0e	-0.041258864
160	0x3d4529ad	0.04813545
161	0x3c9ba4fc	0.01899957
162	0x3d1a246c	0.03763239
163	0xbcd7eda1	-0.026358427
164	0xbd925a7a	-0.07146163
165	0xbcf33062	-0.029686157
166	0xbbdc63cb	-0.0067257634
167	0x3dcc587d	0.09977815
168	0xbe5aebf0	-0.21379066
169	0xbd871c85	-0.065972365
170	0xbcac78ad	-0.021053636
171	0x3dcafbd9	0.099113174
172	0x3d7d5937	0.06185266
173	0x3d0dd1f1	0.034624044
174	0xbd7c4a61	-0.06159437
175	0x3dc1fd20	0.09472108
176	0x3ec6dbf1	0.38839677
177	0x3c38d8b3	0.011282134
178	0xbcff3afb	-0.031156054
179	0x3e004219	0.12525214
180	0xbcc18df9	-0.023627268
181	0xbabb6b1b	-0.0014298888
182	0xbcc83561	-0.024439516
183	0xbb9fdfb0	-0.0048789605
184	0x3bd1fbee	0.006408206
185	0xbca5a2e5	-0.020219276
186	0x3db69c72	0.08916558
187	0xbe8a60d0	-0.27026987
188	0x3e1d1f30	0.15343928
189	0x3d6e29eb	0.058145445
190	0x3dd48f97	0.1037895
191	0xbc608a31	-0.013704822
192	0xbcb95def	-0.022627799
193	0xbb33bc0a	-0.0027425312
194	0x3d5f626d	0.054537226
195	0x3cde1556	0.027109783
196	0xbe390a16	-0.18070254
197	0xbdbbd534	-0.09171525
198	0xbdbd802e	-0.09252964
199	0xbd90572b	-0.07047876
200	0x3e3a311f	0.181828
201	0xb8d47a5e	-0.000101317404
202	0xbcbf8cc8	-0.02338256
203	0x3e44d64c	0.19222373
204	0x3e12d072	0.14337328
205	0x3e1c745c	0.15278763
206	0x3d2cf0b5	0.042221744
207	0x3d21b23f	0.03947663
208	0xbc6f5212	-0.014606969
209	0xbcdea433	-0.027177906
210	0xbb8bdb89	-0.004268114
211	0xbe83429a	-0.2563675
212	0xbdc070b5	-0.09396497
213	0xbcef15a5	-0.029185126
214	0xbcdcef62	-0.026969615
215	0x3d892cb4	0.066979796
216	0x3d0723d0	0.032993138
217	0x3dd5dc64	0.10442427
218	0x3bcfdc16	0.006343375
219	0xbba74c52	-0.0051055336
220	0x3ca3afa1	0.019981207
221	0xbb85489b	-0.004067493
222	0xbcbe9c2b	-0.023267826
223	0x3b20f8b5	0.0024562303
224	0x3c9f35f5	0.019434908
225	0x3d35479f	0.044257756
226	0x3cc4b3ea	0.024011571
227	0xbd857353	-0.06516137
228	0x3d1c2145	0.038117666
229	0x3c16ae4f	0.009196832
230	0xbcb187d3	-0.021671211
231	0x3e1181e5	0.14209707
232	0xbd3f2061	-0.04666174
233	0xbdeb74ea	-0.11496909
234	0xbe25b268	-0.16181338
235	0xbca116fb	-0.019664278
236	0xbdb01bcb	-0.08599051
237	0xbc21e221	-0.0098805735
238	0x3f011ff7	0.504394
239	0x3d35f702	0.044425018
240	0x3ced1073	0.028938508
241	0x3a87c87d	0.0010359433
242	0xbd321085	-0.043472786
243	0x3d55985f	0.052147266
244	0x3d0166f5	0.031592328
245	0x3ceabb24	0.028653689
246	0xbd7ab436	-0.06120702
247	0x3d7f0104	0.062256828
248	0x3cf2024d	0.029542113
249	0xbda3c387	-0.07996278
250	0xbe06418b	-0.1311094
251	0xbc6a798a	-0.014311204
252	0x3bacf49a	0.005278182
253	0xbc9d5872	-0.019207213
254	0x3cbd0f03	0.023078447
255	0x3da55e5e	0.0807464

layer_list.conv1.lin_dst.weight f4 [64, 1433]
0	0xbdaee928	-0.08540565
1	0xbc1e0c9c	-0.009646561
2	0xbd9798e9	-0.07402212
3	0xbe2714d4	-0.16316539
4	0xbed7fc51	-0.4218469
5	0x3dc91fba	0.098205045
6	0xbcf376e7	-0.029719783
7	0xbc3e17a2	-0.011602314
8	0xbcaa12c4	-0.020760901
9	0xbc402057	-0.01172646
10	0x3ccd331c	0.025048785
11	0xbb05e86f	-0.002043273
12	0x3dbf8d75	0.09353153
13	0x3e303ee0	0.17211485
14	0xbd163681	-0.036673073
15	0xbcd9c91a	-0.02658515
16	0xbde53e7b	-0.11193558
17	0x39dbdb9c	0.00041934557
18	0xbd3b1394	-0.045672968
19	0x3e0751b7	0.13214765
20	0x3bb562f1	0.0055354764
21	0x3d38a52c	0.045079395
22	0x3c1a5fc6	0.009422248
23	0x3d24b891	0.04021508
24	0x3dd51aac	0.10405478
25	0xbe407906	-0.18796167
26	0xbe86ea61	-0.26350692
27	0xbdff96bf	-0.124799244
28	0xbc8c5109	-0.017128484
29	0xbd34e0f4	-0.044159845
30	0x3e05d785	0.13070495
31	0xbbedfe43	-0.0072629764
32	0x3ca466f7	0.020068629
33	0x3b9fd636	0.004877831
34	0x3e502917	0.20328175
35	0xbce35352	-0.027749691
36	0xbc06378d	-0.008191955
37	0x3cd1e6a3	0.025622671
38	0xbe4e411b	-0.20142023
39	0x3e125deb	0.1429364
40	0xbe8f62be	-0.28005022
41	0xbe388901	-0.18021013
42	0x3d220896	0.03955897
43	0xba7df4f2	-0.0009687684
44	0xbddee927	-0.10884314
45	0xbdf94dfb	-0.12173077
46	0x3d1bda64	0.03805007
47	0xbdba8bb0	-0.091086745
48	0x3daac8df	0.08339094
49	0xbcb56a30	-0.02214536
50	0x3e07860c	0.13234729
51	0xbea29b59	-0.31759146
52	0x3e5e01b5	0.21680339
53	0x3c0a9172	0.008457528
54	0x3c8c1ad4	0.017102636
55	0xbdabc7c8	-0.083877146
56	0xbd0ccdc2	-0.034375913
57	0x3c1bd0bb	0.009510214
58	0xbd448000	-0.047973633
59	0xbdf6311b	-0.12021085
60	0xbce13fa8	-0.027496174
61	0xbebac633	-0.3647934
62	0x3da2153c	0.079142064
63	0x3c5d8038	0.013519339
64	0xbd9f9d7e	-0.07793711
65	0x3e0c3fef	0.13696264
66	0x3bf861a9	0.0075800014
67	0x3e3eb206	0.18622598
68	0x3d11929c	0.03554021
69	0xbc835c4a	-0.016035218
70	0x3e005709	0.12533201
71	0xbd543df4	-0.051816896
72	0x3ce495f1	0.027903529
73	0x3d7548ed	0.059884
74	0x3b7e22f5	0.003877816
75	0x3dc9d6b5	0.09855405
76	0xbb0868d3	-0.0020814433
77	0xbdb80cc3	-0.08986809
78	0xbe5c4d0e	-0.21513769
79	0x3c9be560	0.019030273
80	0xbd23a038	-0.03994772
81	0x3e4e39ff	0.20139311
82	0xbe3ce44f	-0.18446468
83	0x3e418f09	0.1890222
84	0x3d4055ad	0.046956707
85	0x3e337673	0.17525654
86	0x3debdb0f	0.115163915
87	0xbd694d69	-0.05695859
88	0x3dedf0ab	0.116181694
89	0x3cd19580	0.025583982
90	0x3daa1469	0.08304674
91	0xbcaa7410	-0.020807296
92	0xbceecf12	-0.029151473
93	0xbe1faa90	-0.15592408
94	0xbb9bc0df	-0.0047532166
95	0xbb234475	-0.002491263
96	0x3a9c5aab	0.0011928877
97	0xbdd48a66	-0.1037796
98	0xbe1159ae	-0.14194366
99	0xbe009dea	-0.1256024
100	0xbc33ae0e	-0.010966791
101	0x38a7639b	7.9817335e-05
102	0xbc5f9921	-0.013647349
103	0x3e255e8c	0.16149348
104	0x3d829ab2	0.06377162
105	0x3e04a2b6	0.12952694
106	0x3dcc4930	0.09974897
107	0x3dc1fe85	0.09472374
108	0x3d973d30	0.073847175
109	0x3cbce767	0.02305956
110	0x3beb848b	0.007187431
111	0xbd3f31d4	-0.04667838
112	0x3e22bb7d	0.15891834
113	0xb7b27aa9	-2.1276372e-05
114	0xbcf73694	-0.030177392
115	0xbcd2ccbc	-0.02573239
116	0xbd410ccb	-0.04713134
117	0x3d5862bb	0.05282853
118	0xbdea959b	-0.11454316
119	0x3c95d82b	0.018291553
120	0x3d87d0f6	0.06631653
121	0x3c2f22a5	0.010689412
122	0xbd44e2cf	-0.048067864
123	0x3d8fe2b2	0.070256606
124	0x3cd4f72c	0.025996767
125	0xbdd10130	-0.102053046
126	0x3d821b0e	0.063528165
127	0xbd984a61	-0.07436062
128	0x3ed684f5	0.41898313
129	0xbde0e699	-0.10981483
130	0x3d02fd5d	0.031979907
131	0xbdcd216b	-0.100161396
132	0x3e586a15	0.21134217
133	0xbc51395e	-0.012770025
134	0xbc586acd	-0.013209057
135	0x3c65a59f	0.014016538
136	0x3e89d843	0.26922807
137	0x3d4f58c9	0.05062178
138	0xbcedbc7a	-0.029020537
139	0x3dd3b941	0.10338069
140	0xbeb5726e	-0.35438865
141	0xbd7f664e	-0.062353425
142	0x3dae36c6	0.08506541
143	0x3d013af7	0.031550374
144	0xbc52fcad	-0.012877625
145	0xbdcabcf6	-0.09899323
146	0xbc40e5aa	-0.011773506
147	0x3d009b46	0.03139808
148	0xbbc1e77d	-0.005917488
149	0xbe1f20f0	-0.15539908
150	0x3e048f86	0.12945375
151	0xbe1f879b	-0.15579073
152	0x3d2626f2	0.040564485
153	0xbd402c4c	-0.046917245
154	0xbdac7446	-0.08420615
155	0x3d1e1e3d	0.038603056
156	0x3dd9d861	0.10636974
157	0x3e18196c	0.14853448
158	0xbdb9f58c	-0.090800375
159	0xbd28ff0e	-0.041258864
160	0x3d4529ad	0.04813545
161	0x3c9ba4fc	0.01899957
162	0x3d1a246c	0.03763239
163	0xbcd7eda1	-0.026358427
164	0xbd925a7a	-0.07146163
165	0xbcf33062	-0.029686157
166	0xbbdc63cb	-0.0067257634
167	0x3dcc587d	0.09977815
168	0xbe5aebf0	-0.21379066
169	0xbd871c85	-0.065972365
170	0xbcac78ad	-0.021053636
171	0x3dcafbd9	0.099113174
172	0x3d7d5937	0.06185266
173	0x3d0dd1f1	0.034624044
174	0xbd7c4a61	-0.06159437
175	0x3dc1fd20	0.09472108
176	0x3ec6dbf1	0.38839677
177	0x3c38d8b3	0.011282134
178	0xbcff3afb	-0.031156054
179	0x3e004219	0.12525214
180	0xbcc18df9	-0.023627268
181	0xbabb6b1b	-0.0014298888
182	0xbcc83561	-0.024439516
183	0xbb9fdfb0	-0.0048789605
184	0x3bd1fbee	0.006408206
185	0xbca5a2e5	-0.020219276
186	0x3db69c72	0.08916558
187	0xbe8a60d0	-0.27026987
188	0x3e1d1f30	0.15343928
189	0x3d6e29eb	0.058145445
190	0x3dd48f97	0.1037895
191	0xbc608a31	-0.013704822
192	0xbcb95def	-0.022627799
193	0xbb33bc0a	-0.0027425312
194	0x3d5f626d	0.054537226
195	0x3cde1556	0.027109783
196	0xbe390a16	-0.18070254
197	0xbdbbd534	-0.09171525
198	0xbdbd802e	-0.09252964
199	0xbd90572b	-0.07047876
200	0x3e3a311f	0.181828
201	0xb8d47a5e	-0.000101317404
202	0xbcbf8cc8	-0.02338256
203	0x3e44d64c	0.19222373
204	0x3e12d072	0.14337328
205	0x3e1c745c	0.15278763
206	0x3d2cf0b5	0.042221744
207	0x3d21b23f	0.03947663
208	0xbc6f5212	-0.014606969
209	0xbcdea433	-0.027177906
210	0xbb8bdb89	-0.004268114
211	0xbe83429a	-0.2563675
212	0xbdc070b5	-0.09396497
213	0xbcef15a5	-0.029185126
214	0xbcdcef62	-0.026969615
215	0x3d892cb4	0.066979796
216	0x3d0723d0	0.032993138
217	0x3dd5dc64	0.10442427
218	0x3bcfdc16	0.006343375
219	0xbba74c52	-0.0051055336
220	0x3ca3afa1	0.019981207
221	0xbb85489b	-0.004067493
222	0xbcbe9c2b	-0.023267826
223	0x3b20f8b5	0.0024562303
224	0x3c9f35f5	0.019434908
225	0x3d35479f	0.044257756
226	0x3cc4b3ea	0.024011571
227	0xbd857353	-0.06516137
228	0x3d1c2145	0.038117666
229	0x3c16ae4f	0.009196832
230	0xbcb187d3	-0.021671211
231	0x3e1181e5	0.14209707
232	0xbd3f2061	-0.04666174
233	0xbdeb74ea	-0.11496909
234	0xbe25b268	-0.16181338
235	0xbca116fb	-0.019664278
236	0xbdb01bcb	-0.08599051
237	0xbc21e221	-0.0098805735
238	0x3f011ff7	0.504394
239	0x3d35f702	0.044425018
240	0x3ced1073	0.028938508
241	0x3a87c87d	0.0010359433
242	0xbd321085	-0.043472786
243	0x3d55985f	0.052147266
244	0x3d0166f5	0.031592328
245	0x3ceabb24	0.028653689
246	0xbd7ab436	-0.06120702
247	0x3d7f0104	0.062256828
248	0x3cf2024d	0.029542113
249	0xbda3c387	-0.07996278
250	0xbe06418b	-0.1311094
251	0xbc6a798a	-0.014311204
252	0x3bacf49a	0.005278182
253	0xbc9d5872	-0.019207213
254	0x3cbd0f03	0.023078447
255	0x3da55e5e	0.0807464

layer_list.conv2.att_src f4 [1, 1, 7]
0	0x3d059ae5	0.032618422
1	0xbd73fbcd	-0.059566308
2	0xbe0e2b20	-0.13883638
3	0xbe9380a3	-0.2880908
4	0xbdb6fc83	-0.089348815
5	0xbdb2904c	-0.08718929
6	0xbd966ae4	-0.073446065

layer_list.conv2.att_dst f4 [1, 1, 7]
0	0x3f0120c0	0.504406
1	0x3e58a976	0.21158394
2	0x3b0f289f	0.002184428
3	0xbd433a1f	-0.04766285
4	0x3f11744f	0.568181
5	0xbdcd2132	-0.10016097
6	0x3def68cd	0.11689911

layer_list.conv2.bias f4 [7]
0	0x3d12f0ab	0.03587405
1	0xbef9c95a	-0.48786432
2	0xbdcab7c8	-0.09898335
3	0x3f18c125	0.59669715
4	0x3db8eb78	0.09029287
5	0xbe97ffa3	-0.29687223
6	0xbf24eecb	-0.6442687

layer_list.conv2.lin_src.weight f4 [7, 64]
0	0xbee7c4fa	-0.4526747
1	0xbf22bfcd	-0.63573915
2	0xbf922ebc	-1.1420512
3	0x3f71eacb	0.9449889
4	0x3f968ef9	1.1762382
5	0xbfa1c764	-1.2638974
6	0x3f7b66d7	0.98203796
7	0x3f842d3b	1.0326303
8	0xbf568798	-0.8380065
9	0xbe08bfc0	-0.13354397
10	0x3f8c343e	1.0953443
11	0x3f5f7744	0.8729136
12	0xbf937d76	-1.1522663
13	0xbf9697cb	-1.1765074
14	0x3f6c3198	0.92263174
15	0xbf986274	-1.1905046
16	0xbec1a0c5	-0.3781797
17	0x3f1cffdf	0.6132793
18	0xbf2cc901	-0.6749421
19	0xbf22740a	-0.6345831
20	0x3f88ca51	1.0686742
21	0x3f100f2b	0.56273144
22	0xbfa88158	-1.3164473
23	0xbf025677	-0.50913185
24	0x3f839e36	1.0282657
25	0x3f5e838d	0.8691948
26	0x3f65cf09	0.89769036
27	0xbf40e895	-0.7535489
28	0xbf5d4736	-0.86436784
29	0xbf81a6de	-1.0129049
30	0xbf0a27e8	-0.5396714
31	0xbf87bb71	-1.0604078
32	0xbf3acbed	-0.72967416
33	0xbf1c791d	-0.61122304
34	0xbf0fd5bd	-0.56185514
35	0x3e6c0989	0.23050512
36	0xbf89bafb	-1.0760187
37	0xbf9041a8	-1.1270037
38	0xbf8d390e	-1.1033037
39	0xbfaf216e	-1.3682077
40	0x3fa007e7	1.2502412
41	0xbeb3a0a8	-0.35083508
42	0xbfa185c1	-1.2618943
43	0x3e8d13eb	0.2755426
44	0xbf3a93ae	-0.7288159
45	0xbf23acde	-0.6393565
46	0xbea66d83	-0.32505426
47	0xbee49132	-0.44642025
48	0x3f9705e2	1.179867
49	0x3f17b5c2	0.59261715
50	0x3fadfb78	1.3592367
51	0x3f63ab90	0.8893366
52	0xbf8d108d	-1.1020676
53	0x3fa7cde2	1.3109705
54	0x3e33e3a3	0.17567305
55	0x3fad202a	1.3525441
56	0xbfad42e0	-1.3536034
57	0xbf6d7406	-0.9275516
58	0x3f948f20	1.1606178
59	0x3f7ce125	0.98781043
60	0x3f34aaff	0.7057342
61	0xbf72a14e	-0.9477738
62	0xbf953231	-1.1655942
63	0xbf21cd39	-0.6320377
64	0xbf71dbbf	-0.9447593
65	0x3f91b564	1.1383481
66	0xbf18f131	-0.5974303
67	0x3f97f69b	1.1872133
68	0xbf50d88e	-0.81580436
69	0xbf03c0f1	-0.5146628
70	0x3f853993	1.0408195
71	0xbfbb3d65	-1.4628111
72	0x3e25ae5c	0.16179794
73	0x3f61febc	0.8827932
74	0xbfa652a3	-1.2993969
75	0xbf183dc4	-0.59469247
76	0x3dd4cbf8	0.103904665
77	0x3f185a5a	0.59512866
78	0x3f8ad56a	1.0846379
79	0x3f8883c0	1.0665207
80	0xbf83e7c9	-1.030511
81	0x3f67f86b	0.9061343
82	0x3f95f425	1.1715132
83	0xbf7d37c8	-0.9891324
84	0xbf497644	-0.78696084
85	0xbfba20f6	-1.4541309
86	0xbf86aa33	-1.0520691
87	0x3ebd87c2	0.37017637
88	0xbf6165bb	-0.88045853
89	0xbf11f0a2	-0.570078
90	0xbef4ca51	-0.47810605
91	0xbe28662d	-0.16445227
92	0x3fb34ab5	1.4007174
93	0xbf8fd3b4	-1.1236482
94	0x3f85f83a	1.0466378
95	0x3f9c0022	1.218754
96	0x3f9b9d37	1.2157353
97	0xbf67e683	-0.9058611
98	0xbfa55e2d	-1.2919365
99	0x3f072364	0.52788377
100	0xbf34290e	-0.70375144
101	0xbecb0b79	-0.3965719
102	0x3f69c014	0.9130871
103	0xbfb58776	-1.4181964
104	0xbf6754b5	-0.9036363
105	0x3f96ea53	1.179026
106	0x3f8045c6	1.0021293
107	0xbfa08995	-1.2541987
108	0x3fb1241d	1.3839146
109	0xbe3895d0	-0.18025899
110	0xbf839a0a	-1.0281384
111	0xbf6ac9b5	-0.9171403
112	0xbf809da3	-1.0048107
113	0x3f49118a	0.7854239
114	0xbf96d31e	-1.1783178
115	0xbf6a42a6	-0.9150795
116	0x3f689bf4	0.90862966
117	0xbf5faf93	-0.8737728
118	0x3fc99199	1.5747558
119	0x3ea94226	0.3305828
120	0xbf47b0f8	-0.7800441
121	0xbf661a00	-0.8988342
122	0x3ef9b02d	0.48767224
123	0xbf954ef9	-1.1664726
124	0xbf5ce2bf	-0.8628349
125	0xbe241003	-0.16021733
126	0xbeccb653	-0.39982852
127	0xbfa0a293	-1.2549614
128	0xbf6b5bfd	-0.9193724
129	0x3f95ffa5	1.1718642
130	0xbf84432d	-1.0333
131	0xbf99c87b	-1.2014307
132	0x3f8e2081	1.110367
133	0x3f8a607a	1.0810692
134	0xbea5d728	-0.32390714
135	0xbf72353d	-0.94612485
136	0xbdcb998a	-0.099413946
137	0xbf8a547d	-1.0807034
138	0xbf6da33b	-0.92827195
139	0xbf9dfa69	-1.2342044
140	0x3f983a79	1.1892844
141	0x3f63db16	0.89006174
142	0xbf9fdeab	-1.2489828
143	0x3f7a83b7	0.9785723
144	0x3f7de2e2	0.9917432
145	0xbf92c138	-1.1465216
146	0x3f6cb174	0.9245827
147	0xbf137e8c	-0.5761497
148	0x3f6bfa8a	0.9217917
149	0xbf700e1b	-0.93771523
150	0x3f193ea2	0.59861195
151	0xbfa6d82b	-1.3034719
152	0x3fa27891	1.2693044
153	0xbf97be9b	-1.1855043
154	0xbf00460f	-0.501069
155	0xbf9ba5f8	-1.2160025
156	0x3f7ec359	0.99516827
157	0xbf0f3c8c	-0.5595176
158	0x3f29b965	0.66298515
159	0x3f599476	0.8499216
160	0x3f678938	0.90443754
161	0x3f992b32	1.1966307
162	0xbdcd566f	-0.100262515
163	0xbf9547aa	-1.1662495
164	0x3f9d9c00	1.2313232
165	0x3f6e98ef	0.9320211
166	0x3f11b9b2	0.56923974
167	0xbf8721a9	-1.0557147
168	0xbf8973f1	-1.0738508
169	0x3f9245ec	1.1427588
170	0x3f7a2dff	0.97726434
171	0xbf3b5933	-0.7318298
172	0xbf6625c6	-0.8990139
173	0x3f6c294c	0.92250514
174	0xbf851047	-1.0395592
175	0x3f937568	1.1520205
176	0x3ef782b3	0.48341903
177	0x3f86ab81	1.0521089
178	0x3f8e77f2	1.1130354
179	0x3f3612e2	0.7112256
180	0x3f89ab3b	1.075538
181	0xbf2f11a9	-0.6838632
182	0xbf846a2f	-1.0344905
183	0x3f3d2107	0.7387852
184	0xbf1e0709	-0.61729485
185	0x3f7aa6e5	0.9791091
186	0xbf828886	-1.0197914
187	0xbed67423	-0.4188548
188	0xbf8b4e41	-1.0883256
189	0x3f930a4f	1.1487521
190	0xbf869988	-1.0515604
191	0x3f577a5d	0.84171087
192	0x3f8b7b65	1.0897032
193	0x3f86ad51	1.0521642
194	0x3f24adb4	0.6432755
195	0xbf3a0bc7	-0.7267422
196	0xbf496c55	-0.78680927
197	0xbf7b19d9	-0.98086315
198	0x3f81d281	1.0142366
199	0x3f94357a	1.157882
200	0xbf46eb5e	-0.7770289
201	0x3f4bc4d7	0.7959723
202	0xbd69e035	-0.057098586
203	0xbf99b389	-1.2007915
204	0x3f4b9ed0	0.79539204
205	0x3f25f90e	0.6483315
206	0xbf9dc8ee	-1.2326944
207	0xbf8041d5	-1.002009
208	0xbf8c5a6b	-1.0965093
209	0x3f87dd2f	1.0614375
210	0xbf80a13d	-1.0049206
211	0x3fa9704f	1.3237399
212	0xbf47e38e	-0.78081596
213	0x3e51eb9a	0.20500031
214	0xbf8ddae3	-1.1082424
215	0xbf71c33c	-0.9443853
216	0xbf85caaf	-1.0452479
217	0xbf06635d	-0.52495366
218	0xbf85765a	-1.0426743
219	0x3f1c60c5	0.6108516
220	0xbf68677e	-0.90782917
221	0x3f966a11	1.1751119
222	0xbf8b08a6	-1.0862014
223	0xbfa5d8bb	-1.2956766
224	0xbf0687e4	-0.525511
225	0x3f947c50	1.1600437
226	0x3f7c36b8	0.98520994
227	0xbf8a6b68	-1.0814028
228	0x3f914436	1.1348941
229	0x3f3869dc	0.7203653
230	0xbf9c08ae	-1.2190149
231	0x3d3d88af	0.04627293
232	0x3f4b8c7e	0.7951125
233	0xbf974c66	-1.182019
234	0x3f57009b	0.839853
235	0x3f12f916	0.57411325
236	0x3f901c33	1.1258606
237	0xbeb764cb	-0.35819086
238	0x3f9d4019	1.2285186
239	0xbf1f0a1c	-0.621248
240	0xbf910fdf	-1.1332968
241	0xbf70fc52	-0.9413501
242	0xbf9ddb3f	-1.2332534
243	0xbf80914f	-1.0044345
244	0xbf88db76	-1.0691974
245	0xbcf82939	-0.030293094
246	0xbf0a723b	-0.5408055
247	0x3e0bee8d	0.13665219
248	0x3f9149ad	1.1350609
249	0x3f4db8f9	0.8036037
250	0xbe849640	-0.25895882
251	0xbf6d7e47	-0.9277081
252	0x3f6b83d6	0.9199804
253	0x3f8ea2e7	1.1143464
254	0xbf718df6	-0.9435724
255	0x3f88d73d	1.0690686

layer_list.conv2.lin_dst.weight f4 [7, 64]
0	0xbee7c4fa	-0.4526747
1	0xbf22bfcd	-0.63573915
2	0xbf922ebc	-1.1420512
3	0x3f71eacb	0.9449889
4	0x3f968ef9	1.1762382
5	0xbfa1c764	-1.2638974
6	0x3f7b66d7	0.98203796
7	0x3f842d3b	1.0326303
8	0xbf568798	-0.8380065
9	0xbe08bfc0	-0.13354397
10	0x3f8c343e	1.0953443
11	0x3f5f7744	0.8729136
12	0xbf937d76	-1.1522663
13	0xbf9697cb	-1.1765074
14	0x3f6c3198	0.92263174
15	0xbf986274	-1.1905046
16	0xbec1a0c5	-0.3781797
17	0x3f1cffdf	0.6132793
18	0xbf2cc901	-0.6749421
19	0xbf22740a	-0.6345831
20	0x3f88ca51	1.0686742
21	0x3f100f2b	0.56273144
22	0xbfa88158	-1.3164473
23	0xbf025677	-0.50913185
24	0x3f839e36	1.0282657
25	0x3f5e838d	0.8691948
26	0x3f65cf09	0.89769036
27	0xbf40e895	-0.7535489
28	0xbf5d4736	-0.86436784
29	0xbf81a6de	-1.0129049
30	0xbf0a27e8	-0.5396714
31	0xbf87bb71	-1.0604078
32	0xbf3acbed	-0.72967416
33	0xbf1c791d	-0.61122304
34	0xbf0fd5bd	-0.56185514
35	0x3e6c0989	0.23050512
36	0xbf89bafb	-1.0760187
37	0xbf9041a8	-1.1270037
38	0xbf8d390e	-1.1033037
39	0xbfaf216e	-1.3682077
40	0x3fa007e7	1.2502412
41	0xbeb3a0a8	-0.35083508
42	0xbfa185c1	-1.2618943
43	0x3e8d13eb	0.2755426
44	0xbf3a93ae	-0.7288159
45	0xbf23acde	-0.6393565
46	0xbea66d83	-0.32505426
47	0xbee49132	-0.44642025
48	0x3f9705e2	1.179867
49	0x3f17b5c2	0.59261715
50	0x3fadfb78	1.3592367
51	0x3f63ab90	0.8893366
52	0xbf8d108d	-1.1020676
53	0x3fa7cde2	1.3109705
54	0x3e33e3a3	0.17567305
55	0x3fad202a	1.3525441
56	0xbfad42e0	-1.3536034
57	0xbf6d7406	-0.9275516
58	0x3f948f20	1.1606178
59	0x3f7ce125	0.98781043
60	0x3f34aaff	0.7057342
61	0xbf72a14e	-0.9477738
62	0xbf953231	-1.1655942
63	0xbf21cd39	-0.6320377
64	0xbf71dbbf	-0.9447593
65	0x3f91b564	1.1383481
66	0xbf18f131	-0.5974303
67	0x3f97f69b	1.1872133
68	0xbf50d88e	-0.81580436
69	0xbf03c0f1	-0.5146628
70	0x3f853993	1.0408195
71	0xbfbb3d65	-1.4628111
72	0x3e25ae5c	0.16179794
73	0x3f61febc	0.8827932
74	0xbfa652a3	-1.2993969
75	0xbf183dc4	-0.59469247
76	0x3dd4cbf8	0.103904665
77	0x3f185a5a	0.59512866
78	0x3f8ad56a	1.0846379
79	0x3f8883c0	1.0665207
80	0xbf83e7c9	-1.030511
81	0x3f67f86b	0.9061343
82	0x3f95f425	1.1715132
83	0xbf7d37c8	-0.9891324
84	0xbf497644	-0.78696084
85	0xbfba20f6	-1.4541309
86	0xbf86aa33	-1.0520691
87	0x3ebd87c2	0.37017637
88	0xbf6165bb	-0.88045853
89	0xbf11f0a2	-0.570078
90	0xbef4ca51	-0.47810605
91	0xbe28662d	-0.16445227
92	0x3fb34ab5	1.4007174
93	0xbf8fd3b4	-1.1236482
94	0x3f85f83a	1.0466378
95	0x3f9c0022	1.218754
96	0x3f9b9d37	1.2157353
97	0xbf67e683	-0.9058611
98	0xbfa55e2d	-1.2919365
99	0x3f072364	0.52788377
100	0xbf34290e	-0.70375144
101	0xbecb0b79	-0.3965719
102	0x3f69c014	0.9130871
103	0xbfb58776	-1.4181964
104	0xbf6754b5	-0.9036363
105	0x3f96ea53	1.179026
106	0x3f8045c6	1.0021293
107	0xbfa08995	-1.2541987
108	0x3fb1241d	1.3839146
109	0xbe3895d0	-0.18025899
110	0xbf839a0a	-1.0281384
111	0xbf6ac9b5	-0.9171403
112	0xbf809da3	-1.0048107
113	0x3f49118a	0.7854239
114	0xbf96d31e	-1.1783178
115	0xbf6a42a6	-0.9150795
116	0x3f689bf4	0.90862966
117	0xbf5faf93	-0.8737728
118	0x3fc99199	1.5747558
119	0x3ea94226	0.3305828
120	0xbf47b0f8	-0.7800441
121	0xbf661a00	-0.8988342
122	0x3ef9b02d	0.48767224
123	0xbf954ef9	-1.1664726
124	0xbf5ce2bf	-0.8628349
125	0xbe241003	-0.16021733
126	0xbeccb653	-0.39982852
127	0xbfa0a293	-1.2549614
128	0xbf6b5bfd	-0.9193724
129	0x3f95ffa5	1.1718642
130	0xbf84432d	-1.0333
131	0xbf99c87b	-1.2014307
132	0x3f8e2081	1.110367
133	0x3f8a607a	1.0810692
134	0xbea5d728	-0.32390714
135	0xbf72353d	-0.94612485
136	0xbdcb998a	-0.099413946
137	0xbf8a547d	-1.0807034
138	0xbf6da33b	-0.92827195
139	0xbf9dfa69	-1.2342044
140	0x3f983a79	1.1892844
141	0x3f63db16	0.89006174
142	0xbf9fdeab	-1.2489828
143	0x3f7a83b7	0.9785723
144	0x3f7de2e2	0.9917432
145	0xbf92c138	-1.1465216
146	0x3f6cb174	0.9245827
147	0xbf137e8c	-0.5761497
148	0x3f6bfa8a	0.9217917
149	0xbf700e1b	-0.93771523
150	0x3f193ea2	0.59861195
151	0xbfa6d82b	-1.3034719
152	0x3fa27891	1.2693044
153	0xbf97be9b	-1.1855043
154	0xbf00460f	-0.501069
155	0xbf9ba5f8	-1.2160025
156	0x3f7ec359	0.99516827
157	0xbf0f3c8c	-0.5595176
158	0x3f29b965	0.66298515
159	0x3f599476	0.8499216
160	0x3f678938	0.90443754
161	0x3f992b32	1.1966307
162	0xbdcd566f	-0.100262515
163	0xbf9547aa	-1.1662495
164	0x3f9d9c00	1.2313232
165	0x3f6e98ef	0.9320211
166	0x3f11b9b2	0.56923974
167	0xbf8721a9	-1.0557147
168	0xbf8973f1	-1.0738508
169	0x3f9245ec	1.1427588
170	0x3f7a2dff	0.97726434
171	0xbf3b5933	-0.7318298
172	0xbf6625c6	-0.8990139
173	0x3f6c294c	0.92250514
174	0xbf851047	-1.0395592
175	0x3f937568	1.1520205
176	0x3ef782b3	0.48341903
177	0x3f86ab81	1.0521089
178	0x3f8e77f2	1.1130354
179	0x3f3612e2	0.7112256
180	0x3f89ab3b	1.075538
181	0xbf2f11a9	-0.6838632
182	0xbf846a2f	-1.0344905
183	0x3f3d2107	0.7387852
184	0xbf1e0709	-0.61729485
185	0x3f7aa6e5	0.9791091
186	0xbf828886	-1.0197914
187	0xbed67423	-0.4188548
188	0xbf8b4e41	-1.0883256
189	0x3f930a4f	1.1487521
190	0xbf869988	-1.0515604
191	0x3f577a5d	0.84171087
192	0x3f8b7b65	1.0897032
193	0x3f86ad51	1.0521642
194	0x3f24adb4	0.6432755
195	0xbf3a0bc7	-0.7267422
196	0xbf496c55	-0.78680927
197	0xbf7b19d9	-0.98086315
198	0x3f81d281	1.0142366
199	0x3f94357a	1.157882
200	0xbf46eb5e	-0.7770289
201	0x3f4bc4d7	0.7959723
202	0xbd69e035	-0.057098586
203	0xbf99b389	-1.2007915
204	0x3f4b9ed0	0.79539204
205	0x3f25f90e	0.6483315
206	0xbf9dc8ee	-1.2326944
207	0xbf8041d5	-1.002009
208	0xbf8c5a6b	-1.0965093
209	0x3f87dd2f	1.0614375
210	0xbf80a13d	-1.0049206
211	0x3fa9704f	1.3237399
212	0xbf47e38e	-0.78081596
213	0x3e51eb9a	0.20500031
214	0xbf8ddae3	-1.1082424
215	0xbf71c33c	-0.9443853
216	0xbf85caaf	-1.0452479
217	0xbf06635d	-0.52495366
218	0xbf85765a	-1.0426743
219	0x3f1c60c5	0.6108516
220	0xbf68677e	-0.90782917
221	0x3f966a11	1.1751119
222	0xbf8b08a6	-1.0862014
223	0xbfa5d8bb	-1.2956766
224	0xbf0687e4	-0.525511
225	0x3f947c50	1.1600437
226	0x3f7c36b8	0.98520994
227	0xbf8a6b68	-1.0814028
228	0x3f914436	1.1348941
229	0x3f3869dc	0.7203653
230	0xbf9c08ae	-1.2190149
231	0x3d3d88af	0.04627293
232	0x3f4b8c7e	0.7951125
233	0xbf974c66	-1.182019
234	0x3f57009b	0.839853
235	0x3f12f916	0.57411325
236	0x3f901c33	1.1258606
237	0xbeb764cb	-0.35819086
238	0x3f9d4019	1.2285186
239	0xbf1f0a1c	-0.621248
240	0xbf910fdf	-1.1332968
241	0xbf70fc52	-0.9413501
242	0xbf9ddb3f	-1.2332534
243	0xbf80914f	-1.0044345
244	0xbf88db76	-1.0691974
245	0xbcf82939	-0.030293094
246	0xbf0a723b	-0.5408055
247	0x3e0bee8d	0.13665219
248	0x3f9149ad	1.1350609
249	0x3f4db8f9	0.8036037
250	0xbe849640	-0.25895882
251	0xbf6d7e47	-0.9277081
252	0x3f6b83d6	0.9199804
253	0x3f8ea2e7	1.1143464
254	0xbf718df6	-0.9435724
255	0x3f88d73d	1.0690686
