vanilla_models/Cora/5_3f_85/split1/init4/GAT_dp0_5_5e_4_f0.pt (torch, 372919 bytes, 10 tensors)

layer_list.conv1.att_src f4 [1, 8, 8]
000000 a8 54 26 bf de 03 26 bf 5e 60 f2 be 8a 34 2c bf
       -0.64972925 -0.6484965 -0.47339147 -0.6726767
000010 db 23 f1 3e df 4c 28 bf 93 93 4f bd 61 38 4d 3e
       0.47097668 -0.65742296 -0.050677847 0.20041038
000020 03 a9 16 3f 8b c4 1c 3f 65 9a be be 3e d6 82 3e
       0.5885164 0.612374 -0.3722717 0.2555408
000030 a4 3b 0d bf bd 5a 7a 3e 03 2f 2c bf a4 d2 65 3e
       -0.5516913 0.24448676 -0.67259234 0.22443634
000040 50 bf 23 3e a5 af 37 bf cf 2e 95 3e e9 19 dd be
       0.15990949 -0.7175239 0.29137275 -0.4318383
000050 6e 7d 45 bf 59 a9 3b bf 3b 78 eb bd f1 2e cf 3e
       -0.77144516 -0.7330528 -0.114975415 0.404655
000060 10 23 32 bf 7d 38 37 3f 79 96 ee be c4 d3 05 bf
       -0.6958475 0.7157057 -0.46599177 -0.52276254
000070 d8 54 40 3f 7c 9f dd 3e 2c 0e ed be 91 c6 09 bf
       0.7512946 0.4328574 -0.46299875 -0.53818613
000080 ea 0f 3f 3e 92 f5 98 3d 29 0b c6 be bf 41 d8 3e
       0.18658414 0.07468714 -0.3868039 0.4223766
000090 20 0f 62 bd 44 61 b5 3e 0c ac d4 3d 46 0c 8b be
       -0.055190206 0.3542577 0.10384378 -0.271578
0000a0 59 fc c4 3e 58 49 0a be f3 61 23 3f ae 88 20 bf
       0.38473776 -0.13504541 0.63821334 -0.62708557
0000b0 31 00 7a be b3 a1 0b bf ec bb 4c bd 6a 7a ad bd
       -0.24414136 -0.5454361 -0.049983904 -0.08470614
0000c0 66 e2 46 3e c9 68 d8 3e 37 24 06 bf c7 79 a6 be
       0.19422302 0.42267445 -0.5239901 -0.32514784
0000d0 db fb 31 be 2f 6f 18 3e d1 7d 21 bf 8d 5f 1d bf
       -0.17381231 0.14886163 -0.63082606 -0.61473924
0000e0 3b 5a 85 3d 31 73 73 3e 00 a1 0d bf 7b c3 36 bf
       0.06511351 0.23774411 -0.5532379 -0.7139203
0000f0 37 e3 1b 3f dc 85 d3 be 6f cc 0e 3f 88 62 ec 3e
       0.6089358 -0.41313064 0.5578069 0.46168923

layer_list.conv1.att_dst f4 [1, 8, 8]
000000 cf 20 bc bd ea 15 4a be f9 2f 48 be ff 97 47 bd
       -0.09185945 -0.19734922 -0.1954955 -0.04872894
000010 a9 8f 38 3e c2 5f 24 be 5f ea f3 3d 25 f9 a3 bd
       0.18023552 -0.16052154 0.11909937 -0.08006505
000020 13 a5 e3 3d 56 1c aa 3d bd 7c db 3c 2d ab 08 3e
       0.1111547 0.08306186 0.026792878 0.13346548
000030 18 c5 24 be 89 31 96 bd 9d 9c 14 be 08 40 83 3c
       -0.1609081 -0.07333667 -0.14512868 0.016021743
000040 16 d5 bd 3b 5e 66 ad bb 8a 34 50 3e 1b 46 a3 bd
       0.005793224 -0.005291744 0.20332542 -0.07972356
000050 47 bb 04 be e2 df 5f be c7 e9 c7 3d 0b 83 21 3e
       -0.12962066 -0.21862748 0.09761386 0.15772645
000060 b4 8a 8a be 8a 00 e9 3d 86 59 b5 bc f2 57 ce bc
       -0.27058947 0.11377056 -0.022137415 -0.02518842
000070 26 bd a4 3e 49 74 d9 bc 40 dd 83 bb 2b 1b 11 be
       0.3217556 -0.026544707 -0.004024178 -0.1417052
000080 8c 3b f0 3d f2 6a 26 bc 91 5a 0d bd b1 06 0f 3e
       0.11730108 -0.010157334 -0.0345102 0.13967396
000090 24 18 6a bc 4d e7 0f 3e 43 80 73 bd 4e 02 44 bd
       -0.014287982 0.14053078 -0.05944849 -0.04785376
0000a0 19 ec 4e 3e e6 92 2c 3c e3 56 6c 3e 5c 9b 85 be
       0.20207252 0.01053307 0.2308002 -0.26095092
0000b0 c4 35 5c 3c 49 4a 36 be 86 ed 42 bc 7d 38 cd 3c
       0.013440553 -0.17801775 -0.01189745 0.02505135
0000c0 8e 7e b8 bd f2 8a 13 3e f6 1b 4d be c7 13 f2 bd
       -0.090085134 0.14408472 -0.20030198 -0.118201785
0000d0 cb d3 9e bd 37 45 95 3d 2b e0 59 be 4d 25 14 be
       -0.0775524 0.07288592 -0.2127692 -0.14467354
0000e0 29 1a a9 3d 5f 01 71 3e 4e ae 3e 3c 4b 02 86 bd
       0.08256943 0.2353568 0.011638237 -0.06543406
0000f0 50 27 dc 3d 2d 0a 2b be c1 68 38 3e 84 a6 fb 3d
       0.10749686 -0.167031 0.1800871 0.1228762

layer_list.conv1.bias f4 [64]
000000 9e 74 1f 3d af 44 71 3d 94 82 3e 3d e3 73 15 3c
       0.038929574 0.058903392 0.046511248 0.009121868
000010 89 d1 ab bc 93 ee 4b 3d 86 fe 03 3d 54 0a 81 3c
       -0.020973938 0.04978807 0.032225154 0.015751995
000020 da de 15 bd 5b 12 3b 3c a3 29 29 3d 8f 7c 1c bc
       -0.03658948 0.0114179505 0.041299473 -0.009551181
000030 ad fc 92 3c ee cd 53 bd f6 57 95 3c 73 c9 27 3c
       0.01794275 -0.05171006 0.01823042 0.0102409
000040 1a df 25 3d 90 17 9c bb d1 e4 84 3c ba 35 a3 bb
       0.04049597 -0.004763551 0.01622239 -0.00498077
000050 c1 83 ab 3b 9f 3b b4 3c 85 e4 73 3d 79 70 7f 3c
       0.005234212 0.022001086 0.059544105 0.01559078
000060 63 71 f2 3c 05 78 d4 bb f2 17 86 3d ae d5 04 3c
       0.029595083 -0.006484034 0.06547536 0.008107586
000070 71 a1 c9 3c 14 54 06 bc 60 fb 1a 3c 05 a9 d9 3c
       0.024613114 -0.008198757 0.0094593465 0.026569853
000080 ed fc 3f 3b 91 05 e5 3c 54 96 cb 3c 9c 53 88 3c
       0.0029295043 0.027956756 0.024851955 0.01664143
000090 29 9d c6 3b cd 21 f5 3c db eb 47 3d ce f6 00 3d
       0.0060612154 0.029923344 0.048808914 0.03148537
0000a0 9f 7f 07 3d 91 a7 62 3b 09 2d 37 3d 3a 0f ac bc
       0.033080693 0.003458474 0.044720683 -0.021003354
0000b0 17 2d 25 bc 52 01 20 3d dd b1 56 3a 8b 11 2d 3c
       -0.010081551 0.03906376 0.0008189956 0.010563265
0000c0 c7 5a 7e 3a c1 e7 1b 3d 65 00 1d 3d 57 cc bb 3c
       0.0009702858 0.038062815 0.038330454 0.022924585
0000d0 4c 6d 82 3d 2f 2c 76 3d 6d 8f 81 bc 8c b0 c0 3a
       0.06368503 0.06010073 -0.015815461 0.0014701053
0000e0 82 19 fe 3c 08 d0 f6 3b da 36 11 3d 46 66 73 3d
       0.031018022 0.0075321235 0.0354527 0.059423707
0000f0 c6 23 ae 3c 88 23 47 3d fa 49 f7 3c 34 98 bd bc
       0.021257292 0.04861787 0.030186642 -0.023143865

layer_list.conv1.lin_src.weight f4 [64, 1433]
000000 0f 7b 19 bc a4 9b b2 bd 2e 47 a1 bd e9 67 8b 3c
       -0.009367718 -0.08721092 -0.078749046 0.017017322
000010 5b 83 c5 3e dd 8a 29 3d f6 4d 19 be 34 86 23 be
       0.3857678 0.041392196 -0.14971146 -0.15969163
000020 d2 63 1b 3d 2e 9e 8d 3c b7 80 41 3d 3d 7d 8b bd
       0.037936993 0.01728734 0.047241893 -0.06810997
000030 30 95 a7 3c 28 ec 4d 3c 0b 87 37 bc 4c f8 f4 3c
       0.02045688 0.012568511 -0.01120163 0.029903553
000040 fe c0 0f bd c8 be 59 3d 1a a3 07 be 9f d3 8a be
       -0.03509616 0.05316046 -0.13245812 -0.2711458
000050 30 be 85 bd f8 1f b7 bd 0e d9 e0 3c 2f 31 15 3e
       -0.06530416 -0.089416444 0.02744725 0.14569543
000060 1d d3 55 3d 48 d2 06 be f4 8c cc bd 8b ec 44 be
       0.052203286 -0.13166153 -0.09987822 -0.19230859
000070 74 f4 22 ba 1e d5 c1 3d 09 cc ad bd 1e 3f 9f bc
       -0.0006216236 0.09464477 -0.08486182 -0.019439276
000080 56 f0 89 3c 96 58 ee 3b 4b b2 0b bd 02 b5 f4 bd
       0.016838234 0.007273744 -0.03410558 -0.11948587
000090 c3 1c 81 bd a7 f0 8e 3c d4 2f a9 be 12 19 b5 bd
       -0.06304314 0.017448736 -0.33044302 -0.088426724
0000a0 a2 0d ba 3e cc ff 1e be 8b 8b e0 bc 10 ef c3 3c
       0.36338526 -0.15527266 -0.02741029 0.023917705
0000b0 ca d2 d9 bd 0a ed 38 bd 27 40 89 bd 65 1f 05 bd
       -0.10635908 -0.045147933 -0.06701689 -0.032500643
0000c0 4b 38 77 bd f6 46 d5 3d e4 64 09 bd 42 dd 03 bf
       -0.06035642 0.10413925 -0.033543482 -0.5150949
0000d0 e1 dc 11 3e 4c 29 16 b9 a8 fe 48 3b b0 da b6 bc
       0.14244415 -0.00014320499 0.0030669365 -0.022321075
0000e0 97 a7 2c 3e 19 97 b8 3d 67 ec cb bd e0 18 30 bd
       0.16860805 0.090131946 -0.099571995 -0.042992473
0000f0 78 ab f1 3c 31 d4 02 3e 67 82 ac 3b 92 7e 84 bd
       0.029500708 0.12776257 0.0052645686 -0.06469454
000100 0d 1a 0d bc 5d 86 46 bd 49 52 d1 3c 3b bd bf b9
       -0.008612168 -0.048467983 0.025551932 -0.00036571347
000110 30 b8 68 3d 8b ca fe 3c fe 64 3f 3d c7 6c 82 3d
       0.05681628 0.03110244 0.046727173 0.06368404
000120 2c 14 9d 3d e3 62 e0 3d 3e cf 07 3c f4 2c d9 3d
       0.07669863 0.10956361 0.0082891565 0.10604277
000130 8d d1 a7 bd 3d 63 1f 3d 2c e6 e6 bd ea 66 12 3c
       -0.081942655 0.038913 -0.112743706 0.008935669
000140 7d 8d 36 bc 6b b5 86 bd 81 4d 9a 3d d4 36 b4 bc
       -0.011142132 -0.065775715 0.07534314 -0.0219988
000150 4b 77 0d bd ce 77 f1 3d 91 cf 0c 3b c6 9d 60 3e
       -0.034537595 0.11790429 0.0021486024 0.21935186
000160 08 45 f3 3d 7a 6d 2e be 9a f4 18 3d 23 83 33 bd
       0.11878401 -0.1703395 0.037342645 -0.043826234
000170 cd 60 65 3c 05 20 01 be d1 d4 01 bd 6d b6 28 bd
       0.01400013 -0.1260987 -0.0316971 -0.0411896
000180 34 bd e7 3b 52 a9 22 be 11 ea 2f 3b e1 64 9d be
       0.0070721153 -0.15884903 0.0026842395 -0.30741027
000190 57 88 11 3b 92 f3 90 bb 3d 13 c0 bc d6 5f ee bc
       0.002220651 -0.004423567 -0.023446674 -0.029098433
0001a0 c4 ba 43 3e 44 fa 48 3d 27 67 c5 3c d9 41 3e bd
       0.19114214 0.049066797 0.024097038 -0.046449516
0001b0 a4 02 5f bd 5b 6f 34 3c 49 6b a6 3d 4e 16 eb bc
       -0.054445878 0.011012877 0.08125932 -0.02869716
0001c0 fa b7 2a 3c 1c 13 e1 3a 2e 75 a7 bc 2f 0b 8c 3b
       0.01041984 0.0017171833 -0.020441618 0.004273794
0001d0 8a e6 36 3d 89 2a 37 3d a9 da fc bd 7c 33 e6 3a
       0.044653453 0.0447183 -0.123463936 0.0017562951
0001e0 33 d9 1e 3e c6 d2 1d 3d 95 2d 1e bc 6e 27 a9 3d
       0.15512542 0.038531087 -0.009654422 0.08259474
0001f0 5d 8f 28 ba 3b 98 eb 3d 23 29 ea bd c7 2d 01 be
       -0.0006430054 0.11503645 -0.114336275 -0.12615119
000200 93 d4 be bb 00 45 01 be fa c4 d0 3c c2 67 03 be
       -0.0058236807 -0.12623978 0.02548455 -0.12832549
000210 e2 30 40 3e b7 bf d1 3d 31 32 72 bd f0 9a 0c bd
       0.18768647 0.10241645 -0.059129898 -0.034327447
000220 71 11 c0 3d 47 32 1a bc 45 c2 4e bd a1 03 a5 bd
       0.09378327 -0.009411401 -0.05047824 -0.08057333
000230 24 54 b7 be 40 71 a3 3c 0e 5f 88 bd b0 cc a1 3d
       -0.35806382 0.019951463 -0.06658755 0.07900369
000240 b9 54 00 be 00 97 a5 bd be 4b 61 3c e2 2e e3 3b
       -0.12532319 -0.080854416 0.0137509685 0.006933079
000250 36 0e b2 bc 33 a7 74 be 7c 86 ac 3d bb 2f 0e be
       -0.021735292 -0.23891906 0.08424088 -0.13885395
000260 15 21 0f 3d d7 c2 71 bd 47 3e b1 3c e1 10 a6 3d
       0.03494366 -0.059023704 0.021636141 0.08108688
000270 81 3d 80 3d 20 27 a1 bd 7c 92 47 bd 47 d6 f6 bc
       0.06261731 -0.078687906 -0.048723683 -0.030131472
000280 30 48 e1 3c 22 3b b6 3c 37 9b 8b 3d 8d e6 57 bd
       0.027500242 0.022244994 0.06816714 -0.052710105
000290 13 e8 35 bd 4c 53 a2 bc 9a 00 8e 3c 59 89 63 3d
       -0.044410776 -0.01981511 0.017334271 0.055550907
0002a0 9b 4d 0d be 81 8a 3a 3e 9f 44 82 3d d2 9a 07 3d
       -0.13799135 0.18216898 0.06360745 0.033106633
0002b0 36 00 e0 3c 68 8b 2e 3e ca 63 8d bc 0e b3 38 3e
       0.02734385 0.17045367 -0.017259497 0.18037054
0002c0 4b f9 a9 3e 6e d3 8f 3d 97 0b b2 bc 5d eb 52 3e
       0.33198008 0.07022749 -0.021734042 0.20597596
0002d0 f7 bb 4e 3d 05 99 ff bb 3e 2d e2 3c 4a 2d 21 3d
       0.050472226 -0.007800224 0.027609464 0.03934983
0002e0 83 ee 01 3d 0f 11 54 bc ec a9 93 bc 01 7f db bd
       0.031721603 -0.01294352 -0.018025361 -0.107175834
0002f0 fa 42 82 3c 8a f4 5e 3c 7f 8d 87 bd 6f 53 05 be
       0.015901078 0.013608107 -0.06618785 -0.13020109
000300 5e b4 72 3d 07 8a b2 bc 69 6a 00 be e1 36 90 3a
       0.059254043 -0.021794332 -0.12540592 0.0011002683
000310 38 52 70 bd 9b e0 63 bd 75 d3 a9 bd fd a5 aa bd
       -0.05867216 -0.055634122 -0.08292285 -0.08332441
000320 cc 20 9b 3c fa 14 dd 3b ed f6 41 3e 17 3f 47 be
       0.018936537 0.0067468854 0.18941851 -0.1945766
000330 02 c9 7b 3d 7c d7 9e 3e 58 63 20 3c 9a 46 14 bd
       0.061470993 0.31023777 0.00978931 -0.036200143
000340 39 e2 77 3d a3 45 f9 bc c2 19 0b 3d 73 bc d8 3d
       0.060518477 -0.030428713 0.03396011 0.10582819
000350 aa bb 89 3d e9 d3 99 bd 78 94 5c 3b ea 3b 01 3d
       0.06725247 -0.07511122 0.003365783 0.03155128
000360 01 a3 79 3d 6f ef 30 3e f9 e1 7d bc bc c8 9e b8
       0.06094647 0.17278837 -0.015495771 -7.571417e-05
000370 65 ad d5 3a c9 fe af bd ff 5d d3 bc 49 3c 94 3d
       0.0016302286 -0.08593518 -0.025801657 0.07238061
000380 2a f8 79 bd c8 1b 4c 3d f6 f0 8b 3d 4f cb 14 be
       -0.061027683 0.04983118 0.06833069 -0.14530681
000390 91 77 8d be 33 6b 94 3c 76 eb e3 3c bd 2e aa 3e
       -0.27630284 0.018117523 0.027822237 0.33238783
0003a0 69 6c 88 3c 9d 0a 04 3e 73 be c5 3e 60 36 8a bd
       0.016653256 0.12894674 0.38621864 -0.067486525
0003b0 08 51 0d 3e 1f 69 e7 3d 26 6b 32 3e f9 c2 cd 3d
       0.13800442 0.11299347 0.17423686 0.10046954
0003c0 3c d0 af bd be e1 56 3c df dc d0 3a af 04 50 3d
       -0.085846394 0.013115345 0.0015934965 0.050785717
0003d0 6d 4e 6a 3d 29 0d 1e 3d fa a4 20 be 66 62 0b 3e
       0.0572037 0.03858677 -0.15687934 0.13611755
0003e0 59 84 bd 3d fa 7f ca 3c 5d a3 1a be 64 68 9c 3c
       0.09253759 0.024719227 -0.1510138 0.019092746
0003f0 5f b6 c8 3d 05 04 8c 3b 00 ee 6f 3d 96 e9 5d bd
       0.098004095 0.00427294 0.058576584 -0.054177843

layer_list.conv1.lin_dst.weight f4 [64, 1433]
000000 0f 7b 19 bc a4 9b b2 bd 2e 47 a1 bd e9 67 8b 3c
       -0.009367718 -0.08721092 -0.078749046 0.017017322
000010 5b 83 c5 3e dd 8a 29 3d f6 4d 19 be 34 86 23 be
       0.3857678 0.041392196 -0.14971146 -0.15969163
000020 d2 63 1b 3d 2e 9e 8d 3c b7 80 41 3d 3d 7d 8b bd
       0.037936993 0.01728734 0.047241893 -0.06810997
000030 30 95 a7 3c 28 ec 4d 3c 0b 87 37 bc 4c f8 f4 3c
       0.02045688 0.012568511 -0.01120163 0.029903553
000040 fe c0 0f bd c8 be 59 3d 1a a3 07 be 9f d3 8a be
       -0.03509616 0.05316046 -0.13245812 -0.2711458
000050 30 be 85 bd f8 1f b7 bd 0e d9 e0 3c 2f 31 15 3e
       -0.06530416 -0.089416444 0.02744725 0.14569543
000060 1d d3 55 3d 48 d2 06 be f4 8c cc bd 8b ec 44 be
       0.052203286 -0.13166153 -0.09987822 -0.19230859
000070 74 f4 22 ba 1e d5 c1 3d 09 cc ad bd 1e 3f 9f bc
       -0.0006216236 0.09464477 -0.08486182 -0.019439276
000080 56 f0 89 3c 96 58 ee 3b 4b b2 0b bd 02 b5 f4 bd
       0.016838234 0.007273744 -0.03410558 -0.11948587
000090 c3 1c 81 bd a7 f0 8e 3c d4 2f a9 be 12 19 b5 bd
       -0.06304314 0.017448736 -0.33044302 -0.088426724
0000a0 a2 0d ba 3e cc ff 1e be 8b 8b e0 bc 10 ef c3 3c
       0.36338526 -0.15527266 -0.02741029 0.023917705
0000b0 ca d2 d9 bd 0a ed 38 bd 27 40 89 bd 65 1f 05 bd
       -0.10635908 -0.045147933 -0.06701689 -0.032500643
0000c0 4b 38 77 bd f6 46 d5 3d e4 64 09 bd 42 dd 03 bf
       -0.06035642 0.10413925 -0.033543482 -0.5150949
0000d0 e1 dc 11 3e 4c 29 16 b9 a8 fe 48 3b b0 da b6 bc
       0.14244415 -0.00014320499 0.0030669365 -0.022321075
0000e0 97 a7 2c 3e 19 97 b8 3d 67 ec cb bd e0 18 30 bd
       0.16860805 0.090131946 -0.099571995 -0.042992473
0000f0 78 ab f1 3c 31 d4 02 3e 67 82 ac 3b 92 7e 84 bd
       0.029500708 0.12776257 0.0052645686 -0.06469454
000100 0d 1a 0d bc 5d 86 46 bd 49 52 d1 3c 3b bd bf b9
       -0.008612168 -0.048467983 0.025551932 -0.00036571347
000110 30 b8 68 3d 8b ca fe 3c fe 64 3f 3d c7 6c 82 3d
       0.05681628 0.03110244 0.046727173 0.06368404
000120 2c 14 9d 3d e3 62 e0 3d 3e cf 07 3c f4 2c d9 3d
       0.07669863 0.10956361 0.0082891565 0.10604277
000130 8d d1 a7 bd 3d 63 1f 3d 2c e6 e6 bd ea 66 12 3c
       -0.081942655 0.038913 -0.112743706 0.008935669
000140 7d 8d 36 bc 6b b5 86 bd 81 4d 9a 3d d4 36 b4 bc
       -0.011142132 -0.065775715 0.07534314 -0.0219988
000150 4b 77 0d bd ce 77 f1 3d 91 cf 0c 3b c6 9d 60 3e
       -0.034537595 0.11790429 0.0021486024 0.21935186
000160 08 45 f3 3d 7a 6d 2e be 9a f4 18 3d 23 83 33 bd
       0.11878401 -0.1703395 0.037342645 -0.043826234
000170 cd 60 65 3c 05 20 01 be d1 d4 01 bd 6d b6 28 bd
       0.01400013 -0.1260987 -0.0316971 -0.0411896
000180 34 bd e7 3b 52 a9 22 be 11 ea 2f 3b e1 64 9d be
       0.0070721153 -0.15884903 0.0026842395 -0.30741027
000190 57 88 11 3b 92 f3 90 bb 3d 13 c0 bc d6 5f ee bc
       0.002220651 -0.004423567 -0.023446674 -0.029098433
0001a0 c4 ba 43 3e 44 fa 48 3d 27 67 c5 3c d9 41 3e bd
       0.19114214 0.049066797 0.024097038 -0.046449516
0001b0 a4 02 5f bd 5b 6f 34 3c 49 6b a6 3d 4e 16 eb bc
       -0.054445878 0.011012877 0.08125932 -0.02869716
0001c0 fa b7 2a 3c 1c 13 e1 3a 2e 75 a7 bc 2f 0b 8c 3b
       0.01041984 0.0017171833 -0.020441618 0.004273794
0001d0 8a e6 36 3d 89 2a 37 3d a9 da fc bd 7c 33 e6 3a
       0.044653453 0.0447183 -0.123463936 0.0017562951
0001e0 33 d9 1e 3e c6 d2 1d 3d 95 2d 1e bc 6e 27 a9 3d
       0.15512542 0.038531087 -0.009654422 0.08259474
0001f0 5d 8f 28 ba 3b 98 eb 3d 23 29 ea bd c7 2d 01 be
       -0.0006430054 0.11503645 -0.114336275 -0.12615119
000200 93 d4 be bb 00 45 01 be fa c4 d0 3c c2 67 03 be
       -0.0058236807 -0.12623978 0.02548455 -0.12832549
000210 e2 30 40 3e b7 bf d1 3d 31 32 72 bd f0 9a 0c bd
       0.18768647 0.10241645 -0.059129898 -0.034327447
000220 71 11 c0 3d 47 32 1a bc 45 c2 4e bd a1 03 a5 bd
       0.09378327 -0.009411401 -0.05047824 -0.08057333
000230 24 54 b7 be 40 71 a3 3c 0e 5f 88 bd b0 cc a1 3d
       -0.35806382 0.019951463 -0.06658755 0.07900369
000240 b9 54 00 be 00 97 a5 bd be 4b 61 3c e2 2e e3 3b
       -0.12532319 -0.080854416 0.0137509685 0.006933079
000250 36 0e b2 bc 33 a7 74 be 7c 86 ac 3d bb 2f 0e be
       -0.021735292 -0.23891906 0.08424088 -0.13885395
000260 15 21 0f 3d d7 c2 71 bd 47 3e b1 3c e1 10 a6 3d
       0.03494366 -0.059023704 0.021636141 0.08108688
000270 81 3d 80 3d 20 27 a1 bd 7c 92 47 bd 47 d6 f6 bc
       0.06261731 -0.078687906 -0.048723683 -0.030131472
000280 30 48 e1 3c 22 3b b6 3c 37 9b 8b 3d 8d e6 57 bd
       0.027500242 0.022244994 0.06816714 -0.052710105
000290 13 e8 35 bd 4c 53 a2 bc 9a 00 8e 3c 59 89 63 3d
       -0.044410776 -0.01981511 0.017334271 0.055550907
0002a0 9b 4d 0d be 81 8a 3a 3e 9f 44 82 3d d2 9a 07 3d
       -0.13799135 0.18216898 0.06360745 0.033106633
0002b0 36 00 e0 3c 68 8b 2e 3e ca 63 8d bc 0e b3 38 3e
       0.02734385 0.17045367 -0.017259497 0.18037054
0002c0 4b f9 a9 3e 6e d3 8f 3d 97 0b b2 bc 5d eb 52 3e
       0.33198008 0.07022749 -0.021734042 0.20597596
0002d0 f7 bb 4e 3d 05 99 ff bb 3e 2d e2 3c 4a 2d 21 3d
       0.050472226 -0.007800224 0.027609464 0.03934983
0002e0 83 ee 01 3d 0f 11 54 bc ec a9 93 bc 01 7f db bd
       0.031721603 -0.01294352 -0.018025361 -0.107175834
0002f0 fa 42 82 3c 8a f4 5e 3c 7f 8d 87 bd 6f 53 05 be
       0.015901078 0.013608107 -0.06618785 -0.13020109
000300 5e b4 72 3d 07 8a b2 bc 69 6a 00 be e1 36 90 3a
       0.059254043 -0.021794332 -0.12540592 0.0011002683
000310 38 52 70 bd 9b e0 63 bd 75 d3 a9 bd fd a5 aa bd
       -0.05867216 -0.055634122 -0.08292285 -0.08332441
000320 cc 20 9b 3c fa 14 dd 3b ed f6 41 3e 17 3f 47 be
       0.018936537 0.0067468854 0.18941851 -0.1945766
000330 02 c9 7b 3d 7c d7 9e 3e 58 63 20 3c 9a 46 14 bd
       0.061470993 0.31023777 0.00978931 -0.036200143
000340 39 e2 77 3d a3 45 f9 bc c2 19 0b 3d 73 bc d8 3d
       0.060518477 -0.030428713 0.03396011 0.10582819
000350 aa bb 89 3d e9 d3 99 bd 78 94 5c 3b ea 3b 01 3d
       0.06725247 -0.07511122 0.003365783 0.03155128
000360 01 a3 79 3d 6f ef 30 3e f9 e1 7d bc bc c8 9e b8
       0.06094647 0.17278837 -0.015495771 -7.571417e-05
000370 65 ad d5 3a c9 fe af bd ff 5d d3 bc 49 3c 94 3d
       0.0016302286 -0.08593518 -0.025801657 0.07238061
000380 2a f8 79 bd c8 1b 4c 3d f6 f0 8b 3d 4f cb 14 be
       -0.061027683 0.04983118 0.06833069 -0.14530681
000390 91 77 8d be 33 6b 94 3c 76 eb e3 3c bd 2e aa 3e
       -0.27630284 0.018117523 0.027822237 0.33238783
0003a0 69 6c 88 3c 9d 0a 04 3e 73 be c5 3e 60 36 8a bd
       0.016653256 0.12894674 0.38621864 -0.067486525
0003b0 08 51 0d 3e 1f 69 e7 3d 26 6b 32 3e f9 c2 cd 3d
       0.13800442 0.11299347 0.17423686 0.10046954
0003c0 3c d0 af bd be e1 56 3c df dc d0 3a af 04 50 3d
       -0.085846394 0.013115345 0.0015934965 0.050785717
0003d0 6d 4e 6a 3d 29 0d 1e 3d fa a4 20 be 66 62 0b 3e
       0.0572037 0.03858677 -0.15687934 0.13611755
0003e0 59 84 bd 3d fa 7f ca 3c 5d a3 1a be 64 68 9c 3c
       0.09253759 0.024719227 -0.1510138 0.019092746
0003f0 5f b6 c8 3d 05 04 8c 3b 00 ee 6f 3d 96 e9 5d bd
       0.098004095 0.00427294 0.058576584 -0.054177843

layer_list.conv2.att_src f4 [1, 1, 7]
000000 f5 21 e9 3e eb 0f 7f be 03 fa 9d 3e 7e 75 bd 3d
       0.4553372 -0.24908416 0.30854806 0.092509255
000010 4f f5 aa 3e a2 ad 38 3e 40 e6 51 3e
       0.3339028 0.18034986 0.2049799

layer_list.conv2.att_dst f4 [1, 1, 7]
000000 3c 4e 66 3e 02 ae 11 3d ff 34 ae 3e 82 38 00 3d
       0.22490782 0.035566337 0.34024808 0.03130389
000010 5d 58 3b 3f 54 f9 ba 3c ff a4 35 bc
       0.73181707 0.022823967 -0.011086701

layer_list.conv2.bias f4 [7]
000000 3d f7 45 be 67 40 be be 99 07 86 3d bf 5c c8 3e
       -0.19332595 -0.3715851 0.06544418 0.3913326
000010 cc 43 5e 3d ed 57 6a be 2e 4c b6 be
       0.054263875 -0.22885104 -0.35604995

layer_list.conv2.lin_src.weight f4 [7, 64]
000000 52 4c 5f 3f 51 0f d4 3e d2 ae a2 be cd e1 61 bf
       0.8722583 0.41417935 -0.31774002 -0.8823517
000010 6e 33 1e bf 05 58 aa 3e cc b7 18 bf a8 7b b4 bd
       -0.61797225 0.3327028 -0.5965545 -0.08812648
000020 0e 06 1b bf d0 38 84 3e f1 e4 67 3f d9 b4 45 bf
       -0.60556114 0.25824594 0.9058371 -0.77229077
000030 8c dc 72 3f 1d 00 48 3f 61 18 37 3f 07 64 5a 3f
       0.9486778 0.7812517 0.71521574 0.8530888
000040 8f 03 89 3e f9 94 59 3f c7 51 15 bf bc 4b 4e 3f
       0.26760527 0.8499294 -0.5832791 0.8058431
000050 eb 6e 0b 3f bf 13 80 3f 31 e8 3f bf a4 34 73 bf
       0.5446612 1.0006026 -0.7496367 -0.950022
000060 46 8d 00 3f 4f 83 2e bf 16 8f 07 bf 0e 5a 5d bf
       0.50215566 -0.6816911 -0.52952707 -0.8646554
000070 fe 4f 63 bf 6a bc 2c bf 9c c1 79 3f 98 bb b8 3c
       -0.88793933 -0.67475 0.9756105 0.02255039
000080 5c d1 ba be ab 0e 38 3f 99 9b fc be 75 f1 ad be
       -0.36487854 0.7189738 -0.49337462 -0.3397328
000090 ac bb 45 bf 09 31 76 bf f4 b2 07 bf 18 74 18 bf
       -0.7723949 -0.9616857 -0.53007436 -0.59552145
0000a0 f9 7a 1f 3e d1 bd ed 3e 96 e1 c4 3e 09 ed 35 3f
       0.15574254 0.4643388 0.38453358 0.7106481
0000b0 77 4c 00 3f c3 15 97 bd 52 90 b0 be da 3d 15 3f
       0.50116676 -0.073771976 -0.34485108 0.58297503
0000c0 5f c4 88 3e 99 d8 45 3f 44 3a d0 be 1f 53 23 bf
       0.2671232 0.77283627 -0.40669453 -0.6379871
0000d0 ff 1b d4 be f1 0e ff 3e a6 3c 62 3f 1f 5c 00 3f
       -0.4142761 0.49816087 0.8837379 0.50140566
0000e0 6a ed 2d bf 43 1c fd be cb cd 3d 3f 26 35 46 bf
       -0.6794039 -0.49435624 0.7414214 -0.7742485
0000f0 f1 c8 46 3f 80 32 42 3f 39 25 51 bf 36 15 15 bf
       0.7765036 0.75858307 -0.8169742 -0.5823549
000100 bc 5f 40 bf 22 d2 4b bf fb a1 5d bf d0 03 60 bf
       -0.7514608 -0.7961751 -0.8657529 -0.8750582
000110 76 91 d1 be 87 04 26 bf 01 9b 40 3f 9a a9 07 bf
       -0.4093129 -0.6485066 0.7523652 -0.52993166
000120 15 2f 5a be 98 22 10 3f 46 3b 3d 3f 8b b8 39 be
       -0.21307023 0.56302786 0.7391857 -0.18136804
000130 6a ff 10 bf 0e d8 1f bf 04 d5 4c bf 5d dd 03 3f
       -0.5663973 -0.6243905 -0.80012536 0.5150965
000140 65 1f 8a bf 30 83 a6 3e 95 6b 76 3f ae 1d ae be
       -1.0790831 0.32521963 0.9625791 -0.3400702
000150 f5 f2 21 bf 7c 6b 2e bf f0 62 0b 3f ab 7d c8 be
       -0.6326135 -0.6813276 0.5444784 -0.39158377
000160 cb ec a8 be c7 10 0f 3f 46 27 04 bd 48 0b 2a bf
       -0.3299316 0.55884975 -0.032264017 -0.66423464
000170 12 30 18 3e 50 4f e3 3e 43 c7 ed 3e 13 ad 4c bf
       0.14862087 0.44396448 0.46441087 -0.7995159
000180 fc 94 bf bb 4a e1 6a bf 38 e6 5e bf a6 f2 2d bf
       -0.0058466177 -0.91750014 -0.87070036 -0.6794838
000190 bb 1f 2a 3f b9 0e 11 bf 2b 2d 9d 3e 5d da f6 be
       0.66454667 -0.5666309 0.30698523 -0.48213473
0001a0 a6 ee 6e bf 40 e0 34 bf 4f dc 9a 3d 26 94 1f 3f
       -0.933329 -0.7065468 0.07561552 0.6233543
0001b0 62 19 6e bf 6d 7b 96 be 63 99 2d 3f 87 d1 12 3f
       -0.9300748 -0.2939104 0.67812175 0.57350963
0001c0 da 9c 85 3f 1c b2 ff be 8b 4d 5f 3f 4b 1e e6 3e
       1.0438492 -0.49940574 0.87227696 0.44944987
0001d0 e7 25 b5 3e b2 2c 1d 3e b0 37 25 3f fd 1e 5e 3f
       0.3538048 0.15349081 0.645381 0.86766034
0001e0 71 21 40 3f 27 a2 3c 3f 7e a9 26 3f 1f f2 75 bf
       0.7505103 0.73684925 0.65102375 -0.9607257
0001f0 32 85 14 3f d4 08 fb 3e 60 79 b9 bd 92 37 3f bf
       0.5801574 0.49030173 -0.090563536 -0.7469417
000200 03 ce 4c bf 13 f3 38 bf cb a0 4c bf e0 4f 33 bf
       -0.8000185 -0.722459 -0.7993285 -0.70043755
000210 f1 b0 4d 3f e7 bc 17 bf 75 82 a9 be a4 80 ec 3e
       0.80348116 -0.5927262 -0.33107343 0.46191895
000220 a7 24 3e 3f a2 ea 06 3f 40 8e 56 bf 6b 8d 5d 3f
       0.7427468 0.5270177 -0.83810806 0.8654391
000230 fd cb 59 bf 72 b7 65 3f 18 cb 38 bf 64 d1 1d 3e
       -0.85076886 0.8973304 -0.72184896 0.15411907
000240 2b 4a 18 3f f1 a5 45 bf bb 5c e9 bc 70 38 49 bf
       0.5948817 -0.7720633 -0.0284866 -0.7860174
000250 d0 b5 5a bf 32 61 70 bf d9 f8 18 bf d7 d8 36 3e
       -0.85433674 -0.9389831 -0.5975471 0.17856155
000260 51 70 47 bf 50 b3 4b 3f ba 87 08 bf f9 ad 47 bf
       -0.77905756 0.79570484 -0.533321 -0.77999836
000270 54 e0 59 3f aa 5a 5a 3f de 89 2d bf bb 61 36 bf
       0.8510792 0.8529459 -0.67788494 -0.71242875
000280 a7 51 03 3f f0 04 31 3f 2d ff 29 bf 0a eb 23 3f
       0.51296467 0.6914816 -0.6640499 0.64030516
000290 d0 d1 07 3f a9 2a 2e 3f dc 2b 42 3f bc 34 8d bd
       0.53054523 0.68033844 0.75848174 -0.06894824
0002a0 b0 96 40 bf 07 7e 2f 3f 5b b3 69 bf 79 b2 02 3f
       -0.7522993 0.6855168 -0.912893 0.5105358
0002b0 84 ce 2c 3f 14 08 37 3f 70 e7 38 3f bb 9d 42 bf
       0.6750262 0.714967 0.72228146 -0.7602193
0002c0 0d 5f fd 3e 3e 2f 36 3f ca 2f 02 bf f6 bb 20 bf
       0.4948658 0.71165836 -0.5085417 -0.62786806
0002d0 a8 e2 18 bf 66 bd 5d 3f de 73 36 bf 1e 87 2b bf
       -0.5972085 0.86617124 -0.7127055 -0.6700305
0002e0 b1 f2 e6 be 22 ba 48 3f 0e d8 18 bf c7 93 30 bf
       -0.45107034 0.78409016 -0.59704673 -0.6897549
0002f0 f7 84 30 3f f4 32 3c bf 29 ac 55 3f 32 d1 0a 3f
       0.6895289 -0.7351525 0.8346582 0.54225457
000300 06 a1 2c 3f 74 34 2d 3f b7 d4 11 bf 86 10 5a 3f
       0.674332 0.6765816 -0.569652 0.8518146
000310 00 22 9f 3c fc 6b 01 3f bd 7c 2e 3e 9a f3 16 3f
       0.019425392 0.50555396 0.17039771 0.58965456
000320 3c d0 23 bf f7 7c 13 3f 24 23 f8 3e 85 11 2a 3e
       -0.63989615 0.57612556 0.4846431 0.16608246
000330 7b b5 41 bf 23 81 57 bf 3f 8d 08 3f 68 12 37 bf
       -0.7566754 -0.8418142 0.53340524 -0.7151246
000340 17 c3 1c bf 50 ce 48 be 14 23 29 bf e2 3f 4f 3f
       -0.61235183 -0.19609952 -0.6606915 0.8095685
000350 13 45 35 be f5 59 48 bf 12 18 52 3f df 50 3e 3f
       -0.17702131 -0.78262264 0.8206798 0.7434215
000360 95 f7 fe 3e 9e 99 2c bf c0 93 2a 3f 3a ca 2a 3f
       0.49798265 -0.674219 0.666317 0.66714823
000370 31 d8 6f bf 60 58 40 3f 53 7b 1e bf fc 7c 1d 3f
       -0.93689257 0.7513485 -0.6190693 0.61518836
000380 df f0 7c 3e d3 4e 33 be ad 70 5a 3f 5d d0 3f bf
       0.2470126 -0.17510538 0.8532818 -0.7492731
000390 08 0d 21 bf 04 9e 59 bf 93 2e 52 3f b5 4f 52 3f
       -0.6291051 -0.8500674 0.82102317 0.82152873
0003a0 4b 70 4f 3f dd 0e 66 bf dc 33 34 3f 18 89 65 bf
       0.8103072 -0.8986643 0.7039163 -0.89662313
0003b0 aa 42 52 bf 99 6c 2c bf 17 81 66 bf 16 0e 4d bf
       -0.8213297 -0.67353207 -0.90040725 -0.8009962
0003c0 49 c1 56 bf 1f d7 1a 3e 84 d8 35 bf 66 e1 34 3f
       -0.8388868 0.15121125 -0.710335 0.7065643
0003d0 10 d1 06 3f f0 c8 f5 3e b5 f5 47 bf 7c 9e e1 be
       0.52662754 0.48004866 -0.78109294 -0.44066226
0003e0 1c 84 12 3e 61 d9 2d bf 6a b3 60 3f 24 26 50 3f
       0.14308208 -0.6790982 0.87773764 0.813082
0003f0 96 80 47 bf 1c ce ab 3e f9 ac 9a 3e 29 72 0c 3f
       -0.7793058 0.33555686 0.30210093 0.54861695

layer_list.conv2.lin_dst.weight f4 [7, 64]
000000 52 4c 5f 3f 51 0f d4 3e d2 ae a2 be cd e1 61 bf
       0.8722583 0.41417935 -0.31774002 -0.8823517
000010 6e 33 1e bf 05 58 aa 3e cc b7 18 bf a8 7b b4 bd
       -0.61797225 0.3327028 -0.5965545 -0.08812648
000020 0e 06 1b bf d0 38 84 3e f1 e4 67 3f d9 b4 45 bf
       -0.60556114 0.25824594 0.9058371 -0.77229077
000030 8c dc 72 3f 1d 00 48 3f 61 18 37 3f 07 64 5a 3f
       0.9486778 0.7812517 0.71521574 0.8530888
000040 8f 03 89 3e f9 94 59 3f c7 51 15 bf bc 4b 4e 3f
       0.26760527 0.8499294 -0.5832791 0.8058431
000050 eb 6e 0b 3f bf 13 80 3f 31 e8 3f bf a4 34 73 bf
       0.5446612 1.0006026 -0.7496367 -0.950022
000060 46 8d 00 3f 4f 83 2e bf 16 8f 07 bf 0e 5a 5d bf
       0.50215566 -0.6816911 -0.52952707 -0.8646554
000070 fe 4f 63 bf 6a bc 2c bf 9c c1 79 3f 98 bb b8 3c
       -0.88793933 -0.67475 0.9756105 0.02255039
000080 5c d1 ba be ab 0e 38 3f 99 9b fc be 75 f1 ad be
       -0.36487854 0.7189738 -0.49337462 -0.3397328
000090 ac bb 45 bf 09 31 76 bf f4 b2 07 bf 18 74 18 bf
       -0.7723949 -0.9616857 -0.53007436 -0.59552145
0000a0 f9 7a 1f 3e d1 bd ed 3e 96 e1 c4 3e 09 ed 35 3f
       0.15574254 0.4643388 0.38453358 0.7106481
0000b0 77 4c 00 3f c3 15 97 bd 52 90 b0 be da 3d 15 3f
       0.50116676 -0.073771976 -0.34485108 0.58297503
0000c0 5f c4 88 3e 99 d8 45 3f 44 3a d0 be 1f 53 23 bf
       0.2671232 0.77283627 -0.40669453 -0.6379871
0000d0 ff 1b d4 be f1 0e ff 3e a6 3c 62 3f 1f 5c 00 3f
       -0.4142761 0.49816087 0.8837379 0.50140566
0000e0 6a ed 2d bf 43 1c fd be cb cd 3d 3f 26 35 46 bf
       -0.6794039 -0.49435624 0.7414214 -0.7742485
0000f0 f1 c8 46 3f 80 32 42 3f 39 25 51 bf 36 15 15 bf
       0.7765036 0.75858307 -0.8169742 -0.5823549
000100 bc 5f 40 bf 22 d2 4b bf fb a1 5d bf d0 03 60 bf
       -0.7514608 -0.7961751 -0.8657529 -0.8750582
000110 76 91 d1 be 87 04 26 bf 01 9b 40 3f 9a a9 07 bf
       -0.4093129 -0.6485066 0.7523652 -0.52993166
000120 15 2f 5a be 98 22 10 3f 46 3b 3d 3f 8b b8 39 be
       -0.21307023 0.56302786 0.7391857 -0.18136804
000130 6a ff 10 bf 0e d8 1f bf 04 d5 4c bf 5d dd 03 3f
       -0.5663973 -0.6243905 -0.80012536 0.5150965
000140 65 1f 8a bf 30 83 a6 3e 95 6b 76 3f ae 1d ae be
       -1.0790831 0.32521963 0.9625791 -0.3400702
000150 f5 f2 21 bf 7c 6b 2e bf f0 62 0b 3f ab 7d c8 be
       -0.6326135 -0.6813276 0.5444784 -0.39158377
000160 cb ec a8 be c7 10 0f 3f 46 27 04 bd 48 0b 2a bf
       -0.3299316 0.55884975 -0.032264017 -0.66423464
000170 12 30 18 3e 50 4f e3 3e 43 c7 ed 3e 13 ad 4c bf
       0.14862087 0.44396448 0.46441087 -0.7995159
000180 fc 94 bf bb 4a e1 6a bf 38 e6 5e bf a6 f2 2d bf
       -0.0058466177 -0.91750014 -0.87070036 -0.6794838
000190 bb 1f 2a 3f b9 0e 11 bf 2b 2d 9d 3e 5d da f6 be
       0.66454667 -0.5666309 0.30698523 -0.48213473
0001a0 a6 ee 6e bf 40 e0 34 bf 4f dc 9a 3d 26 94 1f 3f
       -0.933329 -0.7065468 0.07561552 0.6233543
0001b0 62 19 6e bf 6d 7b 96 be 63 99 2d 3f 87 d1 12 3f
       -0.9300748 -0.2939104 0.67812175 0.57350963
0001c0 da 9c 85 3f 1c b2 ff be 8b 4d 5f 3f 4b 1e e6 3e
       1.0438492 -0.49940574 0.87227696 0.44944987
0001d0 e7 25 b5 3e b2 2c 1d 3e b0 37 25 3f fd 1e 5e 3f
       0.3538048 0.15349081 0.645381 0.86766034
0001e0 71 21 40 3f 27 a2 3c 3f 7e a9 26 3f 1f f2 75 bf
       0.7505103 0.73684925 0.65102375 -0.9607257
0001f0 32 85 14 3f d4 08 fb 3e 60 79 b9 bd 92 37 3f bf
       0.5801574 0.49030173 -0.090563536 -0.7469417
000200 03 ce 4c bf 13 f3 38 bf cb a0 4c bf e0 4f 33 bf
       -0.8000185 -0.722459 -0.7993285 -0.70043755
000210 f1 b0 4d 3f e7 bc 17 bf 75 82 a9 be a4 80 ec 3e
       0.80348116 -0.5927262 -0.33107343 0.46191895
000220 a7 24 3e 3f a2 ea 06 3f 40 8e 56 bf 6b 8d 5d 3f
       0.7427468 0.5270177 -0.83810806 0.8654391
000230 fd cb 59 bf 72 b7 65 3f 18 cb 38 bf 64 d1 1d 3e
       -0.85076886 0.8973304 -0.72184896 0.15411907
000240 2b 4a 18 3f f1 a5 45 bf bb 5c e9 bc 70 38 49 bf
       0.5948817 -0.7720633 -0.0284866 -0.7860174
000250 d0 b5 5a bf 32 61 70 bf d9 f8 18 bf d7 d8 36 3e
       -0.85433674 -0.9389831 -0.5975471 0.17856155
000260 51 70 47 bf 50 b3 4b 3f ba 87 08 bf f9 ad 47 bf
       -0.77905756 0.79570484 -0.533321 -0.77999836
000270 54 e0 59 3f aa 5a 5a 3f de 89 2d bf bb 61 36 bf
       0.8510792 0.8529459 -0.67788494 -0.71242875
000280 a7 51 03 3f f0 04 31 3f 2d ff 29 bf 0a eb 23 3f
       0.51296467 0.6914816 -0.6640499 0.64030516
000290 d0 d1 07 3f a9 2a 2e 3f dc 2b 42 3f bc 34 8d bd
       0.53054523 0.68033844 0.75848174 -0.06894824
0002a0 b0 96 40 bf 07 7e 2f 3f 5b b3 69 bf 79 b2 02 3f
       -0.7522993 0.6855168 -0.912893 0.5105358
0002b0 84 ce 2c 3f 14 08 37 3f 70 e7 38 3f bb 9d 42 bf
       0.6750262 0.714967 0.72228146 -0.7602193
0002c0 0d 5f fd 3e 3e 2f 36 3f ca 2f 02 bf f6 bb 20 bf
       0.4948658 0.71165836 -0.5085417 -0.62786806
0002d0 a8 e2 18 bf 66 bd 5d 3f de 73 36 bf 1e 87 2b bf
       -0.5972085 0.86617124 -0.7127055 -0.6700305
0002e0 b1 f2 e6 be 22 ba 48 3f 0e d8 18 bf c7 93 30 bf
       -0.45107034 0.78409016 -0.59704673 -0.6897549
0002f0 f7 84 30 3f f4 32 3c bf 29 ac 55 3f 32 d1 0a 3f
       0.6895289 -0.7351525 0.8346582 0.54225457
000300 06 a1 2c 3f 74 34 2d 3f b7 d4 11 bf 86 10 5a 3f
       0.674332 0.6765816 -0.569652 0.8518146
000310 00 22 9f 3c fc 6b 01 3f bd 7c 2e 3e 9a f3 16 3f
       0.019425392 0.50555396 0.17039771 0.58965456
000320 3c d0 23 bf f7 7c 13 3f 24 23 f8 3e 85 11 2a 3e
       -0.63989615 0.57612556 0.4846431 0.16608246
000330 7b b5 41 bf 23 81 57 bf 3f 8d 08 3f 68 12 37 bf
       -0.7566754 -0.8418142 0.53340524 -0.7151246
000340 17 c3 1c bf 50 ce 48 be 14 23 29 bf e2 3f 4f 3f
       -0.61235183 -0.19609952 -0.6606915 0.8095685
000350 13 45 35 be f5 59 48 bf 12 18 52 3f df 50 3e 3f
       -0.17702131 -0.78262264 0.8206798 0.7434215
000360 95 f7 fe 3e 9e 99 2c bf c0 93 2a 3f 3a ca 2a 3f
       0.49798265 -0.674219 0.666317 0.66714823
000370 31 d8 6f bf 60 58 40 3f 53 7b 1e bf fc 7c 1d 3f
       -0.93689257 0.7513485 -0.6190693 0.61518836
000380 df f0 7c 3e d3 4e 33 be ad 70 5a 3f 5d d0 3f bf
       0.2470126 -0.17510538 0.8532818 -0.7492731
000390 08 0d 21 bf 04 9e 59 bf 93 2e 52 3f b5 4f 52 3f
       -0.6291051 -0.8500674 0.82102317 0.82152873
0003a0 4b 70 4f 3f dd 0e 66 bf dc 33 34 3f 18 89 65 bf
       0.8103072 -0.8986643 0.7039163 -0.89662313
0003b0 aa 42 52 bf 99 6c 2c bf 17 81 66 bf 16 0e 4d bf
       -0.8213297 -0.67353207 -0.90040725 -0.8009962
0003c0 49 c1 56 bf 1f d7 1a 3e 84 d8 35 bf 66 e1 34 3f
       -0.8388868 0.15121125 -0.710335 0.7065643
0003d0 10 d1 06 3f f0 c8 f5 3e b5 f5 47 bf 7c 9e e1 be
       0.52662754 0.48004866 -0.78109294 -0.44066226
0003e0 1c 84 12 3e 61 d9 2d bf 6a b3 60 3f 24 26 50 3f
       0.14308208 -0.6790982 0.87773764 0.813082
0003f0 96 80 47 bf 1c ce ab 3e f9 ac 9a 3e 29 72 0c 3f
       -0.7793058 0.33555686 0.30210093 0.54861695
