vanilla_models/Cora/5_3f_85/split4/init2/GAT_dp0_5_5e_4_f1.pt (torch, 372919 bytes, 10 tensors)

layer_list.conv1.att_src f4 [1, 8, 8]
0	0xbebf98da	-0.37421304
1	0xbedef9e2	-0.4355002
2	0xbe4cacb1	-0.19987752
3	0x3f4c00c4	0.7968867
4	0x3ef300b9	0.4746149
5	0xbe75c8e7	-0.2400242
6	0x3e7abf2a	0.24486986
7	0x3f2188ef	0.6309957
8	0xbf652b8f	-0.8951959
9	0xbf1ef9c1	-0.62099844
10	0xbe715a65	-0.23569639
11	0xbed81db3	-0.4221016
12	0x3e8fb4fc	0.28067768
13	0x3ef18b66	0.47176665
14	0x3e7ab3fc	0.24482721
15	0xbe7af983	-0.24509244
16	0x3f06f297	0.5271391
17	0xbf35af96	-0.7097105
18	0xbec1b7f6	-0.37835664
19	0xbf0185c9	-0.50594765
20	0x3f4b0388	0.79302263
21	0x3ed1f68d	0.41008416
22	0x3f261716	0.64878976
23	0xbf50a2ca	-0.81498396
24	0x3e404034	0.18774492
25	0x3f767bf4	0.9628289
26	0xbe0f7f18	-0.14013326
27	0x3ecb7d17	0.39743873
28	0xbecd4ec3	-0.40099153
29	0xbf416420	-0.75543404
30	0xbf41b184	-0.7566149
31	0x3e8b641d	0.27224818
32	0x3cc4d230	0.024026006
33	0x3e9bcf81	0.3043175
34	0x3d2cbc32	0.042171665
35	0x3efc173a	0.4923647
36	0xbe9693c6	-0.29409617
37	0x3f5ba4a3	0.8579809
38	0x3e8a0efb	0.26964554
39	0xbefe7bb4	-0.49703753
40	0x3f2f5132	0.6848327
41	0x3e718109	0.2358438
42	0x3f167f7a	0.58788264
43	0xbde04172	-0.10949983
44	0xbf60b268	-0.87772226
45	0xbe4aa321	-0.19788791
46	0xbd7bb3c5	-0.06145074
47	0xbf7120a6	-0.9419044
48	0xbd0ff1ba	-0.035142638
49	0x3de9c18e	0.11413871
50	0xbd098bed	-0.03358071
51	0x3e42891c	0.18997616
52	0xbe9b0dea	-0.30284053
53	0x3e912d5a	0.28354913
54	0x3e8cf438	0.27530074
55	0x3eacf1ad	0.33778134
56	0x3e446d7b	0.19182388
57	0xbde97aa2	-0.114003435
58	0xbe9a5888	-0.3014567
59	0x3ecf6cc3	0.40512666
60	0xbe947052	-0.28991944
61	0x3e180f13	0.148495
62	0x3e299c19	0.16563453
63	0xbe6948cb	-0.22781675

layer_list.conv1.att_dst f4 [1, 8, 8]
0	0xbe365743	-0.17806725
1	0xbe2fd13e	-0.17169663
2	0xbe0d7cc9	-0.13817133
3	0x3e7eb689	0.24874319
4	0x3dfd1215	0.123569645
5	0xbdf40a2e	-0.11916004
6	0x3d59db51	0.053187672
7	0x3e41b5d1	0.18917014
8	0xbe52bead	-0.2058055
9	0xbe183c42	-0.14866737
10	0x3d33b390	0.043872416
11	0x3db13c2f	0.08654057
12	0x3c6616b2	0.014043497
13	0x3d1e7bae	0.03869217
14	0x3cd1da07	0.025616659
15	0xbe511bf9	-0.20420827
16	0x3d966a94	0.07344547
17	0xbd0ee2bf	-0.03488421
18	0xbc80fd68	-0.015745834
19	0xbdafc2b6	-0.0858206
20	0x3e084c4c	0.13310355
21	0x3e104f69	0.14092793
22	0x3d0d7936	0.034539424
23	0xbdf0d098	-0.11758536
24	0x3d2685b7	0.040654864
25	0x3e463ba2	0.19358686
26	0xbd34027b	-0.043947678
27	0x3e1a3388	0.1505872
28	0xbe0a8ac3	-0.13529496
29	0xbdc90284	-0.09814933
30	0xbe094f68	-0.13409197
31	0xbcd4aff4	-0.025962807
32	0xbd9cab7f	-0.07649898
33	0x3e1fef12	0.15618542
34	0x3cad71c2	0.021172408
35	0x3e0bf921	0.13669254
36	0xbd80cd51	-0.06289161
37	0x3e3aff6f	0.18261503
38	0x3dc0a4b0	0.09406412
39	0xbe1152df	-0.14191769
40	0x3e4bde65	0.19909056
41	0x3d9be8af	0.0761274
42	0x3e122eb2	0.14275625
43	0x3d102709	0.035193477
44	0xbe4ce857	-0.20010506
45	0xbda18eec	-0.07888588
46	0xbbdde098	-0.0067711584
47	0xbe40ff24	-0.18847328
48	0xbc744202	-0.014908316
49	0x3d8bff72	0.06835832
50	0x3d1a5522	0.037678845
51	0x3da8aaba	0.082356885
52	0xbde20b9b	-0.1103737
53	0x3dbe49af	0.09291398
54	0x3df75852	0.12077393
55	0x3dab71e3	0.083713315
56	0xbc377b3c	-0.011198815
57	0xbcd43f57	-0.025909109
58	0xbe2a3734	-0.16622621
59	0x3d20eeeb	0.03929035
60	0xbd36c5f9	-0.044622395
61	0x3cb631a5	0.02224047
62	0x3cef4507	0.02920772
63	0xbde8c8c9	-0.11366422

layer_list.conv1.bias f4 [64]
0	0x3ce11218	0.027474448
1	0xbc82ca8f	-0.015965728
2	0x3ce50f24	0.027961321
3	0xbc001f2c	-0.007819932
4	0x3cac2a3b	0.02101623
5	0x3d30709b	0.04307614
6	0x3ce98f6f	0.028510777
7	0x3c387d2a	0.01126031
8	0xbc21938c	-0.009861838
9	0x3d1bed6f	0.03806823
10	0x3c42c293	0.01188721
11	0x3a6c4ec1	0.0009014421
12	0xbbb02014	-0.0053749178
13	0xbb850e81	-0.004060567
14	0xbc322bf2	-0.010874735
15	0x3c8fef6c	0.01757022
16	0xbcad3793	-0.021144664
17	0x3cdf915f	0.027290998
18	0xbc926015	-0.017868081
19	0x3c87df97	0.016586108
20	0xbb8cdcb6	-0.0042987717
21	0x3abddcfd	0.0014485415
22	0x3b67eb4d	0.0035388053
23	0xba8dc797	-0.0010816929
24	0xb9cf22f7	-0.00039508168
25	0xbc3db22f	-0.011578127
26	0x3b24c21b	0.002514011
27	0xbbf4d52a	-0.0074717
28	0x3c54c054	0.012985308
29	0xbc03e415	-0.008049984
30	0xbbaa04bc	-0.0051885527
31	0x3a0e2d16	0.00054235884
32	0xbc632b3f	-0.013865291
33	0x3bf4cf05	0.0074709677
34	0x3bb41a02	0.0054962644
35	0x3ce3e5d2	0.027819548
36	0x3d46c92c	0.048531696
37	0xbb4848e6	-0.003056103
38	0xbcbbcae2	-0.02292389
39	0x3d2b0bde	0.041759364
40	0x3cfc78d7	0.03081934
41	0x3c561fed	0.013069135
42	0xbc9893e6	-0.018625211
43	0x3bba7ce4	0.0056911577
44	0x3d0f1f39	0.034941886
45	0x3c492148	0.012276001
46	0x3bd55365	0.0065101855
47	0x3c87147a	0.016489256
48	0xbc04bc22	-0.008101495
49	0x3c65ec19	0.014033341
50	0x3c181b89	0.009283909
51	0x3c08815b	0.008331622
52	0xbb9f4c73	-0.0048614084
53	0x3d1fc132	0.039002605
54	0xbc0e7b81	-0.008696438
55	0xbc7a6e12	-0.015285032
56	0xbb4ae6b9	-0.0030960275
57	0x3cabd4a3	0.020975417
58	0x3cc64d59	0.024206804
59	0xbc7ff0e8	-0.015621401
60	0x3c877891	0.016536983
61	0xbc3e1ca2	-0.011603506
62	0x3d09f505	0.033680934
63	0x3c41f3cb	0.01183791

layer_list.conv1.lin_src.weight f4 [64, 1433]
0	0xbba1fe65	-0.0049436563
1	0x3c1750c0	0.009235561
2	0x3c86b93e	0.016445752
3	0xbcb919ea	-0.022595365
4	0xbe3814a4	-0.17976624
5	0x3b8007b1	0.003907167
6	0xbc1ac01c	-0.0094452165
7	0x3d80a185	0.062808074
8	0xbd8d1cdd	-0.06890271
9	0xbcacca45	-0.021092543
10	0x3d8665d8	0.06562394
11	0x3d82ce05	0.06386951
12	0xbd3b8272	-0.0457787
13	0x3d4de878	0.050270528
14	0x3c12d264	0.008961294
15	0xbc5e267f	-0.013558983
16	0x3d6c6d78	0.057721585
17	0xbce1b716	-0.027553122
18	0x3bb5f7f4	0.00555324
19	0x3f199526	0.5999321
20	0xbb97f5d2	-0.0046374584
21	0x3c26876b	0.010164122
22	0x3cdacaea	0.026708085
23	0xbd092d32	-0.033490367
24	0xbbd4d974	-0.006495649
25	0xbe01ed5a	-0.12688199
26	0xbc462105	-0.012092833
27	0xbd11b3e4	-0.035571948
28	0x3cd52180	0.02601695
29	0xbc8b99c4	-0.017041095
30	0xbe6374c9	-0.22212519
31	0x3a1f6e1b	0.00060817756
32	0x3c58e3f2	0.01323794
33	0x3ca12c44	0.019674428
34	0xbd2af582	-0.04173804
35	0xbc243960	-0.010023445
36	0x3c8f1edc	0.01747077
37	0xbcbba6f1	-0.022906752
38	0xbc7f9855	-0.015600284
39	0xbc1875e6	-0.009305453
40	0xbe56a889	-0.20962729
41	0x3b4c3071	0.0031156803
42	0xbc9e1692	-0.019297872
43	0x3d15cdf1	0.036573354
44	0xbda84232	-0.08215751
45	0x3d438e02	0.04774285
46	0x3c8f3ceb	0.017485103
47	0xbdd8840b	-0.1057206
48	0xbdc51c60	-0.09624553
49	0xbc4ba1eb	-0.012428741
50	0xbd991c69	-0.07476122
51	0x3e4bb615	0.19893678
52	0xbddef41b	-0.10886403
53	0xbc5c3d64	-0.013442371
54	0x3d05d3d3	0.032672714
55	0xbc04c27f	-0.008103012
56	0xbd99800a	-0.07495125
57	0x3d207551	0.03917438
58	0x3e48d32c	0.19611806
59	0x3c573a78	0.013136499
60	0xbd1dd4b3	-0.038532924
61	0xbe1839e9	-0.14865841
62	0xbd0af140	-0.03392148
63	0xbdf44014	-0.119262844
64	0xbcda6075	-0.026657322
65	0xbe1f8306	-0.15577325
66	0xbac48f2f	-0.0014996285
67	0x3c1859dc	0.009298768
68	0xbccb8969	-0.024845796
69	0xbcd7f879	-0.026363598
70	0xbdeaeba6	-0.114707276
71	0xbd10549c	-0.03523694
72	0x3c9df121	0.019280018
73	0x3d67f1f4	0.05662723
74	0xbdae79c6	-0.0851932
75	0x3d3791f0	0.04481691
76	0xbd7a9582	-0.061177738
77	0x3c2d3420	0.01057151
78	0xbe24ed01	-0.16106035
79	0xbbe22df4	-0.0069024507
80	0x3e33ea3a	0.17569819
81	0xbdf2424b	-0.11829051
82	0xbcd706dd	-0.02624839
83	0xbd2e70db	-0.042588096
84	0x3d86c8a5	0.06581239
85	0x3e0b69c1	0.1361456
86	0x3e0a10bf	0.1348295
87	0xbd1e489e	-0.038643472
88	0xbcc9ba0b	-0.024624845
89	0x3dd6a42b	0.10480531
90	0x3be314eb	0.006929984
91	0x3d0eca12	0.034860678
92	0xbbd7e765	-0.0065888637
93	0xbd9dd629	-0.077068634
94	0xbd8c88a4	-0.06862
95	0x3c82e109	0.015976446
96	0xbdae6e02	-0.08517076
97	0xbe382d1e	-0.17985961
98	0xbe4675e0	-0.19380903
99	0x3ce2fee8	0.02770944
100	0x3d3cdb63	0.04610766
101	0x3c5b6d6e	0.013392789
102	0xbd70b94a	-0.058770455
103	0x3e1ec057	0.1550306
104	0xbe55dc7f	-0.20884894
105	0xbd942875	-0.07234279
106	0xbdad639a	-0.08466263
107	0xbcd8a36a	-0.02644511
108	0xbd9da3c6	-0.07697253
109	0x3d09cc95	0.03364237
110	0xbd2591e5	-0.04042234
111	0x3bd01587	0.0063502225
112	0xbca786f0	-0.020450085
113	0xbd70696a	-0.05869428
114	0x3d308ad7	0.043101158
115	0x3d69bcde	0.057064883
116	0x3b35b798	0.0027727839
117	0x3d1798f8	0.037011117
118	0xbe0859ed	-0.13315554
119	0xbcede4a6	-0.029039692
120	0xbd7b9b80	-0.061427593
121	0xbdf74de0	-0.120754
122	0xbd5c3107	-0.053757694
123	0xbc2bed4a	-0.010493586
124	0x3d0842aa	0.0332667
125	0xbc0ddb6f	-0.008658274
126	0xbc2b8926	-0.01046971
127	0x3d2c1f00	0.04202175
128	0xbd5d675a	-0.05405364
129	0x3e0e2ba3	0.13883834
130	0xbd0d8ad6	-0.034556232
131	0x3d948031	0.07251013
132	0x3e44c4d8	0.19215715
133	0x3dcccb2a	0.09999688
134	0xbc2932a3	-0.010327014
135	0x3e5aa6d0	0.21352696
136	0x3cf11b67	0.029432012
137	0x3d46d765	0.04854526
138	0x3cb04c1e	0.02152067
139	0xbd332478	-0.04373595
140	0xbec444fd	-0.38333884
141	0xbd351fcc	-0.044219777
142	0x3d8750af	0.06607186
143	0xbd9e9f5e	-0.07745241
144	0x3d33dacc	0.043909833
145	0x3a959fb9	0.0011415399
146	0x3de83846	0.11338858
147	0xbdb72191	-0.08941949
148	0xbc6ab2bf	-0.014324843
149	0x3c6ab76d	0.014325959
150	0xbc20f508	-0.009824045
151	0xbdc802ce	-0.0976616
152	0xbd5a0270	-0.05322498
153	0x3cf263e3	0.029588645
154	0xbd264e3c	-0.040601954
155	0x3cc97b65	0.024594972
156	0x3c2fd0f4	0.010730971
157	0x3e004675	0.12526877
158	0xbde42813	-0.11140456
159	0xbdb0b166	-0.08627586
160	0x3d8bb7af	0.06822144
161	0xbd2633c4	-0.04057671
162	0x3d142f57	0.03617796
163	0xbd59982e	-0.053123645
164	0xbb45ae0e	-0.003016356
165	0xbc6392ff	-0.013890027
166	0xbd55ee4b	-0.052229207
167	0x3e03671d	0.12832303
168	0x3e6aafe0	0.22918653
169	0xbd8c2cfd	-0.06844518
170	0xbcbdbbc5	-0.023160825
171	0x3be589ca	0.007004951
172	0x3d19e2a8	0.037569672
173	0xbd8c747c	-0.06858155
174	0xbd0cbd25	-0.03436007
175	0x3c5dff9d	0.0135497125
176	0x3e88e75e	0.2673902
177	0x3c979fc4	0.0185088
178	0x3c16f78a	0.009214291
179	0xbdd9a616	-0.106273815
180	0xbc3d653f	-0.0115597835
181	0x3c5723cd	0.013131094
182	0x3cce8608	0.025210395
183	0x3d611a95	0.05495699
184	0xbc7eb149	-0.015545198
185	0x3c96fa93	0.01843003
186	0xbdb65970	-0.089037776
187	0xbcda9039	-0.026680099
188	0xbe520611	-0.20510127
189	0x3bae5fec	0.0053214934
190	0xbc1454c1	-0.00905341
191	0xbe66e9c0	-0.22550106
192	0xbcbbfb88	-0.022947088
193	0x3d3684b8	0.044560164
194	0xbd0c6e95	-0.034285147
195	0xbcddf8f4	-0.02709625
196	0xbcf7102b	-0.030159077
197	0xbd23cbbd	-0.03998922
198	0xbce6e853	-0.028186953
199	0xbd6bbdad	-0.057553936
200	0xbe3bea6f	-0.18351148
201	0x3d460097	0.048340406
202	0xbde03efc	-0.10949513
203	0xbd38bc46	-0.045101427
204	0x3d4898f1	0.04897398
205	0xbe767463	-0.24067836
206	0x3cdccfc3	0.026954537
207	0x3bcf2824	0.006321924
208	0x3df88b6b	0.12135967
209	0xbd25e13f	-0.040498015
210	0xbdb0ad86	-0.08626847
211	0x3d4ea7ba	0.050452925
212	0xbd03a035	-0.032135207
213	0xbe1150f7	-0.14191042
214	0x3c8ce31c	0.017198138
215	0x3c47f6b5	0.012204816
216	0x3d461811	0.048362795
217	0x3dbd4270	0.092411876
218	0x3b278551	0.002556164
219	0xbc948248	-0.01812853
220	0xbd3f9470	-0.04677242
221	0x3d274a9d	0.04084264
222	0xbd88c269	-0.06677706
223	0x3bef8954	0.007310072
224	0xbd199723	-0.03749765
225	0xbe04fbc7	-0.1298667
226	0xbdd2378b	-0.102645
227	0xbda0b25b	-0.078465186
228	0x3d7574af	0.05992573
229	0x3cd627d3	0.026142037
230	0x3bf958da	0.007609469
231	0xbd4276e4	-0.047476664
232	0xbc11c26b	-0.0088964505
233	0x3d0b1eda	0.03396497
234	0xbe94984b	-0.2902244
235	0xbd20b0ff	-0.039231297
236	0xbca5f2c5	-0.020257363
237	0x3e35d1e9	0.17755856
238	0x3e9410ff	0.28919217
239	0x3d7b26af	0.06131619
240	0x3d3a1688	0.045431644
241	0x3d6b18b4	0.057396606
242	0xbc55052d	-0.013001722
243	0xbd846707	-0.064649634
244	0x3c4f09e4	0.012636635
245	0xbc9c6272	-0.019089911
246	0x3d8a1dd1	0.06743968
247	0xbd8fc594	-0.07020107
248	0xbd1c6ece	-0.03819161
249	0x3d604cf5	0.054760892
250	0x3d7d9785	0.06191208
251	0xbd3e1a1b	-0.046411615
252	0xbcc4efbb	-0.024040094
253	0xbb8c6075	-0.0042839595
254	0x3e1dfada	0.15427724
255	0xbdc1b561	-0.094584234

layer_list.conv1.lin_dst.weight f4 [64, 1433]
0	0xbba1fe65	-0.0049436563
1	0x3c1750c0	0.009235561
2	0x3c86b93e	0.016445752
3	0xbcb919ea	-0.022595365
4	0xbe3814a4	-0.17976624
5	0x3b8007b1	0.003907167
6	0xbc1ac01c	-0.0094452165
7	0x3d80a185	0.062808074
8	0xbd8d1cdd	-0.06890271
9	0xbcacca45	-0.021092543
10	0x3d8665d8	0.06562394
11	0x3d82ce05	0.06386951
12	0xbd3b8272	-0.0457787
13	0x3d4de878	0.050270528
14	0x3c12d264	0.008961294
15	0xbc5e267f	-0.013558983
16	0x3d6c6d78	0.057721585
17	0xbce1b716	-0.027553122
18	0x3bb5f7f4	0.00555324
19	0x3f199526	0.5999321
20	0xbb97f5d2	-0.0046374584
21	0x3c26876b	0.010164122
22	0x3cdacaea	0.026708085
23	0xbd092d32	-0.033490367
24	0xbbd4d974	-0.006495649
25	0xbe01ed5a	-0.12688199
26	0xbc462105	-0.012092833
27	0xbd11b3e4	-0.035571948
28	0x3cd52180	0.02601695
29	0xbc8b99c4	-0.017041095
30	0xbe6374c9	-0.22212519
31	0x3a1f6e1b	0.00060817756
32	0x3c58e3f2	0.01323794
33	0x3ca12c44	0.019674428
34	0xbd2af582	-0.04173804
35	0xbc243960	-0.010023445
36	0x3c8f1edc	0.01747077
37	0xbcbba6f1	-0.022906752
38	0xbc7f9855	-0.015600284
39	0xbc1875e6	-0.009305453
40	0xbe56a889	-0.20962729
41	0x3b4c3071	0.0031156803
42	0xbc9e1692	-0.019297872
43	0x3d15cdf1	0.036573354
44	0xbda84232	-0.08215751
45	0x3d438e02	0.04774285
46	0x3c8f3ceb	0.017485103
47	0xbdd8840b	-0.1057206
48	0xbdc51c60	-0.09624553
49	0xbc4ba1eb	-0.012428741
50	0xbd991c69	-0.07476122
51	0x3e4bb615	0.19893678
52	0xbddef41b	-0.10886403
53	0xbc5c3d64	-0.013442371
54	0x3d05d3d3	0.032672714
55	0xbc04c27f	-0.008103012
56	0xbd99800a	-0.07495125
57	0x3d207551	0.03917438
58	0x3e48d32c	0.19611806
59	0x3c573a78	0.013136499
60	0xbd1dd4b3	-0.038532924
61	0xbe1839e9	-0.14865841
62	0xbd0af140	-0.03392148
63	0xbdf44014	-0.119262844
64	0xbcda6075	-0.026657322
65	0xbe1f8306	-0.15577325
66	0xbac48f2f	-0.0014996285
67	0x3c1859dc	0.009298768
68	0xbccb8969	-0.024845796
69	0xbcd7f879	-0.026363598
70	0xbdeaeba6	-0.114707276
71	0xbd10549c	-0.03523694
72	0x3c9df121	0.019280018
73	0x3d67f1f4	0.05662723
74	0xbdae79c6	-0.0851932
75	0x3d3791f0	0.04481691
76	0xbd7a9582	-0.061177738
77	0x3c2d3420	0.01057151
78	0xbe24ed01	-0.16106035
79	0xbbe22df4	-0.0069024507
80	0x3e33ea3a	0.17569819
81	0xbdf2424b	-0.11829051
82	0xbcd706dd	-0.02624839
83	0xbd2e70db	-0.042588096
84	0x3d86c8a5	0.06581239
85	0x3e0b69c1	0.1361456
86	0x3e0a10bf	0.1348295
87	0xbd1e489e	-0.038643472
88	0xbcc9ba0b	-0.024624845
89	0x3dd6a42b	0.10480531
90	0x3be314eb	0.006929984
91	0x3d0eca12	0.034860678
92	0xbbd7e765	-0.0065888637
93	0xbd9dd629	-0.077068634
94	0xbd8c88a4	-0.06862
95	0x3c82e109	0.015976446
96	0xbdae6e02	-0.08517076
97	0xbe382d1e	-0.17985961
98	0xbe4675e0	-0.19380903
99	0x3ce2fee8	0.02770944
100	0x3d3cdb63	0.04610766
101	0x3c5b6d6e	0.013392789
102	0xbd70b94a	-0.058770455
103	0x3e1ec057	0.1550306
104	0xbe55dc7f	-0.20884894
105	0xbd942875	-0.07234279
106	0xbdad639a	-0.08466263
107	0xbcd8a36a	-0.02644511
108	0xbd9da3c6	-0.07697253
109	0x3d09cc95	0.03364237
110	0xbd2591e5	-0.04042234
111	0x3bd01587	0.0063502225
112	0xbca786f0	-0.020450085
113	0xbd70696a	-0.05869428
114	0x3d308ad7	0.043101158
115	0x3d69bcde	0.057064883
116	0x3b35b798	0.0027727839
117	0x3d1798f8	0.037011117
118	0xbe0859ed	-0.13315554
119	0xbcede4a6	-0.029039692
120	0xbd7b9b80	-0.061427593
121	0xbdf74de0	-0.120754
122	0xbd5c3107	-0.053757694
123	0xbc2bed4a	-0.010493586
124	0x3d0842aa	0.0332667
125	0xbc0ddb6f	-0.008658274
126	0xbc2b8926	-0.01046971
127	0x3d2c1f00	0.04202175
128	0xbd5d675a	-0.05405364
129	0x3e0e2ba3	0.13883834
130	0xbd0d8ad6	-0.034556232
131	0x3d948031	0.07251013
132	0x3e44c4d8	0.19215715
133	0x3dcccb2a	0.09999688
134	0xbc2932a3	-0.010327014
135	0x3e5aa6d0	0.21352696
136	0x3cf11b67	0.029432012
137	0x3d46d765	0.04854526
138	0x3cb04c1e	0.02152067
139	0xbd332478	-0.04373595
140	0xbec444fd	-0.38333884
141	0xbd351fcc	-0.044219777
142	0x3d8750af	0.06607186
143	0xbd9e9f5e	-0.07745241
144	0x3d33dacc	0.043909833
145	0x3a959fb9	0.0011415399
146	0x3de83846	0.11338858
147	0xbdb72191	-0.08941949
148	0xbc6ab2bf	-0.014324843
149	0x3c6ab76d	0.014325959
150	0xbc20f508	-0.009824045
151	0xbdc802ce	-0.0976616
152	0xbd5a0270	-0.05322498
153	0x3cf263e3	0.029588645
154	0xbd264e3c	-0.040601954
155	0x3cc97b65	0.024594972
156	0x3c2fd0f4	0.010730971
157	0x3e004675	0.12526877
158	0xbde42813	-0.11140456
159	0xbdb0b166	-0.08627586
160	0x3d8bb7af	0.06822144
161	0xbd2633c4	-0.04057671
162	0x3d142f57	0.03617796
163	0xbd59982e	-0.053123645
164	0xbb45ae0e	-0.003016356
165	0xbc6392ff	-0.013890027
166	0xbd55ee4b	-0.052229207
167	0x3e03671d	0.12832303
168	0x3e6aafe0	0.22918653
169	0xbd8c2cfd	-0.06844518
170	0xbcbdbbc5	-0.023160825
171	0x3be589ca	0.007004951
172	0x3d19e2a8	0.037569672
173	0xbd8c747c	-0.06858155
174	0xbd0cbd25	-0.03436007
175	0x3c5dff9d	0.0135497125
176	0x3e88e75e	0.2673902
177	0x3c979fc4	0.0185088
178	0x3c16f78a	0.009214291
179	0xbdd9a616	-0.106273815
180	0xbc3d653f	-0.0115597835
181	0x3c5723cd	0.013131094
182	0x3cce8608	0.025210395
183	0x3d611a95	0.05495699
184	0xbc7eb149	-0.015545198
185	0x3c96fa93	0.01843003
186	0xbdb65970	-0.089037776
187	0xbcda9039	-0.026680099
188	0xbe520611	-0.20510127
189	0x3bae5fec	0.0053214934
190	0xbc1454c1	-0.00905341
191	0xbe66e9c0	-0.22550106
192	0xbcbbfb88	-0.022947088
193	0x3d3684b8	0.044560164
194	0xbd0c6e95	-0.034285147
195	0xbcddf8f4	-0.02709625
196	0xbcf7102b	-0.030159077
197	0xbd23cbbd	-0.03998922
198	0xbce6e853	-0.028186953
199	0xbd6bbdad	-0.057553936
200	0xbe3bea6f	-0.18351148
201	0x3d460097	0.048340406
202	0xbde03efc	-0.10949513
203	0xbd38bc46	-0.045101427
204	0x3d4898f1	0.04897398
205	0xbe767463	-0.24067836
206	0x3cdccfc3	0.026954537
207	0x3bcf2824	0.006321924
208	0x3df88b6b	0.12135967
209	0xbd25e13f	-0.040498015
210	0xbdb0ad86	-0.08626847
211	0x3d4ea7ba	0.050452925
212	0xbd03a035	-0.032135207
213	0xbe1150f7	-0.14191042
214	0x3c8ce31c	0.017198138
215	0x3c47f6b5	0.012204816
216	0x3d461811	0.048362795
217	0x3dbd4270	0.092411876
218	0x3b278551	0.002556164
219	0xbc948248	-0.01812853
220	0xbd3f9470	-0.04677242
221	0x3d274a9d	0.04084264
222	0xbd88c269	-0.06677706
223	0x3bef8954	0.007310072
224	0xbd199723	-0.03749765
225	0xbe04fbc7	-0.1298667
226	0xbdd2378b	-0.102645
227	0xbda0b25b	-0.078465186
228	0x3d7574af	0.05992573
229	0x3cd627d3	0.026142037
230	0x3bf958da	0.007609469
231	0xbd4276e4	-0.047476664
232	0xbc11c26b	-0.0088964505
233	0x3d0b1eda	0.03396497
234	0xbe94984b	-0.2902244
235	0xbd20b0ff	-0.039231297
236	0xbca5f2c5	-0.020257363
237	0x3e35d1e9	0.17755856
238	0x3e9410ff	0.28919217
239	0x3d7b26af	0.06131619
240	0x3d3a1688	0.045431644
241	0x3d6b18b4	0.057396606
242	0xbc55052d	-0.013001722
243	0xbd846707	-0.064649634
244	0x3c4f09e4	0.012636635
245	0xbc9c6272	-0.019089911
246	0x3d8a1dd1	0.06743968
247	0xbd8fc594	-0.07020107
248	0xbd1c6ece	-0.03819161
249	0x3d604cf5	0.054760892
250	0x3d7d9785	0.06191208
251	0xbd3e1a1b	-0.046411615
252	0xbcc4efbb	-0.024040094
253	0xbb8c6075	-0.0042839595
254	0x3e1dfada	0.15427724
255	0xbdc1b561	-0.094584234

layer_list.conv2.att_src f4 [1, 1, 7]
0	0x3c7362c2	0.014855089
1	0xbce2fd91	-0.0277088
2	0x3de70122	0.11279513
3	0x3da71485	0.08158211
4	0x3debb615	0.11509339
5	0x3d48ec1d	0.0490533
6	0x3dc63b48	0.09679276

layer_list.conv2.att_dst f4 [1, 1, 7]
0	0x3e326e5a	0.17424908
1	0xbda916da	-0.08256312
2	0x3f161ad5	0.5863469
3	0x3d5db573	0.05412812
4	0x3e442a7c	0.19156832
5	0xbbb979e5	-0.005660283
6	0x3ec0f36b	0.37685713

layer_list.conv2.bias f4 [7]
0	0xbe1be6d0	-0.15224767
1	0xbf167f38	-0.5878787
2	0xbdb9d723	-0.09074237
3	0x3f25491b	0.64564675
4	0x3dc81944	0.09770444
5	0xbedc1d36	-0.42991036
6	0xbf26f612	-0.65219223

layer_list.conv2.lin_src.weight f4 [7, 64]
0	0xbf23aab3	-0.6393234
1	0xbfb3659e	-1.4015386
2	0xbfc06ddb	-1.5033525
3	0x3f2dbae1	0.6786328
4	0x3ef7c1c3	0.48390016
5	0xbf881382	-1.0630953
6	0x3e545229	0.20734467
7	0xbf9502c8	-1.1641474
8	0x3fad5b91	1.3543569
9	0x3f62e50f	0.88630766
10	0x3ef8e8a5	0.48614994
11	0x3f57bae1	0.8426953
12	0x3ef97797	0.48724052
13	0x3f4d3c72	0.8017036
14	0xbe9494d2	-0.2901979
15	0x3f9b9357	1.215434
16	0xbeb0bf46	-0.3452093
17	0xbe3c33bd	-0.18379112
18	0x3f94407e	1.1582181
19	0xbfba1366	-1.453717
20	0xbf4d7c01	-0.8026734
21	0x3fa9c89d	1.3264347
22	0xbf262514	-0.64900327
23	0x3f9a9a9a	1.2078431
24	0xbf870023	-1.0546917
25	0xbf8d7c0d	-1.1053482
26	0x3f7b8d53	0.9826252
27	0xbf8d7f54	-1.1054482
28	0x3ef8e70b	0.48613772
29	0x3f3484d3	0.70515174
30	0x3fa5d341	1.2955095
31	0x3f7f8ece	0.9982728
32	0xbf8bbed5	-1.0917612
33	0x3f7f1ab6	0.9965013
34	0x3f4f5136	0.80983293
35	0x3f1715fc	0.5901792
36	0xbf108871	-0.56458193
37	0x3f7796fd	0.96714765
38	0x3f9e5218	1.2368803
39	0xbf8fd00f	-1.123537
40	0xbf7bbb69	-0.9833284
41	0x3f9e1ca1	1.2352487
42	0xbf65730f	-0.8962869
43	0x3fadcc68	1.3578005
44	0x3f25f3c9	0.6482511
45	0xbf9186d2	-1.1369269
46	0x3f9d2088	1.2275553
47	0x3f65a940	0.8971138
48	0xbf745553	-0.95442694
49	0x3fa1d7cd	1.2643982
50	0x3f7555f7	0.95834297
51	0x3f3f39af	0.74697393
52	0xbf026aef	-0.5094442
53	0x3e520a60	0.2051177
54	0x3f925aff	1.143402
55	0x3e96a04e	0.29419178
56	0x3f29692f	0.6617612
57	0xbf80e26c	-1.0069098
58	0x3dbc322b	0.09189256
59	0xbf8674cc	-1.0504394
60	0x3f99bdca	1.2011044
61	0xbe3fcbfc	-0.18730158
62	0xbfaf499e	-1.3694341
63	0x3f42291c	0.7584398
64	0x3f598bd5	0.8497899
65	0xbebf8919	-0.37409285
66	0xbe5c84ef	-0.21535085
67	0xbf9c980f	-1.2233905
68	0xbf71ce29	-0.944552
69	0xbe48dd4c	-0.19615668
70	0xbe0f211c	-0.13977474
71	0xbf44b2e6	-0.7683548
72	0xbf5dba67	-0.8661255
73	0xbfac2a27	-1.3450364
74	0x3f0ee517	0.55818313
75	0xbf38aae5	-0.72135764
76	0x3eac891f	0.33698365
77	0x3f873a83	1.0564731
78	0xbf8f8b38	-1.1214361
79	0xbf825593	-1.0182365
80	0xbf692b30	-0.91081524
81	0xbf9aab09	-1.2083446
82	0x3f7e97fd	0.99450666
83	0x3f843c54	1.0330911
84	0x3e415195	0.18878777
85	0xbf5f2e1a	-0.8717972
86	0x3f9597bf	1.1686934
87	0xbf153125	-0.58278114
88	0x3f9e2e01	1.2357789
89	0x3fa83ab7	1.3142918
90	0x3f40eb25	0.753588
91	0xbf8ab2d2	-1.0835822
92	0xbf12d825	-0.5736106
93	0xbf9eeb2e	-1.2415521
94	0xbf7af0a1	-0.9802342
95	0xbe7188af	-0.23587297
96	0x3f321d71	0.69576174
97	0xbee4d879	-0.44696406
98	0x3f85c136	1.0449588
99	0xbf764421	-0.96197706
100	0xbf498ef2	-0.7873374
101	0xbf879406	-1.0592048
102	0x3e325318	0.1741451
103	0x3f23c3ab	0.6397044
104	0x3f0a6f84	0.5407641
105	0xbf8a1979	-1.0789024
106	0x3f71a471	0.9439154
107	0x3f2179ca	0.6307646
108	0xbfbbac64	-1.4661984
109	0x3f383cba	0.7196766
110	0x3fa4636e	1.2842844
111	0xbf7d0de0	-0.98849297
112	0x3fa09627	1.2545823
113	0x3e9baa1b	0.30403218
114	0xbf13718e	-0.57595146
115	0x3f5e0ace	0.86735237
116	0xbe474b66	-0.19462356
117	0x3e828cd4	0.25498068
118	0x3f3d10c6	0.7385372
119	0x3f95c892	1.1701834
120	0x3f91f67a	1.1403344
121	0xbfa0e133	-1.2568725
122	0xbf68723d	-0.90799314
123	0x3f9d1079	1.2270652
124	0xbf8d3910	-1.1033039
125	0x3f8b0606	1.0861213
126	0x3ec2b8f0	0.3803172
127	0xbf17c10f	-0.5927896
128	0xbf8708d7	-1.0549573
129	0xbf720613	-0.9454052
130	0xbf894593	-1.0724357
131	0x3f789294	0.9709866
132	0xbf72a374	-0.9478066
133	0xbf7cfcdc	-0.9882333
134	0xbf6e8970	-0.93178463
135	0x3f69d445	0.9133952
136	0xbf8bddc8	-1.0927057
137	0xbf875ee5	-1.0575835
138	0xbf8ec074	-1.1152482
139	0xbf9798bd	-1.1843487
140	0x3f4dc912	0.80384934
141	0x3f5609fe	0.83608997
142	0x3f8d4d48	1.1039209
143	0x3f77c613	0.9678661
144	0x3f84eb88	1.0384378
145	0xbf8a01eb	-1.0781835
146	0xbf82a904	-1.020783
147	0xbf8b84d8	-1.0899916
148	0x3f69ce6b	0.91330594
149	0x3f4d09ff	0.8009338
150	0x3f830289	1.0235149
151	0xbf625b18	-0.8842025
152	0xbf3b5c1a	-0.7318741
153	0x3f456259	0.7710319
154	0xbf955a71	-1.1668226
155	0x3f973039	1.1811591
156	0x3f29e824	0.66369843
157	0xbf89de80	-1.0771027
158	0xbf86abba	-1.0521157
159	0x3f8433c4	1.0328298
160	0x3f794c55	0.973821
161	0x3f890b17	1.0706509
162	0xbf90f64a	-1.1325161
163	0xbf81aab9	-1.0130225
164	0xbf4e72e7	-0.8064408
165	0x3f806914	1.0032067
166	0xbf7bee9a	-0.9841095
167	0x3ed5dde6	0.41770858
168	0x3f923b17	1.1424283
169	0x3f7cb451	0.9871264
170	0x3f87fcc7	1.0624017
171	0xbf93a4ca	-1.1534665
172	0xbf79f7d6	-0.9764379
173	0xbf851de4	-1.0399747
174	0xbf839091	-1.0278493
175	0xbf96f3b6	-1.1793125
176	0x3f3e9d35	0.7445863
177	0xbf6bd0ba	-0.92115366
178	0x3f342540	0.7036934
179	0xbf6f32aa	-0.9343668
180	0x3f7e33f4	0.99298024
181	0xbf8a738b	-1.0816511
182	0xbf5c039b	-0.85943
183	0xbf6fca75	-0.936683
184	0xbf13ecc8	-0.57783175
185	0x3f310b69	0.69158036
186	0x3f9b9c46	1.2157066
187	0x3f6d37c9	0.92663246
188	0x3f8baace	1.09115
189	0xbe8d8d61	-0.27646926
190	0xbf5516d6	-0.8323797
191	0x3f82c6d0	1.0216923
192	0x3f69ba25	0.9129966
193	0x3fa2fd85	1.2733618
194	0x3f9d3c06	1.2283943
195	0xbf998a69	-1.1995364
196	0xbf88b115	-1.0679041
197	0x3f7cc6e3	0.9874098
198	0xbf3f6644	-0.7476542
199	0xbf872637	-1.0558537
200	0xbf820638	-1.0158148
201	0x3f895aa9	1.0730792
202	0xbf7b1589	-0.98079735
203	0x3f2a0401	0.6641236
204	0xbfa4fc94	-1.2889581
205	0x3ec709d7	0.38874695
206	0x3f594367	0.8486847
207	0xbf973b99	-1.1815063
208	0x3f4c0e98	0.7970977
209	0x3f32d6d6	0.69859064
210	0xbf8108dc	-1.0080829
211	0xbf131cf8	-0.5746608
212	0x3f5f9f80	0.8735275
213	0x3f134a11	0.5753489
214	0xbf6eb84c	-0.93249965
215	0xbefd2085	-0.49438873
216	0xbf2c53d9	-0.6731544
217	0xbf687f76	-0.9081949
218	0xbe86f7b8	-0.2636087
219	0xbf671c3e	-0.9027747
220	0x3efcb6d5	0.4935824
221	0xbf5c7bdc	-0.86126494
222	0x3f8047ff	1.0021971
223	0xbf855a7e	-1.0418241
224	0xbf9fa71a	-1.247287
225	0xbf7ac10c	-0.97950816
226	0xbf82ac91	-1.0208913
227	0xbf1bbd99	-0.6083618
228	0x3f78102c	0.96899676
229	0xbf84c2fc	-1.0372005
230	0xbf8dbeb7	-1.1073827
231	0x3f50c11b	0.81544656
232	0x3e866d0e	0.26255077
233	0xbf2b37d3	-0.66882056
234	0xbf75a1b9	-0.95949894
235	0xbf989f71	-1.1923658
236	0x3f2c1fd0	0.6723604
237	0x3f2acb3c	0.6671636
238	0x3f464e99	0.7746368
239	0x3f95ba7c	1.1697536
240	0x3eb57b2b	0.35445532
241	0xbf88953f	-1.0670546
242	0x3f3595b5	0.7093156
243	0x3f4ccd2f	0.80000585
244	0xbf992b48	-1.1966333
245	0x3f67ee31	0.90597826
246	0xbf9236d1	-1.1422979
247	0xbf7c4f3f	-0.9855842
248	0xbf8c281d	-1.0949742
249	0x3f565ee0	0.8373852
250	0xbf9fb01b	-1.2475618
251	0x3f6d6ebf	0.9274711
252	0x3f21c294	0.6318753
253	0xbf77425b	-0.96585625
254	0xbf80154c	-1.0006499
255	0xbf903830	-1.1267147

layer_list.conv2.lin_dst.weight f4 [7, 64]
0	0xbf23aab3	-0.6393234
1	0xbfb3659e	-1.4015386
2	0xbfc06ddb	-1.5033525
3	0x3f2dbae1	0.6786328
4	0x3ef7c1c3	0.48390016
5	0xbf881382	-1.0630953
6	0x3e545229	0.20734467
7	0xbf9502c8	-1.1641474
8	0x3fad5b91	1.3543569
9	0x3f62e50f	0.88630766
10	0x3ef8e8a5	0.48614994
11	0x3f57bae1	0.8426953
12	0x3ef97797	0.48724052
13	0x3f4d3c72	0.8017036
14	0xbe9494d2	-0.2901979
15	0x3f9b9357	1.215434
16	0xbeb0bf46	-0.3452093
17	0xbe3c33bd	-0.18379112
18	0x3f94407e	1.1582181
19	0xbfba1366	-1.453717
20	0xbf4d7c01	-0.8026734
21	0x3fa9c89d	1.3264347
22	0xbf262514	-0.64900327
23	0x3f9a9a9a	1.2078431
24	0xbf870023	-1.0546917
25	0xbf8d7c0d	-1.1053482
26	0x3f7b8d53	0.9826252
27	0xbf8d7f54	-1.1054482
28	0x3ef8e70b	0.48613772
29	0x3f3484d3	0.70515174
30	0x3fa5d341	1.2955095
31	0x3f7f8ece	0.9982728
32	0xbf8bbed5	-1.0917612
33	0x3f7f1ab6	0.9965013
34	0x3f4f5136	0.80983293
35	0x3f1715fc	0.5901792
36	0xbf108871	-0.56458193
37	0x3f7796fd	0.96714765
38	0x3f9e5218	1.2368803
39	0xbf8fd00f	-1.123537
40	0xbf7bbb69	-0.9833284
41	0x3f9e1ca1	1.2352487
42	0xbf65730f	-0.8962869
43	0x3fadcc68	1.3578005
44	0x3f25f3c9	0.6482511
45	0xbf9186d2	-1.1369269
46	0x3f9d2088	1.2275553
47	0x3f65a940	0.8971138
48	0xbf745553	-0.95442694
49	0x3fa1d7cd	1.2643982
50	0x3f7555f7	0.95834297
51	0x3f3f39af	0.74697393
52	0xbf026aef	-0.5094442
53	0x3e520a60	0.2051177
54	0x3f925aff	1.143402
55	0x3e96a04e	0.29419178
56	0x3f29692f	0.6617612
57	0xbf80e26c	-1.0069098
58	0x3dbc322b	0.09189256
59	0xbf8674cc	-1.0504394
60	0x3f99bdca	1.2011044
61	0xbe3fcbfc	-0.18730158
62	0xbfaf499e	-1.3694341
63	0x3f42291c	0.7584398
64	0x3f598bd5	0.8497899
65	0xbebf8919	-0.37409285
66	0xbe5c84ef	-0.21535085
67	0xbf9c980f	-1.2233905
68	0xbf71ce29	-0.944552
69	0xbe48dd4c	-0.19615668
70	0xbe0f211c	-0.13977474
71	0xbf44b2e6	-0.7683548
72	0xbf5dba67	-0.8661255
73	0xbfac2a27	-1.3450364
74	0x3f0ee517	0.55818313
75	0xbf38aae5	-0.72135764
76	0x3eac891f	0.33698365
77	0x3f873a83	1.0564731
78	0xbf8f8b38	-1.1214361
79	0xbf825593	-1.0182365
80	0xbf692b30	-0.91081524
81	0xbf9aab09	-1.2083446
82	0x3f7e97fd	0.99450666
83	0x3f843c54	1.0330911
84	0x3e415195	0.18878777
85	0xbf5f2e1a	-0.8717972
86	0x3f9597bf	1.1686934
87	0xbf153125	-0.58278114
88	0x3f9e2e01	1.2357789
89	0x3fa83ab7	1.3142918
90	0x3f40eb25	0.753588
91	0xbf8ab2d2	-1.0835822
92	0xbf12d825	-0.5736106
93	0xbf9eeb2e	-1.2415521
94	0xbf7af0a1	-0.9802342
95	0xbe7188af	-0.23587297
96	0x3f321d71	0.69576174
97	0xbee4d879	-0.44696406
98	0x3f85c136	1.0449588
99	0xbf764421	-0.96197706
100	0xbf498ef2	-0.7873374
101	0xbf879406	-1.0592048
102	0x3e325318	0.1741451
103	0x3f23c3ab	0.6397044
104	0x3f0a6f84	0.5407641
105	0xbf8a1979	-1.0789024
106	0x3f71a471	0.9439154
107	0x3f2179ca	0.6307646
108	0xbfbbac64	-1.4661984
109	0x3f383cba	0.7196766
110	0x3fa4636e	1.2842844
111	0xbf7d0de0	-0.98849297
112	0x3fa09627	1.2545823
113	0x3e9baa1b	0.30403218
114	0xbf13718e	-0.57595146
115	0x3f5e0ace	0.86735237
116	0xbe474b66	-0.19462356
117	0x3e828cd4	0.25498068
118	0x3f3d10c6	0.7385372
119	0x3f95c892	1.1701834
120	0x3f91f67a	1.1403344
121	0xbfa0e133	-1.2568725
122	0xbf68723d	-0.90799314
123	0x3f9d1079	1.2270652
124	0xbf8d3910	-1.1033039
125	0x3f8b0606	1.0861213
126	0x3ec2b8f0	0.3803172
127	0xbf17c10f	-0.5927896
128	0xbf8708d7	-1.0549573
129	0xbf720613	-0.9454052
130	0xbf894593	-1.0724357
131	0x3f789294	0.9709866
132	0xbf72a374	-0.9478066
133	0xbf7cfcdc	-0.9882333
134	0xbf6e8970	-0.93178463
135	0x3f69d445	0.9133952
136	0xbf8bddc8	-1.0927057
137	0xbf875ee5	-1.0575835
138	0xbf8ec074	-1.1152482
139	0xbf9798bd	-1.1843487
140	0x3f4dc912	0.80384934
141	0x3f5609fe	0.83608997
142	0x3f8d4d48	1.1039209
143	0x3f77c613	0.9678661
144	0x3f84eb88	1.0384378
145	0xbf8a01eb	-1.0781835
146	0xbf82a904	-1.020783
147	0xbf8b84d8	-1.0899916
148	0x3f69ce6b	0.91330594
149	0x3f4d09ff	0.8009338
150	0x3f830289	1.0235149
151	0xbf625b18	-0.8842025
152	0xbf3b5c1a	-0.7318741
153	0x3f456259	0.7710319
154	0xbf955a71	-1.1668226
155	0x3f973039	1.1811591
156	0x3f29e824	0.66369843
157	0xbf89de80	-1.0771027
158	0xbf86abba	-1.0521157
159	0x3f8433c4	1.0328298
160	0x3f794c55	0.973821
161	0x3f890b17	1.0706509
162	0xbf90f64a	-1.1325161
163	0xbf81aab9	-1.0130225
164	0xbf4e72e7	-0.8064408
165	0x3f806914	1.0032067
166	0xbf7bee9a	-0.9841095
167	0x3ed5dde6	0.41770858
168	0x3f923b17	1.1424283
169	0x3f7cb451	0.9871264
170	0x3f87fcc7	1.0624017
171	0xbf93a4ca	-1.1534665
172	0xbf79f7d6	-0.9764379
173	0xbf851de4	-1.0399747
174	0xbf839091	-1.0278493
175	0xbf96f3b6	-1.1793125
176	0x3f3e9d35	0.7445863
177	0xbf6bd0ba	-0.92115366
178	0x3f342540	0.7036934
179	0xbf6f32aa	-0.9343668
180	0x3f7e33f4	0.99298024
181	0xbf8a738b	-1.0816511
182	0xbf5c039b	-0.85943
183	0xbf6fca75	-0.936683
184	0xbf13ecc8	-0.57783175
185	0x3f310b69	0.69158036
186	0x3f9b9c46	1.2157066
187	0x3f6d37c9	0.92663246
188	0x3f8baace	1.09115
189	0xbe8d8d61	-0.27646926
190	0xbf5516d6	-0.8323797
191	0x3f82c6d0	1.0216923
192	0x3f69ba25	0.9129966
193	0x3fa2fd85	1.2733618
194	0x3f9d3c06	1.2283943
195	0xbf998a69	-1.1995364
196	0xbf88b115	-1.0679041
197	0x3f7cc6e3	0.9874098
198	0xbf3f6644	-0.7476542
199	0xbf872637	-1.0558537
200	0xbf820638	-1.0158148
201	0x3f895aa9	1.0730792
202	0xbf7b1589	-0.98079735
203	0x3f2a0401	0.6641236
204	0xbfa4fc94	-1.2889581
205	0x3ec709d7	0.38874695
206	0x3f594367	0.8486847
207	0xbf973b99	-1.1815063
208	0x3f4c0e98	0.7970977
209	0x3f32d6d6	0.69859064
210	0xbf8108dc	-1.0080829
211	0xbf131cf8	-0.5746608
212	0x3f5f9f80	0.8735275
213	0x3f134a11	0.5753489
214	0xbf6eb84c	-0.93249965
215	0xbefd2085	-0.49438873
216	0xbf2c53d9	-0.6731544
217	0xbf687f76	-0.9081949
218	0xbe86f7b8	-0.2636087
219	0xbf671c3e	-0.9027747
220	0x3efcb6d5	0.4935824
221	0xbf5c7bdc	-0.86126494
222	0x3f8047ff	1.0021971
223	0xbf855a7e	-1.0418241
224	0xbf9fa71a	-1.247287
225	0xbf7ac10c	-0.97950816
226	0xbf82ac91	-1.0208913
227	0xbf1bbd99	-0.6083618
228	0x3f78102c	0.96899676
229	0xbf84c2fc	-1.0372005
230	0xbf8dbeb7	-1.1073827
231	0x3f50c11b	0.81544656
232	0x3e866d0e	0.26255077
233	0xbf2b37d3	-0.66882056
234	0xbf75a1b9	-0.95949894
235	0xbf989f71	-1.1923658
236	0x3f2c1fd0	0.6723604
237	0x3f2acb3c	0.6671636
238	0x3f464e99	0.7746368
239	0x3f95ba7c	1.1697536
240	0x3eb57b2b	0.35445532
241	0xbf88953f	-1.0670546
242	0x3f3595b5	0.7093156
243	0x3f4ccd2f	0.80000585
244	0xbf992b48	-1.1966333
245	0x3f67ee31	0.90597826
246	0xbf9236d1	-1.1422979
247	0xbf7c4f3f	-0.9855842
248	0xbf8c281d	-1.0949742
249	0x3f565ee0	0.8373852
250	0xbf9fb01b	-1.2475618
251	0x3f6d6ebf	0.9274711
252	0x3f21c294	0.6318753
253	0xbf77425b	-0.96585625
254	0xbf80154c	-1.0006499
255	0xbf903830	-1.1267147
