vanilla_models/Cora/5_3f_85/split0/init2/GAT_dp0_5_5e_4_f0.pt (torch, 372919 bytes, 10 tensors)

layer_list.conv1.att_src f4 [1, 8, 8]
00000000: 8fe0 e9be d199 11bf 38b5 053f ba36 09be
00000010: 8568 d23e ae48 c73e 7e45 c23e ee62 09bf
00000020: 0d56 673f 2b7d 923e ccf4 3bbf ed79 bebd
00000030: ee89 2a3f 6421 ea3e aab4 a7be f076 61bf
00000040: 3ec9 9dbe 6c65 15bf eb5e dc3d 3792 153f
00000050: 4100 21bf f5e2 533e dde0 3b3f cb1c fabe
00000060: e665 1a3f d6fd 2dbf 98a7 363f c971 84be
00000070: 0592 313f 235e 25bf 1ea9 213f 02f4 f3be
00000080: e942 b8be f354 bb3e 8d46 53be 1b38 d5be
00000090: da13 a23e 4925 c53e a4e0 fdbe 1d52 873e
000000a0: 4dc1 5bbf d6cf 32bf 7e26 0a3f eeba 66bf
000000b0: 2ce0 32bf 8c6e 813f 50a4 3dbf 0d08 473f
000000c0: ae92 66bf aeee 16bf a19d 9bbe b22a 373f
000000d0: 690f 0e3f 7cff 363f 1d2c 853f ad14 99be
000000e0: 4f1b cb3e 2457 1d3f 6d1a 36be c817 d9bd
000000f0: 7323 a13e 89e3 5ebd 3046 0b3f 4702 fd3d
-0.45679137 -0.5687533 0.5222964 -0.13399783 0.41095367 0.38922638 0.37943643 -0.5366658
0.9036568 0.2861112 -0.73420405 -0.09300599 0.66616714 0.457286 -0.32755023 -0.8807211
-0.30817598 -0.5835788 0.10760292 0.5842623 -0.6289101 0.20692046 0.7338999 -0.48850092
0.60311735 -0.6796545 0.7134948 -0.2586806 0.69363433 -0.64596766 0.6314868 -0.476471
-0.35988548 0.3658825 -0.20632382 -0.41644368 0.3165577 0.3850501 -0.4958545 0.26429835
-0.8584183 -0.6984838 0.53964984 -0.9012898 -0.6987331 1.0111861 -0.74078846 0.7774666
-0.90067565 -0.58957946 -0.303937 0.7154952 0.55492264 0.7148359 1.0404087 -0.29898587
0.39669272 0.6146109 -0.17783518 -0.10600239 0.31472358 -0.054416213 0.5440397 0.1235395

layer_list.conv1.att_dst f4 [1, 8, 8]
00000000: 0625 38be e2d8 68be b976 3a3e c55d f3bd
00000010: 052e f23d dd0d 843d 5e53 b93d 477f 5fbe
00000020: a053 553e a7e2 8a3e 0152 20be 3049 953d
00000030: 6c0d cc3d cc97 ab3d 45ba b0bd 8223 56be
00000040: cfa6 8bbc 3997 a9bd 99bc e93a 1bd6 b03d
00000050: ba87 42be eed3 f43c 8779 ef3d 0a91 9ebd
00000060: f67a 8e3e 7abb 24be 9be9 8f3e 6cef 993c
00000070: 82fe b23e 8ea3 35bd 127e f63d e263 0ebe
00000080: 151f c7bd 8a78 0a3e ce42 d5bd ca93 43be
00000090: 18fb d93d 6392 1a3d 5c19 4abe f159 8aba
000000a0: 2046 0bbd b767 d7bd 3e45 3f3d 6da9 68be
000000b0: d409 07be 0849 133e 555a 4fbe 1f53 d13d
000000c0: 42bc 35be 51e6 55be 2b79 04be 1645 4c3e
000000d0: ee99 003e 3d30 8c3d 8798 0d3e 959a 773c
000000e0: 57db 6c3d 3d06 a23e 2a42 323d c4bb 313d
000000f0: d719 c03d 108a f5bd 2aaa 483e 0d72 d83a
-0.17982873 -0.22738984 0.18209352 -0.118831195 0.11825184 0.06447957 0.09049104 -0.21825896
0.20832682 0.27126047 -0.15656282 0.0728935 0.099634975 0.08378562 -0.08629278 -0.20911983
-0.017047314 -0.082807966 0.0017832696 0.086345874 -0.18997088 0.029886212 0.116931014 -0.07742508
0.27828187 -0.16087142 0.28107914 0.018790923 0.349598 -0.04434543 0.12035765 -0.1390529
-0.09722725 0.13522545 -0.104131326 -0.19099346 0.106435955 0.03773726 -0.19736236 -0.0010555369
-0.034002423 -0.10517829 0.046696894 -0.22720881 -0.13187343 0.14383328 -0.20249303 0.10220932
-0.17747596 -0.2088864 -0.12936847 0.19948229 0.1255872 0.06845138 0.13827716 0.015112539
0.057826366 0.31645384 0.04352013 0.043391958 0.093799286 -0.11989224 0.19596162 0.0016513482

layer_list.conv1.bias f4 [64]
00000000: 0de4 1f3d 1741 fabc 998c 233c 7bd9 f8b8
00000010: 09d7 2e3d 21ec 143d a4f7 1bbc ffdd 693c
00000020: 8c90 f63c 9e51 ba3c 37ee cb3b e777 b63c
00000030: 96af b0bc b175 12bc 8d1d f83b 5100 98bc
00000040: 76eb 7f3c 9f37 ea3c ab03 6dbc 3a0d a2bc
00000050: 1f0a a33c c4c1 e93c 63b3 08bc 07d7 98bb
00000060: 6ec1 ec3c ce27 bd3c 177d b23c 0f52 793b
00000070: 9028 893b 6f86 863c 196f 11bd 8384 d03a
00000080: 2231 093d 40fc 95bb ddbd 9e3c d176 8b3c
00000090: 386b 733b 3146 31bc d92b f73c e1de b33c
000000a0: 2cfc 503c 4632 dbbb 4f6a bebc 557a 393d
000000b0: 5a11 063d c58e 8dbc 6c20 6a3c ef9c 67bc
000000c0: 990c 803c 150c 423d 4de2 283d d659 21bc
000000d0: e34a d53c 350e 0abd eaad 44b9 a043 1b3d
000000e0: 3d69 aa3c bd53 973b 4ee0 723c a1fe a03c
000000f0: 6d8e 42ba 1d0e 143d 70fc b5bc a225 a53c
0.039035846 -0.030548615 0.009982252 -0.000118660704 0.042685542 0.036358003 -0.009519491 0.014274119
0.030098222 0.022743996 0.006223466 0.02227397 -0.0215681 -0.008939193 0.007571882 -0.018554838
0.015620103 0.028590975 -0.014466207 -0.019781698 0.019902287 0.028534777 -0.00834355 -0.004664305
0.028900828 0.02309027 0.021788163 0.0038043295 0.0041857436 0.016421525 -0.03550634 0.0015908632
0.033494122 -0.0045771897 0.019377643 0.01702443 0.0037142765 -0.010819958 0.030172275 0.021956863
0.012755435 -0.0066893427 -0.023244051 0.04528268 0.03273139 -0.017279992 0.014289957 -0.014136537
0.015631007 0.047374804 0.041231442 -0.009848079 0.026036685 -0.033704955 -0.00018756805 0.03790629
0.020802135 0.0046181367 0.014823986 0.019652667 -0.0007421736 0.036146272 -0.022215098 0.020159546

layer_list.conv1.lin_src.weight f4 [64, 1433]
00000000: cc92 123d 2ec7 b83c 2017 02be 4b93 09be
00000010: a4f1 373e 6b6b d4bc 9ea5 543d 2d1c de3c
00000020: ead5 f5bd d465 183d 1b19 953d 9c7d 27bc
00000030: 877e c53b 1dba 333d d681 ba3b a4b2 0ebd
00000040: 5f8c b5bd 0c66 0f3c 2829 b9ba 1efc cb3e
00000050: ea53 f6bc 3cad 52bd bd33 7bbc 155c 583d
00000060: 8377 56bb ffb0 b13d 1d85 4e3d 2094 f5bc
00000070: 8994 5f3c 4bff 833d 10bf a1bd deb2 17bc
00000080: 6881 d83c ad59 c6bc 8eae 2dbd a67a 1b3d
00000090: ec41 3f3c 5391 3e3d 6c9c 16bb 634c 76bd
000000a0: 8253 df3d 8762 25be 41ed 223d 41f6 40bd
000000b0: 2a57 af3d 87fc 0ebc 372e 953c 2edf 7bbd
000000c0: 7a70 d13d 0e6d 4abd 8892 d9bc 908d a1be
000000d0: c2d6 40be b88e 723c ee09 eabb 5e32 12bb
000000e0: 63e8 9dbd 7594 f3bc 4e3b 6dbe 7fd0 04bb
000000f0: 8c6c 5f3d 5876 553e 8b4e 713d 6e87 e1bd
00000100: 3ac3 b5bd 8f84 babc df71 5b3c 3e10 b63c
00000110: 5027 7e3c 245d adbd d8e0 e73c a51e 03bd
00000120: 61f7 573d 3d36 6f3d 95fa 08bd e734 a63d
00000130: 6294 523c 0b71 99bd ba02 77bd 9f75 eb3b
00000140: 2d3e 093d 784f 9c3c 93ac f0bb 5df4 99bd
00000150: 91cd c6bc f89e 9c3d 599b 6abd 34a9 ffbb
00000160: d754 ed3d 4133 bb3c 7505 a23c 0136 f93c
00000170: 0801 383d 7d4f 4f3e edf7 ebbc 581c c6bd
00000180: 4c4c f0bc 7afa 1ebd bbaf e13c e1e7 2d3e
00000190: a85d 8bbd e92c 7c3c 72a3 04be 04c5 ce3d
000001a0: 4e24 b3bd bde4 dcbb 6cdc a93c 0aff 84bd
000001b0: fb31 cfbd fff8 2e3d b92e 7ebc 7e36 3bbd
000001c0: 023e 83bd e8d5 f1b8 3116 063d 95d8 5dbc
000001d0: 5997 183c 36ff 97bb e093 103e 8329 803d
000001e0: d239 d9bb 5574 2b3d 7bfb 0fbd 2564 983d
000001f0: c728 f6bc 0255 ff3d 56d4 3bbd 9801 51bc
00000200: 61bd 343e 92fe 11be bc3c 383e 5264 0abe
00000210: c719 a33d 845f 3bbd dc58 9d3d cd3b b2be
00000220: fcff bb3d 9430 0f3d 0ba1 433d babf 99bd
00000230: 1ad4 9c3e 8891 393d d3ac 1a3d ff3e 173d
00000240: 81ef 06bd ccca 9abd 7387 b53d 28bb 82bc
00000250: 4bc1 863d 5435 efbd 6acc 0b3c 2bac 39bd
00000260: 6762 8b39 4409 dcbc 1fa5 e83d 30cd 32bd
00000270: cdb1 d1bb 6888 603d 96a9 693d 4428 813d
00000280: 0b8a 68bd 043a df3c c9bc 27bc 2116 a93d
00000290: d3b0 983c 38b7 4dbd e01e d83c f765 493d
000002a0: 901b 90bd c952 433d d267 09bd 23cc 7a3d
000002b0: 0910 0c3d b96e 7dbd e326 7dbc 8bc4 293d
000002c0: e740 cfbd 075f d53d 183a 69bc 4278 30bd
000002d0: 0522 35bd d857 7cbc c201 c93d 28b7 21bc
000002e0: ad48 02bd 9cb2 71bc 8fb7 1ebd 0113 0f3e
000002f0: 0105 48bd 7aca 2d3d 1e1d 95bc 2de1 4d3e
00000300: 2421 e9bc a9ea d03b 4d21 87bd 073e 11bc
00000310: a063 5cbd f6a6 6ebd d3ba cebc d0c8 9a3a
00000320: 8471 92bd 4825 063b 7ec2 ad3c 7fa3 aa3d
00000330: 2910 bfbc f82d bdbd f7a7 763c 6da6 37be
00000340: 03c5 133d 8a85 d83c 6985 193d f469 21be
00000350: 0deb 6dbd 3efc 563d 2db3 13bd 91ff 06bc
00000360: 3031 533b b0cd 263d 6fdb 213e 809c 81bc
00000370: b0f6 cd3c 7b34 eb3d 93d1 c93d a5c1 063c
00000380: e260 893d b1a9 cb3c 6d4c 4c3d ff2c ca3c
00000390: 9ae8 23bd 25ba c6bb a294 d33d 18e6 c43d
000003a0: 9709 0938 fe2f d83d 6c7f 923d 892a 3b3d
000003b0: 5066 083d 0c92 a5bd d2a1 3d3e 3e66 8f3d
000003c0: 540a 4c3d 5163 253d 99c2 1a3c dcf9 08bd
000003d0: 7de7 4fbd 9fef 34bd ca22 f4bc fcb5 273c
000003e0: 5ad3 d03d 0b1a 883c 025c 293d 84d3 c43a
000003f0: 72ab 223d 0171 96ba a8a3 373c 0c07 66bc
0.035784528 0.022555914 -0.12704134 -0.13435094 0.17963272 -0.025930127 0.051915757 0.027113045
-0.120036915 0.037206486 0.07280179 -0.010222819 0.006027046 0.043878663 0.005691747 -0.034838334
-0.08864664 0.008752357 -0.0014126645 0.39840788 -0.03006931 -0.05143474 -0.01533216 0.05282219
-0.0032725043 0.086763375 0.050419915 -0.029977858 0.013646253 0.06445178 -0.078977704 -0.009258954
0.026428893 -0.024212683 -0.042402796 0.037958764 0.011673432 0.04652531 -0.0022981418 -0.06013144
0.109046 -0.16150866 0.039777044 -0.047109846 0.08561547 -0.008727199 0.018210514 -0.061492138
0.10226531 -0.04942041 -0.02655913 -0.31553316 -0.18831924 0.014804535 -0.007142297 -0.0022307853
-0.0771034 -0.029733876 -0.23167154 -0.0020265875 0.054546878 0.20845926 0.058912795 -0.11012159
-0.08875127 -0.022768287 0.013393848 0.022224542 0.0155123025 -0.08465031 0.028305456 -0.032011647
0.052726153 0.058401335 -0.0334421 0.08115559 0.01285276 -0.07492264 -0.060305335 0.0071856524
0.03350656 0.019080862 -0.007344791 -0.07517312 -0.024267944 0.076475084 -0.057277057 -0.007802153
0.115884475 0.022851588 0.019777993 0.030421259 0.04492286 0.20245166 -0.028804744 -0.09673375
-0.029333256 -0.03881309 0.027549615 0.16982986 -0.06804973 0.015391567 -0.12952974 0.100961715
-0.08747159 -0.006741135 0.020734988 -0.06493957 -0.10116955 0.04271793 -0.015514069 -0.045706265
-0.064083114 -0.00011531619 0.032736007 -0.013540407 0.009313428 -0.004638578 0.1411891 0.06257918
-0.006629207 0.04185899 -0.03515194 0.07440976 -0.030048741 0.12467386 -0.045856796 -0.012756728
0.17650367 -0.14257267 0.17991918 -0.13514832 0.07963901 -0.045745388 0.07682964 -0.3481125
0.091796845 0.034958437 0.047761004 -0.07507272 0.3063057 0.045304805 0.037762474 0.036925312
-0.032943252 -0.07558212 0.088637255 -0.015958384 0.065798365 -0.116800934 0.008532623 -0.045330208
0.00026585461 -0.026859887 0.11359619 -0.043652713 -0.0063993693 0.054817587 0.057046495 0.06306508
-0.056772273 0.027249344 -0.010237881 0.08256174 0.018639004 -0.05022356 0.02638191 0.049169507
-0.07036507 0.047686372 -0.033546276 0.061229836 0.03419498 -0.06187317 -0.015451166 0.041447204
-0.10119801 0.10418516 -0.014235042 -0.043083437 -0.044221897 -0.015401803 0.098147884 -0.009870328
-0.03180759 -0.014752056 -0.038749274 0.13972093 -0.048832897 0.042429425 -0.01820236 0.20105429
-0.028458185 0.00637563 -0.065981485 -0.008864886 -0.053805947 -0.058264695 -0.02523557 0.0011809114
-0.07150558 0.0020468999 0.021210905 0.08331966 -0.023323135 -0.092372835 0.015054694 -0.1793458
0.036076557 0.026430864 0.037480745 -0.15763074 -0.05808549 0.05248665 -0.036059547 -0.008239643
0.0032225363 0.040723503 0.15806364 -0.015821695 0.025142044 0.11484619 0.09854426 0.008224879
0.06707932 0.024861189 0.049877573 0.024679659 -0.040016748 -0.0060646706 0.10331084 0.096141994
3.2672277e-05 0.10556029 0.0715321 0.04569486 0.033300698 -0.08084497 0.18518761 0.07001923
0.049814537 0.04037792 0.00944581 -0.03344141 -0.050757874 -0.044173833 -0.029801745 0.01023626
0.10196562 0.01661398 0.04134751 0.001501665 0.039714284 -0.001147777 0.011208452 -0.014039766

layer_list.conv1.lin_dst.weight f4 [64, 1433]
00000000: cc92 123d 2ec7 b83c 2017 02be 4b93 09be
00000010: a4f1 373e 6b6b d4bc 9ea5 543d 2d1c de3c
00000020: ead5 f5bd d465 183d 1b19 953d 9c7d 27bc
00000030: 877e c53b 1dba 333d d681 ba3b a4b2 0ebd
00000040: 5f8c b5bd 0c66 0f3c 2829 b9ba 1efc cb3e
00000050: ea53 f6bc 3cad 52bd bd33 7bbc 155c 583d
00000060: 8377 56bb ffb0 b13d 1d85 4e3d 2094 f5bc
00000070: 8994 5f3c 4bff 833d 10bf a1bd deb2 17bc
00000080: 6881 d83c ad59 c6bc 8eae 2dbd a67a 1b3d
00000090: ec41 3f3c 5391 3e3d 6c9c 16bb 634c 76bd
000000a0: 8253 df3d 8762 25be 41ed 223d 41f6 40bd
000000b0: 2a57 af3d 87fc 0ebc 372e 953c 2edf 7bbd
000000c0: 7a70 d13d 0e6d 4abd 8892 d9bc 908d a1be
000000d0: c2d6 40be b88e 723c ee09 eabb 5e32 12bb
000000e0: 63e8 9dbd 7594 f3bc 4e3b 6dbe 7fd0 04bb
000000f0: 8c6c 5f3d 5876 553e 8b4e 713d 6e87 e1bd
00000100: 3ac3 b5bd 8f84 babc df71 5b3c 3e10 b63c
00000110: 5027 7e3c 245d adbd d8e0 e73c a51e 03bd
00000120: 61f7 573d 3d36 6f3d 95fa 08bd e734 a63d
00000130: 6294 523c 0b71 99bd ba02 77bd 9f75 eb3b
00000140: 2d3e 093d 784f 9c3c 93ac f0bb 5df4 99bd
00000150: 91cd c6bc f89e 9c3d 599b 6abd 34a9 ffbb
00000160: d754 ed3d 4133 bb3c 7505 a23c 0136 f93c
00000170: 0801 383d 7d4f 4f3e edf7 ebbc 581c c6bd
00000180: 4c4c f0bc 7afa 1ebd bbaf e13c e1e7 2d3e
00000190: a85d 8bbd e92c 7c3c 72a3 04be 04c5 ce3d
000001a0: 4e24 b3bd bde4 dcbb 6cdc a93c 0aff 84bd
000001b0: fb31 cfbd fff8 2e3d b92e 7ebc 7e36 3bbd
000001c0: 023e 83bd e8d5 f1b8 3116 063d 95d8 5dbc
000001d0: 5997 183c 36ff 97bb e093 103e 8329 803d
000001e0: d239 d9bb 5574 2b3d 7bfb 0fbd 2564 983d
000001f0: c728 f6bc 0255 ff3d 56d4 3bbd 9801 51bc
00000200: 61bd 343e 92fe 11be bc3c 383e 5264 0abe
00000210: c719 a33d 845f 3bbd dc58 9d3d cd3b b2be
00000220: fcff bb3d 9430 0f3d 0ba1 433d babf 99bd
00000230: 1ad4 9c3e 8891 393d d3ac 1a3d ff3e 173d
00000240: 81ef 06bd ccca 9abd 7387 b53d 28bb 82bc
00000250: 4bc1 863d 5435 efbd 6acc 0b3c 2bac 39bd
00000260: 6762 8b39 4409 dcbc 1fa5 e83d 30cd 32bd
00000270: cdb1 d1bb 6888 603d 96a9 693d 4428 813d
00000280: 0b8a 68bd 043a df3c c9bc 27bc 2116 a93d
00000290: d3b0 983c 38b7 4dbd e01e d83c f765 493d
000002a0: 901b 90bd c952 433d d267 09bd 23cc 7a3d
000002b0: 0910 0c3d b96e 7dbd e326 7dbc 8bc4 293d
000002c0: e740 cfbd 075f d53d 183a 69bc 4278 30bd
000002d0: 0522 35bd d857 7cbc c201 c93d 28b7 21bc
000002e0: ad48 02bd 9cb2 71bc 8fb7 1ebd 0113 0f3e
000002f0: 0105 48bd 7aca 2d3d 1e1d 95bc 2de1 4d3e
00000300: 2421 e9bc a9ea d03b 4d21 87bd 073e 11bc
00000310: a063 5cbd f6a6 6ebd d3ba cebc d0c8 9a3a
00000320: 8471 92bd 4825 063b 7ec2 ad3c 7fa3 aa3d
00000330: 2910 bfbc f82d bdbd f7a7 763c 6da6 37be
00000340: 03c5 133d 8a85 d83c 6985 193d f469 21be
00000350: 0deb 6dbd 3efc 563d 2db3 13bd 91ff 06bc
00000360: 3031 533b b0cd 263d 6fdb 213e 809c 81bc
00000370: b0f6 cd3c 7b34 eb3d 93d1 c93d a5c1 063c
00000380: e260 893d b1a9 cb3c 6d4c 4c3d ff2c ca3c
00000390: 9ae8 23bd 25ba c6bb a294 d33d 18e6 c43d
000003a0: 9709 0938 fe2f d83d 6c7f 923d 892a 3b3d
000003b0: 5066 083d 0c92 a5bd d2a1 3d3e 3e66 8f3d
000003c0: 540a 4c3d 5163 253d 99c2 1a3c dcf9 08bd
000003d0: 7de7 4fbd 9fef 34bd ca22 f4bc fcb5 273c
000003e0: 5ad3 d03d 0b1a 883c 025c 293d 84d3 c43a
000003f0: 72ab 223d 0171 96ba a8a3 373c 0c07 66bc
0.035784528 0.022555914 -0.12704134 -0.13435094 0.17963272 -0.025930127 0.051915757 0.027113045
-0.120036915 0.037206486 0.07280179 -0.010222819 0.006027046 0.043878663 0.005691747 -0.034838334
-0.08864664 0.008752357 -0.0014126645 0.39840788 -0.03006931 -0.05143474 -0.01533216 0.05282219
-0.0032725043 0.086763375 0.050419915 -0.029977858 0.013646253 0.06445178 -0.078977704 -0.009258954
0.026428893 -0.024212683 -0.042402796 0.037958764 0.011673432 0.04652531 -0.0022981418 -0.06013144
0.109046 -0.16150866 0.039777044 -0.047109846 0.08561547 -0.008727199 0.018210514 -0.061492138
0.10226531 -0.04942041 -0.02655913 -0.31553316 -0.18831924 0.014804535 -0.007142297 -0.0022307853
-0.0771034 -0.029733876 -0.23167154 -0.0020265875 0.054546878 0.20845926 0.058912795 -0.11012159
-0.08875127 -0.022768287 0.013393848 0.022224542 0.0155123025 -0.08465031 0.028305456 -0.032011647
0.052726153 0.058401335 -0.0334421 0.08115559 0.01285276 -0.07492264 -0.060305335 0.0071856524
0.03350656 0.019080862 -0.007344791 -0.07517312 -0.024267944 0.076475084 -0.057277057 -0.007802153
0.115884475 0.022851588 0.019777993 0.030421259 0.04492286 0.20245166 -0.028804744 -0.09673375
-0.029333256 -0.03881309 0.027549615 0.16982986 -0.06804973 0.015391567 -0.12952974 0.100961715
-0.08747159 -0.006741135 0.020734988 -0.06493957 -0.10116955 0.04271793 -0.015514069 -0.045706265
-0.064083114 -0.00011531619 0.032736007 -0.013540407 0.009313428 -0.004638578 0.1411891 0.06257918
-0.006629207 0.04185899 -0.03515194 0.07440976 -0.030048741 0.12467386 -0.045856796 -0.012756728
0.17650367 -0.14257267 0.17991918 -0.13514832 0.07963901 -0.045745388 0.07682964 -0.3481125
0.091796845 0.034958437 0.047761004 -0.07507272 0.3063057 0.045304805 0.037762474 0.036925312
-0.032943252 -0.07558212 0.088637255 -0.015958384 0.065798365 -0.116800934 0.008532623 -0.045330208
0.00026585461 -0.026859887 0.11359619 -0.043652713 -0.0063993693 0.054817587 0.057046495 0.06306508
-0.056772273 0.027249344 -0.010237881 0.08256174 0.018639004 -0.05022356 0.02638191 0.049169507
-0.07036507 0.047686372 -0.033546276 0.061229836 0.03419498 -0.06187317 -0.015451166 0.041447204
-0.10119801 0.10418516 -0.014235042 -0.043083437 -0.044221897 -0.015401803 0.098147884 -0.009870328
-0.03180759 -0.014752056 -0.038749274 0.13972093 -0.048832897 0.042429425 -0.01820236 0.20105429
-0.028458185 0.00637563 -0.065981485 -0.008864886 -0.053805947 -0.058264695 -0.02523557 0.0011809114
-0.07150558 0.0020468999 0.021210905 0.08331966 -0.023323135 -0.092372835 0.015054694 -0.1793458
0.036076557 0.026430864 0.037480745 -0.15763074 -0.05808549 0.05248665 -0.036059547 -0.008239643
0.0032225363 0.040723503 0.15806364 -0.015821695 0.025142044 0.11484619 0.09854426 0.008224879
0.06707932 0.024861189 0.049877573 0.024679659 -0.040016748 -0.0060646706 0.10331084 0.096141994
3.2672277e-05 0.10556029 0.0715321 0.04569486 0.033300698 -0.08084497 0.18518761 0.07001923
0.049814537 0.04037792 0.00944581 -0.03344141 -0.050757874 -0.044173833 -0.029801745 0.01023626
0.10196562 0.01661398 0.04134751 0.001501665 0.039714284 -0.001147777 0.011208452 -0.014039766

layer_list.conv2.att_src f4 [1, 1, 7]
00000000: 0fb4 fa3d 33eb 603d 5dcc 103e 2ca6 f83d
00000010: 3eeb 003e f1d9 583e 5f65 ff3d
0.12241375 0.054911803 0.14140458 0.1214107 0.12589738 0.21176888 0.12470507

layer_list.conv2.att_dst f4 [1, 1, 7]
00000000: 3be7 29bc 80d5 11bc 3738 ea3e 78fd e83d
00000010: 1f36 a93e ed63 8b3e 8583 933c
-0.010370071 -0.008901 0.45746014 0.1137647 0.33049104 0.27224675 0.01800705

layer_list.conv2.bias f4 [7]
00000000: c2d6 a8bd eb07 14bf f239 f7bd a2a2 253f
00000010: 5a66 aa3d 5e0d b9be 2762 0ebf
-0.08244087 -0.5782458 -0.12071599 0.6470128 0.08320303 -0.3614301 -0.5561852

layer_list.conv2.lin_src.weight f4 [7, 64]
00000000: fe68 74bf 1746 9ebf a878 793f ef44 88bf
00000010: 75ef 29be b7fc acbf 2e7b 17bf 488e 81bf
00000020: 424c 64bf 21f4 843f ad94 8bbf c35c 8bbf
00000030: 70e2 85bf c928 7d3f cabe 69bf 2515 b03f
00000040: 74ee 85bf 3a7e 8b3f 6571 8ebf f95f 50bf
00000050: d9a3 90bf d69f a23f 100f 83bf 1266 933f
00000060: 59a9 993f 1de6 513f b5da 493f 16da 213f
00000070: 21dd 163f 17d1 8dbf fb77 933f eaec 803f
00000080: 630c 68bf 3c92 88bf 6bf7 793f f5c5 8dbf
00000090: e101 983f 597a a63f 8b9c 96bf 7380 9fbf
000000a0: c461 9d3f fa44 49bf dbce 1fbe e08a 5ebf
000000b0: 558e c4be d925 e23e 1885 95bf 84c2 623e
000000c0: 1544 293f 4bd8 99bf 74db 91bf f210 843f
000000d0: 9275 813f d492 82bf df42 6cbf 893f 753f
000000e0: 3965 a4bf a660 9dbf b4d4 943f 08b7 95bf
000000f0: bec3 11bf b8f0 62bf 1b2e 9cbf 7aa7 743f
00000100: a04c 83bf 8a6c 713f 6fda ffbe 0315 a13f
00000110: 7de7 90bf 06d0 723e 6e68 3a3f e502 3a3f
00000120: 55ce 7c3f c748 3cbe a21b a9bf 2acc 1fbf
00000130: 1e4f b93f 0b6f a93f 1ae4 87bf 468e a3bf
00000140: 2d9d 703f c9fd 09bf 7f7d 63bf 5434 533f
00000150: 010f 85bf 076c 8abd 4e42 643f 2567 843e
00000160: 150a a9bf c9bd 91bc 3ceb 90bf 77f4 0f3f
00000170: 6b27 08bf c107 813f e681 983f 3737 6d3f
00000180: e0d1 143e 6395 6dbf ee35 76bf 878d 8e3f
00000190: f9b0 31bf af74 06bb 8b09 913f 7b23 9fbf
000001a0: 4f36 51be 8eb8 4abe 5c00 ba3f e2be 8dbf
000001b0: 13c7 523f a9ae 843f 4766 54bf c1c5 a23f
000001c0: ce28 21bf 47c3 083f 80fa 903f 8a24 aa3f
000001d0: d76e 6f3f 3516 593f 9426 a13f fee3 69bf
000001e0: 6156 b2be a2e0 8c3f 9b56 833f 84fa 843f
000001f0: bcd2 62bf a13f 16bf cc9f 693f 4e01 acbe
00000200: 6752 853f 2211 803f 96ce 953f 1475 903f
00000210: a94d 7ebf 6706 8a3f 70fa 78bf e136 853f
00000220: eafc 4cbf 4037 82bf c738 c6be cd44 7ebf
00000230: b540 02bf c69c 83bf 45f3 933f 49c5 183f
00000240: e0f5 0d3f 70cf 53bf 8cbf a23f 086f 6f3f
00000250: d9f3 1ebf 8ffb 98bf bb71 3d3f 3cab 6ebf
00000260: 8d32 423f 017b a6bf c11a 3d3f 4cf3 80bf
00000270: cce1 3d3f 7a90 50bf cbae 873f 3870 9ebf
00000280: b315 6bbf cc2a 8c3f 7104 92bf c411 713f
00000290: 819c 6e3f e8a2 d03e 6fb0 2b3f e0d3 613f
000002a0: 5b28 6dbf f02d 69bf bc15 843f 0b64 41bf
000002b0: b116 92bf 2e8d b63e 96b7 0dbf effd 8f3f
000002c0: 7b27 30bf f1fd 2ebf 4fee 64bf d170 7a3f
000002d0: 721e 533f 1937 453f 497f 733f 793b 9bbf
000002e0: 0cb9 963f 9078 7a3f f733 79bf e11b 4dbf
000002f0: 3efd 823f b935 83bf 5115 5b3f b618 6f3f
00000300: 4432 683f 1f30 8e3f eae1 a0bf 895d 8ebf
00000310: 5a15 8dbf 48cd 57bf 646d 69bf 4eb6 593f
00000320: cd6c 1b3f 2d3a a73f 4fdb 56bf ad75 9a3f
00000330: e531 0abe bd6b 7fbf 3c14 923f 6b11 9abf
00000340: 62e6 773f 812b 913f de08 a83e 1a8c 53bf
00000350: 33cd 9c3f 6a45 8cbf 4507 93bf 07f9 943f
00000360: ee54 9fbe 2881 10bf 8a21 003f dba5 8f3f
00000370: 0fd9 1e3f 8ff0 3bbf 70f7 2ebf 15dd 50bf
00000380: d8c2 7e3f d1e2 423f 7f40 a7bf 3e37 a0bf
00000390: 97dc 6b3e a5a0 91bf 8c6f a4bf ef17 8f3f
000003a0: bf8d 5d3f b197 993f fcf4 673f 9398 5a3f
000003b0: 3462 7c3f 7776 99bf f085 af3f 6052 72bf
000003c0: 76e8 883f b0f0 923f 7bae a73f f275 8fbf
000003d0: c74d 71bf 92c5 11bf c920 62bf 5cfe 81bf
000003e0: 7f8b 833f 7c3f 92bf 0fcc 053f a38c 9a3f
000003f0: 5bce 94bf 87b4 673f 0018 9abf 2cd7 8bbf
-0.95472705 -1.236514 0.9744973 -1.0646037 -0.16595252 -1.3514622 -0.5917233 -1.0121546
-0.8917886 1.0387002 -1.0904747 -1.0887684 -1.0459728 0.9889036 -0.91306746 1.3756453
-1.0463395 1.0897896 -1.1128355 -0.8139644 -1.1300002 1.2705028 -1.0238972 1.1515524
1.2004806 0.8199175 0.78849345 0.632234 0.58931166 -1.1079434 1.152099 1.00723
-0.906439 -1.0669627 0.97643155 -1.1076037 1.1875573 1.3006088 -1.1766523 -1.2461075
1.2295461 -0.78620875 -0.15606253 -0.86930656 -0.3838984 0.441695 -1.1681242 0.22144514
0.6611951 -1.2019132 -1.1395097 1.0317671 1.0114005 -1.0201058 -0.9228954 0.9580007
-1.2843391 -1.229512 1.1627412 -1.1696482 -0.56939304 -0.8864856 -1.220157 0.9556805
-1.0257759 0.9430624 -0.4997134 1.2584537 -1.1320645 0.23712167 0.728156 0.72660667
0.9875234 -0.18387137 -1.3211558 -0.62420905 1.447727 1.3237013 -1.0616486 -1.2777793
0.9398983 -0.5390287 -0.88863367 0.8250172 -1.0395204 -0.06758886 0.8916367 0.25859943
-1.3206202 -0.017790692 -1.1321788 0.562324 -0.5318515 1.0080491 1.1914642 0.92662376
0.14533186 -0.9280607 -0.9617604 1.1136941 -0.69410664 -0.0020516326 1.1331037 -1.2432703
-0.20430873 -0.19796965 1.453136 -1.1073878 0.82335013 1.0365802 -0.8296856 1.27166
-0.6295289 0.5342297 1.1326447 1.3292401 0.93528503 0.8479951 1.2589898 -0.91363513
-0.34831527 1.1006052 1.0260805 1.0388951 -0.88602805 -0.5869084 0.91259456 -0.33594745
1.0415772 1.0005229 1.170367 1.128573 -0.9933725 1.0783204 -0.9725714 1.0407373
-0.80073416 -1.0173111 -0.38715193 -0.9932373 -0.50879985 -1.0282218 1.1558615 0.59676033
0.554533 -0.827384 1.2714705 0.93528795 -0.6209083 -1.195177 0.74001664 -0.9323003
0.75858384 -1.3006288 0.7386895 -1.0074248 0.74172664 -0.81470454 1.0600218 -1.2377996
-0.91829985 1.095056 -1.1407605 0.94167733 0.93207556 0.40749288 0.6706609 0.8821392
-0.926397 -0.9108572 1.0319133 -0.7554328 -1.1413175 0.35654587 -0.55358255 1.1249369
-0.6881024 -0.68356234 -0.8942613 0.97828394 0.8246833 0.770372 0.95116097 -1.2127525
1.1775222 0.97840214 -0.9734492 -0.80120665 1.0233533 -1.025077 0.855794 0.9339708
0.907017 1.1108435 -1.2568944 -1.1122295 -1.1022141 -0.8429761 -0.9118254 0.850438
0.6071289 1.3064629 -0.8392839 1.2067162 -0.13495596 -0.9977377 1.1412425 -1.2036566
0.9683591 1.1341401 0.32819265 -0.82635653 1.2250122 -1.0958683 -1.1486593 1.1638497
-0.31119484 -0.56447077 0.50051177 1.122249 0.62049955 -0.7341394 -0.6834631 -0.81587344
0.9951606 0.76127344 -1.3066558 -1.2516859 0.23033367 -1.137715 -1.2846541 1.1179179
0.8654441 1.1999418 0.9060819 0.8538906 0.98587346 -1.1989278 1.371275 -0.94656944
1.0695941 1.1479702 1.3100122 -1.1207869 -0.94259304 -0.56942093 -0.88331276 -1.0155749
1.0276946 -1.1425624 0.52264494 1.2074169 -1.1625475 0.9050984 -1.2038574 -1.092504

layer_list.conv2.lin_dst.weight f4 [7, 64]
00000000: fe68 74bf 1746 9ebf a878 793f ef44 88bf
00000010: 75ef 29be b7fc acbf 2e7b 17bf 488e 81bf
00000020: 424c 64bf 21f4 843f ad94 8bbf c35c 8bbf
00000030: 70e2 85bf c928 7d3f cabe 69bf 2515 b03f
00000040: 74ee 85bf 3a7e 8b3f 6571 8ebf f95f 50bf
00000050: d9a3 90bf d69f a23f 100f 83bf 1266 933f
00000060: 59a9 993f 1de6 513f b5da 493f 16da 213f
00000070: 21dd 163f 17d1 8dbf fb77 933f eaec 803f
00000080: 630c 68bf 3c92 88bf 6bf7 793f f5c5 8dbf
00000090: e101 983f 597a a63f 8b9c 96bf 7380 9fbf
000000a0: c461 9d3f fa44 49bf dbce 1fbe e08a 5ebf
000000b0: 558e c4be d925 e23e 1885 95bf 84c2 623e
000000c0: 1544 293f 4bd8 99bf 74db 91bf f210 843f
000000d0: 9275 813f d492 82bf df42 6cbf 893f 753f
000000e0: 3965 a4bf a660 9dbf b4d4 943f 08b7 95bf
000000f0: bec3 11bf b8f0 62bf 1b2e 9cbf 7aa7 743f
00000100: a04c 83bf 8a6c 713f 6fda ffbe 0315 a13f
00000110: 7de7 90bf 06d0 723e 6e68 3a3f e502 3a3f
00000120: 55ce 7c3f c748 3cbe a21b a9bf 2acc 1fbf
00000130: 1e4f b93f 0b6f a93f 1ae4 87bf 468e a3bf
00000140: 2d9d 703f c9fd 09bf 7f7d 63bf 5434 533f
00000150: 010f 85bf 076c 8abd 4e42 643f 2567 843e
00000160: 150a a9bf c9bd 91bc 3ceb 90bf 77f4 0f3f
00000170: 6b27 08bf c107 813f e681 983f 3737 6d3f
00000180: e0d1 143e 6395 6dbf ee35 76bf 878d 8e3f
00000190: f9b0 31bf af74 06bb 8b09 913f 7b23 9fbf
000001a0: 4f36 51be 8eb8 4abe 5c00 ba3f e2be 8dbf
000001b0: 13c7 523f a9ae 843f 4766 54bf c1c5 a23f
000001c0: ce28 21bf 47c3 083f 80fa 903f 8a24 aa3f
000001d0: d76e 6f3f 3516 593f 9426 a13f fee3 69bf
000001e0: 6156 b2be a2e0 8c3f 9b56 833f 84fa 843f
000001f0: bcd2 62bf a13f 16bf cc9f 693f 4e01 acbe
00000200: 6752 853f 2211 803f 96ce 953f 1475 903f
00000210: a94d 7ebf 6706 8a3f 70fa 78bf e136 853f
00000220: eafc 4cbf 4037 82bf c738 c6be cd44 7ebf
00000230: b540 02bf c69c 83bf 45f3 933f 49c5 183f
00000240: e0f5 0d3f 70cf 53bf 8cbf a23f 086f 6f3f
00000250: d9f3 1ebf 8ffb 98bf bb71 3d3f 3cab 6ebf
00000260: 8d32 423f 017b a6bf c11a 3d3f 4cf3 80bf
00000270: cce1 3d3f 7a90 50bf cbae 873f 3870 9ebf
00000280: b315 6bbf cc2a 8c3f 7104 92bf c411 713f
00000290: 819c 6e3f e8a2 d03e 6fb0 2b3f e0d3 613f
000002a0: 5b28 6dbf f02d 69bf bc15 843f 0b64 41bf
000002b0: b116 92bf 2e8d b63e 96b7 0dbf effd 8f3f
000002c0: 7b27 30bf f1fd 2ebf 4fee 64bf d170 7a3f
000002d0: 721e 533f 1937 453f 497f 733f 793b 9bbf
000002e0: 0cb9 963f 9078 7a3f f733 79bf e11b 4dbf
000002f0: 3efd 823f b935 83bf 5115 5b3f b618 6f3f
00000300: 4432 683f 1f30 8e3f eae1 a0bf 895d 8ebf
00000310: 5a15 8dbf 48cd 57bf 646d 69bf 4eb6 593f
00000320: cd6c 1b3f 2d3a a73f 4fdb 56bf ad75 9a3f
00000330: e531 0abe bd6b 7fbf 3c14 923f 6b11 9abf
00000340: 62e6 773f 812b 913f de08 a83e 1a8c 53bf
00000350: 33cd 9c3f 6a45 8cbf 4507 93bf 07f9 943f
00000360: ee54 9fbe 2881 10bf 8a21 003f dba5 8f3f
00000370: 0fd9 1e3f 8ff0 3bbf 70f7 2ebf 15dd 50bf
00000380: d8c2 7e3f d1e2 423f 7f40 a7bf 3e37 a0bf
00000390: 97dc 6b3e a5a0 91bf 8c6f a4bf ef17 8f3f
000003a0: bf8d 5d3f b197 993f fcf4 673f 9398 5a3f
000003b0: 3462 7c3f 7776 99bf f085 af3f 6052 72bf
000003c0: 76e8 883f b0f0 923f 7bae a73f f275 8fbf
000003d0: c74d 71bf 92c5 11bf c920 62bf 5cfe 81bf
000003e0: 7f8b 833f 7c3f 92bf 0fcc 053f a38c 9a3f
000003f0: 5bce 94bf 87b4 673f 0018 9abf 2cd7 8bbf
-0.95472705 -1.236514 0.9744973 -1.0646037 -0.16595252 -1.3514622 -0.5917233 -1.0121546
-0.8917886 1.0387002 -1.0904747 -1.0887684 -1.0459728 0.9889036 -0.91306746 1.3756453
-1.0463395 1.0897896 -1.1128355 -0.8139644 -1.1300002 1.2705028 -1.0238972 1.1515524
1.2004806 0.8199175 0.78849345 0.632234 0.58931166 -1.1079434 1.152099 1.00723
-0.906439 -1.0669627 0.97643155 -1.1076037 1.1875573 1.3006088 -1.1766523 -1.2461075
1.2295461 -0.78620875 -0.15606253 -0.86930656 -0.3838984 0.441695 -1.1681242 0.22144514
0.6611951 -1.2019132 -1.1395097 1.0317671 1.0114005 -1.0201058 -0.9228954 0.9580007
-1.2843391 -1.229512 1.1627412 -1.1696482 -0.56939304 -0.8864856 -1.220157 0.9556805
-1.0257759 0.9430624 -0.4997134 1.2584537 -1.1320645 0.23712167 0.728156 0.72660667
0.9875234 -0.18387137 -1.3211558 -0.62420905 1.447727 1.3237013 -1.0616486 -1.2777793
0.9398983 -0.5390287 -0.88863367 0.8250172 -1.0395204 -0.06758886 0.8916367 0.25859943
-1.3206202 -0.017790692 -1.1321788 0.562324 -0.5318515 1.0080491 1.1914642 0.92662376
0.14533186 -0.9280607 -0.9617604 1.1136941 -0.69410664 -0.0020516326 1.1331037 -1.2432703
-0.20430873 -0.19796965 1.453136 -1.1073878 0.82335013 1.0365802 -0.8296856 1.27166
-0.6295289 0.5342297 1.1326447 1.3292401 0.93528503 0.8479951 1.2589898 -0.91363513
-0.34831527 1.1006052 1.0260805 1.0388951 -0.88602805 -0.5869084 0.91259456 -0.33594745
1.0415772 1.0005229 1.170367 1.128573 -0.9933725 1.0783204 -0.9725714 1.0407373
-0.80073416 -1.0173111 -0.38715193 -0.9932373 -0.50879985 -1.0282218 1.1558615 0.59676033
0.554533 -0.827384 1.2714705 0.93528795 -0.6209083 -1.195177 0.74001664 -0.9323003
0.75858384 -1.3006288 0.7386895 -1.0074248 0.74172664 -0.81470454 1.0600218 -1.2377996
-0.91829985 1.095056 -1.1407605 0.94167733 0.93207556 0.40749288 0.6706609 0.8821392
-0.926397 -0.9108572 1.0319133 -0.7554328 -1.1413175 0.35654587 -0.55358255 1.1249369
-0.6881024 -0.68356234 -0.8942613 0.97828394 0.8246833 0.770372 0.95116097 -1.2127525
1.1775222 0.97840214 -0.9734492 -0.80120665 1.0233533 -1.025077 0.855794 0.9339708
0.907017 1.1108435 -1.2568944 -1.1122295 -1.1022141 -0.8429761 -0.9118254 0.850438
0.6071289 1.3064629 -0.8392839 1.2067162 -0.13495596 -0.9977377 1.1412425 -1.2036566
0.9683591 1.1341401 0.32819265 -0.82635653 1.2250122 -1.0958683 -1.1486593 1.1638497
-0.31119484 -0.56447077 0.50051177 1.122249 0.62049955 -0.7341394 -0.6834631 -0.81587344
0.9951606 0.76127344 -1.3066558 -1.2516859 0.23033367 -1.137715 -1.2846541 1.1179179
0.8654441 1.1999418 0.9060819 0.8538906 0.98587346 -1.1989278 1.371275 -0.94656944
1.0695941 1.1479702 1.3100122 -1.1207869 -0.94259304 -0.56942093 -0.88331276 -1.0155749
1.0276946 -1.1425624 0.52264494 1.2074169 -1.1625475 0.9050984 -1.2038574 -1.092504
