vanilla_models/Cora/5_3f_85/split0/init2/GAT_dp0_5_5e_4_f2.pt (torch, 372919 bytes, 10 tensors)

layer_list.conv1.att_src f4 [1, 8, 8]
0.31173563 -0.37807992 -0.19468154 -0.558246 -0.36454272 0.1601441 -0.28425226 0.08074749
-0.860764 -0.20268103 -0.5187247 -0.641576 -0.36481836 0.32273585 0.29960078 -0.16258231
0.12495035 0.7539017 -0.14069581 0.4985426 -0.69520175 -0.15609306 0.8351024 -0.029721437
0.35855493 0.42575437 -0.4315115 -0.28331587 0.4496076 0.45898324 0.085073784 -0.31544417
0.2380141 0.3595795 -0.2634888 0.38369977 -0.12586132 0.3994618 -0.38305202 0.24810497
-0.20090972 0.75753987 0.054014698 -0.16580473 0.6279481 0.6898318 0.21572103 -0.37921804
0.33330718 -0.7213837 -0.6558673 0.73181456 0.04895836 0.3721392 -0.22318009 0.38582698
-0.12221162 -0.11391255 0.91659 -0.4553246 0.87654376 0.7356255 -0.61665606 1.0423326
00000000: d09b 9f3e b193 c1be 995a 47be 36e9 0ebf
00000010: 58a5 babe d1fc 233e 8389 91be f15e a53d
00000020: 085b 5cbf 9e8b 4fbe 24cb 04bf 533e 24bf
00000030: 79c9 babe a23d a53e 4665 993e fa7b 26be
00000040: f8e5 ff3d b4ff 403f 9012 10be fa40 ff3e
00000050: bef8 31bf dcd6 1fbe 45c9 553f 5f7a f3bc
00000060: 8394 b73e 7afc d93e 13ef dcbe c70e 91be
00000070: f832 e63e daff ea3e 2a3b ae3d e681 a1be
00000080: f8b9 733e ce1a b83e 01e8 86be 4c74 c43e
00000090: cae1 00be 4286 cc3e 651f c4be 3b0f 7e3e
000000a0: 47bb 4dbe 22ee 413f 843e 5d3d b7c8 29be
000000b0: 35c1 203f d198 303f f9e5 5c3e de28 c2be
000000c0: 3da7 aa3e 9aac 38bf ebe6 27bf 3358 3b3f
000000d0: 9088 483d 0789 be3e 5289 64be 1d8b c53e
000000e0: 164a fabd fc4a e9bd a4a5 6a3f 4e20 e9be
000000f0: 2c65 603f f451 3c3f 2cdd 1dbf 286b 853f

layer_list.conv1.att_dst f4 [1, 8, 8]
0.12997702 -0.22915368 -0.04349271 -0.14131236 -0.07838392 0.061302897 -0.04669705 0.04834721
-0.34518504 -0.06793977 -0.07723343 -0.1602545 -0.07459324 0.23171364 -0.026190428 -0.037693005
0.114096716 0.25046837 0.029083215 0.1065943 -0.21674678 0.0065752817 0.23317431 0.015405166
0.2632819 0.14609303 -0.17680454 -0.087271705 0.19831353 0.15927161 -0.054843783 -0.037958227
0.14784901 -0.010609339 -0.018135384 0.16058674 0.05721935 0.052713122 -0.15461561 -0.005293081
-0.030137075 0.18796043 0.009853734 -0.04929002 0.16551946 0.15779833 0.06363843 -0.11553063
0.04309713 -0.22044083 -0.06393785 0.13819328 -0.011041931 -0.0011821381 -0.16538754 0.0655138
0.023697846 -0.049264975 0.19794962 -0.11596819 0.13009933 0.09399955 -0.11249849 0.25709724
00000000: b218 053e 43a7 6abe 6925 32bd 30b4 10be
00000010: c087 a0bd bf18 7b3d 6845 3fbd b907 463d
00000020: 18bc b0be 0224 8bbd 902c 9ebd c119 24be
00000030: 57c4 98bd 5746 6d3e 4f8d d6bc fb63 1abd
00000040: 8aab e93d 643d 803e ec3f ee3c 1d4e da3d
00000050: def2 5dbe 7675 d73b 3fc5 6e3e f365 7c3c
00000060: e3cc 863e 6999 153e 400c 35be 82bb b2bd
00000070: b412 4b3e 1918 233e e0a3 60bd 167a 1bbd
00000080: bb65 173e cbd2 2dbc a890 94bc da70 243e
00000090: d65e 6a3d b7e9 573d 8e53 1ebe 9571 adbb
000000a0: 07e2 f6bc b378 403e 8e71 213c 55e4 49bd
000000b0: ef7d 293e e395 213e dd54 823d 539b ecbd
000000c0: 9e86 303d 3ebb 61be d9f1 82bd 8a82 0d3e
000000d0: 37e9 34bc f9f1 9aba 5a5b 29be 192c 863d
000000e0: fc21 c23c 12ca 49bd 4eb3 4a3e bb80 edbd
000000f0: c238 053e d682 c03d 9c65 e6bd 40a2 833e

layer_list.conv1.bias f4 [64]
0.008723887 0.01155774 0.04705589 -0.004792835 -0.024573602 0.04280043 0.004371729 0.00969819
0.03722576 0.013909351 0.02395467 0.04447763 0.024233183 -0.0015900403 -0.015909307 0.02901236
0.021447377 -0.01308223 0.035477385 0.0071075927 0.020827215 0.0034043936 -0.0046930118 0.045816097
0.022064919 0.014417954 0.0024538552 0.030173616 0.047978293 0.0017306398 -0.039891984 -0.017395496
0.050919376 -0.0048703426 -0.0101360725 -0.0027267213 0.00057622185 0.023627847 -0.0007065854 -0.025832409
0.017229177 -0.014454184 -0.00052412925 0.024971357 0.00014478566 -0.017568998 0.013757201 0.038565055
-0.024963196 0.04393203 0.04517434 -0.02025399 -0.0109856725 -0.009535163 0.023395099 -0.00060315646
0.006078541 0.003851675 0.0034570936 0.018617999 -0.0027221888 -0.004509235 0.03478382 0.01818688
00000000: a2ee 0e3c ad5c 3d3c adbd 403d 370d 9dbb
00000010: 944e c9bc 814f 2f3d b940 8f3b 28e5 1e3c
00000020: 0a7a 183d 0ce4 633c 963c c43c 2d2e 363d
00000030: ab84 c63c e668 d0ba 3c54 82bc 54ab ed3c
00000040: 69b2 af3c da56 56bc bc50 113d cfe6 e83b
00000050: d69d aa3c 3f1c 5f3b d6c7 99bb a9a9 3b3d
00000060: 7dc1 b43c 4839 6c3c dcd0 203b a92e f73c
00000070: e384 443d a3d6 e23a c765 23bd 0081 8ebc
00000080: d690 503d 6597 9fbb c511 26bc cbb2 32bb
00000090: 980d 173a 308f c13c 253a 39ba 7d9e d3bc
000000a0: 3424 8d3c 3ed1 6cbc b865 09ba bb90 cc3c
000000b0: 9bd1 1739 dcec 8fbc e265 613c 64f6 1d3d
000000c0: 9e7f ccbc 13f2 333d bb08 393d b2eb a5bc
000000d0: 40fd 33bc 5f39 1cbc 14a7 bf3c 251d 1eba
000000e0: 7f2e c73b 626c 7c3b 6890 623b c684 983c
000000f0: c066 32bb 34c2 93bb 7b79 0e3d a7fc 943c

layer_list.conv1.lin_src.weight f4 [64, 1433]
0.007988896 0.026925523 -0.123789184 -0.083130024 0.18347856 0.01366447 -0.032244325 0.035268273
-0.012732583 0.043319236 0.031921327 0.0026063463 0.0109047275 0.073640406 0.082765475 -0.019629866
-0.18107869 0.014796253 -0.01227992 0.103828035 -0.031533547 -0.00045827858 -0.03475715 0.005133773
-0.04877657 -0.02665417 0.077334225 -0.0031553141 0.025289975 -0.108830795 -0.045845892 -0.055772826
0.04330809 -0.036347996 0.027946835 0.07576274 -0.042181596 0.00037609803 0.09126986 -0.19281675
0.09150825 -0.07572502 0.056902524 0.012563108 0.096824855 -0.049634203 0.06003629 -0.07445482
0.07328733 -0.07016455 -0.052708887 -0.5322974 -0.015667696 0.02514885 -0.06540123 -0.001781202
-0.19618464 -0.00013900365 -0.12461887 0.05546801 0.02400468 0.16036049 -0.050065972 -0.12774318
0.06651012 -0.05852797 0.03463656 0.17871578 -0.010785988 -0.00995089 -0.06329935 -0.035738304
0.043643437 0.03451632 -0.14044169 0.06525354 -0.0009369064 -0.0787774 -0.038152073 -0.052260317
0.06933195 -0.071843326 0.05044897 0.024820104 0.012705065 0.1633195 -0.08677396 -0.044426903
0.053370543 -0.11471876 0.022122096 0.030553045 0.02594401 0.08534062 -0.09336638 -0.019373417
-0.01423054 -0.019555645 -0.007375308 0.038608138 -0.13361123 0.0095557105 -0.12184901 0.105912305
0.009759577 -0.018153949 0.05305326 -0.06667844 -0.029730057 -0.018357404 -0.005988016 0.017732568
-0.118443154 0.025082294 0.03923688 -0.053332265 -0.017652115 0.009584889 0.09167288 -0.003981872
-0.030152202 0.060653932 -0.115986496 -0.023296492 0.042373024 0.25280067 -0.11741472 -0.045457274
-0.13872258 -0.21061164 0.02897688 -0.115874596 0.17412019 -0.13138968 0.058731265 -0.3914378
0.1341108 -0.026267493 0.027529733 -0.021775607 0.20055407 0.025622882 0.008995087 -0.09351128
-0.059623443 -0.026385397 -0.07027534 0.010340036 0.00613795 0.06759343 0.02681587 0.0071680616
0.043563638 -0.0060439096 0.051723752 -0.07271394 -0.04840124 0.0687808 0.022559132 0.02047882
0.015980957 0.044803765 0.0015805976 0.041613158 0.010767268 -0.084331155 0.019421529 0.14386205
0.21870445 0.05188413 0.028204493 0.06978061 -0.026568495 0.034311935 0.009906484 0.00064761523
-0.050823223 -0.014802946 -0.009155047 -0.022034142 -0.036685035 -0.03478785 0.03963168 0.01783758
-0.014655549 0.058339804 0.08762894 0.24349466 0.016886896 0.013270096 0.018415911 0.16442418
0.121441886 0.07141564 -0.018547015 -0.013852884 0.26905772 0.023690967 0.021078877 0.0038298916
-0.038370714 0.00696316 -0.13090722 -0.03441864 -0.044400916 -0.19876492 0.015854856 -0.035754222
0.099394456 0.03841038 0.015006233 -0.35386726 -0.018015463 0.015500686 0.008694079 0.025209157
-0.002331427 0.043116268 0.078512736 0.00015550894 -0.022139894 0.0945834 -0.04784965 0.012943123
0.083094224 -0.009388215 -0.0061169355 0.020056274 0.08667791 -0.03942319 0.03550157 0.11900708
-0.17489928 0.07428182 0.14263932 0.038730294 0.051950064 -0.15362081 0.110299096 0.015695283
0.02644035 -0.009165425 0.024421247 -0.019603519 0.07600629 -0.10328927 -0.18582816 -0.033282224
0.0992054 0.095116764 -0.0023550738 -0.031756762 -0.09411195 0.013595596 0.0864766 -0.0060666217
00000000: dce3 023c ea92 dc3c 2f85 fdbd 1340 aabd
00000010: cee1 3b3e f1e0 5f3c a012 04bd 7775 103d
00000020: 539c 50bc 836f 313d f0bf 023d 3ccf 2a3b
00000030: bea9 323c c8d0 963d f280 a93d d0ce a0bc
00000040: b16c 39be fc6b 723c b831 49bc cba3 d43d
00000050: 5229 01bd 1c45 f0b9 835d 0ebd 3639 a83b
00000060: f1c9 47bd d959 dabc 6861 9e3d 63c9 4ebb
00000070: ec2c cf3c aee2 debd e7c8 3bbd 0c72 64bd
00000080: d363 313d a3e1 14bd c3f0 e43c 7f29 9b3d
00000090: 9cc6 2cbd 062f c539 b1eb ba3d c171 45be
000000a0: ad68 bb3d b815 9bbd 9f12 693d 7ed5 4d3c
000000b0: 1c4c c63d 3c4d 4bbd 9de8 753d c57b 98bd
000000c0: ab17 963d 6eb2 8fbd 46e5 57bd a444 08bf
000000d0: 8a59 80bc f604 ce3c 14f1 85bd 3977 e9ba
000000e0: a0e4 48be 82c1 11b9 2e38 ffbd 6d32 633d
000000f0: 76a5 c43c 8a35 243e fa11 4dbd 1ccf 02be
00000100: 7536 883d 06bb 6fbd 11df 0d3d 4501 373e
00000110: b6b7 30bc 0f09 23bc 17a3 81bd 5462 12bd
00000120: 76c3 323d fc60 0d3d f2cf 0fbe a6a3 853d
00000130: b99a 75ba 0c56 a1bd 5945 1cbd ea0e 56bd
00000140: e9fd 8d3d 9822 93bd 94a3 4e3d 8853 cb3c
00000150: e828 503c 3a3d 273e 8cb6 b1bd fcf8 35bd
00000160: 129b 5a3d abf1 eabd 6639 b53c 614a fa3c
00000170: 8888 d43c 10c7 ae3d df36 bfbd 00b5 9ebc
00000180: 3627 69bc 2933 a0bc 91ac f1bb 9123 1e3d
00000190: 62d1 08be 8e8f 1c3c f98b f9bd 8de8 d83d
000001a0: a2e6 1f3c 97b7 94bc 604e 593d b58e 88bd
000001b0: 738c f3bc 4462 96bc 1e37 c4bb e443 913c
000001c0: 5392 f2bd 6279 cd3c dab6 203d ef72 5abd
000001d0: 2b9b 90bc f009 1d3c febe bb3d 5d7a 82bb
000001e0: c001 f7bc 4270 783d 548a edbd 49d8 bebc
000001f0: 568f 2d3d 176f 813e 2177 f0bd 6831 3abd
00000200: 4b0d 0ebe 94aa 57be ec60 ed3c a94f edbd
00000210: 904c 323e 048b 06be 3290 703d 896a c8be
00000220: 5754 093e ed2e d7bc 0986 e13c c262 b2bc
00000230: 0c5e 4d3e 14e7 d13c 2160 133c d882 bfbd
00000240: b637 74bd 3026 d8bc 84ec 8fbd 4169 293c
00000250: db20 c93b 6d6e 8a3d f5ac db3c 0fe2 ea3b
00000260: c96f 323d fd0b c6bb 49dc 533d 0ceb 94bd
00000270: 6140 46bd f3dc 8c3d eecd b83c 33c3 a73c
00000280: 7fea 823c 2784 373d 0e2c cf3a 8f72 2a3d
00000290: 3269 303c d0b5 acbd e619 9f3c 9350 133e
000002a0: 0ff4 5f3e 7484 543d 1c0d e73c 23e9 8e3d
000002b0: 2ca6 d9bc ac8a 0c3d ce4e 223c b9c4 293a
000002c0: 032c 50bd 0e88 72bc 0dff 15bc f280 b4bc
000002d0: 0c43 16bd b47d 0ebd d454 223d 1e20 923c
000002e0: d41d 70bc b8f5 6e3d cd76 b33d aa56 793e
000002f0: 6356 8a3c d16a 593c f7dc 963c d05e 283e
00000300: 86b6 f83d 5d42 923d e9ef 97bc 35f7 62bc
00000310: efc1 893e 8f13 c23c 9cad ac3c ebfe 7a3b
00000320: 9c2a 1dbd 382b e43b 8b0c 06be 8ffa 0cbd
00000330: bcdd 35bd 0889 4bbe 0be2 813c 0573 12bd
00000340: 528f cb3d 3454 1d3d b4dc 753c 172e b5be
00000350: 2a95 93bc 97f6 7d3c 9c71 0e3c 6f83 ce3c
00000360: dbca 18bb af9a 303d 49cb a03d 1d10 2339
00000370: b95e b5bc f1b4 c13d fffd 43bd 640f 543c
00000380: 4e2d aa3d 07d1 19bc 9370 c8bb 0e4d a43c
00000390: 3084 b13d 367a 21bd 186a 113d fcb9 f33d
000003a0: cc18 33be 1121 983d 0b10 123e a8a3 1e3d
000003b0: 97c9 543d c64e 1dbe 7ee4 e13d 6593 803c
000003c0: 6f99 d83c 942a 16bc 110f c83c 8f97 a0bc
000003d0: 30a9 9b3d 5389 d3bd bd49 3ebe f152 08bd
000003e0: 332c cb3d 94cc c23d 9557 1abb 6113 02bd
000003f0: c4bd c0bd 10c0 5e3c a51a b13d 83ca c6bb

layer_list.conv1.lin_dst.weight f4 [64, 1433]
0.007988896 0.026925523 -0.123789184 -0.083130024 0.18347856 0.01366447 -0.032244325 0.035268273
-0.012732583 0.043319236 0.031921327 0.0026063463 0.0109047275 0.073640406 0.082765475 -0.019629866
-0.18107869 0.014796253 -0.01227992 0.103828035 -0.031533547 -0.00045827858 -0.03475715 0.005133773
-0.04877657 -0.02665417 0.077334225 -0.0031553141 0.025289975 -0.108830795 -0.045845892 -0.055772826
0.04330809 -0.036347996 0.027946835 0.07576274 -0.042181596 0.00037609803 0.09126986 -0.19281675
0.09150825 -0.07572502 0.056902524 0.012563108 0.096824855 -0.049634203 0.06003629 -0.07445482
0.07328733 -0.07016455 -0.052708887 -0.5322974 -0.015667696 0.02514885 -0.06540123 -0.001781202
-0.19618464 -0.00013900365 -0.12461887 0.05546801 0.02400468 0.16036049 -0.050065972 -0.12774318
0.06651012 -0.05852797 0.03463656 0.17871578 -0.010785988 -0.00995089 -0.06329935 -0.035738304
0.043643437 0.03451632 -0.14044169 0.06525354 -0.0009369064 -0.0787774 -0.038152073 -0.052260317
0.06933195 -0.071843326 0.05044897 0.024820104 0.012705065 0.1633195 -0.08677396 -0.044426903
0.053370543 -0.11471876 0.022122096 0.030553045 0.02594401 0.08534062 -0.09336638 -0.019373417
-0.01423054 -0.019555645 -0.007375308 0.038608138 -0.13361123 0.0095557105 -0.12184901 0.105912305
0.009759577 -0.018153949 0.05305326 -0.06667844 -0.029730057 -0.018357404 -0.005988016 0.017732568
-0.118443154 0.025082294 0.03923688 -0.053332265 -0.017652115 0.009584889 0.09167288 -0.003981872
-0.030152202 0.060653932 -0.115986496 -0.023296492 0.042373024 0.25280067 -0.11741472 -0.045457274
-0.13872258 -0.21061164 0.02897688 -0.115874596 0.17412019 -0.13138968 0.058731265 -0.3914378
0.1341108 -0.026267493 0.027529733 -0.021775607 0.20055407 0.025622882 0.008995087 -0.09351128
-0.059623443 -0.026385397 -0.07027534 0.010340036 0.00613795 0.06759343 0.02681587 0.0071680616
0.043563638 -0.0060439096 0.051723752 -0.07271394 -0.04840124 0.0687808 0.022559132 0.02047882
0.015980957 0.044803765 0.0015805976 0.041613158 0.010767268 -0.084331155 0.019421529 0.14386205
0.21870445 0.05188413 0.028204493 0.06978061 -0.026568495 0.034311935 0.009906484 0.00064761523
-0.050823223 -0.014802946 -0.009155047 -0.022034142 -0.036685035 -0.03478785 0.03963168 0.01783758
-0.014655549 0.058339804 0.08762894 0.24349466 0.016886896 0.013270096 0.018415911 0.16442418
0.121441886 0.07141564 -0.018547015 -0.013852884 0.26905772 0.023690967 0.021078877 0.0038298916
-0.038370714 0.00696316 -0.13090722 -0.03441864 -0.044400916 -0.19876492 0.015854856 -0.035754222
0.099394456 0.03841038 0.015006233 -0.35386726 -0.018015463 0.015500686 0.008694079 0.025209157
-0.002331427 0.043116268 0.078512736 0.00015550894 -0.022139894 0.0945834 -0.04784965 0.012943123
0.083094224 -0.009388215 -0.0061169355 0.020056274 0.08667791 -0.03942319 0.03550157 0.11900708
-0.17489928 0.07428182 0.14263932 0.038730294 0.051950064 -0.15362081 0.110299096 0.015695283
0.02644035 -0.009165425 0.024421247 -0.019603519 0.07600629 -0.10328927 -0.18582816 -0.033282224
0.0992054 0.095116764 -0.0023550738 -0.031756762 -0.09411195 0.013595596 0.0864766 -0.0060666217
00000000: dce3 023c ea92 dc3c 2f85 fdbd 1340 aabd
00000010: cee1 3b3e f1e0 5f3c a012 04bd 7775 103d
00000020: 539c 50bc 836f 313d f0bf 023d 3ccf 2a3b
00000030: bea9 323c c8d0 963d f280 a93d d0ce a0bc
00000040: b16c 39be fc6b 723c b831 49bc cba3 d43d
00000050: 5229 01bd 1c45 f0b9 835d 0ebd 3639 a83b
00000060: f1c9 47bd d959 dabc 6861 9e3d 63c9 4ebb
00000070: ec2c cf3c aee2 debd e7c8 3bbd 0c72 64bd
00000080: d363 313d a3e1 14bd c3f0 e43c 7f29 9b3d
00000090: 9cc6 2cbd 062f c539 b1eb ba3d c171 45be
000000a0: ad68 bb3d b815 9bbd 9f12 693d 7ed5 4d3c
000000b0: 1c4c c63d 3c4d 4bbd 9de8 753d c57b 98bd
000000c0: ab17 963d 6eb2 8fbd 46e5 57bd a444 08bf
000000d0: 8a59 80bc f604 ce3c 14f1 85bd 3977 e9ba
000000e0: a0e4 48be 82c1 11b9 2e38 ffbd 6d32 633d
000000f0: 76a5 c43c 8a35 243e fa11 4dbd 1ccf 02be
00000100: 7536 883d 06bb 6fbd 11df 0d3d 4501 373e
00000110: b6b7 30bc 0f09 23bc 17a3 81bd 5462 12bd
00000120: 76c3 323d fc60 0d3d f2cf 0fbe a6a3 853d
00000130: b99a 75ba 0c56 a1bd 5945 1cbd ea0e 56bd
00000140: e9fd 8d3d 9822 93bd 94a3 4e3d 8853 cb3c
00000150: e828 503c 3a3d 273e 8cb6 b1bd fcf8 35bd
00000160: 129b 5a3d abf1 eabd 6639 b53c 614a fa3c
00000170: 8888 d43c 10c7 ae3d df36 bfbd 00b5 9ebc
00000180: 3627 69bc 2933 a0bc 91ac f1bb 9123 1e3d
00000190: 62d1 08be 8e8f 1c3c f98b f9bd 8de8 d83d
000001a0: a2e6 1f3c 97b7 94bc 604e 593d b58e 88bd
000001b0: 738c f3bc 4462 96bc 1e37 c4bb e443 913c
000001c0: 5392 f2bd 6279 cd3c dab6 203d ef72 5abd
000001d0: 2b9b 90bc f009 1d3c febe bb3d 5d7a 82bb
000001e0: c001 f7bc 4270 783d 548a edbd 49d8 bebc
000001f0: 568f 2d3d 176f 813e 2177 f0bd 6831 3abd
00000200: 4b0d 0ebe 94aa 57be ec60 ed3c a94f edbd
00000210: 904c 323e 048b 06be 3290 703d 896a c8be
00000220: 5754 093e ed2e d7bc 0986 e13c c262 b2bc
00000230: 0c5e 4d3e 14e7 d13c 2160 133c d882 bfbd
00000240: b637 74bd 3026 d8bc 84ec 8fbd 4169 293c
00000250: db20 c93b 6d6e 8a3d f5ac db3c 0fe2 ea3b
00000260: c96f 323d fd0b c6bb 49dc 533d 0ceb 94bd
00000270: 6140 46bd f3dc 8c3d eecd b83c 33c3 a73c
00000280: 7fea 823c 2784 373d 0e2c cf3a 8f72 2a3d
00000290: 3269 303c d0b5 acbd e619 9f3c 9350 133e
000002a0: 0ff4 5f3e 7484 543d 1c0d e73c 23e9 8e3d
000002b0: 2ca6 d9bc ac8a 0c3d ce4e 223c b9c4 293a
000002c0: 032c 50bd 0e88 72bc 0dff 15bc f280 b4bc
000002d0: 0c43 16bd b47d 0ebd d454 223d 1e20 923c
000002e0: d41d 70bc b8f5 6e3d cd76 b33d aa56 793e
000002f0: 6356 8a3c d16a 593c f7dc 963c d05e 283e
00000300: 86b6 f83d 5d42 923d e9ef 97bc 35f7 62bc
00000310: efc1 893e 8f13 c23c 9cad ac3c ebfe 7a3b
00000320: 9c2a 1dbd 382b e43b 8b0c 06be 8ffa 0cbd
00000330: bcdd 35bd 0889 4bbe 0be2 813c 0573 12bd
00000340: 528f cb3d 3454 1d3d b4dc 753c 172e b5be
00000350: 2a95 93bc 97f6 7d3c 9c71 0e3c 6f83 ce3c
00000360: dbca 18bb af9a 303d 49cb a03d 1d10 2339
00000370: b95e b5bc f1b4 c13d fffd 43bd 640f 543c
00000380: 4e2d aa3d 07d1 19bc 9370 c8bb 0e4d a43c
00000390: 3084 b13d 367a 21bd 186a 113d fcb9 f33d
000003a0: cc18 33be 1121 983d 0b10 123e a8a3 1e3d
000003b0: 97c9 543d c64e 1dbe 7ee4 e13d 6593 803c
000003c0: 6f99 d83c 942a 16bc 110f c83c 8f97 a0bc
000003d0: 30a9 9b3d 5389 d3bd bd49 3ebe f152 08bd
000003e0: 332c cb3d 94cc c23d 9557 1abb 6113 02bd
000003f0: c4bd c0bd 10c0 5e3c a51a b13d 83ca c6bb

layer_list.conv2.att_src f4 [1, 1, 7]
0.026896086 0.20018461 0.09864648 0.16157752 0.088999026 0.061910033 0.20021372
00000000: 2e55 dc3c 32fd 4c3e 2a07 ca3d 9474 253e
00000010: 1f45 b63d 6095 7d3d d304 4d3e

layer_list.conv2.att_dst f4 [1, 1, 7]
-0.07937575 0.26170918 0.28563246 -0.10327109 -0.17387357 -0.25772974 0.48242113
00000000: c18f a2bd bffe 853e 6b3e 923e cb7f d3bd
00000010: ea0b 32be 27f5 83be e7ff f63e

layer_list.conv2.bias f4 [7]
-0.23216611 -0.5305355 -0.033138372 0.67844754 0.017296532 -0.41740793 -0.60656965
00000000: f4bc 6dbe 2dd1 07bf 1abc 07bd bdae 2d3f
00000010: 75b1 8d3c 7eb6 d5be 2648 1bbf

layer_list.conv2.lin_src.weight f4 [7, 64]
-1.2589375 0.65981764 -1.0474867 1.1465633 -0.20416175 -0.49932784 1.3176253 -1.2062566
-0.932684 0.8148707 -1.2097936 1.0560788 1.1345898 1.2718408 -1.134891 -1.2467632
0.95354956 0.60094005 1.2241483 1.2904354 -0.7492251 0.52922094 0.98275435 1.2586697
1.271184 0.40547574 -1.1085162 -0.99116194 0.9243078 1.0221211 1.2266477 -0.83529097
-0.95625985 1.2390032 0.8891302 0.7153792 1.128364 0.9966636 -0.7179157 -0.08392898
-0.82887 -0.7414008 1.1838341 1.0424106 -1.2317781 1.2203786 -1.276841 -0.99200857
-1.3169076 -1.2539183 -0.29127207 1.183549 -1.1556888 -1.1641184 -0.86160904 -1.3957758
0.122841984 0.5284973 0.91305953 0.9434752 -1.1663866 1.0485315 -1.0492119 -1.3205339
0.803794 -1.2751083 -1.1729659 -1.1416926 -1.2400067 1.1544648 -1.1935195 -0.9425782
-1.2861114 -1.255505 0.7785207 -1.3953345 0.89596945 0.7868968 0.28846088 0.7161176
0.20140772 0.9374759 -1.3863066 -0.9420484 -1.0064075 -1.019749 0.6260839 0.9748239
-1.3929093 -1.1245888 -0.63408 -0.50901914 -1.1245836 0.5946214 1.1421473 1.2355012
-0.80521476 0.83420664 0.99097943 0.83833224 0.19263837 -1.048314 1.1021439 -0.7613063
1.0798928 1.185786 -0.6330684 -0.30876833 0.4148458 -0.44766605 -0.076023646 -1.0695173
0.5861759 1.4306875 -0.33418244 -0.97401845 -0.82814044 -0.66188145 -0.13477576 0.7117755
0.764292 -1.2292497 1.2937055 -1.2741623 1.135391 0.9323016 -1.1878093 1.0164135
0.7924697 -1.0790927 1.1450242 -1.0726411 -0.7394687 -1.0224068 -0.88403296 0.8850854
-1.050838 -1.0837636 -1.0740612 -1.0839341 -1.1056118 -0.8785318 1.0024472 -1.1421517
-1.1409808 0.6422224 -0.99677104 0.9860668 -0.7750872 0.5433598 0.90796393 -1.1244726
-1.1765387 -0.7541061 1.124342 0.87038225 -0.584774 -0.9819803 0.99011964 -1.077309
0.7662833 1.0799441 -0.9207473 0.42916584 -1.1291006 0.870835 -1.0457989 0.95068216
-0.9626067 -0.88471246 0.915728 -1.0840818 0.18095659 -1.1859386 0.9346406 1.0727097
0.9859474 -1.0743207 -1.1343172 1.1508384 0.80391574 1.0183036 0.49099708 1.0041724
-1.1060854 0.98502344 1.0159928 0.6331389 1.0090789 0.8204439 -0.8859685 0.9885338
0.9152607 -0.9538076 -1.1032444 -0.38517794 0.8105747 1.0976933 0.9497347 0.74563986
1.3732363 -0.7879906 0.8521246 -0.4153345 -0.18606082 -1.2955163 0.6643519 0.19326492
-0.93796396 -1.3410038 -1.1810983 -1.0051435 1.0337571 1.032092 -1.20896 -1.1512371
1.1030842 0.9972005 -0.9587033 1.1397271 0.85903907 0.9047302 -1.3604294 -0.4344974
1.2407519 -1.2248826 -0.37690806 0.6143058 -0.043421835 -1.2344918 -0.89259183 0.9511846
1.043877 -1.2440875 -1.1299491 0.8488281 -1.2272424 -1.2201487 -1.0767823 1.0227286
-1.2767929 0.71451354 1.0654857 -1.1004034 1.2897754 -1.1101177 1.1055734 -1.2692603
-0.69550556 -0.3111717 -1.2005986 0.6719056 0.15068837 -0.4481958 1.0274719 -1.2612416
00000000: dd24 a1bf cfe9 283f 0b14 86bf 96c2 923f
00000010: c70f 51be e6a7 ffbe f2a7 a83f 9e66 9abf
00000020: 61c4 6ebf 5e9b 503f 84da 9abf 972d 873f
00000030: 3d3a 913f aecb a23f 1c44 91bf f095 9fbf
00000040: d31b 743f 35d7 193f e4b0 9c3f fd2c a53f
00000050: 37cd 3fbf 067b 073f ca95 7b3f 171c a13f
00000060: 28b6 a23f 849a cf3e dce3 8dbf cabc 7dbf
00000070: 709f 6c3f ddd4 823f cb02 9d3f a1d5 55bf
00000080: 72cd 74bf a897 9e3f 099e 633f 1723 373f
00000090: 3b6e 903f 5825 7f3f 53c9 37bf f5e2 abbd
000000a0: d330 54bf 71cc 3dbf e087 973f b66d 853f
000000b0: e8aa 9dbf 5e35 9c3f 876f a3bf 46f4 7dbf
000000c0: 6e90 a8bf 6580 a0bf 9d21 95be 897e 973f
000000d0: 9ced 93bf d501 95bf 6992 5cbf c8a8 b2bf
000000e0: 9494 fb3d 994b 073f 45be 693f 9787 713f
000000f0: 284c 95bf 4836 863f 934c 86bf 4107 a9bf
00000100: 72c5 4d3f c036 a3bf bf23 96bf fc22 92bf
00000110: 8ab8 9ebf 81c5 933f 3fc5 98bf ce4c 71bf
00000120: 4c9f a4bf 63b4 a0bf 224d 473f 529a b2bf
00000130: 415e 653f 1272 493f 25b1 933e 7c53 373f
00000140: d33d 4e3e 6cfe 6f3f 7f72 b1bf 152a 71bf
00000150: f6d1 80bf 2387 82bf 0947 203f 0f8e 793f
00000160: da4a b2bf 87f2 8fbf 1153 22bf 144f 02bf
00000170: 5bf2 8fbf 1c39 183f e231 923f e724 9e3f
00000180: 8e22 4ebf 918e 553f d4b0 7d3f f19c 563f
00000190: fe42 453e 272f 86bf 0d13 8d3f f8e4 42bf
000001a0: ed39 8a3f d6c7 973f c510 22bf e216 9ebe
000001b0: ab66 d43e 7c34 e5be 49b2 9bbd f1e5 88bf
000001c0: a00f 163f c520 b73f f619 abbe 4659 79bf
000001d0: 0301 54bf 1071 29bf a802 0abe eb36 363f
000001e0: a4a8 433f 0e58 9dbf 2498 a53f c017 a3bf
000001f0: 7e54 913f 51ab 6e3f 230a 98bf d619 823f
00000200: 4bdf 4a3f b61f 8abf 2790 923f 4e4c 89bf
00000210: d24d 3dbf 3ade 82bf fc4f 62bf f594 623f
00000220: dc81 86bf c4b8 8abf d67a 89bf 5abe 8abf
00000230: b084 8dbf 76e7 60bf 3150 803f 0732 92bf
00000240: a90b 92bf b068 243f 632c 7fbf e06e 7c3f
00000250: 1d6c 46bf a119 0b3f 5370 683f b8ee 8fbf
00000260: d298 96bf 190d 41bf 70ea 8f3f 5fd1 5e3f
00000270: c0b3 15bf 1063 7bbf 7b78 7d3f 43e5 89bf
00000280: 242b 443f 9c3b 8a3f 18b6 6bbf a0bb db3e
00000290: 5e86 90bf 0bef 5e3f bddc 85bf e85f 733f
000002a0: 656d 76bf 847c 62bf 266d 6a3f 31c3 8abf
000002b0: af4c 393e d6cc 97bf 9b44 6f3f 8d4e 893f
000002c0: 0c67 7c3f 5783 89bf 4e31 91bf ac4e 933f
000002d0: 6ccd 4d3f c657 823f f863 fb3e b988 803f
000002e0: 3594 8dbf 7f2a 7c3f 0d0c 823f 6415 223f
000002f0: 7f29 813f 9d08 523f d5ce 62bf 8d10 7d3f
00000300: 864e 6a3f bc2c 74bf 1d37 8dbf 0b36 c5be
00000310: d381 4f3f 3781 8c3f d021 733f 41e2 3e3f
00000320: 35c6 af3f c1b9 49bf d624 5a3f b9a6 d4be
00000330: ba86 3ebe 7ad3 a5bf f712 2a3f 3de7 453e
00000340: 681e 70bf 03a6 abbf 3b2e 97bf 8ba8 80bf
00000350: 2752 843f 971b 843f 34bf 9abf bd5b 93bf
00000360: dd31 8d3f 8848 7f3f 946d 75bf 94e2 913f
00000370: fce9 5b3f 669c 673f 8d22 aebf 7176 debe
00000380: f5d0 9e3f f4c8 9cbf 18fa c0be 2543 1d3f
00000390: 18db 31bd d403 9ebf e680 64bf d580 733f
000003a0: c39d 853f 423e 9fbf 2ca2 90bf cc4c 593f
000003b0: 4716 9dbf d52d 9cbf 01d4 89bf c5e8 823f
000003c0: f36d a3bf 5cea 363f d661 883f 05da 8cbf
000003d0: 5c17 a53f 5618 8ebf 6e83 8d3f 1f77 a2bf
000003e0: a70c 32bf e651 9fbe 37ad 99bf 0102 2c3f
000003f0: 0d4e 1a3e eb79 e5be 3384 833f 5d70 a1bf

layer_list.conv2.lin_dst.weight f4 [7, 64]
-1.2589375 0.65981764 -1.0474867 1.1465633 -0.20416175 -0.49932784 1.3176253 -1.2062566
-0.932684 0.8148707 -1.2097936 1.0560788 1.1345898 1.2718408 -1.134891 -1.2467632
0.95354956 0.60094005 1.2241483 1.2904354 -0.7492251 0.52922094 0.98275435 1.2586697
1.271184 0.40547574 -1.1085162 -0.99116194 0.9243078 1.0221211 1.2266477 -0.83529097
-0.95625985 1.2390032 0.8891302 0.7153792 1.128364 0.9966636 -0.7179157 -0.08392898
-0.82887 -0.7414008 1.1838341 1.0424106 -1.2317781 1.2203786 -1.276841 -0.99200857
-1.3169076 -1.2539183 -0.29127207 1.183549 -1.1556888 -1.1641184 -0.86160904 -1.3957758
0.122841984 0.5284973 0.91305953 0.9434752 -1.1663866 1.0485315 -1.0492119 -1.3205339
0.803794 -1.2751083 -1.1729659 -1.1416926 -1.2400067 1.1544648 -1.1935195 -0.9425782
-1.2861114 -1.255505 0.7785207 -1.3953345 0.89596945 0.7868968 0.28846088 0.7161176
0.20140772 0.9374759 -1.3863066 -0.9420484 -1.0064075 -1.019749 0.6260839 0.9748239
-1.3929093 -1.1245888 -0.63408 -0.50901914 -1.1245836 0.5946214 1.1421473 1.2355012
-0.80521476 0.83420664 0.99097943 0.83833224 0.19263837 -1.048314 1.1021439 -0.7613063
1.0798928 1.185786 -0.6330684 -0.30876833 0.4148458 -0.44766605 -0.076023646 -1.0695173
0.5861759 1.4306875 -0.33418244 -0.97401845 -0.82814044 -0.66188145 -0.13477576 0.7117755
0.764292 -1.2292497 1.2937055 -1.2741623 1.135391 0.9323016 -1.1878093 1.0164135
0.7924697 -1.0790927 1.1450242 -1.0726411 -0.7394687 -1.0224068 -0.88403296 0.8850854
-1.050838 -1.0837636 -1.0740612 -1.0839341 -1.1056118 -0.8785318 1.0024472 -1.1421517
-1.1409808 0.6422224 -0.99677104 0.9860668 -0.7750872 0.5433598 0.90796393 -1.1244726
-1.1765387 -0.7541061 1.124342 0.87038225 -0.584774 -0.9819803 0.99011964 -1.077309
0.7662833 1.0799441 -0.9207473 0.42916584 -1.1291006 0.870835 -1.0457989 0.95068216
-0.9626067 -0.88471246 0.915728 -1.0840818 0.18095659 -1.1859386 0.9346406 1.0727097
0.9859474 -1.0743207 -1.1343172 1.1508384 0.80391574 1.0183036 0.49099708 1.0041724
-1.1060854 0.98502344 1.0159928 0.6331389 1.0090789 0.8204439 -0.8859685 0.9885338
0.9152607 -0.9538076 -1.1032444 -0.38517794 0.8105747 1.0976933 0.9497347 0.74563986
1.3732363 -0.7879906 0.8521246 -0.4153345 -0.18606082 -1.2955163 0.6643519 0.19326492
-0.93796396 -1.3410038 -1.1810983 -1.0051435 1.0337571 1.032092 -1.20896 -1.1512371
1.1030842 0.9972005 -0.9587033 1.1397271 0.85903907 0.9047302 -1.3604294 -0.4344974
1.2407519 -1.2248826 -0.37690806 0.6143058 -0.043421835 -1.2344918 -0.89259183 0.9511846
1.043877 -1.2440875 -1.1299491 0.8488281 -1.2272424 -1.2201487 -1.0767823 1.0227286
-1.2767929 0.71451354 1.0654857 -1.1004034 1.2897754 -1.1101177 1.1055734 -1.2692603
-0.69550556 -0.3111717 -1.2005986 0.6719056 0.15068837 -0.4481958 1.0274719 -1.2612416
00000000: dd24 a1bf cfe9 283f 0b14 86bf 96c2 923f
00000010: c70f 51be e6a7 ffbe f2a7 a83f 9e66 9abf
00000020: 61c4 6ebf 5e9b 503f 84da 9abf 972d 873f
00000030: 3d3a 913f aecb a23f 1c44 91bf f095 9fbf
00000040: d31b 743f 35d7 193f e4b0 9c3f fd2c a53f
00000050: 37cd 3fbf 067b 073f ca95 7b3f 171c a13f
00000060: 28b6 a23f 849a cf3e dce3 8dbf cabc 7dbf
00000070: 709f 6c3f ddd4 823f cb02 9d3f a1d5 55bf
00000080: 72cd 74bf a897 9e3f 099e 633f 1723 373f
00000090: 3b6e 903f 5825 7f3f 53c9 37bf f5e2 abbd
000000a0: d330 54bf 71cc 3dbf e087 973f b66d 853f
000000b0: e8aa 9dbf 5e35 9c3f 876f a3bf 46f4 7dbf
000000c0: 6e90 a8bf 6580 a0bf 9d21 95be 897e 973f
000000d0: 9ced 93bf d501 95bf 6992 5cbf c8a8 b2bf
000000e0: 9494 fb3d 994b 073f 45be 693f 9787 713f
000000f0: 284c 95bf 4836 863f 934c 86bf 4107 a9bf
00000100: 72c5 4d3f c036 a3bf bf23 96bf fc22 92bf
00000110: 8ab8 9ebf 81c5 933f 3fc5 98bf ce4c 71bf
00000120: 4c9f a4bf 63b4 a0bf 224d 473f 529a b2bf
00000130: 415e 653f 1272 493f 25b1 933e 7c53 373f
00000140: d33d 4e3e 6cfe 6f3f 7f72 b1bf 152a 71bf
00000150: f6d1 80bf 2387 82bf 0947 203f 0f8e 793f
00000160: da4a b2bf 87f2 8fbf 1153 22bf 144f 02bf
00000170: 5bf2 8fbf 1c39 183f e231 923f e724 9e3f
00000180: 8e22 4ebf 918e 553f d4b0 7d3f f19c 563f
00000190: fe42 453e 272f 86bf 0d13 8d3f f8e4 42bf
000001a0: ed39 8a3f d6c7 973f c510 22bf e216 9ebe
000001b0: ab66 d43e 7c34 e5be 49b2 9bbd f1e5 88bf
000001c0: a00f 163f c520 b73f f619 abbe 4659 79bf
000001d0: 0301 54bf 1071 29bf a802 0abe eb36 363f
000001e0: a4a8 433f 0e58 9dbf 2498 a53f c017 a3bf
000001f0: 7e54 913f 51ab 6e3f 230a 98bf d619 823f
00000200: 4bdf 4a3f b61f 8abf 2790 923f 4e4c 89bf
00000210: d24d 3dbf 3ade 82bf fc4f 62bf f594 623f
00000220: dc81 86bf c4b8 8abf d67a 89bf 5abe 8abf
00000230: b084 8dbf 76e7 60bf 3150 803f 0732 92bf
00000240: a90b 92bf b068 243f 632c 7fbf e06e 7c3f
00000250: 1d6c 46bf a119 0b3f 5370 683f b8ee 8fbf
00000260: d298 96bf 190d 41bf 70ea 8f3f 5fd1 5e3f
00000270: c0b3 15bf 1063 7bbf 7b78 7d3f 43e5 89bf
00000280: 242b 443f 9c3b 8a3f 18b6 6bbf a0bb db3e
00000290: 5e86 90bf 0bef 5e3f bddc 85bf e85f 733f
000002a0: 656d 76bf 847c 62bf 266d 6a3f 31c3 8abf
000002b0: af4c 393e d6cc 97bf 9b44 6f3f 8d4e 893f
000002c0: 0c67 7c3f 5783 89bf 4e31 91bf ac4e 933f
000002d0: 6ccd 4d3f c657 823f f863 fb3e b988 803f
000002e0: 3594 8dbf 7f2a 7c3f 0d0c 823f 6415 223f
000002f0: 7f29 813f 9d08 523f d5ce 62bf 8d10 7d3f
00000300: 864e 6a3f bc2c 74bf 1d37 8dbf 0b36 c5be
00000310: d381 4f3f 3781 8c3f d021 733f 41e2 3e3f
00000320: 35c6 af3f c1b9 49bf d624 5a3f b9a6 d4be
00000330: ba86 3ebe 7ad3 a5bf f712 2a3f 3de7 453e
00000340: 681e 70bf 03a6 abbf 3b2e 97bf 8ba8 80bf
00000350: 2752 843f 971b 843f 34bf 9abf bd5b 93bf
00000360: dd31 8d3f 8848 7f3f 946d 75bf 94e2 913f
00000370: fce9 5b3f 669c 673f 8d22 aebf 7176 debe
00000380: f5d0 9e3f f4c8 9cbf 18fa c0be 2543 1d3f
00000390: 18db 31bd d403 9ebf e680 64bf d580 733f
000003a0: c39d 853f 423e 9fbf 2ca2 90bf cc4c 593f
000003b0: 4716 9dbf d52d 9cbf 01d4 89bf c5e8 823f
000003c0: f36d a3bf 5cea 363f d661 883f 05da 8cbf
000003d0: 5c17 a53f 5618 8ebf 6e83 8d3f 1f77 a2bf
000003e0: a70c 32bf e651 9fbe 37ad 99bf 0102 2c3f
000003f0: 0d4e 1a3e eb79 e5be 3384 833f 5d70 a1bf
