vanilla_models/Cora/5_3f_85/split4/init1/GAT_dp0_5_5e_4_f2.pt (torch, 372919 bytes, 10 tensors)

layer_list.conv1.att_src f4 [1, 8, 8]
00000000: f490 33bf d8e0 b73d 03fa fd3e 2ca6 78be
00000010: 00d9 03be 2f9d 26bf 2558 97be 116b b1bc
00000020: 1c9e e0be 76d0 d93e d5ab 2b3f 3d2b d23e
00000030: c39d a9be 4d41 113f cfdd 15bf 4d6a d1bc
00000040: b716 4ebe 2d30 1a3f 1dba 61be 3759 afbe
00000050: 2f94 e33e c564 e23e d3d9 40be 39fc 053f
00000060: c45e 73bf 1b63 f1bc 37eb 193f 5c32 853f
00000070: 1cbe 8abe ff7a ab3e 2e6d 25bf 3578 913f
00000080: 855c 40be 351e 37bf 669b 41bf d600 e63d
00000090: 7279 cc3e 843d 963e ae3e ab3e e997 04bd
000000a0: f378 123f 4513 1d3f 721c 22bf 431f cf3e
000000b0: 0c1b 403f 1428 e73e 3a02 55bf dde9 cdbe
000000c0: 8d30 09be b179 35bf 2a6d 6a3f cba8 6e3f
000000d0: 7673 5fbe d9f9 983f 78fc 143f 25f0 a1bd
000000e0: 5989 823e 763e e1be 5c73 13bd fbcc e1be
000000f0: e8ae 12bf 6486 b3bd ea49 8b3e 79d7 db3e
-0.70143056 0.089784324 0.49604806 -0.2428214 -0.12875748 -0.65083593 -0.29559436 -0.021657499
-0.43870628 0.42541856 0.6705907 0.41048613 -0.33128175 0.56740266 -0.5854158 -0.025563383
-0.20125853 0.6022976 -0.22043653 -0.34247753 0.44448993 0.44217506 -0.18833093 0.52337986
-0.95066476 -0.029466202 0.60124534 1.0405993 -0.27098167 0.33492276 -0.6461972 1.1364809
-0.18785293 -0.7153047 -0.75627744 0.11230628 0.39936405 0.29343808 0.33446258 -0.032371435
0.57215804 0.6135753 -0.63324654 0.40453538 0.7504127 0.45147765 -0.8320652 -0.40217486
-0.13397427 -0.7088881 0.9157282 0.9322631 -0.21821389 1.1951247 0.58197737 -0.07907132
0.25495413 -0.43992966 -0.035998687 -0.441017 -0.57298136 -0.08765867 0.2720483 0.4293783

layer_list.conv1.att_dst f4 [1, 8, 8]
00000000: 191a cbbd 0023 223d 9b94 233e 9c9f f93d
00000010: 42c9 b7bd ceb5 8dbd 9570 33be 8c71 debd
00000020: e508 793d 1c24 14bd f67d 5c3e 0567 d83d
00000030: 80ff 6cbe 2989 203e 9ae7 52be 28b0 513e
00000040: b2d5 20be 1d71 773e 7cff 3e3d c2f6 29be
00000050: 63e5 423e 3e81 6e3e dedc 0abe 2ae9 7b3e
00000060: fce9 81be 89d9 a43c 4c20 163e 4e46 453e
00000070: a278 5abd 36d9 a53d 7654 51be 1493 903e
00000080: 8d3c 243d cb50 1dbe 3286 30be 5231 8cbd
00000090: 4e17 b83d 2955 90bb bcbe af3c 3782 9b3d
000000a0: 83e3 f43d 7b1a ae3d 06e8 40be 03af 773d
000000b0: af8f 223e ce77 543d 47b6 7fbe 3fc2 b0bd
000000c0: e1fc eebb 31dc 35be bce2 113e fe1e e53d
000000d0: 07ca 72bd ceec 6d3e 7a89 1b3e 4ceb fabd
000000e0: a045 f73b c1c5 c6bd 0554 6d3d 4d1e 22be
000000f0: 8cbb 34be 297a 243d 80c3 213e 3886 bc3d
-0.09917087 0.03958416 0.15974657 0.12188646 -0.08973934 -0.06919442 -0.17523415 -0.10861501
0.060799498 -0.03616725 0.21532425 0.105665244 -0.2314434 0.15677322 -0.20596161 0.20477355
-0.15706518 0.24164243 0.046630368 -0.16598037 0.19032817 0.2329149 -0.13560817 0.24600664
-0.25373828 0.02012326 0.14660758 0.192651 -0.0533377 0.0809807 -0.20442376 0.28237212
0.04009681 -0.15362851 -0.17238691 -0.068453446 0.0898882 -0.004404683 0.021453254 0.07593196
0.11957457 0.085011445 -0.1883851 0.06046964 0.15875123 0.051872067 -0.24971877 -0.086307995
-0.007293329 -0.17759778 0.14246649 0.11187552 -0.0592747 0.23234865 0.15189162 -0.122519106
0.0075461417 -0.09705687 0.057941455 -0.15831871 -0.17649668 0.040155564 0.15797234 0.09205288

layer_list.conv1.bias f4 [64]
00000000: 080d 823d 16e7 5fbc 010b 01bd 6fea 62bb
00000010: 4077 233d 1e6a 6d3b 6845 a93c a999 223d
00000020: 5d01 b2bb c0fc e33b a505 16bc 1a9f 09bd
00000030: 88f9 613d 7546 803c 2f2e 4d3d b8cc fc3b
00000040: c4a4 563c 7293 b0bc c7ed ac3c a18f d43c
00000050: 16c1 00bc 0802 33bc de0b 4b3d 1b67 ff3b
00000060: f38a e73c fa83 dcbb 21b3 8b3c 5347 a23c
00000070: 6d1a df3b 31ca 083d fab4 63bc 558c 143c
00000080: 4f1d d33c 2e2f c63c cb0a 2c3d 3d68 553c
00000090: 73a2 223d 273e 37bc aeeb 113d 6e7a 87bc
000000a0: e5ee bcbc 5766 06bd f0ac be3c 00c1 e0bc
000000b0: 5b84 bc3b 36b6 aab9 4bde c73c 9a42 873d
000000c0: 035f 013c 0365 ae3c 5b15 fc3b 41a6 d03a
000000d0: 5837 f33c bbcd 5e3c 9376 babb 1551 e73c
000000e0: 0aad 4b3d 59cd 213d 9c59 0d3d 5e05 d03c
000000f0: 6d4a 183c b58f 8b3c 48e3 90bc 1578 073d
0.06350142 -0.013665935 -0.031504635 -0.0034624597 0.039908648 0.003622658 0.020662978 0.039697323
-0.0054322914 0.0069576204 -0.009156619 -0.033598997 0.055169612 0.015658597 0.050092872 0.007714834
0.013100807 -0.021554682 0.021109475 0.025947394 -0.007858535 -0.010925777 0.049571864 0.0077942736
0.028264498 -0.0067296 0.017053189 0.0198094 0.00680857 0.03339595 -0.013898129 0.009066661
0.025770811 0.024192419 0.04200248 0.013025341 0.039705705 -0.011184252 0.035625152 -0.016537871
-0.023063133 -0.032812443 0.023275822 -0.02743578 0.0057530827 -0.00032560684 0.02439799 0.066045
0.007896188 0.0212884 0.0076929755 0.0015918688 0.029689476 0.013598855 -0.0056904047 0.028236905
0.04972557 0.039502475 0.034509286 0.025393184 0.009295088 0.017036298 -0.017686501 0.033073504

layer_list.conv1.lin_src.weight f4 [64, 1433]
00000000: 9071 9c3c 34a0 a7bd e7f1 503d 1f80 edbd
00000010: 9b36 a43e f982 98bd a3b7 42bd 5a10 8dbd
00000020: 2d70 383e c0f6 98bc 1e00 04bd 69bc 5d3d
00000030: ff25 a5bd 5cb3 d9bc a554 783c 9669 df3c
00000040: 0596 623d 2335 61bd 542b f93c 3a7a c03e
00000050: cf24 043c 4100 0cbe d2cb 303b c55d 2d3d
00000060: e0c3 103d 4f49 783c f74b fc3c 5e3f 9bbc
00000070: 4815 363c 614f aebd e5c1 0dbe b0f4 23bb
00000080: 630c 123c c8f7 523d bfde abbd 63d1 4c39
00000090: 9db2 a83c febe 16bc 435f 14bd 08b5 abbb
000000a0: 1be2 a93d b80f b83d 7bc7 03bd 1256 8e3d
000000b0: 2b2b 1ebe b401 33be 7dfc 10bc 483b 13be
000000c0: d163 f03c a576 a0bb 0aea e8bd 2aab 7d3e
000000d0: 71ca 00bd b0ae d1bb e916 d13b 5536 0c3d
000000e0: 8527 90bd b87d a2bd f6ad 333e eb1a 4fbd
000000f0: eafa 80bd 43b7 883e 83b6 07bb 50d5 cbbc
00000100: d7c1 083d 3368 1dbe b4f4 00bd e379 8f3d
00000110: d077 e13b d555 953c 4b7d 14bb b1d9 89bc
00000120: 273f b93c 7919 803c 39a5 b2bd dea1 db3b
00000130: 24f8 0abe 526a 8a3d e7d0 b53c fa04 963b
00000140: 5231 333d 519b 57be de33 1c3b 9b3d 6a3a
00000150: 4284 993b bc6e 613d 9cfa 2b3e 7908 8d3d
00000160: b4c6 483e 7466 c43d 2d6c 7d3b 47b3 1e3d
00000170: 10d6 dabc 3880 223d bed7 91bd c32a b23c
00000180: 6819 83bd 8a61 653b 66e6 fabd f555 76bc
00000190: abbd 1b3d 0326 7aba e8ae 153d fb96 5e3d
000001a0: d58b 5d3c 790f 223c 4b00 a8bc a559 283d
000001b0: e43b 98bd 002b 4f3d 1971 76bd 8778 82bc
000001c0: d925 e7bd 534c 4639 9996 13bc 7b87 c8bb
000001d0: db5c 56bb 4803 90bb 1106 1dbd e549 4dbc
000001e0: d03c 0b3d e69a 55bd dad1 12be 8984 183e
000001f0: 4b4b 2c3d ed6f e5bc 031f 15be 75f4 a13d
00000200: 7a48 4dbc 56ad a33d 84e5 bf3d 1db2 073e
00000210: 85ea 14be ff9e 4e3e d2ec 723d e1a7 913d
00000220: dd7c 20bc 7387 b2bd af54 b63c ed71 113c
00000230: 1855 39be 5b4b 7b3c fb0f acbd d554 113e
00000240: 682e 083d 6198 193c fb45 b33c ec85 0ebe
00000250: 3070 1cbd f84e 973b dc17 b33d 48ff a63d
00000260: 5fcf 8fbb 3ce3 653d e5ab 0abd 10e0 a5bb
00000270: e715 773d 3f21 79bc 0f07 13bc 16e8 1bbc
00000280: ab6c e93b 7b26 02bd 6a2a d83d 0fe4 9dbb
00000290: 0c2e 7fbc 4ae1 fabc a562 2abb df7f f63d
000002a0: c3ec 06bc d3a4 183d 19b7 e7bb f700 083d
000002b0: 240b 8f3d 8c68 353d 260c 21bd ec73 88bd
000002c0: 2be4 913e 07e7 383d 0d42 b63b b2e5 723b
000002d0: 2bd9 bb3c 12af 803b d2dc bb3d ffe1 8a3a
000002e0: 0413 4d3b 0221 783c 266c 4fbb f6e8 81be
000002f0: c6b3 c9bc 46c4 663a 24e5 3c3c d90d 58bd
00000300: 0dfc 773d e2f6 e9ba 0f01 5abd f0ae b13d
00000310: 77aa 723d 7fdc 88bc ec29 603c 4f84 1cbc
00000320: 869b 20bd 30b1 b2bb 5967 0e3d deb1 dbbd
00000330: de01 863d 7f5c a0bd 3357 0e3c 4463 bd3d
00000340: 8c4b 0a3d f499 5b3a 4edd 8a3d ed81 3abd
00000350: e13c 26bd e4ad 78be 250a 1dbd 21fc adbc
00000360: e517 b73c 66a5 6e3c 60b1 2e3b 4455 24bd
00000370: d24d 83bb 2fe3 fa3b fea4 763d 12e6 67bc
00000380: 8c19 fcbd b584 403d 169e a83d 1b57 41bc
00000390: 7937 0e3d e97b 8bbc 86ae f83c 3fcc 1b3e
000003a0: fb08 c938 114e 653d 9da1 bd3d f3ce 92ba
000003b0: 74d9 fd3c 65fd 26bd d95d 303e c687 af3c
000003c0: 39b4 1dbb e83c acbd 0f9d 703c ad53 9e3c
000003d0: 9ba8 2a3d af7f 73bd 8ae4 d13d 35e8 00be
000003e0: 9a6b 443d d5ef 473c ee87 81bd 908f 233c
000003f0: 2df4 f1bd b22b 9aba 3bf5 383d 7f04 c8bb
0.01909712 -0.08184853 0.051011946 -0.11596703 0.3207291 -0.07446856 -0.04753841 -0.068878844
0.18011542 -0.018672347 -0.032226674 0.05413476 -0.08063888 -0.026574783 0.0151569 0.027272027
0.05531885 -0.054982316 0.030416168 0.3759325 0.0080654165 -0.13671972 0.0026976955 0.042325754
0.03534305 0.015154197 0.030797942 -0.018951114 0.011113472 -0.08511234 -0.13843496 -0.0025017671
0.008914086 0.051505834 -0.08392095 0.00019532959 0.020592982 -0.0092008095 -0.03622366 -0.0052400865
0.08295079 0.08987373 -0.03217266 0.0695001 -0.15446155 -0.17481118 -0.00884926 -0.14378083
0.029344471 -0.004896956 -0.113727644 0.24772325 -0.031443063 -0.006398998 0.006380905 0.034231503
-0.07038788 -0.07934135 0.1754683 -0.05056278 -0.06297858 0.26702318 -0.002070815 -0.024881989
0.033387985 -0.1537178 -0.031483367 0.0700567 0.006880738 0.018229404 -0.0022657688 -0.016827436
0.022613121 0.015637146 -0.0872292 0.0067026457 -0.1357122 0.0675856 0.022194339 0.00457823
0.043748207 -0.21055342 0.0023834626 0.00089355715 0.004684956 0.055037245 0.16794819 0.06886382
0.19607049 0.09589854 0.0038669214 0.03874519 -0.026713401 0.03967306 -0.07121228 0.021748906
-0.0640133 0.0035000765 -0.12250976 -0.015035142 0.03802268 -0.00095424074 0.036543757 0.054343205
0.013522108 0.009891384 -0.020507952 0.041101117 -0.07433298 0.050578117 -0.060166452 -0.015926613
-0.11286516 0.00018911184 -0.009008073 -0.006119666 -0.0032709155 -0.0043949224 -0.038335864 -0.012529825
0.033993542 -0.052149676 -0.14337865 0.14894308 0.042063992 -0.028007472 -0.14562611 0.079079546
-0.012529487 0.079920456 0.093699485 0.13251539 -0.14542587 0.2017784 0.05930788 0.071120985
-0.009795395 -0.08717241 0.022257177 0.00887726 -0.18098867 0.01533779 -0.084014855 0.14192517
0.03324738 0.009374709 0.021883955 -0.13918275 -0.038192928 0.004617568 0.08744785 0.0815416
-0.004388734 0.05612491 -0.033855338 -0.0050621107 0.060323622 -0.01520568 -0.008973851 -0.009515783
0.00712355 -0.03177498 0.10554965 -0.0048184465 -0.015574943 -0.030625004 -0.0025998738 0.12036108
-0.008235159 0.037266564 -0.0070713875 0.033204045 0.06984547 0.044289157 -0.039318226 -0.06662735
0.2849439 0.0451422 0.005562073 0.0037063179 0.022930702 0.00392712 0.091729775 0.0010595917
0.0031291852 0.015144588 -0.0031650155 -0.25373048 -0.024621855 0.0008803051 0.011529241 -0.05274758
0.06054311 -0.0017850066 -0.053223666 0.08675945 0.0592446 -0.016706703 0.01368187 -0.009553029
-0.03921082 -0.0054532513 0.03476653 -0.10727285 0.06543325 -0.07830142 0.008687782 0.09247449
0.033763453 0.0008377128 0.06780492 -0.045534063 -0.040585402 -0.24285084 -0.038339753 -0.021238388
0.022350261 0.014565801 0.0026656017 -0.040120378 -0.0040070796 0.007656477 0.060215943 -0.014153974
-0.1230956 0.04700156 0.082332775 -0.011800553 0.03472087 -0.017026858 0.030356657 0.15214632
9.5860996e-05 0.055982653 0.09259341 -0.0011200592 0.030987479 -0.040769 0.172233 0.021427047
-0.002406372 -0.084100544 0.014685883 0.01932701 0.0416647 -0.05944794 0.102486685 -0.1258858
0.04795418 0.0122031765 -0.06324755 0.009982958 -0.11814151 -0.001176229 0.045155745 -0.0061040516

layer_list.conv1.lin_dst.weight f4 [64, 1433]
00000000: 9071 9c3c 34a0 a7bd e7f1 503d 1f80 edbd
00000010: 9b36 a43e f982 98bd a3b7 42bd 5a10 8dbd
00000020: 2d70 383e c0f6 98bc 1e00 04bd 69bc 5d3d
00000030: ff25 a5bd 5cb3 d9bc a554 783c 9669 df3c
00000040: 0596 623d 2335 61bd 542b f93c 3a7a c03e
00000050: cf24 043c 4100 0cbe d2cb 303b c55d 2d3d
00000060: e0c3 103d 4f49 783c f74b fc3c 5e3f 9bbc
00000070: 4815 363c 614f aebd e5c1 0dbe b0f4 23bb
00000080: 630c 123c c8f7 523d bfde abbd 63d1 4c39
00000090: 9db2 a83c febe 16bc 435f 14bd 08b5 abbb
000000a0: 1be2 a93d b80f b83d 7bc7 03bd 1256 8e3d
000000b0: 2b2b 1ebe b401 33be 7dfc 10bc 483b 13be
000000c0: d163 f03c a576 a0bb 0aea e8bd 2aab 7d3e
000000d0: 71ca 00bd b0ae d1bb e916 d13b 5536 0c3d
000000e0: 8527 90bd b87d a2bd f6ad 333e eb1a 4fbd
000000f0: eafa 80bd 43b7 883e 83b6 07bb 50d5 cbbc
00000100: d7c1 083d 3368 1dbe b4f4 00bd e379 8f3d
00000110: d077 e13b d555 953c 4b7d 14bb b1d9 89bc
00000120: 273f b93c 7919 803c 39a5 b2bd dea1 db3b
00000130: 24f8 0abe 526a 8a3d e7d0 b53c fa04 963b
00000140: 5231 333d 519b 57be de33 1c3b 9b3d 6a3a
00000150: 4284 993b bc6e 613d 9cfa 2b3e 7908 8d3d
00000160: b4c6 483e 7466 c43d 2d6c 7d3b 47b3 1e3d
00000170: 10d6 dabc 3880 223d bed7 91bd c32a b23c
00000180: 6819 83bd 8a61 653b 66e6 fabd f555 76bc
00000190: abbd 1b3d 0326 7aba e8ae 153d fb96 5e3d
000001a0: d58b 5d3c 790f 223c 4b00 a8bc a559 283d
000001b0: e43b 98bd 002b 4f3d 1971 76bd 8778 82bc
000001c0: d925 e7bd 534c 4639 9996 13bc 7b87 c8bb
000001d0: db5c 56bb 4803 90bb 1106 1dbd e549 4dbc
000001e0: d03c 0b3d e69a 55bd dad1 12be 8984 183e
000001f0: 4b4b 2c3d ed6f e5bc 031f 15be 75f4 a13d
00000200: 7a48 4dbc 56ad a33d 84e5 bf3d 1db2 073e
00000210: 85ea 14be ff9e 4e3e d2ec 723d e1a7 913d
00000220: dd7c 20bc 7387 b2bd af54 b63c ed71 113c
00000230: 1855 39be 5b4b 7b3c fb0f acbd d554 113e
00000240: 682e 083d 6198 193c fb45 b33c ec85 0ebe
00000250: 3070 1cbd f84e 973b dc17 b33d 48ff a63d
00000260: 5fcf 8fbb 3ce3 653d e5ab 0abd 10e0 a5bb
00000270: e715 773d 3f21 79bc 0f07 13bc 16e8 1bbc
00000280: ab6c e93b 7b26 02bd 6a2a d83d 0fe4 9dbb
00000290: 0c2e 7fbc 4ae1 fabc a562 2abb df7f f63d
000002a0: c3ec 06bc d3a4 183d 19b7 e7bb f700 083d
000002b0: 240b 8f3d 8c68 353d 260c 21bd ec73 88bd
000002c0: 2be4 913e 07e7 383d 0d42 b63b b2e5 723b
000002d0: 2bd9 bb3c 12af 803b d2dc bb3d ffe1 8a3a
000002e0: 0413 4d3b 0221 783c 266c 4fbb f6e8 81be
000002f0: c6b3 c9bc 46c4 663a 24e5 3c3c d90d 58bd
00000300: 0dfc 773d e2f6 e9ba 0f01 5abd f0ae b13d
00000310: 77aa 723d 7fdc 88bc ec29 603c 4f84 1cbc
00000320: 869b 20bd 30b1 b2bb 5967 0e3d deb1 dbbd
00000330: de01 863d 7f5c a0bd 3357 0e3c 4463 bd3d
00000340: 8c4b 0a3d f499 5b3a 4edd 8a3d ed81 3abd
00000350: e13c 26bd e4ad 78be 250a 1dbd 21fc adbc
00000360: e517 b73c 66a5 6e3c 60b1 2e3b 4455 24bd
00000370: d24d 83bb 2fe3 fa3b fea4 763d 12e6 67bc
00000380: 8c19 fcbd b584 403d 169e a83d 1b57 41bc
00000390: 7937 0e3d e97b 8bbc 86ae f83c 3fcc 1b3e
000003a0: fb08 c938 114e 653d 9da1 bd3d f3ce 92ba
000003b0: 74d9 fd3c 65fd 26bd d95d 303e c687 af3c
000003c0: 39b4 1dbb e83c acbd 0f9d 703c ad53 9e3c
000003d0: 9ba8 2a3d af7f 73bd 8ae4 d13d 35e8 00be
000003e0: 9a6b 443d d5ef 473c ee87 81bd 908f 233c
000003f0: 2df4 f1bd b22b 9aba 3bf5 383d 7f04 c8bb
0.01909712 -0.08184853 0.051011946 -0.11596703 0.3207291 -0.07446856 -0.04753841 -0.068878844
0.18011542 -0.018672347 -0.032226674 0.05413476 -0.08063888 -0.026574783 0.0151569 0.027272027
0.05531885 -0.054982316 0.030416168 0.3759325 0.0080654165 -0.13671972 0.0026976955 0.042325754
0.03534305 0.015154197 0.030797942 -0.018951114 0.011113472 -0.08511234 -0.13843496 -0.0025017671
0.008914086 0.051505834 -0.08392095 0.00019532959 0.020592982 -0.0092008095 -0.03622366 -0.0052400865
0.08295079 0.08987373 -0.03217266 0.0695001 -0.15446155 -0.17481118 -0.00884926 -0.14378083
0.029344471 -0.004896956 -0.113727644 0.24772325 -0.031443063 -0.006398998 0.006380905 0.034231503
-0.07038788 -0.07934135 0.1754683 -0.05056278 -0.06297858 0.26702318 -0.002070815 -0.024881989
0.033387985 -0.1537178 -0.031483367 0.0700567 0.006880738 0.018229404 -0.0022657688 -0.016827436
0.022613121 0.015637146 -0.0872292 0.0067026457 -0.1357122 0.0675856 0.022194339 0.00457823
0.043748207 -0.21055342 0.0023834626 0.00089355715 0.004684956 0.055037245 0.16794819 0.06886382
0.19607049 0.09589854 0.0038669214 0.03874519 -0.026713401 0.03967306 -0.07121228 0.021748906
-0.0640133 0.0035000765 -0.12250976 -0.015035142 0.03802268 -0.00095424074 0.036543757 0.054343205
0.013522108 0.009891384 -0.020507952 0.041101117 -0.07433298 0.050578117 -0.060166452 -0.015926613
-0.11286516 0.00018911184 -0.009008073 -0.006119666 -0.0032709155 -0.0043949224 -0.038335864 -0.012529825
0.033993542 -0.052149676 -0.14337865 0.14894308 0.042063992 -0.028007472 -0.14562611 0.079079546
-0.012529487 0.079920456 0.093699485 0.13251539 -0.14542587 0.2017784 0.05930788 0.071120985
-0.009795395 -0.08717241 0.022257177 0.00887726 -0.18098867 0.01533779 -0.084014855 0.14192517
0.03324738 0.009374709 0.021883955 -0.13918275 -0.038192928 0.004617568 0.08744785 0.0815416
-0.004388734 0.05612491 -0.033855338 -0.0050621107 0.060323622 -0.01520568 -0.008973851 -0.009515783
0.00712355 -0.03177498 0.10554965 -0.0048184465 -0.015574943 -0.030625004 -0.0025998738 0.12036108
-0.008235159 0.037266564 -0.0070713875 0.033204045 0.06984547 0.044289157 -0.039318226 -0.06662735
0.2849439 0.0451422 0.005562073 0.0037063179 0.022930702 0.00392712 0.091729775 0.0010595917
0.0031291852 0.015144588 -0.0031650155 -0.25373048 -0.024621855 0.0008803051 0.011529241 -0.05274758
0.06054311 -0.0017850066 -0.053223666 0.08675945 0.0592446 -0.016706703 0.01368187 -0.009553029
-0.03921082 -0.0054532513 0.03476653 -0.10727285 0.06543325 -0.07830142 0.008687782 0.09247449
0.033763453 0.0008377128 0.06780492 -0.045534063 -0.040585402 -0.24285084 -0.038339753 -0.021238388
0.022350261 0.014565801 0.0026656017 -0.040120378 -0.0040070796 0.007656477 0.060215943 -0.014153974
-0.1230956 0.04700156 0.082332775 -0.011800553 0.03472087 -0.017026858 0.030356657 0.15214632
9.5860996e-05 0.055982653 0.09259341 -0.0011200592 0.030987479 -0.040769 0.172233 0.021427047
-0.002406372 -0.084100544 0.014685883 0.01932701 0.0416647 -0.05944794 0.102486685 -0.1258858
0.04795418 0.0122031765 -0.06324755 0.009982958 -0.11814151 -0.001176229 0.045155745 -0.0061040516

layer_list.conv2.att_src f4 [1, 1, 7]
00000000: 5dc1 273d 4d25 ddbc 3b7a 0e3d 7d4b 0e3d
00000010: d8d2 773c ab33 da3d 79f8 8fbc
0.04095589 -0.026995325 0.034784537 0.03473996 0.015125953 0.10654386 -0.017574536

layer_list.conv2.att_dst f4 [1, 1, 7]
00000000: 8f9c 03bd 3c4e 9abe 8a82 e93e 56e6 7bbe
00000010: 7897 01be 3ac0 c73d 9614 99be
-0.032131728 -0.30137813 0.45607406 -0.24599585 -0.12655437 0.09753461 -0.29898518

layer_list.conv2.bias f4 [7]
00000000: cc0d 03be 4294 1abf 930e e1bd f81d 1d3f
00000010: 40e2 843d 4225 1dbe 5789 26bf
-0.12798232 -0.60382473 -0.10989108 0.61373854 0.06488466 -0.15346244 -0.65053314

layer_list.conv2.lin_src.weight f4 [7, 64]
00000000: 484b 24bf 8f05 4dbf de43 203e 2104 043f
00000010: 0f36 6d3f c2de 6d3f a2a2 86bf c5be 95bf
00000020: df2e 8ebf a17e 94bf 29ba a93f e775 fabe
00000030: 527d 88bf afc5 c83e ec72 85bf f007 853f
00000040: a29a 883f 0e7e 923f a2b8 663f 8dcf 7dbf
00000050: e61c 6b3f 72c3 6e3f 2096 573f 3ccb a03f
00000060: ac52 48bf 43f5 9ebf 283e 9e3f bcdc a93f
00000070: 06e8 9abf d827 92bf 1c84 94bf fe53 863f
00000080: 39b4 8e3f 114b 813f a901 903f 82ba 86bf
00000090: 7d2b 9b3f 980a 9c3f 7b45 dcbe be38 4e3f
000000a0: a371 98bf 687b 58bf 1c32 4b3f 9a90 5dbf
000000b0: f5e5 7ebf 2ca5 67bf 22e2 5b3f 3633 7dbe
000000c0: 9cd8 47bd 9517 853f 5e2a 13bf 24da 8abf
000000d0: 1431 78bf 1f38 a1bf 8879 cbbb f34d 893f
000000e0: 3e6e 22bd e1c8 913f 4283 96bf c0b6 9d3f
000000f0: 96fa 833f 8e7e 54bf 5b61 973f 7dfe 233f
00000100: bd0c 39bf 097c a53f 7e76 a23f bf4c 1d3f
00000110: 4241 84bf 1a99 87be 73c4 2abe 7f0e 8e3f
00000120: b7dd 903f ab96 9a3f d5fb 8b3f 77e8 2bbf
00000130: 82fe 4a3f 670d ef3e 3b0f f63e f863 8f3f
00000140: 6df2 92bf 8976 883f 1603 92bf e500 5f3e
00000150: f293 9c3f c799 53bf 2d88 1b3f 3fe3 b13e
00000160: 3ff2 7a3f 10f7 42bf 772a 43bf 67b5 9ebf
00000170: 18d0 b43f 534f 50bf 26ae 6cbf eed2 89bf
00000180: cce4 223f 11fa 5bbf aee8 99bf 6875 7abf
00000190: 5efd abbc 358c 80bf 984a 96bf 374e f0be
000001a0: 44ae 883f e000 603f 05a6 00bf 9888 8bbf
000001b0: fe51 ca3d 981d 613f 9065 8ebf 0ab7 8abf
000001c0: d371 8dbf 08dc 54bf 2c98 c83e 43d3 a63f
000001d0: b072 a4bf 0393 573f 0ed7 a73f 60fb 5a3f
000001e0: e081 573f e584 8b3f eed8 a33e aa86 513f
000001f0: 5499 923f bfea a93f 661f 81bf c1ed 86bf
00000200: b371 4cbf c166 7fbf a9b6 4b3f 57bd 65bf
00000210: 0f37 7e3f c9d2 7bbf 2e29 783f 3c08 11bf
00000220: fd64 96bf 961b 893f 3019 773f 034d 8d3f
00000230: 177d 1fbf 9429 7b3f 97b3 97bf 0039 8bbf
00000240: 8767 54bf c991 763f 47d5 8dbf 8459 81bf
00000250: 9b76 d6be fd0e b93e 8c33 7fbf 1494 703f
00000260: 4acc 643f a6f4 893f bbbd 7abf 8233 963f
00000270: 7d36 913f 8a5f 8f3f 677c 7e3f 8718 98bf
00000280: 7169 95bf 9b1f 7ebf c4c9 7bbf 6fa4 813f
00000290: ad0a 853f ecee 693f dc11 813f a978 12bf
000002a0: ce73 693f fb63 893f 5e49 89bf 496a 6d3f
000002b0: adc8 9e3f e875 893f a14e 98bf 0791 93bf
000002c0: de4b 8bbf 94fb 78bf 8505 8e3f 6a8d 723f
000002d0: 0178 8d3f 40da 573f 7250 7cbf 7a31 4f3f
000002e0: 916e a63e fe87 95bf c404 90bf 3c57 8bbf
000002f0: 56b6 7abf 28b7 8dbf 356f 673f 211a 763f
00000300: fd45 343f a136 64bf 63ff 8cbf 1703 91bf
00000310: 6914 fc3e ef8a 813f 1a32 803f 3756 5f3f
00000320: 5252 9abf 1793 343f 07f5 75bf 223b 60bf
00000330: 6640 8c3f 8649 60bf f7c8 753f 5cd9 9cbf
00000340: 1752 3d3f a785 8dbf efd8 8dbf 3069 573f
00000350: 3491 88bf 48a9 95bf 458a 1e3f 54c0 94bf
00000360: 9c96 7b3f e2f2 9fbf bacb 483f ce56 49bf
00000370: da8d a6bf cf9f 97bf a604 7f3f 1101 8abe
00000380: 9f5c 803f 9aa1 84bf fd68 8bbf 1e39 42bf
00000390: 886c 4d3e dca5 68bf 556c 4d3f 145b 813f
000003a0: e405 89bf 9874 55bf 9bd6 81bf d7bf 463f
000003b0: fdf3 713f ffc6 95bf fb68 91bf 673b 8c3f
000003c0: ed62 3fbf 9c39 8d3f 9b2d 88bf 08ef debe
000003d0: dade 833f e282 88bf c996 95bf ac2f 8e3f
000003e0: c9b6 91bf 58b8 82bf 21cc 993f 9565 54bf
000003f0: 5761 83bf 3071 603f 9748 f83e 27b1 6ebf
-0.6417737 -0.80086607 0.1565089 0.515688 0.9266061 0.92918026 -1.0518382 -1.1698843
-1.1108054 -1.1601144 1.3259937 -0.48918077 -1.0663245 0.3921332 -1.0425696 1.0393047
1.067219 1.1444719 0.9012548 -0.9914482 0.9184097 0.93266976 0.8421345 1.2562022
-0.7825115 -1.2418598 1.2362719 1.3270488 -1.2102058 -1.1418409 -1.1602817 1.0494382
1.114875 1.0101033 1.1250507 -1.0525668 1.2122647 1.2190733 -0.4302176 0.8055533
-1.1909679 -0.84563303 0.79373336 -0.8654877 -0.99569637 -0.9048641 0.85891926 -0.24726567
-0.04879056 1.0397822 -0.5748652 -1.0847821 -0.9694989 -1.2595252 -0.006209556 1.0726913
-0.039655916 1.1389428 -1.1758807 1.2321396 1.0310848 -0.8300561 1.1826586 0.64060193
-0.7228506 1.2928478 1.2692411 0.6144523 -1.0332415 -0.26483995 -0.16676502 1.1098174
1.1317662 1.207723 1.0936228 -0.6715159 0.792946 0.46689913 0.48058495 1.1202383
-1.1480232 1.0661174 -1.1407192 0.21777685 1.2232649 -0.8265652 0.6075466 0.34743688
0.9802589 -0.7615824 -0.7623667 -1.239911 1.4126005 -0.8137104 -0.9245323 -1.0767496
0.63630366 -0.85928446 -1.2024133 -0.978354 -0.020994838 -1.0042788 -1.1741514 -0.46934673
1.0678182 0.87501335 -0.50253326 -1.090106 0.0987892 0.8793578 -1.1124744 -1.0837109
-1.1050361 -0.8314824 0.39178598 1.3033222 -1.28475 0.842087 1.3112504 0.8553982
0.8418255 1.0899931 0.32001442 0.81846106 1.1453042 1.3274764 -1.0087707 -1.0541307
-0.7986099 -0.99766165 0.7957559 -0.89742035 0.9930276 -0.9836851 0.96937835 -0.5665319
-1.1749569 1.0711544 0.9652281 1.1039127 -0.62300247 0.9811032 -1.1851681 -1.087677
-0.8297047 0.963162 -1.1080712 -1.0105443 -0.41887364 0.36144248 -0.9968803 0.9397595
0.8937422 1.0777786 -0.97945756 1.1734469 1.1344754 1.1201031 0.9940857 -1.1882485
-1.1672803 -0.99266976 -0.98354745 1.0128306 1.0393883 0.9138019 1.0083575 -0.5721536
0.9119233 1.0733637 -1.0725515 0.92740303 1.2404991 1.0739107 -1.1898996 -1.1528634
-1.0882528 -0.9725888 1.1095434 0.9474703 1.1052247 0.843174 -0.9856025 0.8093487
0.3250623 -1.1682127 -1.1251454 -1.0885997 -0.9793447 -1.107152 0.90404063 0.9613362
0.70419294 -0.8914586 -1.1015438 -1.1329068 0.49234322 1.0120524 1.001529 0.8724093
-1.2056372 0.7053694 -0.9607701 -0.8759023 1.0957153 -0.8761219 0.96009773 -1.2253833
0.73953384 -1.1056412 -1.1081828 0.8414488 -1.0669312 -1.1692286 0.6192973 -1.1621194
0.98276687 -1.2495997 0.7843586 -0.7864808 -1.301204 -1.1845645 0.9961647 -0.2695394
1.0028266 -1.0361817 -1.0891415 -0.75868404 0.20060933 -0.9087808 0.80243427 1.010592
-1.0704923 -0.8338103 -1.0143617 0.77636474 0.9451292 -1.1701354 -1.1360162 1.0955628
-0.74760324 1.1033206 -1.0638918 -0.4354174 1.0302384 -1.0664942 -1.1686641 1.1108298
-1.1383907 -1.0212507 1.201542 -0.829675 -1.0264081 0.8767271 0.48492882 -0.93239063

layer_list.conv2.lin_dst.weight f4 [7, 64]
00000000: 484b 24bf 8f05 4dbf de43 203e 2104 043f
00000010: 0f36 6d3f c2de 6d3f a2a2 86bf c5be 95bf
00000020: df2e 8ebf a17e 94bf 29ba a93f e775 fabe
00000030: 527d 88bf afc5 c83e ec72 85bf f007 853f
00000040: a29a 883f 0e7e 923f a2b8 663f 8dcf 7dbf
00000050: e61c 6b3f 72c3 6e3f 2096 573f 3ccb a03f
00000060: ac52 48bf 43f5 9ebf 283e 9e3f bcdc a93f
00000070: 06e8 9abf d827 92bf 1c84 94bf fe53 863f
00000080: 39b4 8e3f 114b 813f a901 903f 82ba 86bf
00000090: 7d2b 9b3f 980a 9c3f 7b45 dcbe be38 4e3f
000000a0: a371 98bf 687b 58bf 1c32 4b3f 9a90 5dbf
000000b0: f5e5 7ebf 2ca5 67bf 22e2 5b3f 3633 7dbe
000000c0: 9cd8 47bd 9517 853f 5e2a 13bf 24da 8abf
000000d0: 1431 78bf 1f38 a1bf 8879 cbbb f34d 893f
000000e0: 3e6e 22bd e1c8 913f 4283 96bf c0b6 9d3f
000000f0: 96fa 833f 8e7e 54bf 5b61 973f 7dfe 233f
00000100: bd0c 39bf 097c a53f 7e76 a23f bf4c 1d3f
00000110: 4241 84bf 1a99 87be 73c4 2abe 7f0e 8e3f
00000120: b7dd 903f ab96 9a3f d5fb 8b3f 77e8 2bbf
00000130: 82fe 4a3f 670d ef3e 3b0f f63e f863 8f3f
00000140: 6df2 92bf 8976 883f 1603 92bf e500 5f3e
00000150: f293 9c3f c799 53bf 2d88 1b3f 3fe3 b13e
00000160: 3ff2 7a3f 10f7 42bf 772a 43bf 67b5 9ebf
00000170: 18d0 b43f 534f 50bf 26ae 6cbf eed2 89bf
00000180: cce4 223f 11fa 5bbf aee8 99bf 6875 7abf
00000190: 5efd abbc 358c 80bf 984a 96bf 374e f0be
000001a0: 44ae 883f e000 603f 05a6 00bf 9888 8bbf
000001b0: fe51 ca3d 981d 613f 9065 8ebf 0ab7 8abf
000001c0: d371 8dbf 08dc 54bf 2c98 c83e 43d3 a63f
000001d0: b072 a4bf 0393 573f 0ed7 a73f 60fb 5a3f
000001e0: e081 573f e584 8b3f eed8 a33e aa86 513f
000001f0: 5499 923f bfea a93f 661f 81bf c1ed 86bf
00000200: b371 4cbf c166 7fbf a9b6 4b3f 57bd 65bf
00000210: 0f37 7e3f c9d2 7bbf 2e29 783f 3c08 11bf
00000220: fd64 96bf 961b 893f 3019 773f 034d 8d3f
00000230: 177d 1fbf 9429 7b3f 97b3 97bf 0039 8bbf
00000240: 8767 54bf c991 763f 47d5 8dbf 8459 81bf
00000250: 9b76 d6be fd0e b93e 8c33 7fbf 1494 703f
00000260: 4acc 643f a6f4 893f bbbd 7abf 8233 963f
00000270: 7d36 913f 8a5f 8f3f 677c 7e3f 8718 98bf
00000280: 7169 95bf 9b1f 7ebf c4c9 7bbf 6fa4 813f
00000290: ad0a 853f ecee 693f dc11 813f a978 12bf
000002a0: ce73 693f fb63 893f 5e49 89bf 496a 6d3f
000002b0: adc8 9e3f e875 893f a14e 98bf 0791 93bf
000002c0: de4b 8bbf 94fb 78bf 8505 8e3f 6a8d 723f
000002d0: 0178 8d3f 40da 573f 7250 7cbf 7a31 4f3f
000002e0: 916e a63e fe87 95bf c404 90bf 3c57 8bbf
000002f0: 56b6 7abf 28b7 8dbf 356f 673f 211a 763f
00000300: fd45 343f a136 64bf 63ff 8cbf 1703 91bf
00000310: 6914 fc3e ef8a 813f 1a32 803f 3756 5f3f
00000320: 5252 9abf 1793 343f 07f5 75bf 223b 60bf
00000330: 6640 8c3f 8649 60bf f7c8 753f 5cd9 9cbf
00000340: 1752 3d3f a785 8dbf efd8 8dbf 3069 573f
00000350: 3491 88bf 48a9 95bf 458a 1e3f 54c0 94bf
00000360: 9c96 7b3f e2f2 9fbf bacb 483f ce56 49bf
00000370: da8d a6bf cf9f 97bf a604 7f3f 1101 8abe
00000380: 9f5c 803f 9aa1 84bf fd68 8bbf 1e39 42bf
00000390: 886c 4d3e dca5 68bf 556c 4d3f 145b 813f
000003a0: e405 89bf 9874 55bf 9bd6 81bf d7bf 463f
000003b0: fdf3 713f ffc6 95bf fb68 91bf 673b 8c3f
000003c0: ed62 3fbf 9c39 8d3f 9b2d 88bf 08ef debe
000003d0: dade 833f e282 88bf c996 95bf ac2f 8e3f
000003e0: c9b6 91bf 58b8 82bf 21cc 993f 9565 54bf
000003f0: 5761 83bf 3071 603f 9748 f83e 27b1 6ebf
-0.6417737 -0.80086607 0.1565089 0.515688 0.9266061 0.92918026 -1.0518382 -1.1698843
-1.1108054 -1.1601144 1.3259937 -0.48918077 -1.0663245 0.3921332 -1.0425696 1.0393047
1.067219 1.1444719 0.9012548 -0.9914482 0.9184097 0.93266976 0.8421345 1.2562022
-0.7825115 -1.2418598 1.2362719 1.3270488 -1.2102058 -1.1418409 -1.1602817 1.0494382
1.114875 1.0101033 1.1250507 -1.0525668 1.2122647 1.2190733 -0.4302176 0.8055533
-1.1909679 -0.84563303 0.79373336 -0.8654877 -0.99569637 -0.9048641 0.85891926 -0.24726567
-0.04879056 1.0397822 -0.5748652 -1.0847821 -0.9694989 -1.2595252 -0.006209556 1.0726913
-0.039655916 1.1389428 -1.1758807 1.2321396 1.0310848 -0.8300561 1.1826586 0.64060193
-0.7228506 1.2928478 1.2692411 0.6144523 -1.0332415 -0.26483995 -0.16676502 1.1098174
1.1317662 1.207723 1.0936228 -0.6715159 0.792946 0.46689913 0.48058495 1.1202383
-1.1480232 1.0661174 -1.1407192 0.21777685 1.2232649 -0.8265652 0.6075466 0.34743688
0.9802589 -0.7615824 -0.7623667 -1.239911 1.4126005 -0.8137104 -0.9245323 -1.0767496
0.63630366 -0.85928446 -1.2024133 -0.978354 -0.020994838 -1.0042788 -1.1741514 -0.46934673
1.0678182 0.87501335 -0.50253326 -1.090106 0.0987892 0.8793578 -1.1124744 -1.0837109
-1.1050361 -0.8314824 0.39178598 1.3033222 -1.28475 0.842087 1.3112504 0.8553982
0.8418255 1.0899931 0.32001442 0.81846106 1.1453042 1.3274764 -1.0087707 -1.0541307
-0.7986099 -0.99766165 0.7957559 -0.89742035 0.9930276 -0.9836851 0.96937835 -0.5665319
-1.1749569 1.0711544 0.9652281 1.1039127 -0.62300247 0.9811032 -1.1851681 -1.087677
-0.8297047 0.963162 -1.1080712 -1.0105443 -0.41887364 0.36144248 -0.9968803 0.9397595
0.8937422 1.0777786 -0.97945756 1.1734469 1.1344754 1.1201031 0.9940857 -1.1882485
-1.1672803 -0.99266976 -0.98354745 1.0128306 1.0393883 0.9138019 1.0083575 -0.5721536
0.9119233 1.0733637 -1.0725515 0.92740303 1.2404991 1.0739107 -1.1898996 -1.1528634
-1.0882528 -0.9725888 1.1095434 0.9474703 1.1052247 0.843174 -0.9856025 0.8093487
0.3250623 -1.1682127 -1.1251454 -1.0885997 -0.9793447 -1.107152 0.90404063 0.9613362
0.70419294 -0.8914586 -1.1015438 -1.1329068 0.49234322 1.0120524 1.001529 0.8724093
-1.2056372 0.7053694 -0.9607701 -0.8759023 1.0957153 -0.8761219 0.96009773 -1.2253833
0.73953384 -1.1056412 -1.1081828 0.8414488 -1.0669312 -1.1692286 0.6192973 -1.1621194
0.98276687 -1.2495997 0.7843586 -0.7864808 -1.301204 -1.1845645 0.9961647 -0.2695394
1.0028266 -1.0361817 -1.0891415 -0.75868404 0.20060933 -0.9087808 0.80243427 1.010592
-1.0704923 -0.8338103 -1.0143617 0.77636474 0.9451292 -1.1701354 -1.1360162 1.0955628
-0.74760324 1.1033206 -1.0638918 -0.4354174 1.0302384 -1.0664942 -1.1686641 1.1108298
-1.1383907 -1.0212507 1.201542 -0.829675 -1.0264081 0.8767271 0.48492882 -0.93239063
