vanilla_models/Cora/5_3f_85/split0/init0/GAT_dp0_5_5e_4_f0.pt (torch, 372919 bytes, 10 tensors)

layer_list.conv1.att_src f4 [1, 8, 8]
-0.3565233 0.013668976 -0.39946613 0.55837476 0.26952517 0.27414733 -0.04328173 -0.41729063
0.6052471 0.01128957 -0.5747572 -0.19458732 -0.57168895 -0.47537848 0.1015262 0.2708205
-0.12706535 -0.12213756 0.23403805 0.058715306 0.015913995 -0.2891539 0.0054711597 0.033436373
0.6494892 0.26801 -0.5829866 0.6933178 -0.45839664 0.6746558 0.6149364 0.26647836
0.25712007 -0.26764667 0.04235347 0.12860161 -0.0063817436 -0.027821528 0.19284672 0.26416647
-0.6361897 0.3206509 -0.21325289 -0.43684807 0.64139426 -0.4318178 -0.4304131 0.25308105
-0.2536546 -0.52081484 0.64281994 -0.111891665 0.52674425 0.08388389 -0.010905663 0.26330855
0.28607538 0.13591301 0.014687553 0.021849591 0.049930036 -0.5514006 0.05561327 -0.13268396
00000000: 398a b6be d7f3 5f3c d386 ccbe a6f1 0e3f
00000010: 34ff 893e 0a5d 8c3e 2f48 31bd 1ea7 d5be
00000020: 79f1 1a3f e3f7 383c 4a23 13bf e641 47be
00000030: 355a 12bf cf64 f3be f8ec cf3d fca8 8a3e
00000040: 6b1d 02be 4223 fabd aca7 6f3e 767f 703d
00000050: 115e 823c fb0b 94be 6a47 b33b 94f4 083d
00000060: ed44 263f 9b38 893e 9c3e 15bf 467d 313f
00000070: f7b2 eabe 3eb6 2c3f 796c 1d3f da6f 883e
00000080: 3ea5 833e fc08 89be d57a 2d3d 24b0 033e
00000090: f21d d1bb f9e9 e3bc 9c79 453e d440 873e
000000a0: 54dd 22bf 5b2c a43e f75e 5abe 8daa dfbe
000000b0: 6a32 243f 3917 ddbe 1b5f dcbe d793 813e
000000c0: 04df 81be 1f54 05bf d98f 243f 7527 e5bd
000000d0: b6d8 063f 51cb ab3d aaad 32bc 61d0 863e
000000e0: 7978 923e c82c 0b3e 10a4 703c eafd b23c
000000f0: 7083 4c3d 9728 0dbf bdca 633d 4ede 07be

layer_list.conv1.att_dst f4 [1, 8, 8]
-0.12406549 0.052633025 -0.22752775 0.30404562 0.18168156 -0.03383009 -0.11158385 -0.05844151
0.18499097 -0.08127302 -0.11653391 -0.15357204 -0.10165371 -0.11969026 -0.044615775 0.07380287
-0.061356943 -0.09816635 -0.020220904 0.040658176 0.026842296 0.017237315 0.018348774 -0.050983742
0.31754857 0.001810095 -0.0139833195 0.24355452 -0.06463672 0.2990652 0.13591814 -0.14972378
0.12839007 -0.053349797 0.027025491 0.004733991 -0.025446912 0.06433938 0.118087366 0.06583387
-0.14815477 0.060285673 -0.15259777 -0.15020014 0.18331736 -0.086653955 0.023288433 0.19466238
-0.028266715 -0.16497943 0.25230727 -0.02295003 0.14449206 0.007692067 -0.05591176 0.08173194
0.10386945 0.01854339 0.006180529 0.0028435867 0.037495736 -0.17487529 -0.0061077494 -0.06813856
00000000: 0c16 febd ba95 573d 09fd 68be deab 9b3e
00000010: bb0a 3a3e 6c91 0abd 1386 e4bd 5d60 6fbd
00000020: 466e 3d3e 7872 a6bd 55a9 eebd fd41 1dbe
00000030: d22f d0bd 2b20 f5bd 08bf 36bd f625 973d
00000040: 6b51 7bbd 700b c9bd 4fa6 a5bc 3089 263d
00000050: 60e4 db3c 4535 8d3c 2b50 963c 54d4 50bd
00000060: ba95 a23e b640 ed3a 4b1a 65bc 5b66 793e
00000070: 4260 84bd 131f 993e 202e 0b3e 3151 19be
00000080: b078 033e 5185 5abd 9064 dd3c 981f 9b3b
00000090: 0b76 d0bc 5dc4 833d cad7 f13d e8d3 863d
000000a0: e2b5 17be 1cee 763d 9742 1cbe 11ce 19be
000000b0: 8cb7 3b3e a177 b1bd 62c7 be3c 9355 473e
000000c0: 998f e7bc 5ef0 28be 6b2e 813e b401 bcbc
000000d0: baf5 133e bc0d fc3b bb03 65bd 1363 a73d
000000e0: 82b9 d43d 4fe8 973c 0986 ca3b 785b 3a3b
000000f0: 2195 193d 8212 33be 8423 c8bb 3b8c 8bbd

layer_list.conv1.bias f4 [64]
0.024607245 0.06312055 -0.010505444 -0.0042925845 0.021918342 0.021789672 0.0039202548 0.033646014
0.031011673 0.03225858 0.055362105 -0.0032468296 0.039801758 0.0046595247 0.007093973 -0.051292934
0.022415249 0.050476264 0.0022652466 0.064883046 0.020701166 -0.010977911 0.01998397 -0.0015843862
0.027450463 -0.008723144 0.030192774 0.0064616147 -0.0065232962 -0.00026450807 0.030729113 0.030252416
0.016048355 0.028421594 0.010381192 0.014362893 0.0005696152 -0.01673097 0.028011661 0.0054851463
0.07312029 0.0010604175 0.033389308 0.028490324 -0.0018955064 0.05389587 0.032281954 -0.008387195
0.041278675 0.008618939 -0.010924672 0.008852866 0.013181117 0.012110075 0.019050606 -0.024421347
0.0016359518 -0.01978741 0.06388607 -0.01912053 0.025963765 0.015748085 0.020333981 0.027266467
00000000: 2295 c93c 5945 813d 071f 2cbc cfa8 8cbb
00000010: 188e b33c 4180 b23c 7b75 803b 67d0 093d
00000020: 310c fe3c 9321 043d 60c3 623d c3c8 54bb
00000030: 2b07 233d edae 983b 8f74 e83b 8a18 52bd
00000040: 2fa0 b73c 33c0 4e3d 8874 143b 67e1 843d
00000050: 7e95 a93c b2dc 33bc 6cb5 a33c 2eab cfba
00000060: cbdf e03c 85eb 0ebc d656 f73c f4bb d33b
00000070: 60c1 d5bb acad 8ab9 9fbb fb3c ead3 f73c
00000080: d777 833c 67d4 e83c e015 2a3c 5752 6b3c
00000090: 3b52 153a 630f 89bc b678 e53c bebc b33b
000000a0: 17c0 953d b5fd 8a3a 3ac3 083d 8a64 e93c
000000b0: a472 f8ba eac1 5c3d 153a 043d 726a 09bc
000000c0: d413 293d 7336 0d3c 65fd 32bc 9c0b 113c
000000d0: 9df5 573c 5669 463c 0410 9c3c 470f c8bc
000000e0: 6f6d d63a 3519 a2bc b3d6 823d a8a2 9cbc
000000f0: f6b1 d43c 2102 813c 7393 a63c ed5d df3c

layer_list.conv1.lin_src.weight f4 [64, 1433]
0.048882563 -0.025677927 -0.03187034 0.009931557 0.38410595 -0.031715006 0.020157406 -0.04178306
-0.012351793 -0.025920589 -0.051737465 -0.007630591 -0.0019104701 -0.031538516 0.118429154 0.005104761
-0.059724923 0.08532762 -0.054244455 -0.4953705 -0.034945376 0.023272615 -0.021736803 -0.00061064854
0.01075252 0.030139046 0.202216 0.16027853 -0.001630675 -0.035205718 -0.08429083 0.010276466
-0.04619625 -0.005625745 -0.035457138 0.019480912 0.029426988 0.035340045 0.003915615 -0.117412284
0.20320742 0.037825555 -0.021314425 0.01732755 -0.0397688 -0.015154956 0.023256749 0.039462596
-0.1638552 0.06182904 -0.015490595 -0.31519163 -0.05385634 -0.013233845 0.047187988 -0.028121954
0.040186215 0.015432779 -0.21880002 -0.019424696 0.019774565 0.27214167 0.0063933027 0.17360926
0.19964723 -0.11219141 -0.05366728 -0.12388706 -0.051043443 -0.049605787 -0.015576004 0.033442028
-0.090719886 -0.0672711 -0.09724343 -0.06780784 -0.0021935415 -0.13280337 -0.03737062 0.013592671
-0.003088485 0.157449 0.070824176 -0.06445909 0.04687478 -0.1760609 -0.009020733 0.034324467
-0.13680394 0.099505864 -0.0008364192 0.040332627 0.0130076045 0.2500535 -0.071316406 -0.11799032
-0.04813918 0.09824758 0.033668093 0.37116277 -0.096724 -0.004493296 0.046418153 -0.21384884
0.0026497918 -0.038001228 0.09337173 -0.08195146 -0.016271388 -0.050291732 0.0046959296 0.009531562
0.061869532 0.0025689518 -0.027739676 -0.020290216 -0.015216615 -0.055968497 0.09980615 -0.039820738
0.023527233 -0.030246621 -0.01699605 -0.011909044 -0.00077507563 0.0697044 -0.04094397 0.05391436
-0.2074146 -0.13504197 0.022130739 -0.21579601 -0.22930697 -0.018728508 0.019301442 -0.46649882
-0.12609482 -0.028559593 -0.011151112 -0.07475621 0.319457 0.026728876 -0.0077241086 -0.018724797
-0.032907497 -0.034596533 -0.12240022 0.033783745 0.06818764 -0.09810018 -0.1131464 0.1283907
0.009905371 -0.050732076 0.036838472 0.0047888425 0.035157014 -0.080985755 0.032440647 0.041617136
-0.0920682 -0.046088893 -0.07371039 0.0069630463 0.014727734 0.029138898 -0.0033188784 0.014392308
-0.15652648 -0.07503125 -0.003552666 -0.090444125 -0.091738425 -0.15028381 -0.008987618 -0.074841894
-0.22919527 -0.0013104369 -0.032948434 -0.1394555 -0.04820646 0.0010956676 0.05009975 -0.01617644
0.045353528 -0.017423902 0.01324864 0.3276859 -0.015821218 -0.00515781 -0.030184083 0.30012912
-0.18794152 0.045450717 -0.09490528 0.032667212 0.12082147 0.11571852 -0.015341631 0.017050609
-0.06825227 -0.009682136 0.03175214 -0.12538038 -0.04617549 0.3639049 -0.004775921 -0.07365762
-0.10076299 -0.024242388 0.03343015 0.297495 -0.00975545 -0.0506046 0.026313225 0.006850083
-0.004836533 -0.11982948 -0.07662676 0.024506794 0.020895313 0.007528748 0.009821323 0.007544361
0.11903514 0.05710279 -0.014768165 0.00079154235 0.11773104 0.079171464 -0.042888675 0.016164936
-0.0077395616 0.13602309 0.32978106 0.032966793 0.037846655 0.10196662 -0.4352764 0.027497726
-0.051804673 -0.08587852 0.09112921 -0.010438861 -0.056622047 0.022721002 -0.16469902 -0.041956015
0.09741729 0.048992697 0.089400865 0.057720877 0.13678834 -0.004646681 -0.03869455 0.04937753
00000000: 1539 483d 845a d2bc 798a 02bd f8b7 223c
00000010: 89a9 c43e 98e7 01bd 2521 a53c b724 2bbd
00000020: 2d5f 4abc 6a57 d4bc aaea 53bd 090a fabb
00000030: bd68 faba 882e 01bd fc8a f23d d745 a73b
00000040: 1fa2 74bd 3fc0 ae3d 6f2f 5ebd 34a1 fdbe
00000050: e222 0fbd 36a6 be3c 6111 b2bc ee13 20ba
00000060: 562b 303c 29e6 f63c b611 4f3e 0e20 243e
00000070: 60bc d5ba df33 10bd aca0 acbd 9f5e 283c
00000080: 4738 3dbd 2b58 b8bb 813b 11bd 6f96 9f3c
00000090: de10 f13c b9c0 103d 8f4e 803b da75 f0bd
000000a0: 9b15 503e f8ee 1a3d 979b aebc 82f2 8d3c
000000b0: 9ce4 22bd 7e4c 78bc f084 be3c 88a3 213d
000000c0: a8c9 27be 7340 7d3d 44cc 7dbc cc60 a1be
000000d0: 7798 5cbd c5d2 58bc 3148 413d 0360 e6bc
000000e0: 4d9a 243d c4d9 7c3c 1d0d 60be 8a20 9fbc
000000f0: 45fe a13c 2756 8b3e e97e d13b a0c6 313e
00000100: 5370 4c3e 9cc4 e5bd 39d2 5bbd 80b8 fdbd
00000110: ee12 51bd 702f 4bbd 7f32 7fbc 82fa 083d
00000120: 59cb b9bd 6ec5 89bd 9027 c7bd d6de 8abd
00000130: 85c1 0fbb 9bfd 07be ef11 19bd cbb3 5e3c
00000140: 2e68 4abb 503a 213e 440c 913d 2103 84bd
00000150: c5ff 3f3d 4f49 34be b2cb 13bc d097 0c3d
00000160: 5516 0cbe bbc9 cb3d 2443 5bba d333 253d
00000170: d91d 553c 0307 803e 560e 92bd e9a4 f1bd
00000180: 972d 45bd 0736 c93d 8ee7 093d 0c09 be3e
00000190: 3c17 c6bd 803c 93bb f620 3e3d 31fb 5abe
000001a0: 21a8 2d3b 2da7 1bbd ad39 bf3d 2bd6 a7bd
000001b0: 934b 85bc b4fe 4dbd 50e0 993b 452a 1c3c
000001c0: e86a 7d3d dc5b 283b 513e e3bc ab37 a6bc
000001d0: 1c4f 79bc 393f 65bd 2b67 cc3d 121b 23bd
000001e0: 2fbc c03c c3c7 f7bc 4d3b 8bbc 271e 43bc
000001f0: 722e 4bba 2ec1 8e3d ddb4 27bd 4ed5 5c3d
00000200: 7e64 54be 7148 0abe 864b b53c a1f9 5cbe
00000210: 72cf 6abe 876c 99bc 0f1e 9e3c efd8 eebe
00000220: 001f 01be cff5 e9bc 27b3 36bc c919 99bd
00000230: de8f a33e 84f6 da3c 851a fdbb bf64 99bc
00000240: 03ca 06bd 18b5 0dbd f7ac fabd d360 0a3d
00000250: f6a5 8b3d bfe8 c8bd 4db9 e7bd da78 033e
00000260: 234a 223c 70cc 4fbd f0e3 163d b9eb 9c3b
00000270: cd00 103d dcdb a5bd 7ce0 043d bb76 2a3d
00000280: 418e bcbd b5c7 3cbd 79f5 96bd 442a e43b
00000290: 984c 713c b3b4 ee3c 8a81 59bb b7cd 6b3c
000002a0: 7a48 20be fca9 99bd d8d3 68bb c53a b9bd
000002b0: 5be1 bbbd 00e4 19be cd40 13bc b546 99bd
000002c0: 2ab2 6abe f7c2 abba f0f4 06bd 6ccd 0ebe
000002d0: 2374 45bd 819c 8f3a 6535 4d3d 7484 84bc
000002e0: 9fc4 393d 92bc 8ebc d310 593c 72c6 a73e
000002f0: 809b 81bc d902 a9bb 9c44 f7bc 86aa 993e
00000300: be73 40be 882a 3a3d b35d c2bd 0ece 053d
00000310: 3f71 f73d d5fd ec3d 775b 7bbc b8ad 8b3c
00000320: d9c7 8bbd d2a1 1ebc 880e 023d b763 00be
00000330: 8322 3dbd be51 ba3e 547f 9cbb ced9 96bd
00000340: d45c cebd f997 c6bc 0eee 083d 4451 983e
00000350: 53d5 1fbc c546 4fbd d58e d73c a976 e03b
00000360: c87b 9ebb 2969 f5bd 7eee 9cbd 79c2 c83c
00000370: a62c ab3c b7b3 f63b 9de9 203c b036 f73b
00000380: b2c8 f33d 9de4 693d 2cf6 71bc 827f 4f3a
00000390: f91c f13d a624 a23d 09ac 2fbd 546c 843c
000003a0: 269c fdbb a349 0b3e 10d9 a83e 3008 073d
000003b0: 1805 1b3d e0d3 d03d 8cdc debe e942 e13c
000003c0: 2331 54bd 14e1 afbd f4a1 ba3d c207 2bbc
000003d0: 85ec 67bd 6521 ba3c dca6 28be 12da 2bbd
000003e0: b782 c73d 91ac 483d cd17 b73d ba6c 6c3d
000003f0: 3e12 0c3e 2f43 98bb 2d7e 1ebd 1840 4a3d

layer_list.conv1.lin_dst.weight f4 [64, 1433]
0.048882563 -0.025677927 -0.03187034 0.009931557 0.38410595 -0.031715006 0.020157406 -0.04178306
-0.012351793 -0.025920589 -0.051737465 -0.007630591 -0.0019104701 -0.031538516 0.118429154 0.005104761
-0.059724923 0.08532762 -0.054244455 -0.4953705 -0.034945376 0.023272615 -0.021736803 -0.00061064854
0.01075252 0.030139046 0.202216 0.16027853 -0.001630675 -0.035205718 -0.08429083 0.010276466
-0.04619625 -0.005625745 -0.035457138 0.019480912 0.029426988 0.035340045 0.003915615 -0.117412284
0.20320742 0.037825555 -0.021314425 0.01732755 -0.0397688 -0.015154956 0.023256749 0.039462596
-0.1638552 0.06182904 -0.015490595 -0.31519163 -0.05385634 -0.013233845 0.047187988 -0.028121954
0.040186215 0.015432779 -0.21880002 -0.019424696 0.019774565 0.27214167 0.0063933027 0.17360926
0.19964723 -0.11219141 -0.05366728 -0.12388706 -0.051043443 -0.049605787 -0.015576004 0.033442028
-0.090719886 -0.0672711 -0.09724343 -0.06780784 -0.0021935415 -0.13280337 -0.03737062 0.013592671
-0.003088485 0.157449 0.070824176 -0.06445909 0.04687478 -0.1760609 -0.009020733 0.034324467
-0.13680394 0.099505864 -0.0008364192 0.040332627 0.0130076045 0.2500535 -0.071316406 -0.11799032
-0.04813918 0.09824758 0.033668093 0.37116277 -0.096724 -0.004493296 0.046418153 -0.21384884
0.0026497918 -0.038001228 0.09337173 -0.08195146 -0.016271388 -0.050291732 0.0046959296 0.009531562
0.061869532 0.0025689518 -0.027739676 -0.020290216 -0.015216615 -0.055968497 0.09980615 -0.039820738
0.023527233 -0.030246621 -0.01699605 -0.011909044 -0.00077507563 0.0697044 -0.04094397 0.05391436
-0.2074146 -0.13504197 0.022130739 -0.21579601 -0.22930697 -0.018728508 0.019301442 -0.46649882
-0.12609482 -0.028559593 -0.011151112 -0.07475621 0.319457 0.026728876 -0.0077241086 -0.018724797
-0.032907497 -0.034596533 -0.12240022 0.033783745 0.06818764 -0.09810018 -0.1131464 0.1283907
0.009905371 -0.050732076 0.036838472 0.0047888425 0.035157014 -0.080985755 0.032440647 0.041617136
-0.0920682 -0.046088893 -0.07371039 0.0069630463 0.014727734 0.029138898 -0.0033188784 0.014392308
-0.15652648 -0.07503125 -0.003552666 -0.090444125 -0.091738425 -0.15028381 -0.008987618 -0.074841894
-0.22919527 -0.0013104369 -0.032948434 -0.1394555 -0.04820646 0.0010956676 0.05009975 -0.01617644
0.045353528 -0.017423902 0.01324864 0.3276859 -0.015821218 -0.00515781 -0.030184083 0.30012912
-0.18794152 0.045450717 -0.09490528 0.032667212 0.12082147 0.11571852 -0.015341631 0.017050609
-0.06825227 -0.009682136 0.03175214 -0.12538038 -0.04617549 0.3639049 -0.004775921 -0.07365762
-0.10076299 -0.024242388 0.03343015 0.297495 -0.00975545 -0.0506046 0.026313225 0.006850083
-0.004836533 -0.11982948 -0.07662676 0.024506794 0.020895313 0.007528748 0.009821323 0.007544361
0.11903514 0.05710279 -0.014768165 0.00079154235 0.11773104 0.079171464 -0.042888675 0.016164936
-0.0077395616 0.13602309 0.32978106 0.032966793 0.037846655 0.10196662 -0.4352764 0.027497726
-0.051804673 -0.08587852 0.09112921 -0.010438861 -0.056622047 0.022721002 -0.16469902 -0.041956015
0.09741729 0.048992697 0.089400865 0.057720877 0.13678834 -0.004646681 -0.03869455 0.04937753
00000000: 1539 483d 845a d2bc 798a 02bd f8b7 223c
00000010: 89a9 c43e 98e7 01bd 2521 a53c b724 2bbd
00000020: 2d5f 4abc 6a57 d4bc aaea 53bd 090a fabb
00000030: bd68 faba 882e 01bd fc8a f23d d745 a73b
00000040: 1fa2 74bd 3fc0 ae3d 6f2f 5ebd 34a1 fdbe
00000050: e222 0fbd 36a6 be3c 6111 b2bc ee13 20ba
00000060: 562b 303c 29e6 f63c b611 4f3e 0e20 243e
00000070: 60bc d5ba df33 10bd aca0 acbd 9f5e 283c
00000080: 4738 3dbd 2b58 b8bb 813b 11bd 6f96 9f3c
00000090: de10 f13c b9c0 103d 8f4e 803b da75 f0bd
000000a0: 9b15 503e f8ee 1a3d 979b aebc 82f2 8d3c
000000b0: 9ce4 22bd 7e4c 78bc f084 be3c 88a3 213d
000000c0: a8c9 27be 7340 7d3d 44cc 7dbc cc60 a1be
000000d0: 7798 5cbd c5d2 58bc 3148 413d 0360 e6bc
000000e0: 4d9a 243d c4d9 7c3c 1d0d 60be 8a20 9fbc
000000f0: 45fe a13c 2756 8b3e e97e d13b a0c6 313e
00000100: 5370 4c3e 9cc4 e5bd 39d2 5bbd 80b8 fdbd
00000110: ee12 51bd 702f 4bbd 7f32 7fbc 82fa 083d
00000120: 59cb b9bd 6ec5 89bd 9027 c7bd d6de 8abd
00000130: 85c1 0fbb 9bfd 07be ef11 19bd cbb3 5e3c
00000140: 2e68 4abb 503a 213e 440c 913d 2103 84bd
00000150: c5ff 3f3d 4f49 34be b2cb 13bc d097 0c3d
00000160: 5516 0cbe bbc9 cb3d 2443 5bba d333 253d
00000170: d91d 553c 0307 803e 560e 92bd e9a4 f1bd
00000180: 972d 45bd 0736 c93d 8ee7 093d 0c09 be3e
00000190: 3c17 c6bd 803c 93bb f620 3e3d 31fb 5abe
000001a0: 21a8 2d3b 2da7 1bbd ad39 bf3d 2bd6 a7bd
000001b0: 934b 85bc b4fe 4dbd 50e0 993b 452a 1c3c
000001c0: e86a 7d3d dc5b 283b 513e e3bc ab37 a6bc
000001d0: 1c4f 79bc 393f 65bd 2b67 cc3d 121b 23bd
000001e0: 2fbc c03c c3c7 f7bc 4d3b 8bbc 271e 43bc
000001f0: 722e 4bba 2ec1 8e3d ddb4 27bd 4ed5 5c3d
00000200: 7e64 54be 7148 0abe 864b b53c a1f9 5cbe
00000210: 72cf 6abe 876c 99bc 0f1e 9e3c efd8 eebe
00000220: 001f 01be cff5 e9bc 27b3 36bc c919 99bd
00000230: de8f a33e 84f6 da3c 851a fdbb bf64 99bc
00000240: 03ca 06bd 18b5 0dbd f7ac fabd d360 0a3d
00000250: f6a5 8b3d bfe8 c8bd 4db9 e7bd da78 033e
00000260: 234a 223c 70cc 4fbd f0e3 163d b9eb 9c3b
00000270: cd00 103d dcdb a5bd 7ce0 043d bb76 2a3d
00000280: 418e bcbd b5c7 3cbd 79f5 96bd 442a e43b
00000290: 984c 713c b3b4 ee3c 8a81 59bb b7cd 6b3c
000002a0: 7a48 20be fca9 99bd d8d3 68bb c53a b9bd
000002b0: 5be1 bbbd 00e4 19be cd40 13bc b546 99bd
000002c0: 2ab2 6abe f7c2 abba f0f4 06bd 6ccd 0ebe
000002d0: 2374 45bd 819c 8f3a 6535 4d3d 7484 84bc
000002e0: 9fc4 393d 92bc 8ebc d310 593c 72c6 a73e
000002f0: 809b 81bc d902 a9bb 9c44 f7bc 86aa 993e
00000300: be73 40be 882a 3a3d b35d c2bd 0ece 053d
00000310: 3f71 f73d d5fd ec3d 775b 7bbc b8ad 8b3c
00000320: d9c7 8bbd d2a1 1ebc 880e 023d b763 00be
00000330: 8322 3dbd be51 ba3e 547f 9cbb ced9 96bd
00000340: d45c cebd f997 c6bc 0eee 083d 4451 983e
00000350: 53d5 1fbc c546 4fbd d58e d73c a976 e03b
00000360: c87b 9ebb 2969 f5bd 7eee 9cbd 79c2 c83c
00000370: a62c ab3c b7b3 f63b 9de9 203c b036 f73b
00000380: b2c8 f33d 9de4 693d 2cf6 71bc 827f 4f3a
00000390: f91c f13d a624 a23d 09ac 2fbd 546c 843c
000003a0: 269c fdbb a349 0b3e 10d9 a83e 3008 073d
000003b0: 1805 1b3d e0d3 d03d 8cdc debe e942 e13c
000003c0: 2331 54bd 14e1 afbd f4a1 ba3d c207 2bbc
000003d0: 85ec 67bd 6521 ba3c dca6 28be 12da 2bbd
000003e0: b782 c73d 91ac 483d cd17 b73d ba6c 6c3d
000003f0: 3e12 0c3e 2f43 98bb 2d7e 1ebd 1840 4a3d

layer_list.conv2.att_src f4 [1, 1, 7]
0.12590571 0.09179442 0.22963715 -0.104667984 0.10122505 -0.1268344 0.017614486
00000000: 6ded 003e b6fe bb3d 0026 6b3e 2b5c d6bd
00000010: 144f cf3d e1e0 01be 414c 903c

layer_list.conv2.att_dst f4 [1, 1, 7]
0.14297779 0.4502942 0.3283264 -0.032453295 0.1266204 -0.4398559 -0.3474224
00000000: c568 123e f68c e63e 661a a83e bfed 04bd
00000010: c7a8 013e cb34 e1be 59e1 b1be

layer_list.conv2.bias f4 [7]
-0.02833569 -0.45471975 0.09938538 0.43075085 0.07926812 -0.2661587 -0.43335542
00000000: 4020 e8bc 07d1 e8be 908a cb3d 608b dc3e
00000010: 5357 a23d f445 88be c3e0 ddbe

layer_list.conv2.lin_src.weight f4 [7, 64]
0.89412665 -0.72877103 -0.21831556 -0.99239326 -0.41394693 -0.77493423 -0.7876159 0.60732204
0.31837606 0.34051886 0.37545675 -0.4372133 0.8650488 -0.4391011 -0.81872284 0.7689294
0.44904232 0.83598894 -0.9693825 0.2803194 -0.49710044 -0.64163727 0.6615345 -0.8245144
-0.37016547 -0.72907704 -0.07499729 -1.0083332 0.7228277 -0.8778637 -0.77289516 0.35975435
0.8637214 -0.6986495 -1.0653977 -0.73317105 0.77500576 0.8454666 0.80478156 0.37498072
0.32257473 -0.72723174 -1.0628431 -0.70560855 0.55082583 0.37420744 0.7605496 0.6596103
-0.74082446 -0.91038793 -0.8529515 0.6913475 -0.6721127 -0.8967157 -0.83335125 -0.24680562
-0.9506187 0.9465705 0.68697697 -0.8780238 -0.5774402 -1.061622 0.7360177 -0.74285406
-0.080272876 -0.7108509 1.1106266 -0.93504953 0.6917295 -0.73093796 -0.24902712 -0.93529576
0.9320557 0.9342616 -1.0150483 1.0003155 -0.84161025 -0.912311 1.0266538 1.1597118
0.6835519 0.4590253 0.6633932 -0.27893177 -0.24084893 0.9688661 -0.9927097 1.0873257
-0.61889213 0.8707016 0.5350027 0.67869574 1.0474874 0.6143472 -0.89454335 -0.6276793
-0.5101956 -0.7111869 0.38432947 0.88959825 0.1044042 0.03886418 -0.8441504 -0.8019176
-0.7855868 0.9595837 -0.6195938 0.6037415 0.67142653 -0.97330683 -0.7320509 0.8145652
0.24191369 0.9198737 -0.9687579 -0.69191146 0.7321202 0.65120035 -0.24366985 -0.785614
-0.7011809 0.59380215 -0.7864596 0.724995 -0.33234382 1.1176281 0.86985725 -1.0075817
0.63855684 -0.15653576 0.8283798 0.20602474 -0.6652245 0.72713655 0.94564515 -0.9815273
-0.7799608 -0.95191115 -0.28225437 -0.89697254 -0.7039327 0.96588194 0.92365664 0.054139912
-0.7150156 0.83949006 0.88871306 -0.8848247 0.5928947 -0.9354978 -0.18818991 0.39670497
0.94311196 0.75325185 -0.8959112 0.90215045 -0.4805584 0.92647415 0.53527755 0.8036527
-0.69178164 0.15699334 0.91534567 -0.8467047 0.8573134 -0.69114596 -0.76972824 0.082064256
-0.6419651 -0.33542645 0.8885955 -0.84372926 0.5653048 -0.8419087 -0.7613898 0.8452943
-0.5246643 -0.718002 0.3634655 -0.8613629 0.6583735 -0.6638146 -0.8082648 -0.6739177
-0.7372722 0.58035266 -0.7318518 0.08267958 0.80513287 1.0054486 -1.0205194 0.60795623
-0.82385695 0.7452265 -0.8442284 0.86076975 0.96754277 0.50461805 -0.82510376 -0.94384015
-0.53534603 0.569943 0.6204333 0.72077763 0.89991194 -0.3856534 -0.7027886 -0.60129553
-0.8235859 -0.7448128 0.5071478 0.74536586 -0.49290895 0.47162226 0.80799323 -0.9446898
0.8346653 -0.8185555 0.5540008 0.5087935 -0.24378882 0.902184 0.8014826 -0.5195614
0.7174679 -0.7485861 0.76088303 0.8231837 -0.8387859 -0.45982143 0.85146725 0.72080874
0.6650273 -0.51174664 0.93328685 0.831845 -0.8685399 0.37256128 -0.20009619 -0.7991672
0.702699 0.97013104 -0.9218717 -0.48098114 -0.82083607 -0.55302507 0.8454333 -0.6844312
0.5638278 -0.9669794 0.8638063 -0.8059624 -0.41411528 0.35191166 0.81389594 0.66445637
00000000: 7ce5 643f bd90 3abf 1d8e 5fbe 7c0d 7ebf
00000010: daf0 d3be 1762 46bf 32a1 49bf 7579 1b3f
00000020: 3002 a33e 7d58 ae3e de3b c03e 6cda dfbe
00000030: d773 5d3f dcd1 e0be d297 51bf 8fd8 443f
00000040: e0e8 e53e 5f03 563f 7429 78bf 0686 8f3e
00000050: f383 febe 5742 24bf 535a 293f 6013 53bf
00000060: 5486 bdbe cba4 3abf 2e98 99bd 1011 81bf
00000070: 3c0b 393f adbb 60bf 75dc 45bf b931 b83e
00000080: d81c 5d3f b2da 32bf f45e 88bf 19b1 3bbf
00000090: c766 463f 8070 583f 2a06 4e3f 79fd bf3e
000000a0: 8428 a53e dc2b 3abf 3e0b 88bf c3a2 34bf
000000b0: ec02 0d3f 1e98 bf3e 61b3 423f 38dc 283f
000000c0: aca6 3dbf 2f0f 69bf 085b 5abf 26fc 303f
000000d0: 940f 2cbf 298f 65bf 8256 55bf 9dba 7cbe
000000e0: bf5b 73bf 7252 723f b9dd 2f3f 2bc6 60bf
000000f0: 1fd3 13bf 3be3 87bf a86b 3c3f af2b 3ebf
00000100: 1b66 a4bd 53fa 35bf 0329 8e3f 685f 6fbf
00000110: 2f15 313f c01e 3bbf f700 7fbe 8b6f 6fbf
00000120: 349b 6e3f c52b 6f3f 1aed 81bf 570a 803f
00000130: c573 57bf 378d 69bf 6469 833f 7071 943f
00000140: 42fd 2e3f 5d05 eb3e 23d4 293f 25d0 8ebe
00000150: 1aa1 76be 9c07 783f 3922 7ebf 7d2d 8b3f
00000160: b76f 1ebf 4de6 5e3f f0f5 083f 01bf 2d3f
00000170: 1114 863f dc45 1d3f cb00 65bf 97af 20bf
00000180: 2e9c 02bf 5810 36bf d5c6 c43e b6bc 633f
00000190: dfd1 d53d 0c30 1f3d 3e1a 58bf 794a 4dbf
000001a0: 371c 49bf 47a7 753f b39d 1ebf ce8e 1a3f
000001b0: 9ce2 2b3f a32a 79bf b067 3bbf 5887 503f
000001c0: 39b8 773e d87c 6b3f 8500 78bf 1c21 31bf
000001d0: 3b6c 3b3f 11b5 263f 9784 79be 001e 49bf
000001e0: 9780 33bf 6b03 183f 6b55 49bf 4699 393f
000001f0: f828 aabe 700e 8f3f f7ae 5e3f 70f8 80bf
00000200: 7678 233f e94a 20be b310 543f 26f8 523e
00000210: 274c 2abf 9f25 3a3f cd15 723f 6045 7bbf
00000220: 83ab 47bf 73b0 73bf a583 90be fe9f 65bf
00000230: ef34 34bf 0a44 773f c374 6c3f d0c1 5d3d
00000240: 430b 37bf d2e8 563f b382 633f df83 62bf
00000250: f2c7 173f c97c 6fbf dbb4 40be ea1c cb3e
00000260: c96f 713f 1dd5 403f 705a 65bf 55f3 663f
00000270: c00b f6be 692d 6d3f f307 093f 2fbc 4d3f
00000280: 9a18 31bf ddc2 203e 1854 6a3f a4c1 58bf
00000290: e478 5b3f f1ee 30bf e90c 45bf 4e11 a83d
000002a0: d357 24bf 04bd abbe ff7a 633f a4fe 57bf
000002b0: d1b7 103f 5487 57bf 71ea 42bf 3565 583f
000002c0: 6650 06bf fbce 37bf 2618 ba3e 4782 5cbf
000002d0: 2a8b 283f c1ef 29bf 71ea 4ebf df85 2cbf
000002e0: dfbd 3cbf fe91 143f a45a 3bbf e953 a93d
000002f0: 301d 4e3f 8ab2 803f 61a0 82bf 05a3 1b3f
00000300: 4ae8 52bf 2ac7 3e3f 5a1f 58bf 685b 5c3f
00000310: e2b0 773f a62e 013f 003a 53bf 829f 71bf
00000320: 700c 09bf c9e7 113f b7d4 1e3f e284 383f
00000330: a160 663f 5d74 c5be f4e9 33bf 81ee 19bf
00000340: 87d6 52bf 0dac 3ebf 70d4 013f 4cd0 3e3f
00000350: 905e fcbe 7978 f13e a5d8 4e3f 31d7 71bf
00000360: a0ac 553f da8c 51bf ffd2 0d3f 4a40 023f
00000370: c7a3 79be 88f5 663f f72d 4d3f fa01 05bf
00000380: faab 373f 57a3 3fbf 3bc9 423f 2bbc 523f
00000390: acba 56bf b76d ebbe c2f9 593f ec86 383f
000003a0: 3b3f 2a3f d401 03bf e3eb 6e3f cbf3 543f
000003b0: a258 5ebf 5ac0 be3e 04e6 4cbe 3996 4cbf
000003c0: 15e4 333f 825a 783f c9ff 6bbf 2943 f6be
000003d0: 5022 52bf 0d93 0dbf 516e 583f e236 2fbf
000003e0: 0557 103f f68b 77bf 6922 5d3f 8d53 4ebf
000003f0: eb06 d4be c42d b43e 7c5b 503f d019 2a3f

layer_list.conv2.lin_dst.weight f4 [7, 64]
0.89412665 -0.72877103 -0.21831556 -0.99239326 -0.41394693 -0.77493423 -0.7876159 0.60732204
0.31837606 0.34051886 0.37545675 -0.4372133 0.8650488 -0.4391011 -0.81872284 0.7689294
0.44904232 0.83598894 -0.9693825 0.2803194 -0.49710044 -0.64163727 0.6615345 -0.8245144
-0.37016547 -0.72907704 -0.07499729 -1.0083332 0.7228277 -0.8778637 -0.77289516 0.35975435
0.8637214 -0.6986495 -1.0653977 -0.73317105 0.77500576 0.8454666 0.80478156 0.37498072
0.32257473 -0.72723174 -1.0628431 -0.70560855 0.55082583 0.37420744 0.7605496 0.6596103
-0.74082446 -0.91038793 -0.8529515 0.6913475 -0.6721127 -0.8967157 -0.83335125 -0.24680562
-0.9506187 0.9465705 0.68697697 -0.8780238 -0.5774402 -1.061622 0.7360177 -0.74285406
-0.080272876 -0.7108509 1.1106266 -0.93504953 0.6917295 -0.73093796 -0.24902712 -0.93529576
0.9320557 0.9342616 -1.0150483 1.0003155 -0.84161025 -0.912311 1.0266538 1.1597118
0.6835519 0.4590253 0.6633932 -0.27893177 -0.24084893 0.9688661 -0.9927097 1.0873257
-0.61889213 0.8707016 0.5350027 0.67869574 1.0474874 0.6143472 -0.89454335 -0.6276793
-0.5101956 -0.7111869 0.38432947 0.88959825 0.1044042 0.03886418 -0.8441504 -0.8019176
-0.7855868 0.9595837 -0.6195938 0.6037415 0.67142653 -0.97330683 -0.7320509 0.8145652
0.24191369 0.9198737 -0.9687579 -0.69191146 0.7321202 0.65120035 -0.24366985 -0.785614
-0.7011809 0.59380215 -0.7864596 0.724995 -0.33234382 1.1176281 0.86985725 -1.0075817
0.63855684 -0.15653576 0.8283798 0.20602474 -0.6652245 0.72713655 0.94564515 -0.9815273
-0.7799608 -0.95191115 -0.28225437 -0.89697254 -0.7039327 0.96588194 0.92365664 0.054139912
-0.7150156 0.83949006 0.88871306 -0.8848247 0.5928947 -0.9354978 -0.18818991 0.39670497
0.94311196 0.75325185 -0.8959112 0.90215045 -0.4805584 0.92647415 0.53527755 0.8036527
-0.69178164 0.15699334 0.91534567 -0.8467047 0.8573134 -0.69114596 -0.76972824 0.082064256
-0.6419651 -0.33542645 0.8885955 -0.84372926 0.5653048 -0.8419087 -0.7613898 0.8452943
-0.5246643 -0.718002 0.3634655 -0.8613629 0.6583735 -0.6638146 -0.8082648 -0.6739177
-0.7372722 0.58035266 -0.7318518 0.08267958 0.80513287 1.0054486 -1.0205194 0.60795623
-0.82385695 0.7452265 -0.8442284 0.86076975 0.96754277 0.50461805 -0.82510376 -0.94384015
-0.53534603 0.569943 0.6204333 0.72077763 0.89991194 -0.3856534 -0.7027886 -0.60129553
-0.8235859 -0.7448128 0.5071478 0.74536586 -0.49290895 0.47162226 0.80799323 -0.9446898
0.8346653 -0.8185555 0.5540008 0.5087935 -0.24378882 0.902184 0.8014826 -0.5195614
0.7174679 -0.7485861 0.76088303 0.8231837 -0.8387859 -0.45982143 0.85146725 0.72080874
0.6650273 -0.51174664 0.93328685 0.831845 -0.8685399 0.37256128 -0.20009619 -0.7991672
0.702699 0.97013104 -0.9218717 -0.48098114 -0.82083607 -0.55302507 0.8454333 -0.6844312
0.5638278 -0.9669794 0.8638063 -0.8059624 -0.41411528 0.35191166 0.81389594 0.66445637
00000000: 7ce5 643f bd90 3abf 1d8e 5fbe 7c0d 7ebf
00000010: daf0 d3be 1762 46bf 32a1 49bf 7579 1b3f
00000020: 3002 a33e 7d58 ae3e de3b c03e 6cda dfbe
00000030: d773 5d3f dcd1 e0be d297 51bf 8fd8 443f
00000040: e0e8 e53e 5f03 563f 7429 78bf 0686 8f3e
00000050: f383 febe 5742 24bf 535a 293f 6013 53bf
00000060: 5486 bdbe cba4 3abf 2e98 99bd 1011 81bf
00000070: 3c0b 393f adbb 60bf 75dc 45bf b931 b83e
00000080: d81c 5d3f b2da 32bf f45e 88bf 19b1 3bbf
00000090: c766 463f 8070 583f 2a06 4e3f 79fd bf3e
000000a0: 8428 a53e dc2b 3abf 3e0b 88bf c3a2 34bf
000000b0: ec02 0d3f 1e98 bf3e 61b3 423f 38dc 283f
000000c0: aca6 3dbf 2f0f 69bf 085b 5abf 26fc 303f
000000d0: 940f 2cbf 298f 65bf 8256 55bf 9dba 7cbe
000000e0: bf5b 73bf 7252 723f b9dd 2f3f 2bc6 60bf
000000f0: 1fd3 13bf 3be3 87bf a86b 3c3f af2b 3ebf
00000100: 1b66 a4bd 53fa 35bf 0329 8e3f 685f 6fbf
00000110: 2f15 313f c01e 3bbf f700 7fbe 8b6f 6fbf
00000120: 349b 6e3f c52b 6f3f 1aed 81bf 570a 803f
00000130: c573 57bf 378d 69bf 6469 833f 7071 943f
00000140: 42fd 2e3f 5d05 eb3e 23d4 293f 25d0 8ebe
00000150: 1aa1 76be 9c07 783f 3922 7ebf 7d2d 8b3f
00000160: b76f 1ebf 4de6 5e3f f0f5 083f 01bf 2d3f
00000170: 1114 863f dc45 1d3f cb00 65bf 97af 20bf
00000180: 2e9c 02bf 5810 36bf d5c6 c43e b6bc 633f
00000190: dfd1 d53d 0c30 1f3d 3e1a 58bf 794a 4dbf
000001a0: 371c 49bf 47a7 753f b39d 1ebf ce8e 1a3f
000001b0: 9ce2 2b3f a32a 79bf b067 3bbf 5887 503f
000001c0: 39b8 773e d87c 6b3f 8500 78bf 1c21 31bf
000001d0: 3b6c 3b3f 11b5 263f 9784 79be 001e 49bf
000001e0: 9780 33bf 6b03 183f 6b55 49bf 4699 393f
000001f0: f828 aabe 700e 8f3f f7ae 5e3f 70f8 80bf
00000200: 7678 233f e94a 20be b310 543f 26f8 523e
00000210: 274c 2abf 9f25 3a3f cd15 723f 6045 7bbf
00000220: 83ab 47bf 73b0 73bf a583 90be fe9f 65bf
00000230: ef34 34bf 0a44 773f c374 6c3f d0c1 5d3d
00000240: 430b 37bf d2e8 563f b382 633f df83 62bf
00000250: f2c7 173f c97c 6fbf dbb4 40be ea1c cb3e
00000260: c96f 713f 1dd5 403f 705a 65bf 55f3 663f
00000270: c00b f6be 692d 6d3f f307 093f 2fbc 4d3f
00000280: 9a18 31bf ddc2 203e 1854 6a3f a4c1 58bf
00000290: e478 5b3f f1ee 30bf e90c 45bf 4e11 a83d
000002a0: d357 24bf 04bd abbe ff7a 633f a4fe 57bf
000002b0: d1b7 103f 5487 57bf 71ea 42bf 3565 583f
000002c0: 6650 06bf fbce 37bf 2618 ba3e 4782 5cbf
000002d0: 2a8b 283f c1ef 29bf 71ea 4ebf df85 2cbf
000002e0: dfbd 3cbf fe91 143f a45a 3bbf e953 a93d
000002f0: 301d 4e3f 8ab2 803f 61a0 82bf 05a3 1b3f
00000300: 4ae8 52bf 2ac7 3e3f 5a1f 58bf 685b 5c3f
00000310: e2b0 773f a62e 013f 003a 53bf 829f 71bf
00000320: 700c 09bf c9e7 113f b7d4 1e3f e284 383f
00000330: a160 663f 5d74 c5be f4e9 33bf 81ee 19bf
00000340: 87d6 52bf 0dac 3ebf 70d4 013f 4cd0 3e3f
00000350: 905e fcbe 7978 f13e a5d8 4e3f 31d7 71bf
00000360: a0ac 553f da8c 51bf ffd2 0d3f 4a40 023f
00000370: c7a3 79be 88f5 663f f72d 4d3f fa01 05bf
00000380: faab 373f 57a3 3fbf 3bc9 423f 2bbc 523f
00000390: acba 56bf b76d ebbe c2f9 593f ec86 383f
000003a0: 3b3f 2a3f d401 03bf e3eb 6e3f cbf3 543f
000003b0: a258 5ebf 5ac0 be3e 04e6 4cbe 3996 4cbf
000003c0: 15e4 333f 825a 783f c9ff 6bbf 2943 f6be
000003d0: 5022 52bf 0d93 0dbf 516e 583f e236 2fbf
000003e0: 0557 103f f68b 77bf 6922 5d3f 8d53 4ebf
000003f0: eb06 d4be c42d b43e 7c5b 503f d019 2a3f
