vanilla_models/Cora/5_3f_85/split0/init0/GAT_dp0_5_5e_4_f2.pt (torch, 372919 bytes, 10 tensors)

layer_list.conv1.att_src f4 [1, 8, 8]
0.3441474 0.22594967 -0.35786045 0.30398726 0.50481385 -0.37283373 0.23397468 -0.4439607
-0.58247656 -0.6838799 -0.65818435 -0.16377237 0.0896869 -0.3967349 0.3963985 -0.103182554
0.2540906 -0.69666445 0.73121774 0.49008557 -0.088134445 -0.1627752 -0.5158093 -0.8769712
-1.0451347 1.0027668 0.6579349 0.1590189 0.62844735 -0.6929079 -0.20235738 -0.4385488
0.06724467 0.08028412 -0.79984415 0.75487196 -0.36641222 0.106472015 0.0785657 0.9072015
0.34692246 -0.22565384 -0.31937984 -0.3528515 0.07245881 -0.30853403 0.17360757 0.082714245
0.23747683 0.67674273 0.07534999 -0.14718804 -0.76313925 0.42579827 0.20255975 0.37393418
0.16670305 -0.39394376 -0.009911396 0.7321592 -0.95336765 -0.604875 1.0047294 -0.9980234
00000000: 1734 b03e 5a5f 673e 7c39 b7be 38a4 9b3e
00000010: 7b3b 013f 10e4 bebe 0f97 6f3e d14e e3be
00000020: 2f1d 15bf c112 2fbf c57e 28bf f2b3 27be
00000030: c4ad b73d d620 cbbe bff4 ca3e 6051 d3bd
00000040: 2a18 823e 9a58 32bf 1631 3b3f 7fec fa3e
00000050: d57f b4bd 8bae 26be 140c 04bf 2f81 60bf
00000060: f9c6 85bf aa5a 803f 6c6e 283f dad5 223e
00000070: ede1 203f 6a62 31bf c636 4fbe 7889 e0be
00000080: 93b7 893d 006c a43d 96c2 4cbf 4a3f 413f
00000090: 629a bbbe 000e da3d 0ee7 a03d 5c3e 683f
000000a0: d29f b13e cd11 67be c185 a3be f4a8 b4be
000000b0: 4965 943d 2cf8 9dbe 2fc6 313e 1666 a93d
000000c0: 202d 733e 033f 2d3f 1851 9a3d 76b8 16be
000000d0: 185d 43bf 3b02 da3e d36b 4f3e 4d74 bf3e
000000e0: 34b4 2a3e ffb2 c9be 6863 22bc c96e 3b3f
000000f0: e70f 74bf 17d9 1abf f99a 803f 767e 7fbf

layer_list.conv1.att_dst f4 [1, 8, 8]
0.08706484 -0.08586051 -0.16156876 0.06608979 0.18001285 -0.045302078 0.030022532 -0.089689784
-0.14668468 -0.21825984 -0.1838297 -0.0137677295 0.079439 -0.12610976 0.14039119 -0.087853216
0.056433674 -0.10035211 0.20947188 0.11945524 -0.04462084 -0.091684945 -0.13669758 -0.12282164
-0.2724958 0.22301108 0.14335993 0.0668857 0.07200262 -0.15852734 -0.06819019 -0.035882942
0.013094164 0.046589665 -0.05080312 0.16880877 -0.047290742 -0.0543045 0.0059799813 0.16883981
0.14038931 -0.00934932 -0.14915639 -0.16376938 -0.009157128 -0.14619978 0.032734502 0.085029155
0.068480015 0.20699763 -0.056924477 -0.012608637 -0.237373 0.10205227 0.042112347 0.04712286
-0.08560229 -0.15340334 0.09616761 0.26317775 -0.25176302 -0.1842342 0.14691375 -0.23655257
00000000: 0d4f b23d a3d7 afbd 4872 25be 155a 873d
00000010: 4a55 383e ac8e 39bd d0f1 f53c 47af b7bd
00000020: 8234 16be 827f 5fbe da3d 3cbe 0b92 61bc
00000030: eab0 a23d eb22 01be b5c2 0f3e 63ec b3bd
00000040: ff26 673d 6885 cdbd cc7f 563e f3a4 f43d
00000050: 58c4 36bd 51c5 bbbd 73fa 0bbe e989 fbbd
00000060: 9284 8bbe 045d 643e f2cc 123e 5ffb 883d
00000070: 1c76 933d fe54 22be 4ca7 8bbd fef9 12bd
00000080: e888 563c ced4 3e3d ef16 50bd 35dc 2c3e
00000090: f0b3 41bd 656e 5ebd b8f3 c33b 58e4 2c3e
000000a0: 37c2 0f3e e42d 19bc 74bc 18be 29b3 27be
000000b0: c707 16bc 65b5 15be 9d14 063d c423 ae3d
000000c0: 403f 8c3d 30f7 533e a429 69bd 7594 4ebc
000000d0: e811 73be c800 d13d ff7d 2c3d e603 413d
000000e0: 4150 afbd c415 1dbe 86f3 c43d 3cbf 863e
000000f0: 15e7 80be e4a7 3cbe 8f70 163e d63a 72be

layer_list.conv1.bias f4 [64]
0.0016141885 -0.024600554 0.032806013 0.018823287 0.019303244 -0.014442024 0.0063775354 0.02794251
-0.00011123445 0.0013603797 -0.00537194 -0.0024102286 0.026030535 0.008762476 0.019382818 0.010422188
-0.0051286235 0.06145987 0.029468736 0.007615235 -0.0055320677 -0.018333355 0.016356304 0.023558818
0.03323436 0.035365477 0.015685854 0.0114283655 -0.0075524626 0.011524602 0.024184048 0.0024974078
0.0009943239 0.019052388 0.01877443 0.017000612 0.004082231 0.010308035 0.018200032 -0.0034318753
-0.023093373 0.029064275 -0.02764478 -0.02868885 0.027652897 0.00044263425 -0.029641965 0.015287323
-0.0063594272 6.292526e-05 -0.019022206 0.022028275 -0.016994203 0.006378452 0.0059657507 0.0111743845
0.014860065 -0.0024204387 -0.013485095 -0.0073115723 0.022840556 0.037200786 -0.013308134 0.021228772
00000000: 2e93 d33a 1a87 c9bc 995f 063d 4b33 9a3c
00000010: d621 9e3c 3d9e 6cbc a5fa d03b b1e7 e43c
00000020: 8a46 e9b8 c54e b23a 1907 b0bb edf4 1dbb
00000030: fd3d d53c 7d90 0f3c b7c8 9e3c d3c1 2a3c
00000040: 030e a8bb 58bd 7b3d 6b68 f13c 3989 f93b
00000050: 5946 b5bb d52f 96bc a8fd 853c 6cfe c03c
00000060: c120 083d 64db 103d 9f7f 803c 0a3e 3b3c
00000070: a67a f7bb afd1 3c3c a01d c63c 8dab 233b
00000080: f953 823a c113 9c3c d5cc 993c de44 8b3c
00000090: 3cc4 853b 08e3 283c 3c18 953c 50e9 60bb
000000a0: 502e bdbc 3418 ee3c 4e77 e2bc e104 ebbc
000000b0: 5488 e23c 5d11 e839 b5d3 f2bc ae77 7a3c
000000c0: be62 d0bb bef6 8338 75d4 9bbc a474 b43c
000000d0: 6d37 8bbc 5502 d13b 587c c33b c414 373c
000000e0: a177 733c 39a0 1ebb 97f0 5cbc ea95 efbb
000000f0: 1e1c bb3c da5f 183d 5c0a 5abc f6e7 ad3c

layer_list.conv1.lin_src.weight f4 [64, 1433]
-0.010521522 -0.12581739 -0.1055243 -0.08153545 -0.019742075 0.03212895 0.06584307 -0.017502941
0.099980034 0.018456688 -0.00015581853 -0.034396175 -0.14856444 0.04399175 0.011396981 0.036245417
-0.20015103 0.024733547 0.007574934 0.22360569 -0.015215211 -0.055781722 0.0053090127 0.046892345
-0.004411362 -0.02176746 0.1701168 0.050787985 0.025122117 -0.04266189 -0.067476995 -0.025498068
0.01894436 -0.017586999 0.015758809 -0.0102641815 0.032411706 -0.020175522 -0.05568922 -0.022503074
0.006753526 0.043782767 0.04111672 -0.00135348 0.08707254 -0.15755904 0.06585652 0.005708517
0.08191826 -0.012620935 -0.08529715 -0.34770697 0.08800776 0.040167533 0.0047482373 0.02796641
-0.044775646 0.046940565 -0.08370093 -0.047728978 -0.041480582 0.23330496 -0.00021367046 -0.083107784
0.06493269 -0.10722101 0.10749973 0.098702684 0.083042 -0.021308674 0.079194084 -0.015055733
0.07501284 0.080524884 -0.049724013 0.070653975 -0.02339584 0.036338724 0.021376248 -0.029356766
-0.002057831 -0.0168537 -0.071537256 -0.004501327 0.020046718 0.08465707 0.026813252 -0.04367517
0.12493563 -0.07526582 0.021916226 0.03149275 0.09023613 0.05954021 -0.06646185 -0.014748674
-0.05147917 0.043870185 -0.022301603 0.16151772 -0.08307133 0.011243599 -0.07331643 0.004753803
0.0045008864 0.004056952 0.02282944 -0.037560992 -0.061550967 0.07456484 0.017852513 -0.05391
-0.11365226 0.044534605 -0.0028737474 -0.013075295 -0.07888805 -0.014041052 0.20810427 0.016028192
0.0029330207 0.057184137 -0.0049266703 0.06397973 0.0801309 0.32272682 -0.04261168 -0.047079686
-0.037850697 -0.15974177 0.18897845 -0.11690591 0.18917376 -0.09374336 -0.0018026448 -0.1809523
0.044128656 -0.037785016 -0.02993534 -0.07072934 0.34212533 -0.042122778 0.061925124 -0.037542645
-0.06683223 0.010484628 0.039738942 -0.037397977 -0.027397174 -0.15236843 0.019700512 -0.07087585
0.027035927 -0.06553164 0.15500303 -0.06194688 -0.03947883 0.107112676 0.02106372 -0.0022479196
0.079102814 -0.0020693757 0.025791932 0.07033547 0.04836606 -0.053632885 -0.0013504882 0.12678272
0.0901898 0.06525937 -0.045100916 0.21210907 0.03663285 -0.04802147 -0.05890367 -0.0006352906
-0.060544472 -0.011597343 -0.080191635 0.08302505 0.016547292 -0.008619648 6.161581e-05 0.022297466
0.0063777883 0.007659181 -0.046402708 -0.0073872954 -0.013400315 0.020356802 -0.004869415 0.07498484
0.009319394 0.043986205 -0.123327635 -0.015457862 0.0011639287 -0.019564915 -0.035703287 -0.044572577
-0.06028979 0.023657791 -0.0063072094 -0.03372151 -0.002212599 -0.024708169 -0.036296763 0.0726982
-0.0050055687 -0.003008431 -0.0008275512 -0.23059998 -0.05596788 0.06439934 -0.062368732 -0.012936306
-0.020497628 0.06441806 0.18125655 -0.007042164 -0.029129436 -0.061056115 -0.058657292 0.0028843447
0.18606141 -0.028358636 0.03029283 -0.04759123 0.0111241955 -0.0040510953 -0.015154992 0.084094904
-0.055492643 0.20504934 -0.014317003 0.043622702 -0.023148222 -0.13624904 0.2801934 0.053446304
0.13438791 0.03052327 -0.00045258613 -0.0029499049 0.036007438 -0.050791923 -0.11692831 0.08816137
0.10110564 0.05813517 -0.15962394 -0.011443947 -0.016728863 -0.020954793 -0.003804543 0.039678667
00000000: 7662 2cbc 46d6 00be 201d d8bd 0ffc a6bd
00000010: 22ba a1bc a599 033d bbd8 863d 5462 8fbc
00000020: 55c2 cc3d 7b32 973c 3863 23b9 01e3 0cbd
00000030: 4721 18be b130 343d 67ba 3a3c 1376 143d
00000040: 64f4 4cbe 029e ca3c 2737 f83b e4f8 643e
00000050: 3849 79bc 607b 64bd 3af7 ad3b 3012 403d
00000060: 308d 90bb ac51 b2bc 1933 2e3e 1007 503d
00000070: e6cc cd3c 3cbe 2ebd 6131 8abd 53e1 d0bc
00000080: 3431 9b3c 9c12 90bc 9e18 813c 192b 28bc
00000090: 23c2 043d 2347 a5bc 611a 64bd 5e58 b8bc
000000a0: af4c dd3b 8f55 333d 016a 283d 4167 b1ba
000000b0: 1653 b23d 2857 21be c8df 863d 830e bb3b
000000c0: c3c4 a73d 0ac8 4ebc 46b0 aebd a606 b2be
000000d0: 6a3d b43d b686 243d 1a97 9b3b d019 e53c
000000e0: ab66 37bd c044 403d 656b abbd 767f 43bd
000000f0: 8be7 29bd 7fe7 6e3e ba0c 60b9 6a34 aabd
00000100: 6efb 843d b096 dbbd d228 dc3d a224 ca3d
00000110: ed11 aa3d 878f aebc 8230 a23d 52ac 76bc
00000120: 55a0 993d 3bea a43d 68ab 4bbd 08b3 903d
00000130: a2a8 bfbc ead7 143d 3e1d af3c 9a7d f0bc
00000140: addc 06bb c510 8abc 2082 92bd de7f 93bb
00000150: 0439 a43c b060 ad3d 77a7 db3c bce4 32bd
00000160: 40de ff3d f724 9abd a889 b33c 8bfe 003d
00000170: b8cd b83d 6fe0 733d 271d 88bd 6ca4 71bc
00000180: d2db 52bd 39b1 333d dab1 b6bc e764 253e
00000190: 4d21 aabd 1237 383c ed26 96bd cac5 9b3b
000001a0: 2c7c 933b 2ef0 843b ce04 bb3c 8ed9 19bd
000001b0: de1c 7cbd 73b5 983d 6f3f 923c bbd0 5cbd
000001c0: 84c2 e8bd eb69 363d 7b55 3cbb c339 56bc
000001d0: 0f90 a1bd 710c 66bc 4919 553e 8e4d 833c
000001e0: ec37 403b ea39 6a3d e86f a1bb ce07 833d
000001f0: ab1b a43d 733c a53e 9689 2ebd a1d6 40bd
00000200: 5509 1bbd 5993 23be 9183 413e 5e6c efbd
00000210: c4b6 413e 85fc bfbd b946 ecba 8f4b 39be
00000220: 40c0 343d 76c4 1abd f53a f5bc 8bda 90bd
00000230: 0d2b af3e ef88 2cbd 33a5 7d3d 51c6 19bd
00000240: 56df 88bd b8c7 2b3c 4dc5 223d 9f2e 19bd
00000250: 0a70 e0bc 7806 1cbe f862 a13c 5c27 91bd
00000260: 737a dd3c 7435 86bd 1db9 1e3e 03bc 7dbd
00000270: 8eb4 21bd e45d db3d d38d ac3c d551 13bb
00000280: a800 a23d 5d9e 07bb 9a49 d33c 0b0c 903d
00000290: 7d1b 463d 28ae 5bbd dd02 b1ba 54d3 013e
000002a0: 6eb5 b83d b4a6 853d bdbb 38bd 1f33 593e
000002b0: 540c 163d 29b2 44bd fa44 71bd a189 26ba
000002c0: 7bfd 77bd c802 3ebc 833b a4bd 0a09 aa3d
000002d0: 308e 873c 6d39 0dbc bc37 8138 2da9 b63c
000002e0: c4fc d03b def9 fa3b c410 3ebd 2011 f2bb
000002f0: ff8c 5bbc 4fc3 a63c 9d8f 9fbb a791 993d
00000300: 5fb0 183c e12a 343d 3393 fcbd f942 7dbc
00000310: f78e 983a 9a46 a0bc 9c3d 12bd bc91 36bd
00000320: 6df2 76bd fccd c13c b5ac cebb 911f 0abd
00000330: 4001 11bb c968 cabc eaab 14bd cbe2 943d
00000340: c105 a4bb 1929 45bb 05f0 58ba 6722 6cbe
00000350: 933e 65bd cde3 833d 5b76 7fbd cdf2 53bc
00000360: a4ea a7bc 9eed 833d 519b 393e f4c1 e6bb
00000370: dba0 eebc fa15 7abd a142 70bd 4607 3d3b
00000380: e286 3e3e 5f50 e8bc ab28 f83c 06ef 42bd
00000390: 4242 363c 0dbf 84bb a54c 78bc f339 ac3d
000003a0: 414c 63bd 74f8 513e dd91 6abc b8ad 323d
000003b0: 57a1 bdbc de84 0bbe 8275 8f3e 83ea 5a3d
000003c0: fc9c 093e f00b fa3c 1549 edb9 3153 41bb
000003d0: 897c 133d 310b 50bd 1c78 efbd f38d b43d
000003e0: 7910 cf3d 251f 6e3d 7574 23be 657f 3bbc
000003f0: f80a 89bc 63a9 abbc a455 79bb 1986 223d

layer_list.conv1.lin_dst.weight f4 [64, 1433]
-0.010521522 -0.12581739 -0.1055243 -0.08153545 -0.019742075 0.03212895 0.06584307 -0.017502941
0.099980034 0.018456688 -0.00015581853 -0.034396175 -0.14856444 0.04399175 0.011396981 0.036245417
-0.20015103 0.024733547 0.007574934 0.22360569 -0.015215211 -0.055781722 0.0053090127 0.046892345
-0.004411362 -0.02176746 0.1701168 0.050787985 0.025122117 -0.04266189 -0.067476995 -0.025498068
0.01894436 -0.017586999 0.015758809 -0.0102641815 0.032411706 -0.020175522 -0.05568922 -0.022503074
0.006753526 0.043782767 0.04111672 -0.00135348 0.08707254 -0.15755904 0.06585652 0.005708517
0.08191826 -0.012620935 -0.08529715 -0.34770697 0.08800776 0.040167533 0.0047482373 0.02796641
-0.044775646 0.046940565 -0.08370093 -0.047728978 -0.041480582 0.23330496 -0.00021367046 -0.083107784
0.06493269 -0.10722101 0.10749973 0.098702684 0.083042 -0.021308674 0.079194084 -0.015055733
0.07501284 0.080524884 -0.049724013 0.070653975 -0.02339584 0.036338724 0.021376248 -0.029356766
-0.002057831 -0.0168537 -0.071537256 -0.004501327 0.020046718 0.08465707 0.026813252 -0.04367517
0.12493563 -0.07526582 0.021916226 0.03149275 0.09023613 0.05954021 -0.06646185 -0.014748674
-0.05147917 0.043870185 -0.022301603 0.16151772 -0.08307133 0.011243599 -0.07331643 0.004753803
0.0045008864 0.004056952 0.02282944 -0.037560992 -0.061550967 0.07456484 0.017852513 -0.05391
-0.11365226 0.044534605 -0.0028737474 -0.013075295 -0.07888805 -0.014041052 0.20810427 0.016028192
0.0029330207 0.057184137 -0.0049266703 0.06397973 0.0801309 0.32272682 -0.04261168 -0.047079686
-0.037850697 -0.15974177 0.18897845 -0.11690591 0.18917376 -0.09374336 -0.0018026448 -0.1809523
0.044128656 -0.037785016 -0.02993534 -0.07072934 0.34212533 -0.042122778 0.061925124 -0.037542645
-0.06683223 0.010484628 0.039738942 -0.037397977 -0.027397174 -0.15236843 0.019700512 -0.07087585
0.027035927 -0.06553164 0.15500303 -0.06194688 -0.03947883 0.107112676 0.02106372 -0.0022479196
0.079102814 -0.0020693757 0.025791932 0.07033547 0.04836606 -0.053632885 -0.0013504882 0.12678272
0.0901898 0.06525937 -0.045100916 0.21210907 0.03663285 -0.04802147 -0.05890367 -0.0006352906
-0.060544472 -0.011597343 -0.080191635 0.08302505 0.016547292 -0.008619648 6.161581e-05 0.022297466
0.0063777883 0.007659181 -0.046402708 -0.0073872954 -0.013400315 0.020356802 -0.004869415 0.07498484
0.009319394 0.043986205 -0.123327635 -0.015457862 0.0011639287 -0.019564915 -0.035703287 -0.044572577
-0.06028979 0.023657791 -0.0063072094 -0.03372151 -0.002212599 -0.024708169 -0.036296763 0.0726982
-0.0050055687 -0.003008431 -0.0008275512 -0.23059998 -0.05596788 0.06439934 -0.062368732 -0.012936306
-0.020497628 0.06441806 0.18125655 -0.007042164 -0.029129436 -0.061056115 -0.058657292 0.0028843447
0.18606141 -0.028358636 0.03029283 -0.04759123 0.0111241955 -0.0040510953 -0.015154992 0.084094904
-0.055492643 0.20504934 -0.014317003 0.043622702 -0.023148222 -0.13624904 0.2801934 0.053446304
0.13438791 0.03052327 -0.00045258613 -0.0029499049 0.036007438 -0.050791923 -0.11692831 0.08816137
0.10110564 0.05813517 -0.15962394 -0.011443947 -0.016728863 -0.020954793 -0.003804543 0.039678667
00000000: 7662 2cbc 46d6 00be 201d d8bd 0ffc a6bd
00000010: 22ba a1bc a599 033d bbd8 863d 5462 8fbc
00000020: 55c2 cc3d 7b32 973c 3863 23b9 01e3 0cbd
00000030: 4721 18be b130 343d 67ba 3a3c 1376 143d
00000040: 64f4 4cbe 029e ca3c 2737 f83b e4f8 643e
00000050: 3849 79bc 607b 64bd 3af7 ad3b 3012 403d
00000060: 308d 90bb ac51 b2bc 1933 2e3e 1007 503d
00000070: e6cc cd3c 3cbe 2ebd 6131 8abd 53e1 d0bc
00000080: 3431 9b3c 9c12 90bc 9e18 813c 192b 28bc
00000090: 23c2 043d 2347 a5bc 611a 64bd 5e58 b8bc
000000a0: af4c dd3b 8f55 333d 016a 283d 4167 b1ba
000000b0: 1653 b23d 2857 21be c8df 863d 830e bb3b
000000c0: c3c4 a73d 0ac8 4ebc 46b0 aebd a606 b2be
000000d0: 6a3d b43d b686 243d 1a97 9b3b d019 e53c
000000e0: ab66 37bd c044 403d 656b abbd 767f 43bd
000000f0: 8be7 29bd 7fe7 6e3e ba0c 60b9 6a34 aabd
00000100: 6efb 843d b096 dbbd d228 dc3d a224 ca3d
00000110: ed11 aa3d 878f aebc 8230 a23d 52ac 76bc
00000120: 55a0 993d 3bea a43d 68ab 4bbd 08b3 903d
00000130: a2a8 bfbc ead7 143d 3e1d af3c 9a7d f0bc
00000140: addc 06bb c510 8abc 2082 92bd de7f 93bb
00000150: 0439 a43c b060 ad3d 77a7 db3c bce4 32bd
00000160: 40de ff3d f724 9abd a889 b33c 8bfe 003d
00000170: b8cd b83d 6fe0 733d 271d 88bd 6ca4 71bc
00000180: d2db 52bd 39b1 333d dab1 b6bc e764 253e
00000190: 4d21 aabd 1237 383c ed26 96bd cac5 9b3b
000001a0: 2c7c 933b 2ef0 843b ce04 bb3c 8ed9 19bd
000001b0: de1c 7cbd 73b5 983d 6f3f 923c bbd0 5cbd
000001c0: 84c2 e8bd eb69 363d 7b55 3cbb c339 56bc
000001d0: 0f90 a1bd 710c 66bc 4919 553e 8e4d 833c
000001e0: ec37 403b ea39 6a3d e86f a1bb ce07 833d
000001f0: ab1b a43d 733c a53e 9689 2ebd a1d6 40bd
00000200: 5509 1bbd 5993 23be 9183 413e 5e6c efbd
00000210: c4b6 413e 85fc bfbd b946 ecba 8f4b 39be
00000220: 40c0 343d 76c4 1abd f53a f5bc 8bda 90bd
00000230: 0d2b af3e ef88 2cbd 33a5 7d3d 51c6 19bd
00000240: 56df 88bd b8c7 2b3c 4dc5 223d 9f2e 19bd
00000250: 0a70 e0bc 7806 1cbe f862 a13c 5c27 91bd
00000260: 737a dd3c 7435 86bd 1db9 1e3e 03bc 7dbd
00000270: 8eb4 21bd e45d db3d d38d ac3c d551 13bb
00000280: a800 a23d 5d9e 07bb 9a49 d33c 0b0c 903d
00000290: 7d1b 463d 28ae 5bbd dd02 b1ba 54d3 013e
000002a0: 6eb5 b83d b4a6 853d bdbb 38bd 1f33 593e
000002b0: 540c 163d 29b2 44bd fa44 71bd a189 26ba
000002c0: 7bfd 77bd c802 3ebc 833b a4bd 0a09 aa3d
000002d0: 308e 873c 6d39 0dbc bc37 8138 2da9 b63c
000002e0: c4fc d03b def9 fa3b c410 3ebd 2011 f2bb
000002f0: ff8c 5bbc 4fc3 a63c 9d8f 9fbb a791 993d
00000300: 5fb0 183c e12a 343d 3393 fcbd f942 7dbc
00000310: f78e 983a 9a46 a0bc 9c3d 12bd bc91 36bd
00000320: 6df2 76bd fccd c13c b5ac cebb 911f 0abd
00000330: 4001 11bb c968 cabc eaab 14bd cbe2 943d
00000340: c105 a4bb 1929 45bb 05f0 58ba 6722 6cbe
00000350: 933e 65bd cde3 833d 5b76 7fbd cdf2 53bc
00000360: a4ea a7bc 9eed 833d 519b 393e f4c1 e6bb
00000370: dba0 eebc fa15 7abd a142 70bd 4607 3d3b
00000380: e286 3e3e 5f50 e8bc ab28 f83c 06ef 42bd
00000390: 4242 363c 0dbf 84bb a54c 78bc f339 ac3d
000003a0: 414c 63bd 74f8 513e dd91 6abc b8ad 323d
000003b0: 57a1 bdbc de84 0bbe 8275 8f3e 83ea 5a3d
000003c0: fc9c 093e f00b fa3c 1549 edb9 3153 41bb
000003d0: 897c 133d 310b 50bd 1c78 efbd f38d b43d
000003e0: 7910 cf3d 251f 6e3d 7574 23be 657f 3bbc
000003f0: f80a 89bc 63a9 abbc a455 79bb 1986 223d

layer_list.conv2.att_src f4 [1, 1, 7]
-0.076614924 -0.07902001 -0.033202637 -0.041649275 0.0441164 -0.062340405 0.13675067
00000000: 49e8 9cbd 3ed5 a1bd 7dff 07bd 6e98 2abd
00000010: 66b3 343d a758 7fbd 5e08 0c3e

layer_list.conv2.att_dst f4 [1, 1, 7]
-0.16801588 -0.13999638 -0.13454953 0.26636863 0.32383996 -0.12954395 0.17944631
00000000: 5b0c 2cbe 365b 0fbe 5ac7 09be 7861 883e
00000010: 5ace a53e 2ba7 04be c6c0 373e

layer_list.conv2.bias f4 [7]
-0.26880056 -0.68954045 -0.11226466 0.75237167 0.1880991 -0.4312751 -0.60072356
00000000: 3aa0 89be b985 30bf 04eb e5bd 6e9b 403f
00000010: 0d9d 403e 17d0 dcbe 05c9 19bf

layer_list.conv2.lin_src.weight f4 [7, 64]
-0.6910978 1.4057443 -1.2066007 -0.93403614 1.4415287 1.2271732 -0.7099637 1.1960007
-0.99635994 -1.3367013 -1.2221764 -0.6141668 -1.4980589 -1.3755273 0.94951 -1.2830378
1.442209 1.0350513 -1.0375345 -0.08861155 1.4563822 1.1896125 0.27876267 -0.46941528
-0.2591941 -0.9279018 -1.5474836 0.7587936 1.2477381 -1.4773722 -0.70868105 -1.1397231
0.8590725 -0.9926378 1.3297118 0.54667336 0.37979114 1.0378909 1.1141486 -1.398337
1.3360882 -1.2002037 -0.6519512 -1.507258 0.93783766 -0.64352417 1.3686496 -0.1980187
-1.1538986 -1.2166759 -1.2754415 1.615598 1.1236653 0.068130694 1.4308542 -1.3442235
1.1936557 -1.4252121 0.6380738 1.0866622 -1.2698029 0.82442194 0.80215704 0.30894187
-1.1468453 1.0978273 1.1143355 -0.71823746 -1.3717802 -1.124046 0.52404267 0.70393634
1.3155441 1.3356895 0.98275363 -0.5614899 0.85067254 -1.1781338 -0.15799512 -0.13701579
-1.0450906 -0.5815323 1.3010464 -0.08528384 -1.5244322 -1.1996601 0.8094978 -0.9710969
-0.84385544 1.1236697 1.351049 1.1136827 -0.45282197 1.4470674 -0.6984865 -1.3006235
0.39722756 -1.3659781 -1.2173128 0.9076986 -1.5571712 0.9576729 0.9524642 1.3118068
-0.9608086 0.2785729 -0.7373451 1.1813952 0.9586916 -1.0307882 1.0829289 -1.1838363
-0.08895997 -0.8703733 1.3635718 1.3872696 0.69451016 -1.3493843 -1.1753533 1.0749866
0.2503146 1.0783116 -1.0296417 1.1733549 -1.284232 -0.7236924 1.372212 -1.5148568
1.2685333 0.98247886 -1.1918714 0.9720099 1.2128716 -1.0368797 0.44807073 -1.358323
1.2653728 1.063363 0.9902511 -0.82161 -1.2272958 1.1082845 -1.2814518 -0.85814506
-1.1213381 -1.0703185 1.1631582 -1.2179897 1.2964914 -1.1056974 0.6654671 -0.7808298
-1.1641343 0.69313043 0.9876654 -1.3087587 1.2032228 -1.2653612 1.3243737 -0.9404213
-1.405203 0.9609105 -0.82329476 1.0262953 -0.4440009 -1.2558067 -1.3076031 0.9971882
-0.9122901 1.0015982 0.9978362 0.87083626 -1.3073777 1.012577 1.087346 0.9804225
-1.0137573 1.2687548 0.7738112 -0.9374091 -1.231731 -1.2121605 0.72891575 1.0707605
-1.1666964 -0.98959696 1.0611322 0.8295884 -0.928841 -1.2360406 1.0630591 -1.0935888
1.3805081 -1.252916 1.1838233 -1.2413259 -0.7743341 -0.88972867 -1.3624742 0.25546992
-1.4122688 -0.25324103 0.9788477 1.3482823 1.3341334 0.9471247 0.94495475 -0.32944673
-1.3734068 1.2801584 -1.4734645 -1.2396561 -0.7340173 -0.11856578 1.3149569 1.4646945
1.2545142 -1.2810364 -1.28035 -1.4011078 -1.2112169 1.4378015 1.1043782 -1.0993683
-0.8856357 0.98819333 0.26001987 -1.2076684 1.3546401 -1.2091942 -1.0259199 0.15626946
0.23446779 1.4343866 -1.1703697 0.6432508 -0.2926916 -1.2326744 -1.2307643 0.91888934
0.8020654 -1.3680961 -0.53933996 -1.3985842 1.3341264 -1.4628334 -1.2508233 0.2916783
-1.3167189 1.514538 0.66989905 0.90360653 1.0284287 1.0203471 -1.370486 1.4203068
00000000: c9eb 30bf 6eef b33f e471 9abf fe1c 6fbf
00000010: 0384 b83f 0314 9d3f 2ec0 35bf 8d16 993f
00000020: 7211 7fbf 0719 abbf 4770 9cbf 093a 1dbf
00000030: 65c0 bfbf 4711 b0bf 1613 733f 953a a4bf
00000040: 4e9a b83f 907c 843f eecd 84bf f979 b5bd
00000050: bb6a ba3f 3945 983f fbb9 8e3e 3357 f0be
00000060: 17b5 84be f98a 6dbf f113 c6bf 4c40 423f
00000070: e2b5 9f3f 881a bdbf 1f6c 35bf 72e2 91bf
00000080: 2dec 5b3f 831d 7ebf ff33 aa3f c9f2 0b3f
00000090: fc73 c23e 9cd9 843f 6c9c 8e3f b5fc b2bf
000000a0: f004 ab3f 46a0 99bf 46e6 26bf d5ed c0bf
000000b0: 2116 703f 00be 24bf e92f af3f 6ac5 4abe
000000c0: f3b2 93bf 09bc 9bbf ab41 a3bf eacb ce3f
000000d0: 44d4 8f3f 1b88 8b3d 3b26 b73f 840f acbf
000000e0: b6c9 983f 5a6d b6bf ce58 233f bf17 8b3f
000000f0: e788 a2bf 510d 533f 2a5a 4d3f a12d 9e3e
00000100: d4cb 92bf 9b85 8c3f 8ca2 8e3f 69de 37bf
00000110: 7e96 afbf bde0 8fbf a927 063f 2c35 343f
00000120: c063 a83f e0f7 aa3f be95 7b3f cdbd 0fbf
00000130: adc5 593f 17cd 96bf 79c9 21be de4d 0cbe
00000140: 87c5 85bf 4ddf 14bf b088 a63f 4ba9 aebd
00000150: 9820 c3bf 768e 99bf 3f3b 4f3f ce99 78bf
00000160: e906 58bf 69d4 8f3f 2cef ac3f 288d 8e3f
00000170: 48d8 e7be 8139 b93f 03d0 32bf d57a a6bf
00000180: 6961 cb3e 5fd8 aebf e8d0 9bbf ef5e 683f
00000190: 6351 c7bf 0d2a 753f b2d4 733f 49e9 a73f
000001a0: 8df7 75bf 1ba1 8e3e a6c2 3cbf f537 973f
000001b0: d06c 753f def0 83bf 6a9d 8a3f f387 97bf
000001c0: a530 b6bd c9d0 5ebf 8589 ae3f 0d92 b13f
000001d0: 6bcb 313f a0b8 acbf fa71 96bf 2999 893f
000001e0: 3c29 803e 1d06 8a3f 4dcb 83bf 7e30 963f
000001f0: b761 a4bf e843 39bf a5a4 af3f d4e6 c1bf
00000200: 4d5f a23f bc83 7b3f 3e8f 98bf a4d5 783f
00000210: 603f 9b3f 79b8 84bf 8769 e53e 87dd adbf
00000220: bcf7 a13f 471c 883f 1981 7d3f 0855 52bf
00000230: 0718 9dbf 44dc 8d3f 9d06 a4bf 65af 5bbf
00000240: 0288 8fbf 3200 89bf 5ee2 943f 16e7 9bbf
00000250: 6ef3 a53f 7e87 8dbf 0d5c 2a3f 76e4 47bf
00000260: 5a02 95bf ff70 313f a4d7 7c3f 6885 a7bf
00000270: 3403 9a3f 5bf7 a1bf 1485 a93f 73bf 70bf
00000280: b1dd b3bf 3bfe 753f 72c3 52bf a55d 833f
00000290: 1654 e3be 46be a0bf 8a5f a7bf ba47 7f3f
000002a0: d88b 69bf 5f34 803f 3172 7f3f 20ef 5e3f
000002b0: 2758 a7bf 209c 813f 272e 8b3f f8fc 7a3f
000002c0: cdc2 81bf 8f66 a23f 7e18 463f 0bfa 6fbf
000002d0: 5da9 9dbf 1328 9bbf 399a 3a3f ae0e 893f
000002e0: 4f56 95bf 3a56 7dbf 2ed3 873f e85f 543f
000002f0: 86c8 6dbf 9436 9ebf 5212 883f b8fa 8bbf
00000300: 7db4 b03f 8d5f a0bf 8687 973f c4e3 9ebf
00000310: c23a 46bf 42c5 63bf 8e65 aebf f4cc 823e
00000320: 39c5 b4bf cfa8 81be c395 7a3f 8494 ac3f
00000330: e2c4 aa3f c476 723f 8ee8 713f 3ead a8be
00000340: cbcb afbf 3bdc a33f 7c9a bcbf 0dad 9ebf
00000350: 8fe8 3bbf 9ed2 f2bd 8250 a83f 1c7b bb3f
00000360: ec93 a03f 00f9 a3bf 82e2 a3bf 8057 b3bf
00000370: 2809 9bbf e109 b83f 445c 8d3f 1ab8 8cbf
00000380: 05b9 62bf 3dfa 7c3f 5321 853e e194 9abf
00000390: d964 ad3f e0c6 9abf 5851 83bf 1a05 203e
000003a0: 5318 703e fb99 b73f adce 95bf 16ac 243f
000003b0: acdb 95be 46c8 9dbf af89 9dbf 553c 6b3f
000003c0: 2854 4d3f c61d afbf 2f12 0abf cf04 b3bf
000003d0: a7c4 aa3f 203e bbbf fa1a a0bf dc56 953e
000003e0: 3f8a a8bf 62dc c13f 817e 2b3f c252 673f
000003f0: 8da3 833f bc9a 823f 166c afbf 9dcc b53f

layer_list.conv2.lin_dst.weight f4 [7, 64]
-0.6910978 1.4057443 -1.2066007 -0.93403614 1.4415287 1.2271732 -0.7099637 1.1960007
-0.99635994 -1.3367013 -1.2221764 -0.6141668 -1.4980589 -1.3755273 0.94951 -1.2830378
1.442209 1.0350513 -1.0375345 -0.08861155 1.4563822 1.1896125 0.27876267 -0.46941528
-0.2591941 -0.9279018 -1.5474836 0.7587936 1.2477381 -1.4773722 -0.70868105 -1.1397231
0.8590725 -0.9926378 1.3297118 0.54667336 0.37979114 1.0378909 1.1141486 -1.398337
1.3360882 -1.2002037 -0.6519512 -1.507258 0.93783766 -0.64352417 1.3686496 -0.1980187
-1.1538986 -1.2166759 -1.2754415 1.615598 1.1236653 0.068130694 1.4308542 -1.3442235
1.1936557 -1.4252121 0.6380738 1.0866622 -1.2698029 0.82442194 0.80215704 0.30894187
-1.1468453 1.0978273 1.1143355 -0.71823746 -1.3717802 -1.124046 0.52404267 0.70393634
1.3155441 1.3356895 0.98275363 -0.5614899 0.85067254 -1.1781338 -0.15799512 -0.13701579
-1.0450906 -0.5815323 1.3010464 -0.08528384 -1.5244322 -1.1996601 0.8094978 -0.9710969
-0.84385544 1.1236697 1.351049 1.1136827 -0.45282197 1.4470674 -0.6984865 -1.3006235
0.39722756 -1.3659781 -1.2173128 0.9076986 -1.5571712 0.9576729 0.9524642 1.3118068
-0.9608086 0.2785729 -0.7373451 1.1813952 0.9586916 -1.0307882 1.0829289 -1.1838363
-0.08895997 -0.8703733 1.3635718 1.3872696 0.69451016 -1.3493843 -1.1753533 1.0749866
0.2503146 1.0783116 -1.0296417 1.1733549 -1.284232 -0.7236924 1.372212 -1.5148568
1.2685333 0.98247886 -1.1918714 0.9720099 1.2128716 -1.0368797 0.44807073 -1.358323
1.2653728 1.063363 0.9902511 -0.82161 -1.2272958 1.1082845 -1.2814518 -0.85814506
-1.1213381 -1.0703185 1.1631582 -1.2179897 1.2964914 -1.1056974 0.6654671 -0.7808298
-1.1641343 0.69313043 0.9876654 -1.3087587 1.2032228 -1.2653612 1.3243737 -0.9404213
-1.405203 0.9609105 -0.82329476 1.0262953 -0.4440009 -1.2558067 -1.3076031 0.9971882
-0.9122901 1.0015982 0.9978362 0.87083626 -1.3073777 1.012577 1.087346 0.9804225
-1.0137573 1.2687548 0.7738112 -0.9374091 -1.231731 -1.2121605 0.72891575 1.0707605
-1.1666964 -0.98959696 1.0611322 0.8295884 -0.928841 -1.2360406 1.0630591 -1.0935888
1.3805081 -1.252916 1.1838233 -1.2413259 -0.7743341 -0.88972867 -1.3624742 0.25546992
-1.4122688 -0.25324103 0.9788477 1.3482823 1.3341334 0.9471247 0.94495475 -0.32944673
-1.3734068 1.2801584 -1.4734645 -1.2396561 -0.7340173 -0.11856578 1.3149569 1.4646945
1.2545142 -1.2810364 -1.28035 -1.4011078 -1.2112169 1.4378015 1.1043782 -1.0993683
-0.8856357 0.98819333 0.26001987 -1.2076684 1.3546401 -1.2091942 -1.0259199 0.15626946
0.23446779 1.4343866 -1.1703697 0.6432508 -0.2926916 -1.2326744 -1.2307643 0.91888934
0.8020654 -1.3680961 -0.53933996 -1.3985842 1.3341264 -1.4628334 -1.2508233 0.2916783
-1.3167189 1.514538 0.66989905 0.90360653 1.0284287 1.0203471 -1.370486 1.4203068
00000000: c9eb 30bf 6eef b33f e471 9abf fe1c 6fbf
00000010: 0384 b83f 0314 9d3f 2ec0 35bf 8d16 993f
00000020: 7211 7fbf 0719 abbf 4770 9cbf 093a 1dbf
00000030: 65c0 bfbf 4711 b0bf 1613 733f 953a a4bf
00000040: 4e9a b83f 907c 843f eecd 84bf f979 b5bd
00000050: bb6a ba3f 3945 983f fbb9 8e3e 3357 f0be
00000060: 17b5 84be f98a 6dbf f113 c6bf 4c40 423f
00000070: e2b5 9f3f 881a bdbf 1f6c 35bf 72e2 91bf
00000080: 2dec 5b3f 831d 7ebf ff33 aa3f c9f2 0b3f
00000090: fc73 c23e 9cd9 843f 6c9c 8e3f b5fc b2bf
000000a0: f004 ab3f 46a0 99bf 46e6 26bf d5ed c0bf
000000b0: 2116 703f 00be 24bf e92f af3f 6ac5 4abe
000000c0: f3b2 93bf 09bc 9bbf ab41 a3bf eacb ce3f
000000d0: 44d4 8f3f 1b88 8b3d 3b26 b73f 840f acbf
000000e0: b6c9 983f 5a6d b6bf ce58 233f bf17 8b3f
000000f0: e788 a2bf 510d 533f 2a5a 4d3f a12d 9e3e
00000100: d4cb 92bf 9b85 8c3f 8ca2 8e3f 69de 37bf
00000110: 7e96 afbf bde0 8fbf a927 063f 2c35 343f
00000120: c063 a83f e0f7 aa3f be95 7b3f cdbd 0fbf
00000130: adc5 593f 17cd 96bf 79c9 21be de4d 0cbe
00000140: 87c5 85bf 4ddf 14bf b088 a63f 4ba9 aebd
00000150: 9820 c3bf 768e 99bf 3f3b 4f3f ce99 78bf
00000160: e906 58bf 69d4 8f3f 2cef ac3f 288d 8e3f
00000170: 48d8 e7be 8139 b93f 03d0 32bf d57a a6bf
00000180: 6961 cb3e 5fd8 aebf e8d0 9bbf ef5e 683f
00000190: 6351 c7bf 0d2a 753f b2d4 733f 49e9 a73f
000001a0: 8df7 75bf 1ba1 8e3e a6c2 3cbf f537 973f
000001b0: d06c 753f def0 83bf 6a9d 8a3f f387 97bf
000001c0: a530 b6bd c9d0 5ebf 8589 ae3f 0d92 b13f
000001d0: 6bcb 313f a0b8 acbf fa71 96bf 2999 893f
000001e0: 3c29 803e 1d06 8a3f 4dcb 83bf 7e30 963f
000001f0: b761 a4bf e843 39bf a5a4 af3f d4e6 c1bf
00000200: 4d5f a23f bc83 7b3f 3e8f 98bf a4d5 783f
00000210: 603f 9b3f 79b8 84bf 8769 e53e 87dd adbf
00000220: bcf7 a13f 471c 883f 1981 7d3f 0855 52bf
00000230: 0718 9dbf 44dc 8d3f 9d06 a4bf 65af 5bbf
00000240: 0288 8fbf 3200 89bf 5ee2 943f 16e7 9bbf
00000250: 6ef3 a53f 7e87 8dbf 0d5c 2a3f 76e4 47bf
00000260: 5a02 95bf ff70 313f a4d7 7c3f 6885 a7bf
00000270: 3403 9a3f 5bf7 a1bf 1485 a93f 73bf 70bf
00000280: b1dd b3bf 3bfe 753f 72c3 52bf a55d 833f
00000290: 1654 e3be 46be a0bf 8a5f a7bf ba47 7f3f
000002a0: d88b 69bf 5f34 803f 3172 7f3f 20ef 5e3f
000002b0: 2758 a7bf 209c 813f 272e 8b3f f8fc 7a3f
000002c0: cdc2 81bf 8f66 a23f 7e18 463f 0bfa 6fbf
000002d0: 5da9 9dbf 1328 9bbf 399a 3a3f ae0e 893f
000002e0: 4f56 95bf 3a56 7dbf 2ed3 873f e85f 543f
000002f0: 86c8 6dbf 9436 9ebf 5212 883f b8fa 8bbf
00000300: 7db4 b03f 8d5f a0bf 8687 973f c4e3 9ebf
00000310: c23a 46bf 42c5 63bf 8e65 aebf f4cc 823e
00000320: 39c5 b4bf cfa8 81be c395 7a3f 8494 ac3f
00000330: e2c4 aa3f c476 723f 8ee8 713f 3ead a8be
00000340: cbcb afbf 3bdc a33f 7c9a bcbf 0dad 9ebf
00000350: 8fe8 3bbf 9ed2 f2bd 8250 a83f 1c7b bb3f
00000360: ec93 a03f 00f9 a3bf 82e2 a3bf 8057 b3bf
00000370: 2809 9bbf e109 b83f 445c 8d3f 1ab8 8cbf
00000380: 05b9 62bf 3dfa 7c3f 5321 853e e194 9abf
00000390: d964 ad3f e0c6 9abf 5851 83bf 1a05 203e
000003a0: 5318 703e fb99 b73f adce 95bf 16ac 243f
000003b0: acdb 95be 46c8 9dbf af89 9dbf 553c 6b3f
000003c0: 2854 4d3f c61d afbf 2f12 0abf cf04 b3bf
000003d0: a7c4 aa3f 203e bbbf fa1a a0bf dc56 953e
000003e0: 3f8a a8bf 62dc c13f 817e 2b3f c252 673f
000003f0: 8da3 833f bc9a 823f 166c afbf 9dcc b53f
