vanilla_models/Cora/5_3f_85/split0/init0/GAT_dp0_5_5e_4_f1.pt (torch, 372919 bytes, 10 tensors)

layer_list.conv1.att_src f4 [1, 8, 8]
00000000: 9c41 893f 991c 52bf 3a9e 66bf 0747 623f
00000010: 4dba abbd c7be 843f fcdc 083d 7c1c d4be
00000020: af3b 063f ac7f 19bf 1eb9 7f3f fc9e 5dbf
00000030: 8938 183f b593 51bf bb52 953e d244 22bd
00000040: 0d91 83bf 4850 21bf 6232 1e3f 7453 2dbe
00000050: 1078 763f 918a ebbe baef 99be f433 71bf
00000060: 73fe 55bf 8976 033f 3f59 183f d97d 443f
00000070: 49fd 503f 2d4a bfbd 4838 253f ea24 31bf
00000080: b5bb 393e 6993 97be b960 233e 342c c0bd
00000090: 7b56 263d c898 aa3d a182 39be f250 2f3e
000000a0: 3a8a 533f 8561 0abf f27e 0c3f eb55 36bf
000000b0: 6b8f 8dbe e9ed 293f 31e9 903d 544b 683f
000000c0: b83a 87be 86e7 07bf c504 213f bcac 16bf
000000d0: da9f 0a3f d915 9d3d bc5c 4f3f aa60 2b3f
000000e0: 1d1b 753f 69b1 b23e 1aa7 53bf 2873 d13e
000000f0: 5818 c13e 1b74 283f 3d67 543f 9002 173f
1.0723147 -0.82074887 -0.90085185 0.8838963 -0.083851434 1.0370721 0.033413872 -0.41427982
0.5243482 -0.59960437 0.9989184 -0.86570716 0.59461266 -0.8186601 0.2916468 -0.039616413
-1.0278641 -0.63013124 0.6179563 -0.16926366 0.9627695 -0.46004155 -0.3006571 -0.942199
-0.83591384 0.51352745 0.5951118 0.7675453 0.8163648 -0.0934032 0.64539003 -0.6919695
0.18138011 -0.29604653 0.15954866 -0.09383431 0.040609818 0.08329922 -0.18116237 0.17120722
0.8263279 -0.54055053 0.54881203 -0.7122485 -0.27648482 0.6637865 0.07075728 0.9073994
-0.26411986 -0.5308765 0.628979 -0.5885732 0.54150164 0.07670183 0.81000876 0.6694437
0.95744497 0.34900978 -0.8267685 0.4090817 0.37713885 0.6580216 0.8297003 0.58988285

layer_list.conv1.att_dst f4 [1, 8, 8]
00000000: fa3a bb3e 9185 8bbe 4e7b 5abe 1ddd af3e
00000010: 15a8 c0bb f011 a13e 349b b23d a044 37bd
00000020: 5e39 ed3d 8c5b 33bd d53d 683e 4829 6dbe
00000030: 2f93 e63d a4db 16be 7d1f 4a3c d88b d13d
00000040: d071 0bbe 3b0f 1abd 0a0b ba3d 6dab 01be
00000050: 356e 0d3e 79b0 10be cf2f 5e3d 06fb 3cbe
00000060: b439 2dbe 677d 8b3d a6cd 2c3d 56a3 373e
00000070: 7e28 2f3e a4c2 fa3c 94f4 583d c4bd b2bc
00000080: 6b56 383d 6be3 2bbe 52e8 9d3d a7c3 2bbd
00000090: bfbf 973d d733 363b ce79 f3bd 520a 013e
000000a0: f05d 183e 3982 e1bd af83 1bbc 1c76 3cbe
000000b0: 3e64 5dbd 1207 903d 08bc 92bd 87e8 553e
000000c0: 4e7f 213c 5e76 03be be24 f83d 0247 11be
000000d0: f806 103e 8f47 0cbd f470 2e3e 4b08 413e
000000e0: cba0 0f3e 992a 33bc a4a7 15be 59b8 27bc
000000f0: 499f 1e3d f28a 8d3d ef50 0f3e b4ff b43d
0.36568433 -0.2725034 -0.213361 0.34348384 -0.005879412 0.31458998 0.08721009 -0.04474318
0.115832075 -0.043788478 0.22679837 -0.23160279 0.11258542 -0.14732224 0.012336609 0.10231751
-0.13617635 -0.03761218 0.09084137 -0.1266305 0.13811572 -0.14129819 0.054244813 -0.18455133
-0.16916543 0.06811028 0.04218831 0.17933401 0.1710529 0.03061039 0.052967623 -0.021819003
0.04500429 -0.16785972 0.07710327 -0.041934635 0.074096195 0.0027801895 -0.11888467 0.12601593
0.14879584 -0.11011166 -0.009491845 -0.1840443 -0.054050677 0.070325986 -0.0716477 0.20889483
0.009857012 -0.12838122 0.12116383 -0.14187244 0.14065158 -0.03424793 0.17035276 0.1885082
0.14026181 -0.010935449 -0.14614731 -0.010236823 0.038726125 0.06911267 0.13995717 0.08837834

layer_list.conv1.bias f4 [64]
00000000: fc11 92ba 664f 0e3d dcc7 64bc fcaf d9ba
00000010: a241 9cbc 93a4 8ebc 4143 193d 8373 223d
00000020: 7f0e 1abd e1c5 9f38 4f4e e33b 9ebe 0f3c
00000030: a2a6 e43c 01c8 f03c 918e 9b3c 3e3a c4bb
00000040: 4f18 3d3d 2a0f 943c d4ab 22bc fe04 35bb
00000050: 8ab8 9dbb c341 973a a37f 0e3b 0c26 843c
00000060: 2f78 ea3c 84fe e33c 21e2 c63c 6f91 173d
00000070: 28c1 7ebb bf3b b23c c9f8 2ebc 7e17 b23b
00000080: ec94 2f3d 4cdc 733b a279 523d 574a 813c
00000090: c189 903b 8305 adbc cc30 e7bb 579b 343c
000000a0: 5e7f 41bc 7b30 a93c b646 79bb e19c 273d
000000b0: 4382 053d 809a 3e3c e687 e03b 4c36 413c
000000c0: 323f b43b 8ded 993c 59c9 c9bb c93a 4c3d
000000d0: d12e 203d 8964 d638 f094 2e3c 30ef 883c
000000e0: 5d01 273b e4d5 b73c a058 333b 9d01 0c3d
000000f0: dbde 793b 97cd ba3c 5277 e53b d0ce 193c
-0.0011144276 0.03474369 -0.013963666 -0.0016608234 -0.019074265 -0.01741246 0.037417654 0.03966094
-0.03761148 7.6185686e-05 0.0069368253 0.008773474 0.027911488 0.029392244 0.01898888 -0.0059883883
0.04616576 0.018073637 -0.009928662 -0.0027621384 -0.0048132585 0.0011539984 0.0021743558 0.016131423
0.028621761 0.027831323 0.024277749 0.03700393 -0.0038872454 0.021757005 -0.010679432 0.0054349294
0.042866632 0.0037210165 0.05138553 0.015782518 0.004410953 -0.021120792 -0.0070553776 0.011023364
-0.011810152 0.020653 -0.0038036532 0.040921096 0.03259493 0.011633515 0.006852138 0.011792731
0.0055006975 0.01879003 -0.0061580357 0.04986075 0.039107148 0.00010223041 0.010655627 0.016715616
0.002548299 0.022440858 0.0027366057 0.034181226 0.0038127217 0.022803111 0.0070027495 0.009387687

layer_list.conv1.lin_src.weight f4 [64, 1433]
00000000: b705 f93b 23d5 9dbd 4d16 67bd e592 8c3e
00000010: 1387 2fbe 3eb3 abbc d7a1 8d3e e927 b5bd
00000020: 1f73 8dbc 859b 553d 73de 88bd 465d 4abd
00000030: ca99 02bd 71ff 12bd f68b 31bd 2f55 c03c
00000040: 358a 7b3e 3f1b 3b3b cf79 a03d 6e54 04be
00000050: 8999 7db9 209f b73a 8360 043b 2b0b 883d
00000060: fada 62bd b9fe 793e e0bb 373e 158f d73d
00000070: 1a94 b5bc 2312 38bd 0820 d9bd cc9f efbb
00000080: d982 cebc be77 263d 0382 9f3c 76b4 58bd
00000090: 2081 8c3d fdaa 1b3c e923 8d3d 245c a2bd
000000a0: e88b 92bc ee11 193d b63a 7bbc 5c91 98bd
000000b0: 441e 37bd 40aa 7a3c 4106 06bd 6b5e 96bd
000000c0: f8d1 1cbe f804 a73d 11e0 08be 9de1 0c3f
000000d0: ec0b 573e 1053 02bd e962 543d 711c f8bd
000000e0: 90e2 cd3d 8a39 17be d622 bb3d 320a 60bd
000000f0: 4e94 9f3b 5c8b 4e3e a7ef 3e3d 5e75 6cbc
00000100: 3664 17bc 0f96 2cbe 413e 95bd 591a 41be
00000110: 0324 a4bd 41c1 ab3d f67f d6bd 401d e93a
00000120: 347b 5cbd f96c 05bd fbe0 c6bb 8964 87bd
00000130: c934 5d3c 3c05 1c3d a50b a9bd 018d 2f3d
00000140: 7b05 c4bd 877a 00be c7eb cabd 615b 4e3d
00000150: 4701 3dbc d31f 0abe ca77 87bd c736 4bbb
00000160: 0946 12be 8c7c 603a 013c 8cbd 5e8c 1fbd
00000170: 235a 82bd ba78 0fbe 1c41 5ebc 6815 143e
00000180: e918 a1bd 90d3 d93d 2cdd 9cbc b248 763e
00000190: 5450 df3c 1efe 503c 072d 853c c152 fa3b
000001a0: 919e b73d 3bb3 85bd 5acb 75bd b4be 3dbc
000001b0: f2ec 19be 9d11 2bbc 3642 a13d f8dd 3ebc
000001c0: cfa4 c23d 8d5a 3c3d 0257 fb3c 2616 273d
000001d0: 434e 10bc c9e2 07bc 4f88 9c3d 23cf 6dbc
000001e0: 9cc5 693d 40bc 35bd 5363 8cbd 2520 9bbc
000001f0: 3f7b 08bd af4d c73c f817 9a3c 9d3b aa3c
00000200: f423 b53d 29da 5b3e 591f b2bd 3132 f83d
00000210: cab5 a73d 77d4 f53d 636e 3dbd d6bf 083e
00000220: e00f 01be 5dd6 f83c 46f7 c43c d352 bebd
00000230: 8fe1 cd3e 97d9 a13b 529a 68bc 0fa0 293e
00000240: 0d92 51bc b7dd c33d 575d 9aba 4e7d 8b3c
00000250: 443e 893c 69fa b23c 32f3 54bd e54c a13d
00000260: 0c0c 78bd 762f b0bd 6888 413d e054 633c
00000270: e67c d8bc f4a3 5bbe e546 573a 21b8 57bd
00000280: 70e9 c5bc c62c 0fbd cf58 963d 1523 3e3d
00000290: 9e28 983c e923 233d 4c7a e3bc 8bf8 03bd
000002a0: dae1 80be c493 95bc 502e d63d def1 3c3a
000002b0: 78bf fbbd 4185 9ebd a337 1fbd 5ae1 69be
000002c0: 8433 d3bb 83c9 3ebe 9486 ff3c 834c f83a
000002d0: bc59 23bb 6ea4 e13b 177f 10be 3cdf 473b
000002e0: 1293 6bbd 2877 7abc 2369 983c c95d 15be
000002f0: 616e 97bc 157f 1cbc 4b35 d5bb 71bf 6cbc
00000300: c85f ea3a 3d4b 0e3c 989f 0ebe f04e 203d
00000310: 572f 88bd 7307 adbc 55d7 17bd 0f0a 80bd
00000320: 82be 84bd cb93 8b3c 63ea 3a3d 749d 65be
00000330: 4f0e 513d 92a1 673e db93 06bd fb3d 02bd
00000340: a7cb 37be 8b92 b73c f533 2d3c de98 b33e
00000350: 8a9c fb3d eb1d 9e3c 75cd 943c 2b4b c2bd
00000360: cfbb a5bc 006b 60bd eec0 cf3c dcda 193d
00000370: 2a2f ef3c d6de dbbd 2039 93bd ffdf 5fb9
00000380: dec5 95bd 6e40 9dbc 364b 47bd 50fa 7f3c
00000390: 89d7 ebbd 8adf 26bd 1d49 84bd fe42 53be
000003a0: 8871 c43d 844a 92bd 3b7d 1dbe 65d5 8a3b
000003b0: 60dc eebc 2bdb 033e 7871 98be ba43 71bd
000003c0: d2a5 06bd 57a4 7fbc b95d 84bd c465 93bd
000003d0: fa5b 703b 8571 2ebd 9a0d ed3d 2a1e 8a3b
000003e0: 5599 1cbe bc59 96bd 2b6d e5bc 5a75 babc
000003f0: 0a97 f5bd 6496 d23c 777a f0bc 3c5b 79bc
0.007599558 -0.07706668 -0.056417752 0.27455822 -0.1714137 -0.020959493 0.27662537 -0.08845503
-0.017266808 0.052150268 -0.06683054 -0.04940536 -0.031884946 -0.03588814 -0.043346368 0.023478119
0.2456444 0.0028550175 0.07835733 -0.12922832 -0.00024185157 0.0014009215 0.0020199127 0.06642755
-0.055384614 0.24413575 0.17942762 0.105253376 -0.022165347 -0.04493917 -0.106018126 -0.0073127504
-0.025208877 0.04064154 0.019471174 -0.052906476 0.06860566 0.009501216 0.06891615 -0.07927731
-0.017888978 0.037370615 -0.015333822 -0.074496 -0.044706598 0.01529938 -0.032720808 -0.073422275
-0.15314472 0.081552446 -0.13366725 0.5503176 0.21000642 -0.031817496 0.05185214 -0.121148
0.10052979 -0.14768043 0.09137504 -0.054697223 0.004869974 0.20170349 0.04661527 -0.014432279
-0.009240201 -0.16854118 -0.072872646 -0.18857707 -0.08014681 0.0838647 -0.10473625 0.0017785206
-0.053828433 -0.032574628 -0.0060693 -0.066109724 0.0135013545 0.03809093 -0.08254174 0.04285908
-0.09571358 -0.1254674 -0.09908252 0.050380114 -0.011535949 -0.13488702 -0.06614645 -0.0031007992
-0.14284529 0.0008563481 -0.06847382 -0.038952224 -0.063648485 -0.14010897 -0.013565328 0.14461291
-0.07866079 0.106360555 -0.019148432 0.24051169 0.027259983 0.012755899 0.016256822 0.0076392596
0.08965791 -0.06528326 -0.060008384 -0.011581112 -0.15031794 -0.010441211 0.07873957 -0.011649601
0.09504091 0.045984793 0.030681137 0.040792607 -0.008807722 -0.008293816 0.07643186 -0.014514717
0.05707322 -0.044368982 -0.06854882 -0.018936226 -0.03332066 0.024329035 0.018810257 0.020780379
0.08844748 0.2146994 -0.08697385 0.12118948 0.081889704 0.12003415 -0.04624785 0.1335443
-0.12603712 0.030375654 0.02404369 -0.09293141 0.4021115 0.004939269 -0.014196949 0.16564964
-0.012791169 0.09563773 -0.0011777085 0.017027523 0.016753323 0.02184792 -0.05198974 0.078759946
-0.060558364 -0.086028025 0.047249228 0.013875216 -0.026426744 -0.21449262 0.0008212163 -0.052665833
-0.024159163 -0.03495481 0.07341158 0.046420176 0.018574055 0.03982917 -0.027768277 -0.03221945
-0.2517231 -0.018258937 0.10458052 0.0007207672 -0.12292379 -0.0774026 -0.03887142 -0.22839871
-0.00644535 -0.18631558 0.031192102 0.0018943701 -0.0024925312 0.0068860566 -0.14110981 0.0030498048
-0.057513304 -0.015287198 0.01860482 -0.14586557 -0.01848525 -0.009551783 -0.006506597 -0.01444994
0.0017881328 0.00868493 -0.13928068 0.03913778 -0.06649654 -0.021121716 -0.03707059 -0.062519185
-0.06481649 0.017038247 0.045633685 -0.22423345 0.051039036 0.22620228 -0.03285585 -0.03179739
-0.17948781 0.022408744 0.01057147 0.35077566 0.12285717 0.019301375 0.018164376 -0.094869934
-0.020231156 -0.054789543 0.02536055 0.037562236 0.029197294 -0.10735862 -0.0718863 -0.00021350382
-0.07313131 -0.019195762 -0.04865571 0.015623644 -0.115157194 -0.040740527 -0.06459258 -0.20631024
0.09591967 -0.07143119 -0.15379803 0.0042368644 -0.029157817 0.12876575 -0.2977407 -0.05890248
-0.032872982 -0.0156031465 -0.06463189 -0.07197145 0.0036675916 -0.04258873 0.1157486 0.0042150216
-0.15292867 -0.07341334 -0.028006157 -0.022761036 -0.11991699 0.025706477 -0.02935527 -0.015219506

layer_list.conv1.lin_dst.weight f4 [64, 1433]
00000000: b705 f93b 23d5 9dbd 4d16 67bd e592 8c3e
00000010: 1387 2fbe 3eb3 abbc d7a1 8d3e e927 b5bd
00000020: 1f73 8dbc 859b 553d 73de 88bd 465d 4abd
00000030: ca99 02bd 71ff 12bd f68b 31bd 2f55 c03c
00000040: 358a 7b3e 3f1b 3b3b cf79 a03d 6e54 04be
00000050: 8999 7db9 209f b73a 8360 043b 2b0b 883d
00000060: fada 62bd b9fe 793e e0bb 373e 158f d73d
00000070: 1a94 b5bc 2312 38bd 0820 d9bd cc9f efbb
00000080: d982 cebc be77 263d 0382 9f3c 76b4 58bd
00000090: 2081 8c3d fdaa 1b3c e923 8d3d 245c a2bd
000000a0: e88b 92bc ee11 193d b63a 7bbc 5c91 98bd
000000b0: 441e 37bd 40aa 7a3c 4106 06bd 6b5e 96bd
000000c0: f8d1 1cbe f804 a73d 11e0 08be 9de1 0c3f
000000d0: ec0b 573e 1053 02bd e962 543d 711c f8bd
000000e0: 90e2 cd3d 8a39 17be d622 bb3d 320a 60bd
000000f0: 4e94 9f3b 5c8b 4e3e a7ef 3e3d 5e75 6cbc
00000100: 3664 17bc 0f96 2cbe 413e 95bd 591a 41be
00000110: 0324 a4bd 41c1 ab3d f67f d6bd 401d e93a
00000120: 347b 5cbd f96c 05bd fbe0 c6bb 8964 87bd
00000130: c934 5d3c 3c05 1c3d a50b a9bd 018d 2f3d
00000140: 7b05 c4bd 877a 00be c7eb cabd 615b 4e3d
00000150: 4701 3dbc d31f 0abe ca77 87bd c736 4bbb
00000160: 0946 12be 8c7c 603a 013c 8cbd 5e8c 1fbd
00000170: 235a 82bd ba78 0fbe 1c41 5ebc 6815 143e
00000180: e918 a1bd 90d3 d93d 2cdd 9cbc b248 763e
00000190: 5450 df3c 1efe 503c 072d 853c c152 fa3b
000001a0: 919e b73d 3bb3 85bd 5acb 75bd b4be 3dbc
000001b0: f2ec 19be 9d11 2bbc 3642 a13d f8dd 3ebc
000001c0: cfa4 c23d 8d5a 3c3d 0257 fb3c 2616 273d
000001d0: 434e 10bc c9e2 07bc 4f88 9c3d 23cf 6dbc
000001e0: 9cc5 693d 40bc 35bd 5363 8cbd 2520 9bbc
000001f0: 3f7b 08bd af4d c73c f817 9a3c 9d3b aa3c
00000200: f423 b53d 29da 5b3e 591f b2bd 3132 f83d
00000210: cab5 a73d 77d4 f53d 636e 3dbd d6bf 083e
00000220: e00f 01be 5dd6 f83c 46f7 c43c d352 bebd
00000230: 8fe1 cd3e 97d9 a13b 529a 68bc 0fa0 293e
00000240: 0d92 51bc b7dd c33d 575d 9aba 4e7d 8b3c
00000250: 443e 893c 69fa b23c 32f3 54bd e54c a13d
00000260: 0c0c 78bd 762f b0bd 6888 413d e054 633c
00000270: e67c d8bc f4a3 5bbe e546 573a 21b8 57bd
00000280: 70e9 c5bc c62c 0fbd cf58 963d 1523 3e3d
00000290: 9e28 983c e923 233d 4c7a e3bc 8bf8 03bd
000002a0: dae1 80be c493 95bc 502e d63d def1 3c3a
000002b0: 78bf fbbd 4185 9ebd a337 1fbd 5ae1 69be
000002c0: 8433 d3bb 83c9 3ebe 9486 ff3c 834c f83a
000002d0: bc59 23bb 6ea4 e13b 177f 10be 3cdf 473b
000002e0: 1293 6bbd 2877 7abc 2369 983c c95d 15be
000002f0: 616e 97bc 157f 1cbc 4b35 d5bb 71bf 6cbc
00000300: c85f ea3a 3d4b 0e3c 989f 0ebe f04e 203d
00000310: 572f 88bd 7307 adbc 55d7 17bd 0f0a 80bd
00000320: 82be 84bd cb93 8b3c 63ea 3a3d 749d 65be
00000330: 4f0e 513d 92a1 673e db93 06bd fb3d 02bd
00000340: a7cb 37be 8b92 b73c f533 2d3c de98 b33e
00000350: 8a9c fb3d eb1d 9e3c 75cd 943c 2b4b c2bd
00000360: cfbb a5bc 006b 60bd eec0 cf3c dcda 193d
00000370: 2a2f ef3c d6de dbbd 2039 93bd ffdf 5fb9
00000380: dec5 95bd 6e40 9dbc 364b 47bd 50fa 7f3c
00000390: 89d7 ebbd 8adf 26bd 1d49 84bd fe42 53be
000003a0: 8871 c43d 844a 92bd 3b7d 1dbe 65d5 8a3b
000003b0: 60dc eebc 2bdb 033e 7871 98be ba43 71bd
000003c0: d2a5 06bd 57a4 7fbc b95d 84bd c465 93bd
000003d0: fa5b 703b 8571 2ebd 9a0d ed3d 2a1e 8a3b
000003e0: 5599 1cbe bc59 96bd 2b6d e5bc 5a75 babc
000003f0: 0a97 f5bd 6496 d23c 777a f0bc 3c5b 79bc
0.007599558 -0.07706668 -0.056417752 0.27455822 -0.1714137 -0.020959493 0.27662537 -0.08845503
-0.017266808 0.052150268 -0.06683054 -0.04940536 -0.031884946 -0.03588814 -0.043346368 0.023478119
0.2456444 0.0028550175 0.07835733 -0.12922832 -0.00024185157 0.0014009215 0.0020199127 0.06642755
-0.055384614 0.24413575 0.17942762 0.105253376 -0.022165347 -0.04493917 -0.106018126 -0.0073127504
-0.025208877 0.04064154 0.019471174 -0.052906476 0.06860566 0.009501216 0.06891615 -0.07927731
-0.017888978 0.037370615 -0.015333822 -0.074496 -0.044706598 0.01529938 -0.032720808 -0.073422275
-0.15314472 0.081552446 -0.13366725 0.5503176 0.21000642 -0.031817496 0.05185214 -0.121148
0.10052979 -0.14768043 0.09137504 -0.054697223 0.004869974 0.20170349 0.04661527 -0.014432279
-0.009240201 -0.16854118 -0.072872646 -0.18857707 -0.08014681 0.0838647 -0.10473625 0.0017785206
-0.053828433 -0.032574628 -0.0060693 -0.066109724 0.0135013545 0.03809093 -0.08254174 0.04285908
-0.09571358 -0.1254674 -0.09908252 0.050380114 -0.011535949 -0.13488702 -0.06614645 -0.0031007992
-0.14284529 0.0008563481 -0.06847382 -0.038952224 -0.063648485 -0.14010897 -0.013565328 0.14461291
-0.07866079 0.106360555 -0.019148432 0.24051169 0.027259983 0.012755899 0.016256822 0.0076392596
0.08965791 -0.06528326 -0.060008384 -0.011581112 -0.15031794 -0.010441211 0.07873957 -0.011649601
0.09504091 0.045984793 0.030681137 0.040792607 -0.008807722 -0.008293816 0.07643186 -0.014514717
0.05707322 -0.044368982 -0.06854882 -0.018936226 -0.03332066 0.024329035 0.018810257 0.020780379
0.08844748 0.2146994 -0.08697385 0.12118948 0.081889704 0.12003415 -0.04624785 0.1335443
-0.12603712 0.030375654 0.02404369 -0.09293141 0.4021115 0.004939269 -0.014196949 0.16564964
-0.012791169 0.09563773 -0.0011777085 0.017027523 0.016753323 0.02184792 -0.05198974 0.078759946
-0.060558364 -0.086028025 0.047249228 0.013875216 -0.026426744 -0.21449262 0.0008212163 -0.052665833
-0.024159163 -0.03495481 0.07341158 0.046420176 0.018574055 0.03982917 -0.027768277 -0.03221945
-0.2517231 -0.018258937 0.10458052 0.0007207672 -0.12292379 -0.0774026 -0.03887142 -0.22839871
-0.00644535 -0.18631558 0.031192102 0.0018943701 -0.0024925312 0.0068860566 -0.14110981 0.0030498048
-0.057513304 -0.015287198 0.01860482 -0.14586557 -0.01848525 -0.009551783 -0.006506597 -0.01444994
0.0017881328 0.00868493 -0.13928068 0.03913778 -0.06649654 -0.021121716 -0.03707059 -0.062519185
-0.06481649 0.017038247 0.045633685 -0.22423345 0.051039036 0.22620228 -0.03285585 -0.03179739
-0.17948781 0.022408744 0.01057147 0.35077566 0.12285717 0.019301375 0.018164376 -0.094869934
-0.020231156 -0.054789543 0.02536055 0.037562236 0.029197294 -0.10735862 -0.0718863 -0.00021350382
-0.07313131 -0.019195762 -0.04865571 0.015623644 -0.115157194 -0.040740527 -0.06459258 -0.20631024
0.09591967 -0.07143119 -0.15379803 0.0042368644 -0.029157817 0.12876575 -0.2977407 -0.05890248
-0.032872982 -0.0156031465 -0.06463189 -0.07197145 0.0036675916 -0.04258873 0.1157486 0.0042150216
-0.15292867 -0.07341334 -0.028006157 -0.022761036 -0.11991699 0.025706477 -0.02935527 -0.015219506

layer_list.conv2.att_src f4 [1, 1, 7]
00000000: 758f 263e 63b2 163e a2bb 1abd 7060 603d
00000010: 42fd 053e 031a 673d c1b9 c03d
0.16265662 0.14716487 -0.037776597 0.05477947 0.13084891 0.05642129 0.0941043

layer_list.conv2.att_dst f4 [1, 1, 7]
00000000: f116 a23e 7de8 183f 539f 6abe 8e7a 9d3d
00000010: 2117 4d3d b50b b9be e51e d33e
0.31658128 0.5972975 -0.2291234 0.07689391 0.050070886 -0.36141744 0.41234508

layer_list.conv2.bias f4 [7]
00000000: c72f bcbd 94c9 07bf 4d1c a0be a832 1d3f
00000010: 6fa8 ef3d 022f b9be b25a fbbe
-0.091888 -0.5304196 -0.31271592 0.6140542 0.11702048 -0.36168677 -0.49092633

layer_list.conv2.lin_src.weight f4 [7, 64]
00000000: 7758 913f 82c6 31bf bdeb 1fbf 858f c23e
00000010: c07f 8cbf aa0e 863f 5694 9b3f 53fa 8dbf
00000020: 35fc 51bf b3fb 653f 1d38 afbf 195d 973f
00000030: 97dc 82bf 3a50 72bf 07dc 003f 3f85 4e3f
00000040: 78fa 603f c8ca 903f aacf 8abf 58a3 49bf
00000050: 9a9d 503f 365c 8f3f 87a4 87bf 67b7 8b3f
00000060: 30f3 bdbe 8e85 8abf 3aa6 abbf b861 20bf
00000070: d245 ae3e ff05 b13d f70a 40be cafa 973e
00000080: e3a2 77bf ea6c 813f 8c2c 863f 412b 6d3f
00000090: 93b1 03bf 40b7 893f fc58 8e3d b51e 91bf
000000a0: 9dc4 90be 0a3b 33bf 1684 a7bf 4d44 6ebf
000000b0: cf47 0f3f 682e 97bf 9b06 213f e94e 86bf
000000c0: 8979 50bf baa4 aebf d8f0 af3f 4e52 60bf
000000d0: 6c9b 7e3f f18b 8fbf a99c 8d3f 6ea6 573f
000000e0: 84d8 93bf 68ae 9ebf d000 863f 1ae9 d3be
000000f0: 4b18 9d3f e00b 73be a347 5c3f 6f19 87bf
00000100: 9ba3 d2be 9a6f a83f 51ec 1e3f 901c 7abf
00000110: 893f 5fbf ad42 973f 20ff 84bf fea4 8b3f
00000120: fe13 773f da39 2a3f 95bc cf3e 45c0 debc
00000130: 9156 293f a1eb 83bf 0636 773f 2b09 733f
00000140: 929f 85bf 815e c1bf 3783 bbbf 45c4 adbf
00000150: e430 7f3f d45d cfbd dd0b b5bf cd0b 87bf
00000160: a81f a3bf 62d0 063f c340 223f fece 293e
00000170: ef8d 9e3f bbfe 9f3f 371f 6f3f ed85 87bf
00000180: 3929 143f d1b0 663f 4c11 b7bf fca6 463f
00000190: e1bf 7ebf 3c1d b0bf b6f4 9d3f a6a7 9cbf
000001a0: c1e6 a03f 3aab 93bf a5c3 5abf d911 9dbf
000001b0: ab0f b8bf b887 58bd 61c7 44bf a8c5 9c3f
000001c0: c4b8 39bf c0cf 663f 981c 86bf 2f9f 55bf
000001d0: 89de 5ebf 2692 823f 8c57 7abf f7d1 9ebd
000001e0: a35f 683f cbea 59bf 3062 e5bd 13f9 f23e
000001f0: 7834 903f 2ee2 4ebf 25d0 7c3f dfb2 c8be
00000200: f1f0 863f be6b 91bf f2b7 87bf ef0e 843f
00000210: 6acc 833f 63b3 793f bd1a 93bf 9403 45bf
00000220: 90f6 173f 3cd8 89bf 8465 8f3f 638d 97bf
00000230: 1bd4 633f b7e8 68bf d234 6b3f d107 9dbf
00000240: 353f 83bf 4ab5 8bbf 9274 8c3f 8fc5 8a3f
00000250: bc01 073f 1086 86bf f6ba 62bf 64cb 2abf
00000260: e274 76bf fa0f 653f f094 8b3f 6ddd 8d3f
00000270: 8c81 4c3f 31fc 97bf 4fea 413f a8c3 8dbf
00000280: c1ed 833f 6fbb 613f aebf 68bf 4e20 9abf
00000290: 36ca 0cbf 4675 77bf 8d31 503f b825 3cbf
000002a0: 1343 363f 04de 6abf 5321 9d3f 72c8 20bf
000002b0: 640d 633f ce85 613f 142c 883f 875f 923f
000002c0: 93ee 9c3f 4947 86bf 304e 793f 9484 4abf
000002d0: c720 753e b5a1 533f c57a f13e 27fe 7b3f
000002e0: 5103 8d3f 9851 953f 8ff2 7dbf f889 523f
000002f0: fe8a 713f b424 a63f 733c 753f 6316 8e3f
00000300: 8430 a7bf 3157 10be 779f a63f 87ff 3bbf
00000310: e876 a23f e009 85bf c75a 45bf bdc1 933f
00000320: e653 45bf 1149 883f 931b 9cbf 8625 863f
00000330: 8f62 893f 019b 883f 21d0 4c3f 1c70 a1bf
00000340: cddf 2a3f 5c35 a4bf 88cb 1dbf eb9d 883f
00000350: 189d 72bf 9fef 843f 28b6 48bf bfa5 933f
00000360: 96a6 283f 7b7d 713f eddd 583f 9c29 99bf
00000370: 3ce5 afbe c0d2 b0bd 8829 85bf 881d 8c3f
00000380: 69e6 593f 224d 86bf e329 bd3e 5616 bebe
00000390: 4760 983f f0c9 83bf d81b 95bf 7170 7a3f
000003a0: f7d3 2dbf 116f 84bf d7d5 89bf 72e4 773f
000003b0: 420a 1f3f b55e a6bf 25b2 153f 3867 8abf
000003c0: 9557 703f edbb 5a3f 5ce4 64bf 4596 923f
000003d0: d4ff aa3e eecb 853f 2927 87bf af37 87bf
000003e0: e9e5 f5bd 5808 73bf 1083 16bf a07e 8cbf
000003f0: ffcb 82bf 5954 623f efe5 0a3f eff5 873f
1.1355122 -0.69443524 -0.62469083 0.38000122 -1.0976486 1.0473225 1.2154644 -1.1092018
-0.8202546 0.8983719 -1.3689 1.1825286 -1.0223569 -0.94653666 0.50335735 0.8067207
0.87882185 1.1311884 -1.0844624 -0.7876487 0.8149048 1.1200016 -1.0597085 1.0915345
-0.370996 -1.0822008 -1.3410103 -0.62649107 0.34037644 0.08643722 -0.18754183 0.29683524
-0.9673292 1.0111363 1.0482345 0.92644125 -0.5144283 1.0759048 0.06950566 -1.1337496
-0.28275004 -0.7001196 -1.3087184 -0.9307297 0.55968946 -1.1811037 0.62900704 -1.0492831
-0.8143545 -1.364402 1.3745375 -0.87625587 0.99455905 -1.1214582 1.1063434 0.84238327
-1.155045 -1.2396975 1.0468998 -0.4138878 1.2273039 -0.23734999 0.8604681 -1.0554637
-0.41140446 1.3159058 0.6207934 -0.9769983 -0.8720632 1.1817223 -1.0390358 1.0909727
0.9651488 0.66494524 0.40573564 -0.02719129 0.66147715 -1.0306283 0.9656681 0.94935864
-1.0439322 -1.5106965 -1.4649419 -1.3575522 0.99683976 -0.10125318 -1.4144245 -1.0550476
-1.2744036 0.52661717 0.6338007 0.16582868 1.2387065 1.2499613 0.93407005 -1.0587746
0.578754 0.9011355 -1.4302154 0.7759855 -0.99511534 -1.3758922 1.2340305 -1.2238662
1.257042 -1.1536629 -0.8545478 -1.2271072 -1.4379781 -0.052863806 -0.7686673 1.224782
-0.72547555 0.9016075 -1.0477476 -0.8344602 -0.8705831 1.0200851 -0.97789836 -0.07754891
0.9077093 -0.8512389 -0.112003684 0.47455654 1.1266012 -0.8081387 0.98755103 -0.39198968
1.054228 -1.1361005 -1.0603011 1.0317057 1.0296757 0.9753935 -1.1492535 -0.76958585
0.593606 -1.0769114 1.1202855 -1.1840023 0.8899552 -0.90980095 0.9187747 -1.226801
-1.0253664 -1.09147 1.0973074 1.084154 0.5273702 -1.0509663 -0.8856653 -0.667166
-0.962721 0.89477503 1.0904827 1.1083199 0.7988517 -1.1873838 0.7574815 -1.1075335
1.0306932 0.88176626 -0.9091748 -1.2041109 -0.5499605 -0.9666332 0.8132561 -0.73495054
0.711961 -0.9174502 1.2275795 -0.62805855 0.8869231 0.88094795 1.0638452 1.1435403
1.2260307 -1.0490505 0.9738493 -0.7910855 0.23938285 0.8266862 0.47163978 0.9843468
1.1016637 1.1665525 -0.9919824 0.82241774 0.9435271 1.2979951 0.95795363 1.1100582
-1.3061681 -0.14095761 1.3017415 -0.7343678 1.2692537 -1.0393639 -0.7709164 1.1543499
-0.77081144 1.0647298 -1.2195915 1.0480201 1.0733203 1.0672303 0.8000508 -1.2612338
0.6674774 -1.2828784 -0.6163869 1.0673193 -0.94770956 1.0385627 -0.7840295 1.1534957
0.6587919 0.94332093 0.8471363 -1.1965823 -0.3435458 -0.08633947 -1.0403299 1.0946512
0.85117203 -1.0492289 0.3694602 -0.37126416 1.1904382 -1.0296001 -1.1649122 0.9782782
-0.6790156 -1.0346395 -1.0768384 0.96832955 0.6212503 -1.2997652 0.5847495 -1.081275
0.9388364 0.85443 -0.8941095 1.1452109 0.33398306 1.0452859 -1.0558826 -1.0563868
-0.120067425 -0.94934607 -0.58793736 -1.0976143 -1.0218505 0.88409954 0.542571 1.0621928

layer_list.conv2.lin_dst.weight f4 [7, 64]
00000000: 7758 913f 82c6 31bf bdeb 1fbf 858f c23e
00000010: c07f 8cbf aa0e 863f 5694 9b3f 53fa 8dbf
00000020: 35fc 51bf b3fb 653f 1d38 afbf 195d 973f
00000030: 97dc 82bf 3a50 72bf 07dc 003f 3f85 4e3f
00000040: 78fa 603f c8ca 903f aacf 8abf 58a3 49bf
00000050: 9a9d 503f 365c 8f3f 87a4 87bf 67b7 8b3f
00000060: 30f3 bdbe 8e85 8abf 3aa6 abbf b861 20bf
00000070: d245 ae3e ff05 b13d f70a 40be cafa 973e
00000080: e3a2 77bf ea6c 813f 8c2c 863f 412b 6d3f
00000090: 93b1 03bf 40b7 893f fc58 8e3d b51e 91bf
000000a0: 9dc4 90be 0a3b 33bf 1684 a7bf 4d44 6ebf
000000b0: cf47 0f3f 682e 97bf 9b06 213f e94e 86bf
000000c0: 8979 50bf baa4 aebf d8f0 af3f 4e52 60bf
000000d0: 6c9b 7e3f f18b 8fbf a99c 8d3f 6ea6 573f
000000e0: 84d8 93bf 68ae 9ebf d000 863f 1ae9 d3be
000000f0: 4b18 9d3f e00b 73be a347 5c3f 6f19 87bf
00000100: 9ba3 d2be 9a6f a83f 51ec 1e3f 901c 7abf
00000110: 893f 5fbf ad42 973f 20ff 84bf fea4 8b3f
00000120: fe13 773f da39 2a3f 95bc cf3e 45c0 debc
00000130: 9156 293f a1eb 83bf 0636 773f 2b09 733f
00000140: 929f 85bf 815e c1bf 3783 bbbf 45c4 adbf
00000150: e430 7f3f d45d cfbd dd0b b5bf cd0b 87bf
00000160: a81f a3bf 62d0 063f c340 223f fece 293e
00000170: ef8d 9e3f bbfe 9f3f 371f 6f3f ed85 87bf
00000180: 3929 143f d1b0 663f 4c11 b7bf fca6 463f
00000190: e1bf 7ebf 3c1d b0bf b6f4 9d3f a6a7 9cbf
000001a0: c1e6 a03f 3aab 93bf a5c3 5abf d911 9dbf
000001b0: ab0f b8bf b887 58bd 61c7 44bf a8c5 9c3f
000001c0: c4b8 39bf c0cf 663f 981c 86bf 2f9f 55bf
000001d0: 89de 5ebf 2692 823f 8c57 7abf f7d1 9ebd
000001e0: a35f 683f cbea 59bf 3062 e5bd 13f9 f23e
000001f0: 7834 903f 2ee2 4ebf 25d0 7c3f dfb2 c8be
00000200: f1f0 863f be6b 91bf f2b7 87bf ef0e 843f
00000210: 6acc 833f 63b3 793f bd1a 93bf 9403 45bf
00000220: 90f6 173f 3cd8 89bf 8465 8f3f 638d 97bf
00000230: 1bd4 633f b7e8 68bf d234 6b3f d107 9dbf
00000240: 353f 83bf 4ab5 8bbf 9274 8c3f 8fc5 8a3f
00000250: bc01 073f 1086 86bf f6ba 62bf 64cb 2abf
00000260: e274 76bf fa0f 653f f094 8b3f 6ddd 8d3f
00000270: 8c81 4c3f 31fc 97bf 4fea 413f a8c3 8dbf
00000280: c1ed 833f 6fbb 613f aebf 68bf 4e20 9abf
00000290: 36ca 0cbf 4675 77bf 8d31 503f b825 3cbf
000002a0: 1343 363f 04de 6abf 5321 9d3f 72c8 20bf
000002b0: 640d 633f ce85 613f 142c 883f 875f 923f
000002c0: 93ee 9c3f 4947 86bf 304e 793f 9484 4abf
000002d0: c720 753e b5a1 533f c57a f13e 27fe 7b3f
000002e0: 5103 8d3f 9851 953f 8ff2 7dbf f889 523f
000002f0: fe8a 713f b424 a63f 733c 753f 6316 8e3f
00000300: 8430 a7bf 3157 10be 779f a63f 87ff 3bbf
00000310: e876 a23f e009 85bf c75a 45bf bdc1 933f
00000320: e653 45bf 1149 883f 931b 9cbf 8625 863f
00000330: 8f62 893f 019b 883f 21d0 4c3f 1c70 a1bf
00000340: cddf 2a3f 5c35 a4bf 88cb 1dbf eb9d 883f
00000350: 189d 72bf 9fef 843f 28b6 48bf bfa5 933f
00000360: 96a6 283f 7b7d 713f eddd 583f 9c29 99bf
00000370: 3ce5 afbe c0d2 b0bd 8829 85bf 881d 8c3f
00000380: 69e6 593f 224d 86bf e329 bd3e 5616 bebe
00000390: 4760 983f f0c9 83bf d81b 95bf 7170 7a3f
000003a0: f7d3 2dbf 116f 84bf d7d5 89bf 72e4 773f
000003b0: 420a 1f3f b55e a6bf 25b2 153f 3867 8abf
000003c0: 9557 703f edbb 5a3f 5ce4 64bf 4596 923f
000003d0: d4ff aa3e eecb 853f 2927 87bf af37 87bf
000003e0: e9e5 f5bd 5808 73bf 1083 16bf a07e 8cbf
000003f0: ffcb 82bf 5954 623f efe5 0a3f eff5 873f
1.1355122 -0.69443524 -0.62469083 0.38000122 -1.0976486 1.0473225 1.2154644 -1.1092018
-0.8202546 0.8983719 -1.3689 1.1825286 -1.0223569 -0.94653666 0.50335735 0.8067207
0.87882185 1.1311884 -1.0844624 -0.7876487 0.8149048 1.1200016 -1.0597085 1.0915345
-0.370996 -1.0822008 -1.3410103 -0.62649107 0.34037644 0.08643722 -0.18754183 0.29683524
-0.9673292 1.0111363 1.0482345 0.92644125 -0.5144283 1.0759048 0.06950566 -1.1337496
-0.28275004 -0.7001196 -1.3087184 -0.9307297 0.55968946 -1.1811037 0.62900704 -1.0492831
-0.8143545 -1.364402 1.3745375 -0.87625587 0.99455905 -1.1214582 1.1063434 0.84238327
-1.155045 -1.2396975 1.0468998 -0.4138878 1.2273039 -0.23734999 0.8604681 -1.0554637
-0.41140446 1.3159058 0.6207934 -0.9769983 -0.8720632 1.1817223 -1.0390358 1.0909727
0.9651488 0.66494524 0.40573564 -0.02719129 0.66147715 -1.0306283 0.9656681 0.94935864
-1.0439322 -1.5106965 -1.4649419 -1.3575522 0.99683976 -0.10125318 -1.4144245 -1.0550476
-1.2744036 0.52661717 0.6338007 0.16582868 1.2387065 1.2499613 0.93407005 -1.0587746
0.578754 0.9011355 -1.4302154 0.7759855 -0.99511534 -1.3758922 1.2340305 -1.2238662
1.257042 -1.1536629 -0.8545478 -1.2271072 -1.4379781 -0.052863806 -0.7686673 1.224782
-0.72547555 0.9016075 -1.0477476 -0.8344602 -0.8705831 1.0200851 -0.97789836 -0.07754891
0.9077093 -0.8512389 -0.112003684 0.47455654 1.1266012 -0.8081387 0.98755103 -0.39198968
1.054228 -1.1361005 -1.0603011 1.0317057 1.0296757 0.9753935 -1.1492535 -0.76958585
0.593606 -1.0769114 1.1202855 -1.1840023 0.8899552 -0.90980095 0.9187747 -1.226801
-1.0253664 -1.09147 1.0973074 1.084154 0.5273702 -1.0509663 -0.8856653 -0.667166
-0.962721 0.89477503 1.0904827 1.1083199 0.7988517 -1.1873838 0.7574815 -1.1075335
1.0306932 0.88176626 -0.9091748 -1.2041109 -0.5499605 -0.9666332 0.8132561 -0.73495054
0.711961 -0.9174502 1.2275795 -0.62805855 0.8869231 0.88094795 1.0638452 1.1435403
1.2260307 -1.0490505 0.9738493 -0.7910855 0.23938285 0.8266862 0.47163978 0.9843468
1.1016637 1.1665525 -0.9919824 0.82241774 0.9435271 1.2979951 0.95795363 1.1100582
-1.3061681 -0.14095761 1.3017415 -0.7343678 1.2692537 -1.0393639 -0.7709164 1.1543499
-0.77081144 1.0647298 -1.2195915 1.0480201 1.0733203 1.0672303 0.8000508 -1.2612338
0.6674774 -1.2828784 -0.6163869 1.0673193 -0.94770956 1.0385627 -0.7840295 1.1534957
0.6587919 0.94332093 0.8471363 -1.1965823 -0.3435458 -0.08633947 -1.0403299 1.0946512
0.85117203 -1.0492289 0.3694602 -0.37126416 1.1904382 -1.0296001 -1.1649122 0.9782782
-0.6790156 -1.0346395 -1.0768384 0.96832955 0.6212503 -1.2997652 0.5847495 -1.081275
0.9388364 0.85443 -0.8941095 1.1452109 0.33398306 1.0452859 -1.0558826 -1.0563868
-0.120067425 -0.94934607 -0.58793736 -1.0976143 -1.0218505 0.88409954 0.542571 1.0621928
